07_RNN/logs/rnn/version_11/checkpoints/last.ckpt (torch, 41560 bytes, 27 tensors)

rnn.weight_ih_l0 f4 [32, 1]
0	0x3e1a5156	0.1507009
1	0x3e135ebe	0.1439161
2	0xbe79ec8c	-0.24406642
3	0xbdfa6e8b	-0.12228116
4	0xbd2c0e24	-0.042005673
5	0x3dd4c608	0.10389334
6	0xbd2e7331	-0.042590324
7	0xbdd0b802	-0.10191347
8	0xbbed2093	-0.007236549
9	0xbcd2a241	-0.025712134
10	0x3a7bb228	0.00096014375
11	0x3c60f28a	0.013729701
12	0x3e98270c	0.2971729
13	0xbc8c36d3	-0.017115986
14	0x3d8b43bb	0.06800028
15	0x3d21d7c8	0.039512426
16	0x3d2b6cd8	0.04185185
17	0x3d8025e7	0.06257229
18	0x3d89ceb7	0.06728881
19	0xbe365367	-0.17805253
20	0x3e6c37a7	0.23068105
21	0x3d68cdd0	0.056836903
22	0x3e0ae736	0.13564762
23	0xbe0a8339	-0.1352662
24	0xbea8c2c4	-0.32961094
25	0x3d2f5237	0.042803016
26	0x3e106bdb	0.14103644
27	0xbe9536b1	-0.2914329
28	0xbcf0776e	-0.029353824
29	0x3ddfeb4e	0.10933553
30	0xbd960841	-0.07325793
31	0x3d8f29b6	0.069903776

rnn.weight_hh_l0 f4 [32, 32]
0	0xbee68183	-0.45020685
1	0x3dc18cca	0.094506815
2	0xbe1dcba8	-0.1540972
3	0x3bf9b51a	0.007620466
4	0xbe2c2419	-0.16810645
5	0x3c9f78fd	0.019466871
6	0xbdc142d2	-0.09436573
7	0xbdbd586f	-0.09245383
8	0x3c0a1b45	0.008429353
9	0x3de9f3e0	0.114234686
10	0x3bc0ae50	0.0058801547
11	0x3e39e860	0.1815505
12	0xbdf8ed41	-0.121546276
13	0x3e28e116	0.16492113
14	0x3d6040fb	0.05474947
15	0x3dffe59c	0.124949664
16	0x3e2ed467	0.17073213
17	0x3e56dcfd	0.20982738
18	0xbb8de5b7	-0.0043303627
19	0xbdd262f9	-0.10272784
20	0xbd68c3ce	-0.05682736
21	0x3d923a6f	0.071400516
22	0xbd85746d	-0.06516347
23	0xbd233a89	-0.039850745
24	0x3e3c05fc	0.18361658
25	0xbe0dafc5	-0.13836582
26	0x3e29cde2	0.16582444
27	0x3e258252	0.16162995
28	0xbeb11133	-0.34583434
29	0x3c0e0e3d	0.008670387
30	0xbd02c980	-0.031930447
31	0x3e632bad	0.2218463
32	0x3e2daea4	0.16961151
33	0x3d75458c	0.05988078
34	0x3ce13eab	0.027495703
35	0x3d6e01e4	0.05810727
36	0x3df5ed04	0.12008098
37	0x3d9283e8	0.07154065
38	0x3da103a3	0.07862022
39	0xbe1a2814	-0.15054351
40	0x3e01c185	0.12671478
41	0xbd58bbc8	-0.052913457
42	0xbe2859a8	-0.16440451
43	0xbe430aa5	-0.1904703
44	0x3e693758	0.22775018
45	0xbe1e4208	-0.15454876
46	0xbe115386	-0.14192018
47	0xbd84273a	-0.064527944
48	0xbe179686	-0.14803514
49	0xbe16868b	-0.14699762
50	0xbc665144	-0.014057461
51	0xbde0aaa9	-0.10970051
52	0x3cd2d19b	0.025734713
53	0x3dfff704	0.12498286
54	0xbb9e409e	-0.0048294803
55	0xbd89bff1	-0.06726063
56	0xbe42f03d	-0.19036956
57	0x3dd2874d	0.10279713
58	0xbe269d28	-0.16270888
59	0x3df28d53	0.11843362
60	0x3d97b833	0.0740818
61	0x3e174b14	0.14774734
62	0xbdab4cd7	-0.083642654
63	0x3d2ba64a	0.041906632
64	0x3d6d4af7	0.05793282
65	0x3c5db757	0.013532481
66	0x3d0fe9da	0.035135128
67	0x3c38836e	0.011261804
68	0xbe6e4f91	-0.2327254
69	0x3d911f17	0.07086008
70	0x3d8caad0	0.068685174
71	0x3dff97b9	0.12480111
72	0xbd4f7804	-0.050651565
73	0x3d667c8b	0.056271117
74	0x3de00c44	0.109398395
75	0xbdb0e4b5	-0.086373724
76	0x3cf1367b	0.029444924
77	0x3d873157	0.06601208
78	0x3e06e686	0.13173875
79	0xbe5f3738	-0.21798408
80	0x3dac518d	0.08413992
81	0x3d658c07	0.056041744
82	0x3ce88941	0.02838576
83	0x3d9fe243	0.07806828
84	0xbdc57c1c	-0.096428126
85	0x3c7fa948	0.015604325
86	0xbdec841f	-0.115486376
87	0x3c587f55	0.013213952
88	0x3e722d7e	0.23650166
89	0xbddbf3a8	-0.10739833
90	0xbcdd0be0	-0.026983202
91	0xbd93bc93	-0.07213702
92	0xbe44dd49	-0.19225039
93	0x3e47d92e	0.19516441
94	0x3e3e7297	0.185984
95	0xbe4da0ed	-0.2008092
96	0x3e3e3745	0.18575771
97	0xbc1355fe	-0.00899267
98	0x3deca12b	0.11554178
99	0x3d4d1897	0.05007228
100	0x3d6a510a	0.05720619
101	0xbca8bf5e	-0.020599063
102	0xbd885f6e	-0.06658827
103	0xbd9f08b1	-0.0776533
104	0xbd249b9c	-0.040187463
105	0xbe397caf	-0.1811397
106	0xbec68c85	-0.38779083
107	0x3d880534	0.066416174
108	0xbe25c907	-0.16189967
109	0x3e5c0c4b	0.21489064
110	0x3c19300e	0.009349836
111	0xbc903d57	-0.017607374
112	0xbd0cb041	-0.034347776
113	0x3e4dd9fd	0.20102687
114	0x3d9dc63c	0.07703826
115	0xbcbb8f56	-0.022895496
116	0x3e5f14c2	0.21785262
117	0xbd581760	-0.052756667
118	0x3e51ab9a	0.20475617
119	0x3d288f77	0.041152444
120	0xbddd785b	-0.108139716
121	0x3d3e6e11	0.046491686
122	0xbe251299	-0.16120376
123	0x3dc53cdb	0.09630748
124	0x3e1da343	0.1539431
125	0x3e40dbcf	0.1883385
126	0xbd87bc77	-0.06627744
127	0x3e3faea6	0.18718967
128	0x3dc2e78a	0.09516819
129	0x3d8634a4	0.06553009
130	0x3e519c43	0.20469765
131	0xbe080975	-0.13284858
132	0xbf4227f8	-0.7584224
133	0x3da6a6ff	0.08137321
134	0x3d35e55e	0.044408195
135	0xbd3b40fd	-0.045716275
136	0x3e24c19e	0.16089484
137	0xbe06bb39	-0.13157357
138	0x3d0628cc	0.03275375
139	0xbe757452	-0.23970154
140	0x3dc525bb	0.09626337
141	0xbe4c770d	-0.1996729
142	0xbe2a7b71	-0.16648652
143	0xbe1f1199	-0.15534057
144	0xbb3289bf	-0.0027242748
145	0x3bcd91ce	0.006273485
146	0x3dcf68a3	0.1012738
147	0xbce8e7a4	-0.028430767
148	0xbe3c1f11	-0.18371226
149	0xbdc54861	-0.09632946
150	0x3e3d85b6	0.18508038
151	0xbdb072ee	-0.08615671
152	0xbdeb8565	-0.11500052
153	0x3e073653	0.13204317
154	0xbd8f979d	-0.0701134
155	0xbea94171	-0.3305774
156	0x3dbd0b26	0.09230642
157	0xbe32c50d	-0.17457981
158	0x3e84614b	0.2585548
159	0xbddd3b70	-0.108023524
160	0xbd3c44cd	-0.04596405
161	0x3e0757c0	0.13217068
162	0xbc11834d	-0.008881402
163	0xbd95771f	-0.07298111
164	0xba5d6bf3	-0.00084465666
165	0x3e2b39a6	0.1672121
166	0xbc91d4ba	-0.017801631
167	0x3d4c7f6d	0.04992621
168	0xbda97c11	-0.08275617
169	0x3bd45952	0.0064803744
170	0xbb6c62bc	-0.0036069592
171	0xbdcd47be	-0.10023449
172	0x3e050ef3	0.12993984
173	0x3d862c01	0.06551362
174	0x3de28246	0.11060004
175	0x3e041324	0.12897927
176	0xbd8602a7	-0.06543475
177	0xbcdf2116	-0.027237456
178	0x3dc14d18	0.094385326
179	0x3bb96372	0.0056576068
180	0x3d895bb3	0.06706943
181	0xbdcdcfc5	-0.100493945
182	0x3e00e312	0.1258662
183	0xbe279c77	-0.1636828
184	0xbdc9465f	-0.09827875
185	0x3daaa2e9	0.08331854
186	0x3dfdced0	0.12392962
187	0xbdcaef9f	-0.09908985
188	0xbcd63e5f	-0.026152788
189	0xbccfe42b	-0.025377354
190	0xbdeb9059	-0.115021415
191	0xbd70c825	-0.058784623
192	0xbdae1608	-0.08500296
193	0xbdaf3660	-0.08555293
194	0x3e48a2b8	0.19593322
195	0x3d8142d4	0.063115746
196	0xbe5cc324	-0.21558815
197	0xbcbd4295	-0.023103038
198	0x3df89f1b	0.12139722
199	0xbdc0417a	-0.09387489
200	0x3ae8aa81	0.001775101
201	0xbc82690e	-0.015919235
202	0x3ce0c3bf	0.027437089
203	0xbe539915	-0.20663865
204	0x3de7977c	0.1130819
205	0xbb0d46f5	-0.0021557186
206	0xbdf1b52a	-0.118021324
207	0xbdfb1140	-0.122591496
208	0x3e0ee5f1	0.13954903
209	0x3d7d6e3a	0.0618727
210	0xbe2edbcd	-0.17076035
211	0x3e44d765	0.19222791
212	0xbd378386	-0.044803165
213	0xbb4db0e6	-0.0031385957
214	0xbe35ca72	-0.17753008
215	0x3d77c669	0.060491953
216	0xbda43b8b	-0.080191694
217	0xbe4f4d90	-0.20244431
218	0xbdadc211	-0.08484281
219	0x3d1b475c	0.03790985
220	0x3ce90682	0.028445486
221	0xbbd53134	-0.0065061096
222	0xbde9dc7d	-0.11419008
223	0x3ddd2448	0.10797936
224	0x3db59b3a	0.08867498
225	0x3e79d839	0.24398889
226	0xbe5691a3	-0.20953993
227	0x3e620690	0.22072816
228	0x3daf0f20	0.08547807
229	0xbdc22522	-0.09479739
230	0xbdd68f44	-0.104765445
231	0xbc3f25fb	-0.01166677
232	0xbe39e969	-0.18155445
233	0x3dbe46f9	0.09290881
234	0x3def26f3	0.11677351
235	0x3e377399	0.17915191
236	0xbdb5ed03	-0.08883097
237	0x3e05345b	0.13008253
238	0xbdbacaa2	-0.091206804
239	0x3d0add9e	0.033902757
240	0x3e7d0384	0.24708372
241	0xbbf66c24	-0.0075202156
242	0xbcbe5244	-0.023232587
243	0xbda9cda6	-0.082911775
244	0x3e295a2f	0.16538309
245	0x3e7be437	0.24598776
246	0xbc0f0f41	-0.008731664
247	0xbe5fcc8c	-0.21855372
248	0x3db0aed2	0.08627094
249	0xbdb2e8ee	-0.08735834
250	0xbd2a90d1	-0.041642014
251	0xbdc40423	-0.095711015
252	0x3bea2ebd	0.007146685
253	0xbe971657	-0.2950923
254	0x3cecf253	0.028924143
255	0xbddebfd8	-0.10876435

rnn.bias_ih_l0 f4 [32]
0	0xbd6a3e52	-0.05718834
1	0x3d3cea99	0.046122167
2	0xbd1170ea	-0.035508074
3	0x3da2e1cd	0.07953224
4	0xbd5458b9	-0.051842425
5	0xbd0e9567	-0.03481045
6	0x3cc0297e	0.023457285
7	0xbd001e81	-0.03127909
8	0x3ac5e0fa	0.0015096955
9	0xbd4f5ceb	-0.050625723
10	0x3d2a0e1a	0.041517355
11	0xbcc27411	-0.023736985
12	0x3ad907ae	0.0016558075
13	0xbd6aa28c	-0.057283923
14	0xbce3b92c	-0.027798258
15	0xbd15762a	-0.036489643
16	0xbd037e36	-0.032102786
17	0xbda6ad12	-0.08138479
18	0x3e0de390	0.1385634
19	0xbdf05aaa	-0.11736043
20	0x3b17f57b	0.002318709
21	0xbaa9a82c	-0.0012943796
22	0x3b9b4370	0.004738264
23	0xbe185430	-0.14875865
24	0x3e18b867	0.14914094
25	0xbc99cf0c	-0.018775485
26	0xbc89b940	-0.016811967
27	0x3d1d0c6e	0.038341932
28	0xbdc98832	-0.0984043
29	0xbd02bd08	-0.031918555
30	0xbc416eab	-0.01180617
31	0xbc6df29d	-0.014523176

rnn.bias_hh_l0 f4 [32]
0	0x3d3dc1ec	0.046327516
1	0xbd40442b	-0.04694001
2	0x3d628ad8	0.055308193
3	0xbdf611ca	-0.12015112
4	0x3d1be1ff	0.038057324
5	0x3d46e752	0.048560448
6	0xbc57bff6	-0.013168326
7	0xbc75f4b2	-0.015011953
8	0xbcc41b01	-0.023938658
9	0x3dac992b	0.08427652
10	0x3d343e65	0.044004817
11	0xbca17187	-0.019707454
12	0x3be8e99e	0.0071079275
13	0x3d535b10	0.051600516
14	0x3d8bf472	0.068337336
15	0xbd1318a9	-0.03591219
16	0x3d3ae660	0.04562986
17	0x3db0f5c4	0.08640626
18	0xbdeb8c6b	-0.11501392
19	0x3e0e16f0	0.13875937
20	0xbcf0ed05	-0.029409895
21	0xbd246c94	-0.04014261
22	0xb9d47ea0	-0.00040530134
23	0x3e1c6e26	0.15276393
24	0xbd963425	-0.073341645
25	0x3d6730fc	0.0564432
26	0x3d05291c	0.032509908
27	0xbce3be70	-0.027800769
28	0x3d783632	0.06059856
29	0x3cdcb1d0	0.026940256
30	0x3c93517d	0.017983193
31	0x3cf0d4f7	0.029398425

rnn.weight_ih_l0_reverse f4 [32, 1]
0	0x3b75dada	0.003751448
1	0x3b0147d3	0.0019726648
2	0xbe8f6363	-0.28005514
3	0xb866e7e0	-5.5052224e-05
4	0x3e9988ce	0.29987186
5	0x39a4fd4f	0.00031469247
6	0x3e88ad8a	0.266949
7	0x3ea01e61	0.31273177
8	0xbc07c1eb	-0.00828598
9	0x3c00c9c1	0.007860602
10	0xbe9ff065	-0.31238094
11	0x3e7fa9e5	0.24967153
12	0xbe9b108a	-0.30286056
13	0x3ea118c8	0.3146422
14	0xbd1f97e4	-0.038963214
15	0xba96fa5b	-0.0011518704
16	0x38aaedc0	8.150516e-05
17	0xbc165b1b	-0.009176995
18	0x3de32ca9	0.110925026
19	0xbe4c00f0	-0.19922233
20	0xbeaa1bcf	-0.3322434
21	0x3e8f98f4	0.2804638
22	0x396f4c95	0.00022821345
23	0xbe9bf958	-0.30463672
24	0x3e906439	0.28201464
25	0x3e72968c	0.23690242
26	0xbe5b58b1	-0.21420552
27	0xbb18154c	-0.0023206053
28	0x3eae3630	0.34025717
29	0xbc11a82d	-0.008890194
30	0xbd6f413d	-0.058411825
31	0xbac805ca	-0.0015260514

rnn.weight_hh_l0_reverse f4 [32, 32]
0	0xbdc41029	-0.09573395
1	0xbe0fdaf6	-0.1404837
2	0x3d791d34	0.060818866
3	0x3d9dc412	0.07703413
4	0xba414e00	-0.00073739886
5	0xbde77a22	-0.11302592
6	0x3cea68c0	0.028614402
7	0xbe30ed51	-0.17278029
8	0xbcd98dd0	-0.02655688
9	0x3d326b0c	0.04355912
10	0xbcdef198	-0.02721481
11	0xbdb108c5	-0.08644251
12	0xbe0b066b	-0.13576667
13	0x3db78ef2	0.089628115
14	0x3dbce34a	0.092230394
15	0x3e0a8a3f	0.13529299
16	0xbae6b680	-0.0017601997
17	0x3e314887	0.17312823
18	0xbe150603	-0.14553075
19	0xbe30954b	-0.17244451
20	0xbd59bd78	-0.053159207
21	0x3d68e080	0.056854725
22	0xbd953b39	-0.072866865
23	0x3ba67360	0.0050796717
24	0x3e2ccb37	0.16874395
25	0xbddd64a1	-0.10810209
26	0x3cb11140	0.02161467
27	0xbd332b90	-0.043742716
28	0x3dac4efe	0.08413504
29	0x3d14c7b0	0.03632325
30	0xbe253869	-0.161348
31	0x3e18b449	0.14912523
32	0xbe101f76	-0.14074501
33	0x3ddb388e	0.10704146
34	0x3dcebc4e	0.1009451
35	0xbd5e8080	-0.054321766
36	0x3e127373	0.14301853
37	0xbe09f66c	-0.13472909
38	0x3d41325c	0.047167167
39	0x3e1dd79b	0.15414278
40	0xbcf3c158	-0.02975528
41	0xbd8d3f1f	-0.06896805
42	0x3e14f4fd	0.1454658
43	0xbdc6d26e	-0.09708105
44	0x3d305838	0.043052882
45	0x3d52dfb0	0.051482856
46	0xbe23835d	-0.1596808
47	0x3e04fb17	0.12986408
48	0xbe28e060	-0.16491842
49	0xbd01fe24	-0.031736508
50	0x3e00fa6d	0.1259553
51	0xbe088293	-0.1333106
52	0xbe143061	-0.1447158
53	0x3dd22012	0.10260023
54	0x3c94e388	0.018174902
55	0x3c9a06f0	0.018802136
56	0xbdf32326	-0.118719384
57	0xbd801c8d	-0.06255446
58	0x3e00d26d	0.12580271
59	0x3e19b37f	0.15009879
60	0x3d81b502	0.063333526
61	0xbd2fe7f0	-0.042945802
62	0x3d1e882c	0.038704082
63	0xbcecddf0	-0.028914422
64	0x3d23a720	0.039954305
65	0x3daf571e	0.08561538
66	0xbd3971a4	-0.04527439
67	0xbe085c30	-0.13316417
68	0xbd731d26	-0.05935397
69	0xbcbaa880	-0.022785425
70	0x3dab258e	0.08356772
71	0x3e3361ed	0.17517824
72	0xbd2164d8	-0.039402813
73	0xbe0a2030	-0.13488841
74	0xbda0d416	-0.07852952
75	0x3c2b82a0	0.010468155
76	0x3d1c1180	0.038102627
77	0x3d3cb6f4	0.046072915
78	0xbe0f8e14	-0.14019042
79	0xbd8d56b5	-0.06901304
80	0xbe06d32b	-0.13166492
81	0x3e12b429	0.14326538
82	0x3d9c9822	0.076462045
83	0x3e25f229	0.16205658
84	0x3c174690	0.009233132
85	0xbe323d2f	-0.17406152
86	0x3dfc45d6	0.12318008
87	0xbd3bfeb8	-0.045897216
88	0xbc888b20	-0.016667902
89	0x3c203b10	0.009779707
90	0x3df63822	0.12022425
91	0x3bd64e00	0.00654006
92	0xbdcdca7e	-0.10048388
93	0x3d995042	0.07486011
94	0xbd9023fe	-0.07038115
95	0xbdacfd78	-0.08446783
96	0xbcb24fb0	-0.021766514
97	0x3e1311b3	0.1436222
98	0x3dfbfe2e	0.1230434
99	0x3dd4ec5e	0.10396646
100	0xbd7cbab4	-0.06170149
101	0xbd1f564c	-0.03890066
102	0x3e1e4733	0.15456848
103	0xbdfbd6c8	-0.12296826
104	0xbdfa1b1e	-0.122122034
105	0xbd1df074	-0.038559392
106	0x3e1be383	0.15223508
107	0xbd44a9b8	-0.04801342
108	0x3da50806	0.08058171
109	0xbd2739c0	-0.04082656
110	0x3df5268a	0.11970241
111	0x3c8640a8	0.016388252
112	0xbda2c726	-0.07948141
113	0xbd800c5b	-0.062523566
114	0xbd9711c2	-0.07376434
115	0xbdc141f9	-0.094364114
116	0x3d8cee78	0.06881422
117	0x3dbd655a	0.09247847
118	0xbcbb5c48	-0.022871152
119	0x3e286c99	0.16447677
120	0xbdca1b94	-0.09868541
121	0x3d92c706	0.07166867
122	0x3da13566	0.07871513
123	0xbcfe9860	-0.031078517
124	0xbdb368f9	-0.08760256
125	0x3d9b4d8e	0.07583152
126	0x3e16186b	0.14657752
127	0xbcd6abb0	-0.026204914
128	0xbe340559	-0.17580165
129	0xbd0ab228	-0.03386131
130	0xbe24224e	-0.16028711
131	0xbda123a0	-0.07868123
132	0xbddc4580	-0.107554436
133	0xbba2af60	-0.004964754
134	0xbdcb0e67	-0.099148564
135	0xbe052e15	-0.1300586
136	0x3d1c8c28	0.0382196
137	0x3e22b6f7	0.15890108
138	0xbc64c760	-0.01396355
139	0xbd85d238	-0.06534237
140	0x3e224165	0.15845259
141	0xbc0dde70	-0.00865899
142	0x3c13b870	0.009016141
143	0xbe16a22c	-0.14710301
144	0x3e19e7c1	0.15029813
145	0xbe1019a1	-0.14072277
146	0xbd0e9b58	-0.034816116
147	0x3d992e7a	0.07479568
148	0xbe230be9	-0.15922512
149	0x3cb0f090	0.021599084
150	0x3d89e60a	0.067333296
151	0xbdbbc319	-0.09168071
152	0xbda5487f	-0.08070468
153	0xbe1976e8	-0.14986765
154	0x3de38f8a	0.11111362
155	0xbe0961c3	-0.134162
156	0x3cf94210	0.030427009
157	0x3de7b942	0.11314632
158	0xbd09ac4c	-0.03361158
159	0xbad98700	-0.0016596019
160	0xbe11537a	-0.14192
161	0x3dea57aa	0.11442502
162	0xbdc636de	-0.09678434
163	0xbd905914	-0.0704824
164	0xbe2044f7	-0.15651308
165	0x3e13009b	0.143557
166	0x3e0a8627	0.13527738
167	0x3d23f248	0.04002598
168	0x3d457d80	0.04821539
169	0xbdef50a3	-0.11685302
170	0xbe1b88a8	-0.15188849
171	0x3d8ebfbc	0.06970164
172	0xbbce3100	-0.0062924623
173	0xbc6dfe40	-0.01452595
174	0xbe0e4664	-0.1389404
175	0x3c3558c0	0.011068523
176	0x3db51c72	0.08843316
177	0x3e0fdb97	0.1404861
178	0x3ce448c8	0.027866736
179	0x3e1a90ef	0.1509435
180	0x3d23418c	0.039857432
181	0x3aa1a800	0.0012333393
182	0x3cf4a558	0.029863998
183	0x3ce47d68	0.02789183
184	0xbd61850e	-0.05505853
185	0x3df4587e	0.11930941
186	0xbb89ac60	-0.004201457
187	0xbe292b04	-0.16520315
188	0xbca335c8	-0.019923106
189	0x3d0f920c	0.03505139
190	0x3df2b98a	0.11851795
191	0xbbe43fc0	-0.0069656074
192	0x3dad2a5a	0.084553435
193	0xbde7948a	-0.113076285
194	0xbe1871f1	-0.14887215
195	0x3bf4ce00	0.007470846
196	0xbdd86382	-0.105658546
197	0x3e1937e1	0.14962722
198	0x3d89c64a	0.06727274
199	0xbce47600	-0.027888298
200	0x3d451aec	0.048121378
201	0x3e06fcd3	0.13182382
202	0x3c6bafc0	0.014385164
203	0xbdbf6a61	-0.09346462
204	0xbd9a7d36	-0.07543413
205	0x3dbf3536	0.09336321
206	0x3dfe5c5e	0.124199614
207	0x3dbff3f6	0.09372704
208	0xbdc66ef8	-0.09689134
209	0xbe1252b2	-0.14289358
210	0xbc71e140	-0.014763176
211	0xbe34958d	-0.17635174
212	0x3e34ccdf	0.17656277
213	0xbe1232b8	-0.1427716
214	0x3dc0d956	0.094164535
215	0xbe25f2c4	-0.16205889
216	0xbe09d734	-0.13461
217	0x3e3175d7	0.17330109
218	0xbdcbcbcc	-0.099509805
219	0x3c7dae40	0.015483439
220	0x3e0915f9	0.13387288
221	0x3e19a219	0.15003242
222	0x3c6803f0	0.014161095
223	0xbe232d55	-0.15935262
224	0x3e1d4883	0.15359692
225	0xbe2a13bf	-0.16609095
226	0xbd08be60	-0.03338468
227	0x3d9d2aea	0.07674201
228	0x3e003211	0.12519099
229	0xbe168e78	-0.14702785
230	0x3d89a9e2	0.06721856
231	0x3d10fee4	0.035399333
232	0x3d47f3c0	0.048816442
233	0x3cc88f80	0.024482489
234	0xbdabab29	-0.083822556
235	0x3d97a826	0.07405119
236	0xbda62d4a	-0.08114107
237	0x3e2b6fed	0.16741915
238	0x3e278317	0.163586
239	0x3bd5f760	0.0065297335
240	0x3e141011	0.14459254
241	0xbba43ce0	-0.0050121397
242	0x3d4df164	0.050279036
243	0x3e2fb2db	0.17158072
244	0x3e17f539	0.14839639
245	0x3e02bd35	0.12767489
246	0x3e2310f1	0.15924431
247	0xbc934eb8	-0.017981872
248	0x3c66dbe0	0.014090508
249	0x3db59912	0.088670865
250	0xbe1dfbaf	-0.15428041
251	0xbb1ad440	-0.0023625046
252	0x3e2e531d	0.17023893
253	0xbe0708e0	-0.1318698
254	0x3e0a881f	0.13528489
255	0x3db97806	0.09056096

rnn.bias_ih_l0_reverse f4 [32]
0	0xbce6defe	-0.028182503
1	0xbd55ef45	-0.05223014
2	0xbda32998	-0.07966918
3	0xbd6951ea	-0.056962885
4	0xbdbaec8d	-0.0912715
5	0x3d059450	0.032612145
6	0x3d7d197d	0.061791886
7	0x3da8c776	0.08241169
8	0xbceb2996	-0.028706353
9	0xbdb1eb55	-0.08687464
10	0x3cf60732	0.030032728
11	0xbd334e72	-0.043775983
12	0x3d499051	0.049209896
13	0x3dce1dd0	0.1006428
14	0xbca797d2	-0.020458136
15	0xbe0839c8	-0.13303292
16	0xbd19cd8d	-0.037549544
17	0x3e1d4169	0.15356983
18	0xbd8f8812	-0.07008375
19	0x3e073cc6	0.13206777
20	0x3d27b5e0	0.040944934
21	0xbd68120f	-0.056657847
22	0xbd0a662f	-0.033788856
23	0x3df87a20	0.121326685
24	0x3dc2dd4d	0.09514866
25	0x3d418b01	0.047251705
26	0xbcdd5725	-0.027019093
27	0xbc9106a9	-0.017703371
28	0x3d7fb7b5	0.062431056
29	0xbcfb553e	-0.030680295
30	0xbca0e7a8	-0.019641712
31	0xbd295948	-0.04134491

rnn.bias_hh_l0_reverse f4 [32]
0	0x3cee36ec	0.029078923
1	0x3d5989e5	0.053110022
2	0x3d005ae8	0.031336695
3	0x3d69b824	0.057060376
4	0x3dfbe1e7	0.12298947
5	0xbd066f52	-0.032821007
6	0xbaef39ad	-0.0018251442
7	0xbd731d82	-0.059354313
8	0x3cb59f94	0.02217082
9	0x3dad7a2d	0.08470569
10	0xbd7816ec	-0.060568735
11	0x3d94847b	0.07251831
12	0xbd556527	-0.05209842
13	0xbda60bc0	-0.0810771
14	0x3cacbb22	0.021085326
15	0x3e05055f	0.1299033
16	0x3d184003	0.03717042
17	0xbe21180d	-0.15731831
18	0x3d904d12	0.0704595
19	0xbe153bde	-0.14573619
20	0x3c0d76dc	0.008634295
21	0x3d91b326	0.07114248
22	0x3d0e335d	0.034716953
23	0xbe0f6b24	-0.14005715
24	0xbd1eb2c6	-0.03874471
25	0xbcbaf3ab	-0.022821268
26	0x3c01ddea	0.007926444
27	0x3c21bc53	0.00987156
28	0xbdb3bd76	-0.08776371
29	0x3d2ff68c	0.042959735
30	0x3cb4ba96	0.022061627
31	0x3d2bf3f3	0.041980695

dense.weight f4 [1, 64]
0	0xba6fcd00	-0.0009147674
1	0xbb6bf9b8	-0.0036006998
2	0x3d502265	0.05081405
3	0x3d377113	0.04478557
4	0x3cd421cc	0.025895022
5	0x3df8e7e9	0.12153608
6	0xbe02f6e5	-0.12789495
7	0x3d326fdc	0.04356371
8	0xbb78aa78	-0.0037943404
9	0x3d49acf8	0.04923722
10	0xbdae39b3	-0.08507099
11	0x3bf0671e	0.0073365113
12	0x3c12475b	0.008928145
13	0x3cbfb921	0.023403706
14	0x3d86c2bb	0.06580111
15	0xbb171728	-0.0023054574
16	0xbc8a129d	-0.016854579
17	0x3c7d4f43	0.015460792
18	0x3e07b14b	0.13251226
19	0xbbc8319f	-0.006109431
20	0x3d5900fd	0.052979458
21	0x3a489581	0.00076516723
22	0xbc9e7ba6	-0.01934607
23	0xbe1c6ee1	-0.15276672
24	0xbc8f43af	-0.017488329
25	0x3db9bcde	0.09069227
26	0xbcb8dc50	-0.02256599
27	0x3d8f8ee8	0.07009679
28	0x3cec370b	0.02883484
29	0x3d531010	0.05152899
30	0x3c17e61d	0.009271172
31	0xbce72cfe	-0.028219696
32	0x39b224d3	0.00033978242
33	0x3902a22d	0.00012458181
34	0xbdd22868	-0.10261613
35	0xb819f670	-3.6707555e-05
36	0x3e5be4cd	0.21474
37	0x3945c48e	0.00018860606
38	0x3da441c8	0.08020359
39	0x3e51b50a	0.20479217
40	0x39a013c7	0.00030532313
41	0x3c3b861d	0.011445549
42	0xbe123470	-0.14277816
43	0x3dabbdf2	0.083858386
44	0xbe5bdf56	-0.21471915
45	0x3e71af56	0.23602042
46	0xbbc3d952	-0.0059768343
47	0x39d02bdc	0.0003970553
48	0x38c49188	9.3731156e-05
49	0xb98d99a9	-0.00027008101
50	0x3ca1d4d6	0.019754808
51	0xbd4f6dea	-0.05064193
52	0xbe10d885	-0.14145096
53	0x3de93168	0.113863766
54	0xb9992bc7	-0.0002921505
55	0xbe6536a0	-0.22384119
56	0x3e09876d	0.13430567
57	0x3d8dde80	0.06927204
58	0xbd607f48	-0.054808885
59	0x3a9ca77e	0.0011951772
60	0x3e78b09e	0.24286124
61	0xbbdf4ccf	-0.006814576
62	0xbc285827	-0.010274923
63	0xbb36a3af	-0.002786856

exp_avg f4 [32, 1]
0	0x3b06ae9e	0.0020550857
1	0x3b0808aa	0.0020757117
2	0xbb0423cd	-0.002016294
3	0xb9e36f4c	-0.00043379737
4	0xb9db6ca1	-0.0004185187
5	0x3b555a80	0.0032555163
6	0xbb4e66f6	-0.0031494475
7	0xba050ef7	-0.00050757773
8	0x3a404db2	0.0007335796
9	0xb900fb91	-0.00012300747
10	0xb900f4f5	-0.00012298285
11	0x393682b3	0.00017405562
12	0x3ada6d35	0.0016664626
13	0xb9412804	-0.00018420821
14	0x3adc5eea	0.0016812955
15	0xb9f31328	-0.00046362844
16	0x3aabbe99	0.0013103067
17	0x3a321531	0.0006793319
18	0x3b5ff46b	0.0034172784
19	0xbb1677c0	-0.002295956
20	0x3a8a6820	0.0010559596
21	0x3a5656fc	0.0008176414
22	0x3a63479d	0.0008670034
23	0xbb7c0680	-0.0038456023
24	0xb980847c	-0.0002451277
25	0x3af85538	0.0018946296
26	0xb8342220	-4.2947126e-05
27	0xbae6a5e0	-0.0017597042
28	0xb9d0bb25	-0.00039812285
29	0x39904a61	0.00027521237
30	0x3a552ab1	0.00081316667
31	0xb8a0b3e1	-7.6628996e-05

exp_avg_sq f4 [32, 1]
0	0x385e2765	5.2965614e-05
1	0x392d1c69	0.0001650915
2	0x398a9842	0.00026434852
3	0x3855f2f0	5.100941e-05
4	0x381383e9	3.5170382e-05
5	0x3a602d2d	0.00085516536
6	0x39d495dc	0.00040547445
7	0x39155c2c	0.00014244084
8	0x391480a1	0.00014162298
9	0x381529e6	3.556339e-05
10	0x3789cfa6	1.6428367e-05
11	0x37f6920d	2.9393495e-05
12	0x39aee9b4	0.0003336199
13	0x383babb2	4.4744178e-05
14	0x393f5ee5	0.0001825053
15	0x38050c86	3.1721334e-05
16	0x374b8e36	1.2132854e-05
17	0x3784e9f4	1.584457e-05
18	0x39fa8ae5	0.000477872
19	0x39d8745f	0.00041285434
20	0x37c1a6c7	2.3085055e-05
21	0x380da13c	3.376718e-05
22	0x3897b26a	7.233473e-05
23	0x3a669f32	0.00087975257
24	0x37dc83d2	2.6287427e-05
25	0x39ad4cfd	0.00033054492
26	0x3885ad41	6.374205e-05
27	0x382a1d9a	4.0558727e-05
28	0x387d45bd	6.038485e-05
29	0x37abfa8e	2.0501462e-05
30	0x39295c77	0.00016151542
31	0x388073b6	6.1250685e-05

exp_avg f4 [32, 32]
0	0x397b070c	0.0002393985
1	0x3728d449	1.0063007e-05
2	0xb91af3f5	-0.00014777466
3	0xb8ee8629	-0.00011373714
4	0xb89638c6	-7.163132e-05
5	0xb94ce897	-0.00019541603
6	0x396eec4d	0.00022785478
7	0xb913e6a4	-0.00014104933
8	0xb7713fde	-1.437959e-05
9	0xb8d1fb22	-0.00010012674
10	0x38b45d37	8.6004315e-05
11	0x388aa9ab	6.611956e-05
12	0x393d12a2	0.00018031386
13	0xb841fc3d	-4.62497e-05
14	0xb9243511	-0.00015660028
15	0x3807ba6a	3.236012e-05
16	0x38ff99d2	0.00012187999
17	0x373d268a	1.1274251e-05
18	0xb949aae6	-0.00019232518
19	0xb6bae85f	-5.5702835e-06
20	0x38eeef5f	0.00011393311
21	0x376ccda0	1.4114572e-05
22	0x391b60d7	0.00014818028
23	0x393182b7	0.0001692873
24	0xb9a3813c	-0.0003118607
25	0xb9627d31	-0.00021599677
26	0x3898a4b9	7.278607e-05
27	0xb9bc8627	-0.00035958106
28	0x377ad487	1.4950644e-05
29	0x36b244a1	5.312803e-06
30	0xb955e0f3	-0.00020397063
31	0x39333064	0.00017088797
32	0x39b4c6d7	0.00034480423
33	0x38936c27	7.029651e-05
34	0xb9e852bc	-0.0004431213
35	0xb987dd56	-0.00025914115
36	0xb7e07f6b	-2.6762214e-05
37	0xb985097b	-0.000253748
38	0x39b842fe	0.00035145128
39	0xb961a049	-0.00021517383
40	0x37624c63	1.3488435e-05
41	0xb94fb874	-0.00019809772
42	0x38e9501d	0.00011125228
43	0x39070ff1	0.00012880542
44	0x3a028901	0.00049795216
45	0xb8c7d9e9	-9.5296484e-05
46	0xb94ba5da	-0.00019421373
47	0x3911603d	0.00013864129
48	0x393ef98f	0.0001821278
49	0x385b79bc	5.2327043e-05
50	0xb99e7e1d	-0.0003023007
51	0xb92dcd29	-0.00016574994
52	0x39659754	0.00021895516
53	0x3919400e	0.00014615079
54	0x398fc473	0.00027421452
55	0x3947a422	0.00019039263
56	0xba35e94d	-0.00069393666
57	0xb9a8da0b	-0.00032205912
58	0x3975a549	0.00023426594
59	0xba3beb67	-0.00071685616
60	0x3850b42f	4.9758874e-05
61	0x389093ed	6.8940084e-05
62	0xb991a1de	-0.00027777156
63	0x395513e9	0.0002032068
64	0xb90d1b16	-0.00013456898
65	0x395dd880	0.00021156855
66	0xb8964e86	-7.1671835e-05
67	0xb8d08819	-9.943563e-05
68	0x39412fbe	0.000184237
69	0x39e1e44d	0.00043085442
70	0xb98dbfa7	-0.00027036408
71	0x3877b384	5.9056576e-05
72	0xb6a42b8d	-4.892651e-06
73	0x3943f473	0.00018687714
74	0xb998cfc6	-0.00029146502
75	0xb82f32f1	-4.1770694e-05
76	0x3909f5bb	0.0001315688
77	0x38d2454f	0.0001002649
78	0x39ad8e3d	0.00033103107
79	0xb8414840	-4.6082074e-05
80	0xb94d6ad8	-0.00019590126
81	0x38cf6bf4	9.890637e-05
82	0x398dd892	0.00027054973
83	0xb996fccd	-0.0002879858
84	0x3921f551	0.00015445544
85	0x39028730	0.00012448127
86	0xb714d1fb	-8.870377e-06
87	0xb9e665c2	-0.00043944834
88	0x37afbb06	2.0948715e-05
89	0x39c72232	0.00037981715
90	0x3950bab2	0.00019905975
91	0x39122b3a	0.00013939748
92	0xb7f018dd	-2.8621807e-05
93	0x3983c788	0.0002513493
94	0x39845d86	0.00025246682
95	0xb96c5af1	-0.00022540592
96	0x38bca6f7	8.995638e-05
97	0x3976eb65	0.0002354808
98	0xb9c0ac69	-0.0003674955
99	0xb93931fe	-0.00017661598
100	0x3940570b	0.00018342973
101	0x3962993b	0.00021610122
102	0xb8343be9	-4.297114e-05
103	0xb629945d	-2.5269321e-06
104	0x35f3a794	1.8153683e-06
105	0x370c54ce	8.364395e-06
106	0xb963a0a8	-0.00021708256
107	0x388e479c	6.784426e-05
108	0x39e545f9	0.00043730417
109	0x37fbcdb2	3.0017316e-05
110	0x393f2a4f	0.0001823094
111	0x3893630a	7.027954e-05
112	0xb87ba03e	-5.99923e-05
113	0x38c910ab	9.5875315e-05
114	0x38b21dba	8.4932384e-05
115	0xb9c6bdf3	-0.00037907026
116	0x398b7a76	0.00026603387
117	0x3960542a	0.00021393658
118	0x3910afd8	0.00013798417
119	0xb996ab8a	-0.00028738036
120	0xb9dbd262	-0.00041927682
121	0x3915c115	0.00014281676
122	0x3992ef13	0.00028025414
123	0xb9a81978	-0.00032062433
124	0x385ad077	5.21694e-05
125	0x398d9827	0.00027006978
126	0x38916d3d	6.934486e-05
127	0xb911b0f7	-0.00013894202
128	0x38a5e32b	7.9101264e-05
129	0x391b4798	0.00014808623
130	0xb9843ce7	-0.00025222378
131	0xb9030510	-0.0001249502
132	0x39080894	0.00012973166
133	0x387afc9d	5.983991e-05
134	0x38b3e50b	8.578048e-05
135	0xb8376baf	-4.3730888e-05
136	0x36977cf9	4.5146994e-06
137	0xb7a680ff	-1.984881e-05
138	0xb9395dc6	-0.00017677908
139	0x388236af	6.209069e-05
140	0x399e91ab	0.0003024464
141	0x37add061	2.0720241e-05
142	0x387fe9c9	6.1014467e-05
143	0x385860bd	5.1588508e-05
144	0xb8812a3a	-6.159065e-05
145	0x3825d2b5	3.95353e-05
146	0xb88fdcde	-6.859911e-05
147	0xb981ec53	-0.00024780873
148	0x395e9365	0.00021226479
149	0x3907f594	0.00012966088
150	0x39050c1f	0.00012688384
151	0xb88960f2	-6.5507265e-05
152	0xb9b14d69	-0.00033817746
153	0x3793ab4d	1.7603534e-05
154	0x39592d9a	0.0002071172
155	0xb95fe032	-0.00021350457
156	0x38978fff	7.2270625e-05
157	0x39557c4d	0.00020359569
158	0xb5fd1d12	-1.885843e-06
159	0xb860a086	-5.355526e-05
160	0x39bff9a0	0.00036616344
161	0x3a211e1e	0.00061461504
162	0xba93172a	-0.0011222113
163	0xb998b984	-0.0002912992
164	0x3964ad9e	0.00021808452
165	0x3914d2e9	0.0001419295
166	0x394f95f9	0.00019796928
167	0xb854be2f	-5.072186e-05
168	0x37960bda	1.7886912e-05
169	0xb9af9f70	-0.0003349739
170	0xb9cef974	-0.0003947724
171	0x3939e7e9	0.00017729368
172	0x3aa5ca77	0.001264884
173	0xb71bc1f1	-9.283875e-06
174	0x38e0d5de	0.00010720988
175	0x39e53539	0.00043717938
176	0xb8a250ef	-7.739837e-05
177	0x3788b1f3	1.6295327e-05
178	0xb90b5357	-0.0001328712
179	0xba715137	-0.00092055224
180	0x3a5109d0	0.00079741795
181	0x39d486aa	0.00040536124
182	0x39d442d3	0.0004048558
183	0xb92d0e5e	-0.00016503918
184	0xbab0d2d6	-0.0013490568
185	0xb6e04bc8	-6.6845423e-06
186	0x3a112b30	0.00055377465
187	0xba82329b	-0.0009933294
188	0x399c2436	0.00029781618
189	0x3a0ed577	0.0005448679
190	0xb95dbc18	-0.00021146273
191	0xb73713d9	-1.0912271e-05
192	0xb9b1a2df	-0.0003388142
193	0xba33e218	-0.00068619987
194	0x3a9315fb	0.0011221761
195	0x39ef1be0	0.000456064
196	0xb94e00ba	-0.00019645962
197	0xb9b09341	-0.0003367905
198	0xb89071d8	-6.88766e-05
199	0x39188197	0.00014544126
200	0x3709160f	8.170972e-06
201	0x3953d0e3	0.00020200344
202	0x39bca6fb	0.00035982564
203	0xb9070974	-0.00012878125
204	0xbaa8ca43	-0.0012877662
205	0xb49e0c32	-2.9438667e-07
206	0xb96b2587	-0.00022425326
207	0xb9a97c7e	-0.00032326946
208	0x38bd02df	9.012757e-05
209	0xb890a56c	-6.897267e-05
210	0x374d1c28	1.2225508e-05
211	0x3a84d29d	0.0010133568
212	0xba4b6339	-0.0007758621
213	0xb9da427e	-0.0004162974
214	0xb9d9b3e7	-0.00041523503
215	0x39c16f6c	0.00036894844
216	0x3aa389c4	0.001247697
217	0xb9192898	-0.0001460634
218	0xba2aa95a	-0.00065102207
219	0x3a7a2268	0.000954187
220	0xb952b1ed	-0.00020093443
221	0xba0f9949	-0.00054778584
222	0x38ead32e	0.00011197325
223	0xb5161812	-5.591438e-07
224	0x37e7f187	2.7649816e-05
225	0x39889be5	0.00026056092
226	0xb9a2c114	-0.00031042902
227	0xb86f6b95	-5.7082234e-05
228	0x393e6d05	0.00018160425
229	0x3987c77b	0.0002589783
230	0xb8ea8b4c	-0.000111839356
231	0x3895c202	7.1410104e-05
232	0x3735ffe0	1.0848016e-05
233	0x36324f46	2.657021e-06
234	0xb995730b	-0.00028505208
235	0x38459979	4.7111393e-05
236	0x39c715a6	0.00037972367
237	0x3861d54c	5.384283e-05
238	0x39611e50	0.00021468964
239	0x38b24fc3	8.502558e-05
240	0xb8e753ef	-0.00011030572
241	0x385165a3	4.992414e-05
242	0x3912a250	0.00013984111
243	0xb9c29c48	-0.00037119002
244	0x3996d4bd	0.00028768732
245	0x39283f91	0.00016045409
246	0x38ae7f05	8.320626e-05
247	0xb9926b9f	-0.00027927474
248	0xb9b20239	-0.00033952462
249	0x3954087c	0.00020221056
250	0x3951b671	0.00019999758
251	0xb92fde4a	-0.0001677211
252	0x38b868d1	8.793327e-05
253	0x39925fa5	0.0002791855
254	0x38b18de0	8.466444e-05
255	0xb92bd9f6	-0.00016389028

exp_avg_sq f4 [32, 32]
0	0x35860a45	9.986767e-07
1	0x36d8dc49	6.462946e-06
2	0x36819391	3.8616786e-06
3	0x36851c30	3.9669903e-06
4	0x34b79177	3.4192246e-07
5	0x36cf86f2	6.1847904e-06
6	0x36eda9b2	7.0829055e-06
7	0x3648da09	2.9929236e-06
8	0x3594d645	1.108922e-06
9	0x35f4c8fb	1.823791e-06
10	0x35d4d90d	1.5858401e-06
11	0x35d7a789	1.6067507e-06
12	0x36811040	3.8463913e-06
13	0x358c073b	1.0432917e-06
14	0x36ac2529	5.1303255e-06
15	0x35df80ed	1.6652317e-06
16	0x367cbe9d	3.7661878e-06
17	0x35b3e28e	1.3402475e-06
18	0x3725eee8	9.890391e-06
19	0x36a30c3d	4.8592033e-06
20	0x36441803	2.9220253e-06
21	0x3618a285	2.2744364e-06
22	0x35e97089	1.7392605e-06
23	0x36f78208	7.3763113e-06
24	0x36045dd6	1.9724152e-06
25	0x36f499eb	7.289685e-06
26	0x35e7db94	1.7274747e-06
27	0x35f02dd2	1.7894729e-06
28	0x362fe4b3	2.6210153e-06
29	0x35feb933	1.8978375e-06
30	0x36065a71	2.00202e-06
31	0x367c3f10	3.7587633e-06
32	0x35b6cddd	1.3619971e-06
33	0x37e16100	2.686726e-05
34	0x3796f0a0	1.7993443e-05
35	0x3740b104	1.14853065e-05
36	0x350bda4d	5.2099205e-07
37	0x382e8e9f	4.161766e-05
38	0x383c4ea9	4.489595e-05
39	0x36fe2cdc	7.575012e-06
40	0x3661d4fc	3.3651586e-06
41	0x3579abb6	9.30096e-07
42	0x35ffcad9	1.9058017e-06
43	0x36a4c854	4.910902e-06
44	0x37b3a83e	2.1416807e-05
45	0x35eaa392	1.7481964e-06
46	0x37df68bf	2.6632448e-05
47	0x366d72af	3.5382507e-06
48	0x36f71ad0	7.364295e-06
49	0x3600cbb1	1.919205e-06
50	0x3860140c	5.3424432e-05
51	0x37c444a9	2.3396993e-05
52	0x368406db	3.9347046e-06
53	0x36dc4d06	6.5654776e-06
54	0x36288ce8	2.511597e-06
55	0x3832c10c	4.2618296e-05
56	0x36606390	3.3436554e-06
57	0x38375c2b	4.3716438e-05
58	0x36471bb6	2.966944e-06
59	0x36fff767	7.6283936e-06
60	0x36e55c54	6.8354802e-06
61	0x360eb864	2.1266978e-06
62	0x375a27e0	1.3003097e-05
63	0x376311ae	1.3534371e-05
64	0x361ae0f8	2.3078737e-06
65	0x385acf05	5.2168052e-05
66	0x37bf3fef	2.2798746e-05
67	0x37f28370	2.8909853e-05
68	0x359af8f6	1.1546351e-06
69	0x38897e75	6.5562235e-05
70	0x38976329	7.218711e-05
71	0x37c6385f	2.362969e-05
72	0x37136dfe	8.787492e-06
73	0x361b01cc	2.3097846e-06
74	0x3680ddad	3.8405037e-06
75	0x372b1d50	1.0199219e-05
76	0x3803630b	3.1325075e-05
77	0x36867d70	4.008114e-06
78	0x383ec1a9	4.547989e-05
79	0x37390ee1	1.1030324e-05
80	0x37c9b409	2.4044903e-05
81	0x369ce10e	4.675362e-06
82	0x38c15ea5	9.220586e-05
83	0x3812ec62	3.502926e-05
84	0x36e1616a	6.716863e-06
85	0x3790622a	1.7211849e-05
86	0x36bee28a	5.688814e-06
87	0x38855d4a	6.359311e-05
88	0x36b3099c	5.3357344e-06
89	0x389f5045	7.596662e-05
90	0x36b1e3b8	5.301521e-06
91	0x376a0a41	1.3949874e-05
92	0x37a36324	1.947728e-05
93	0x369426e2	4.4152703e-06
94	0x37b8b7d3	2.202011e-05
95	0x37fb2b04	2.9941562e-05
96	0x34f70dc7	4.601736e-07
97	0x36c19df6	5.7702373e-06
98	0x368592b4	3.9807874e-06
99	0x3652ab1a	3.1392033e-06
100	0x348934e3	2.555672e-07
101	0x37011b63	7.695376e-06
102	0x37087e74	8.135674e-06
103	0x360ecbc8	2.1278265e-06
104	0x35ad2370	1.2899818e-06
105	0x351a6f37	5.753131e-07
106	0x353e128b	7.08075e-07
107	0x35ce29a4	1.5360315e-06
108	0x36a65168	4.9566625e-06
109	0x3531b60c	6.620255e-07
110	0x36a31e3d	4.8612987e-06
111	0x353bec50	7.000681e-07
112	0x362ee132	2.6059101e-06
113	0x354fdae2	7.7432026e-07
114	0x372c986d	1.0287488e-05
115	0x36a13ff6	4.80562e-06
116	0x35920d85	1.0881782e-06
117	0x361dc469	2.3509149e-06
118	0x357670b8	9.180617e-07
119	0x3708be14	8.150488e-06
120	0x35969aff	1.1220981e-06
121	0x37048e7b	7.900987e-06
122	0x35bedba8	1.4220032e-06
123	0x364559dd	2.9407595e-06
124	0x35e84def	1.7308029e-06
125	0x351c81aa	5.8303215e-07
126	0x3637e29c	2.740103e-06
127	0x368a65c9	4.12457e-06
128	0x3567b717	8.6320637e-07
129	0x369ea202	4.727627e-06
130	0x362b4a13	2.5524103e-06
131	0x3689fd42	4.1124013e-06
132	0x34a88cde	3.1394933e-07
133	0x36baf2df	5.571506e-06
134	0x36d3b4d2	6.3093403e-06
135	0x365fb89f	3.3337053e-06
136	0x35a5d15f	1.2354393e-06
137	0x359507b9	1.1103613e-06
138	0x35e11ffe	1.6773117e-06
139	0x3642b5ec	2.9014145e-06
140	0x3667af2e	3.452365e-06
141	0x35ac58fd	1.2840898e-06
142	0x366d04e6	3.5318603e-06
143	0x35a717da	1.2449411e-06
144	0x3625ff48	2.473551e-06
145	0x35ada5a6	1.2937714e-06
146	0x3705f973	7.985497e-06
147	0x3632d980	2.6650669e-06
148	0x35c0e6c3	1.4372275e-06
149	0x362b1fdd	2.5499533e-06
150	0x35cc7588	1.523339e-06
151	0x36b39829	5.3523295e-06
152	0x35d8742e	1.6127067e-06
153	0x36bae273	5.569594e-06
154	0x35579828	8.031516e-07
155	0x364f8b4d	3.0926487e-06
156	0x361b789d	2.3167006e-06
157	0x3592efb4	1.094761e-06
158	0x362348ec	2.433134e-06
159	0x36a0b29a	4.7891635e-06
160	0x36ecda07	7.05873e-06
161	0x38f16ada	0.00011511678
162	0x38a5a7d3	7.899073e-05
163	0x38441779	4.6751902e-05
164	0x363b60d6	2.7921537e-06
165	0x393640dd	0.00017381036
166	0x3947560a	0.00019010171
167	0x37e9548b	2.7815133e-05
168	0x3758f15f	1.2930802e-05
169	0x36e411c1	6.7969963e-06
170	0x3732c673	1.0655832e-05
171	0x37a6ddaa	1.9891962e-05
172	0x38bdad5f	9.044515e-05
173	0x3726760a	9.921854e-06
174	0x38ef9611	0.0001142436
175	0x377dcad1	1.5127197e-05
176	0x380670a3	3.205299e-05
177	0x372ab7ec	1.0175612e-05
178	0x396d6cd9	0.0002264263
179	0x38d65a4e	0.00010221136
180	0x37b6b554	2.1780528e-05
181	0x37cb8fa9	2.4266383e-05
182	0x37502622	1.2406645e-05
183	0x3941c463	0.00018479074
184	0x378ac717	1.654359e-05
185	0x393c5faa	0.00017964715
186	0x37808895	1.532239e-05
187	0x37fc679f	3.0088993e-05
188	0x380101fa	3.0757838e-05
189	0x3737ae0f	1.0948176e-05
190	0x3852fcfc	5.030351e-05
191	0x38422095	4.628355e-05
192	0x366095e4	3.346585e-06
193	0x385bb769	5.2384483e-05
194	0x38238a35	3.8990944e-05
195	0x37991bfb	1.825205e-05
196	0x35aae1c2	1.2731691e-06
197	0x38a2e4e1	7.767394e-05
198	0x38aa3152	8.115418e-05
199	0x371968ef	9.143942e-06
200	0x36b26a89	5.3172157e-06
201	0x364dae93	3.0648996e-06
202	0x36a03271	4.7742437e-06
203	0x36f69f13	7.34989e-06
204	0x38369857	4.353406e-05
205	0x36905d62	4.3024056e-06
206	0x384e9ca9	4.926013e-05
207	0x36aa6142	5.077717e-06
208	0x373bf176	1.1202288e-05
209	0x368d4cca	4.211067e-06
210	0x38c8a81e	9.5680574e-05
211	0x384ab87c	4.8332367e-05
212	0x372caa6d	1.0291679e-05
213	0x3714a28e	8.859335e-06
214	0x36b0ddcb	5.271029e-06
215	0x38ab8877	8.179334e-05
216	0x370dfe7a	8.463505e-06
217	0x38a5f701	7.913821e-05
218	0x36ff94d8	7.61692e-06
219	0x377acfde	1.4949559e-05
220	0x3740f978	1.1502176e-05
221	0x36a833a9	5.012804e-06
222	0x37b2fcf4	2.1337044e-05
223	0x378caa99	1.6768741e-05
224	0x358cd4b9	1.0492723e-06
225	0x3646abc5	2.9604282e-06
226	0x3626b17f	2.4839244e-06
227	0x36515f6c	3.119897e-06
228	0x35572d4b	8.015965e-07
229	0x36007fed	1.914795e-06
230	0x365991ab	3.242031e-06
231	0x364291b8	2.8993072e-06
232	0x35a4a41a	1.2266712e-06
233	0x36861256	3.995646e-06
234	0x35edfac6	1.7730861e-06
235	0x35c1c4c6	1.4436889e-06
236	0x35ab9852	1.2784824e-06
237	0x36374f23	2.7315189e-06
238	0x36618092	3.360245e-06
239	0x3528fe96	6.295535e-07
240	0x36c03a67	5.728845e-06
241	0x366dd3c5	3.5439018e-06
242	0x3705c127	7.9723895e-06
243	0x365c7ef7	3.2856458e-06
244	0x365f4d0f	3.3274443e-06
245	0x3632781c	2.659398e-06
246	0x36513a49	3.1177353e-06
247	0x370fd627	8.573325e-06
248	0x357bc9ed	9.379863e-07
249	0x3639e585	2.7700746e-06
250	0x36cca3b0	6.0987295e-06
251	0x35a3a969	1.2193751e-06
252	0x35cc0627	1.5200975e-06
253	0x3542f238	7.2623106e-07
254	0x355f96e7	8.3293565e-07
255	0x36a85f07	5.017853e-06

exp_avg f4 [32]
0	0xba45e9d7	-0.00075497985
1	0xbb080e2b	-0.0020760398
2	0x3b12511e	0.0022326182
3	0xb94a1844	-0.00019273261
4	0xb8c3a80d	-9.3296265e-05
5	0xbb82d744	-0.003992947
6	0x3b08b297	0.00208584
7	0xb981cfd0	-0.0002475963
8	0x39a39563	0.00031201084
9	0x39af95e1	0.0003349027
10	0x39ea8bc5	0.00044736094
11	0xb7f57350	-2.9259973e-05
12	0xbb3118e2	-0.0027022888
13	0xb98b6c82	-0.0002659299
14	0xbad18cbd	-0.0015987378
15	0xb9c156e7	-0.00036876576
16	0x389bcb87	7.428886e-05
17	0x39167474	0.00014348497
18	0xbb4979a0	-0.003074266
19	0x3b36fccd	0.0027921677
20	0xbaacf7b4	-0.001319638
21	0xb94c3d3e	-0.0001947777
22	0xb997d5c4	-0.00028960232
23	0x3b817896	0.0039511425
24	0x3a8c53a0	0.0010706075
25	0xbb005529	-0.001958201
26	0xb9adeaa1	-0.00033171944
27	0x3a883270	0.0010391008
28	0xb97c4e65	-0.00024061797
29	0xba34e4db	-0.0006900557
30	0x39d47ed9	0.000405303
31	0x381b47c2	3.702171e-05

exp_avg_sq f4 [32]
0	0x37fe9b66	3.0351523e-05
1	0x39d8d67b	0.0004135853
2	0x3a1e9dcc	0.0006050735
3	0x381be3ef	3.716716e-05
4	0x37bc4ce3	2.244715e-05
5	0x3ae8c427	0.0017758653
6	0x3a2ee0ea	0.0006671088
7	0x37385034	1.0985928e-05
8	0x3821faff	3.861915e-05
9	0x37db1154	2.6114903e-05
10	0x3768bc80	1.3872166e-05
11	0x36eb58fc	7.013905e-06
12	0x3a35e4d2	0.0006938699
13	0x37ab2362	2.0401265e-05
14	0x399a65f8	0.00029449142
15	0x36f5f9c5	7.330646e-06
16	0x36ef548b	7.132597e-06
17	0x374e467f	1.22949705e-05
18	0x3a8871dc	0.0010409909
19	0x3a6759ab	0.0008825312
20	0x37edce5a	2.8348692e-05
21	0x37596a5f	1.2958974e-05
22	0x379a9e85	1.8432047e-05
23	0x3af5c0db	0.0018749492
24	0x381e1063	3.7685397e-05
25	0x3a373b49	0.000698973
26	0x38c2b9ef	9.285274e-05
27	0x38c10c06	9.205197e-05
28	0x379f54fc	1.8993851e-05
29	0x37bacb1e	2.2267512e-05
30	0x38c0aaa3	9.187057e-05
31	0x37056498	7.950839e-06

exp_avg f4 [32]
0	0xba45e9da	-0.00075498
1	0xbb080e27	-0.0020760389
2	0x3b125122	0.002232619
3	0xb94a1843	-0.0001927326
4	0xb8c3a80e	-9.329627e-05
5	0xbb82d746	-0.0039929477
6	0x3b08b298	0.0020858403
7	0xb981cfce	-0.00024759624
8	0x39a39561	0.0003120108
9	0x39af95de	0.0003349026
10	0x39ea8bc0	0.0004473608
11	0xb7f57352	-2.9259976e-05
12	0xbb3118e2	-0.0027022888
13	0xb98b6c7f	-0.00026592982
14	0xbad18cbe	-0.0015987379
15	0xb9c156ec	-0.0003687659
16	0x389bcb91	7.428893e-05
17	0x39167478	0.00014348503
18	0xbb4979a6	-0.0030742674
19	0x3b36fccf	0.0027921682
20	0xbaacf7b1	-0.0013196376
21	0xb94c3d35	-0.00019477757
22	0xb997d5c4	-0.00028960232
23	0x3b817896	0.0039511425
24	0x3a8c53a4	0.0010706079
25	0xbb005528	-0.0019582007
26	0xb9adea9e	-0.00033171935
27	0x3a883270	0.0010391008
28	0xb97c4e5b	-0.00024061782
29	0xba34e4d4	-0.0006900553
30	0x39d47ed5	0.00040530288
31	0x381b47b0	3.7021644e-05

exp_avg_sq f4 [32]
0	0x37fe9b66	3.0351523e-05
1	0x39d8d67a	0.00041358528
2	0x3a1e9dcb	0.00060507347
3	0x381be3ee	3.7167156e-05
4	0x37bc4ce5	2.2447153e-05
5	0x3ae8c426	0.0017758652
6	0x3a2ee0ea	0.0006671088
7	0x37385033	1.09859275e-05
8	0x3821faff	3.861915e-05
9	0x37db1155	2.6114905e-05
10	0x3768bc7f	1.3872165e-05
11	0x36eb58fc	7.013905e-06
12	0x3a35e4d3	0.00069386995
13	0x37ab2362	2.0401265e-05
14	0x399a65fa	0.00029449147
15	0x36f5f9c7	7.330647e-06
16	0x36ef548b	7.132597e-06
17	0x374e4680	1.2294971e-05
18	0x3a8871db	0.0010409908
19	0x3a6759ab	0.0008825312
20	0x37edce57	2.8348686e-05
21	0x37596a60	1.2958975e-05
22	0x379a9e86	1.8432049e-05
23	0x3af5c0db	0.0018749492
24	0x381e1063	3.7685397e-05
25	0x3a373b49	0.000698973
26	0x38c2b9f0	9.2852744e-05
27	0x38c10c04	9.205195e-05
28	0x379f54fe	1.8993855e-05
29	0x37bacb1f	2.2267513e-05
30	0x38c0aaa4	9.187058e-05
31	0x37056498	7.950839e-06

exp_avg f4 [32, 1]
0	0x37e90e03	2.778229e-05
1	0x378ed7c7	1.7028198e-05
2	0xb9acb229	-0.00032939136
3	0xb384c26c	-6.182094e-08
4	0x3a109039	0.0005514655
5	0xb286dca1	-1.5699984e-08
6	0x39872693	0.00025777947
7	0x3a1e883b	0.00060475216
8	0xb83b4858	-4.465165e-05
9	0xb82b1605	-4.0790084e-05
10	0xb9fade0f	-0.00047849162
11	0x399f2aee	0.00030358828
12	0xba203719	-0.0006111726
13	0x3a300461	0.00067145197
14	0xb941dd31	-0.00018488315
15	0xb7436700	-1.1646887e-05
16	0xb534ee05	-6.740159e-07
17	0xb84c299b	-4.867614e-05
18	0x39646582	0.00021781589
19	0xb9894ad9	-0.00026186442
20	0xba20ae13	-0.00061294547
21	0x39d10d31	0.00039873415
22	0x368b078c	4.1434014e-06
23	0xba1f6730	-0.0006080745
24	0x39bb94b3	0.0003577821
25	0x3991de13	0.00027822013
26	0xb986ee05	-0.0002573581
27	0xb7c5277b	-2.3502615e-05
28	0x3a6945dd	0.0008898655
29	0x378b3112	1.6592941e-05
30	0xb9696b56	-0.00022260597
31	0x37794a2f	1.4858829e-05

exp_avg_sq f4 [32, 1]
0	0x37565b2a	1.277662e-05
1	0x3743f977	1.1680989e-05
2	0x390c12b9	0.00013358415
3	0x36d63064	6.3833304e-06
4	0x3a1d62c9	0.0006003795
5	0x369e68f9	4.7209874e-06
6	0x38b7834e	8.7505774e-05
7	0x3a018c3c	0.0004941856
8	0x383ffba8	4.577232e-05
9	0x3806c2f5	3.2129657e-05
10	0x3967b24b	0.00022096296
11	0x38e6d3f2	0.000110067325
12	0x3a1e6c7c	0.0006043387
13	0x3a308421	0.0006733556
14	0x38916137	6.9322465e-05
15	0x37ad2d7c	2.0644387e-05
16	0x36a851db	5.0163194e-06
17	0x379cda9a	1.8698443e-05
18	0x37efa583	2.8568093e-05
19	0x387ca510	6.023521e-05
20	0x394ec445	0.00019718807
21	0x392ff606	0.00016780951
22	0x380e4017	3.3915127e-05
23	0x3a2824ea	0.0006414192
24	0x397d0682	0.00024130385
25	0x38aa9b09	8.135109e-05
26	0x3881128f	6.154656e-05
27	0x378c1eb3	1.6703596e-05
28	0x3a2311bd	0.00062206
29	0x370cbf38	8.389172e-06
30	0x38a31549	7.77641e-05
31	0x3810f1f1	3.45576e-05

exp_avg f4 [32, 32]
0	0x00000000	0.0
1	0x00000000	0.0
2	0x00000000	0.0
3	0x00000000	0.0
4	0x00000000	0.0
5	0x00000000	0.0
6	0x00000000	0.0
7	0x00000000	0.0
8	0x00000000	0.0
9	0x00000000	0.0
10	0x00000000	0.0
11	0x00000000	0.0
12	0x00000000	0.0
13	0x00000000	0.0
14	0x00000000	0.0
15	0x00000000	0.0
16	0x00000000	0.0
17	0x00000000	0.0
18	0x00000000	0.0
19	0x00000000	0.0
20	0x00000000	0.0
21	0x00000000	0.0
22	0x00000000	0.0
23	0x00000000	0.0
24	0x00000000	0.0
25	0x00000000	0.0
26	0x00000000	0.0
27	0x00000000	0.0
28	0x00000000	0.0
29	0x00000000	0.0
30	0x00000000	0.0
31	0x00000000	0.0
32	0x00000000	0.0
33	0x00000000	0.0
34	0x00000000	0.0
35	0x00000000	0.0
36	0x00000000	0.0
37	0x00000000	0.0
38	0x00000000	0.0
39	0x00000000	0.0
40	0x00000000	0.0
41	0x00000000	0.0
42	0x00000000	0.0
43	0x00000000	0.0
44	0x00000000	0.0
45	0x00000000	0.0
46	0x00000000	0.0
47	0x00000000	0.0
48	0x00000000	0.0
49	0x00000000	0.0
50	0x00000000	0.0
51	0x00000000	0.0
52	0x00000000	0.0
53	0x00000000	0.0
54	0x00000000	0.0
55	0x00000000	0.0
56	0x00000000	0.0
57	0x00000000	0.0
58	0x00000000	0.0
59	0x00000000	0.0
60	0x00000000	0.0
61	0x00000000	0.0
62	0x00000000	0.0
63	0x00000000	0.0
64	0x00000000	0.0
65	0x00000000	0.0
66	0x00000000	0.0
67	0x00000000	0.0
68	0x00000000	0.0
69	0x00000000	0.0
70	0x00000000	0.0
71	0x00000000	0.0
72	0x00000000	0.0
73	0x00000000	0.0
74	0x00000000	0.0
75	0x00000000	0.0
76	0x00000000	0.0
77	0x00000000	0.0
78	0x00000000	0.0
79	0x00000000	0.0
80	0x00000000	0.0
81	0x00000000	0.0
82	0x00000000	0.0
83	0x00000000	0.0
84	0x00000000	0.0
85	0x00000000	0.0
86	0x00000000	0.0
87	0x00000000	0.0
88	0x00000000	0.0
89	0x00000000	0.0
90	0x00000000	0.0
91	0x00000000	0.0
92	0x00000000	0.0
93	0x00000000	0.0
94	0x00000000	0.0
95	0x00000000	0.0
96	0x00000000	0.0
97	0x00000000	0.0
98	0x00000000	0.0
99	0x00000000	0.0
100	0x00000000	0.0
101	0x00000000	0.0
102	0x00000000	0.0
103	0x00000000	0.0
104	0x00000000	0.0
105	0x00000000	0.0
106	0x00000000	0.0
107	0x00000000	0.0
108	0x00000000	0.0
109	0x00000000	0.0
110	0x00000000	0.0
111	0x00000000	0.0
112	0x00000000	0.0
113	0x00000000	0.0
114	0x00000000	0.0
115	0x00000000	0.0
116	0x00000000	0.0
117	0x00000000	0.0
118	0x00000000	0.0
119	0x00000000	0.0
120	0x00000000	0.0
121	0x00000000	0.0
122	0x00000000	0.0
123	0x00000000	0.0
124	0x00000000	0.0
125	0x00000000	0.0
126	0x00000000	0.0
127	0x00000000	0.0
128	0x00000000	0.0
129	0x00000000	0.0
130	0x00000000	0.0
131	0x00000000	0.0
132	0x00000000	0.0
133	0x00000000	0.0
134	0x00000000	0.0
135	0x00000000	0.0
136	0x00000000	0.0
137	0x00000000	0.0
138	0x00000000	0.0
139	0x00000000	0.0
140	0x00000000	0.0
141	0x00000000	0.0
142	0x00000000	0.0
143	0x00000000	0.0
144	0x00000000	0.0
145	0x00000000	0.0
146	0x00000000	0.0
147	0x00000000	0.0
148	0x00000000	0.0
149	0x00000000	0.0
150	0x00000000	0.0
151	0x00000000	0.0
152	0x00000000	0.0
153	0x00000000	0.0
154	0x00000000	0.0
155	0x00000000	0.0
156	0x00000000	0.0
157	0x00000000	0.0
158	0x00000000	0.0
159	0x00000000	0.0
160	0x00000000	0.0
161	0x00000000	0.0
162	0x00000000	0.0
163	0x00000000	0.0
164	0x00000000	0.0
165	0x00000000	0.0
166	0x00000000	0.0
167	0x00000000	0.0
168	0x00000000	0.0
169	0x00000000	0.0
170	0x00000000	0.0
171	0x00000000	0.0
172	0x00000000	0.0
173	0x00000000	0.0
174	0x00000000	0.0
175	0x00000000	0.0
176	0x00000000	0.0
177	0x00000000	0.0
178	0x00000000	0.0
179	0x00000000	0.0
180	0x00000000	0.0
181	0x00000000	0.0
182	0x00000000	0.0
183	0x00000000	0.0
184	0x00000000	0.0
185	0x00000000	0.0
186	0x00000000	0.0
187	0x00000000	0.0
188	0x00000000	0.0
189	0x00000000	0.0
190	0x00000000	0.0
191	0x00000000	0.0
192	0x00000000	0.0
193	0x00000000	0.0
194	0x00000000	0.0
195	0x00000000	0.0
196	0x00000000	0.0
197	0x00000000	0.0
198	0x00000000	0.0
199	0x00000000	0.0
200	0x00000000	0.0
201	0x00000000	0.0
202	0x00000000	0.0
203	0x00000000	0.0
204	0x00000000	0.0
205	0x00000000	0.0
206	0x00000000	0.0
207	0x00000000	0.0
208	0x00000000	0.0
209	0x00000000	0.0
210	0x00000000	0.0
211	0x00000000	0.0
212	0x00000000	0.0
213	0x00000000	0.0
214	0x00000000	0.0
215	0x00000000	0.0
216	0x00000000	0.0
217	0x00000000	0.0
218	0x00000000	0.0
219	0x00000000	0.0
220	0x00000000	0.0
221	0x00000000	0.0
222	0x00000000	0.0
223	0x00000000	0.0
224	0x00000000	0.0
225	0x00000000	0.0
226	0x00000000	0.0
227	0x00000000	0.0
228	0x00000000	0.0
229	0x00000000	0.0
230	0x00000000	0.0
231	0x00000000	0.0
232	0x00000000	0.0
233	0x00000000	0.0
234	0x00000000	0.0
235	0x00000000	0.0
236	0x00000000	0.0
237	0x00000000	0.0
238	0x00000000	0.0
239	0x00000000	0.0
240	0x00000000	0.0
241	0x00000000	0.0
242	0x00000000	0.0
243	0x00000000	0.0
244	0x00000000	0.0
245	0x00000000	0.0
246	0x00000000	0.0
247	0x00000000	0.0
248	0x00000000	0.0
249	0x00000000	0.0
250	0x00000000	0.0
251	0x00000000	0.0
252	0x00000000	0.0
253	0x00000000	0.0
254	0x00000000	0.0
255	0x00000000	0.0
