07_RNN/logs/rnn/version_14/checkpoints/epoch=3-step=476.ckpt (torch, 62024 bytes, 15 tensors)

rnn.weight_ih_l0 f4 [64, 1]
0	0xbe782057	-0.24231087
1	0xbda1e244	-0.07904485
2	0x3df5d1c0	0.12002897
3	0x3d312864	0.04325141
4	0x3e33d310	0.17560983
5	0xbe3a5a35	-0.18198474
6	0x3d8c85a7	0.0686143
7	0xbe2c8d24	-0.16850716
8	0x3d0e4eed	0.03474324
9	0xbe41386d	-0.18869181
10	0x3cd16805	0.025562296
11	0xbd08b9ab	-0.03338019
12	0xbe1e2415	-0.15443452
13	0xbdbc0865	-0.09181289
14	0x3c581df9	0.01319074
15	0xbe09694b	-0.13419072
16	0xbcee37e1	-0.02907938
17	0xbcfc8d68	-0.030829147
18	0x3da5dfb3	0.08099308
19	0x3e82a72f	0.25518176
20	0x3e42a8e6	0.19009742
21	0xbd9f8608	-0.07789236
22	0x3d1f9dd2	0.03896887
23	0x3d8a21de	0.06744741
24	0xbe23dbb6	-0.16001782
25	0x3dbe7144	0.092989475
26	0xbc33fb60	-0.010985225
27	0xbdd793cd	-0.10526238
28	0x3e1b3db6	0.1516026
29	0xbdc25130	-0.094881415
30	0x3e33a7af	0.17544435
31	0x3e282ce6	0.16423377
32	0x3e3e0a81	0.18558694
33	0x3e6ff989	0.23435034
34	0x3e44d5cc	0.19222182
35	0x3db6afa9	0.08920223
36	0xbd2e4ab9	-0.04255173
37	0x3d2f5b45	0.04281165
38	0xbe0de751	-0.13857771
39	0xbe3a27cf	-0.18179248
40	0x3e43a680	0.19106483
41	0xbd38c72b	-0.045111816
42	0xbe35b201	-0.17743684
43	0x3d04002e	0.032226734
44	0xbe613602	-0.21993259
45	0xbe6310bf	-0.22174357
46	0x3c84dbfd	0.01621818
47	0x3e29ffe4	0.16601521
48	0x3e310b05	0.1728936
49	0x3da47849	0.08030755
50	0x3d4687c9	0.04846934
51	0x3cf3252a	0.029680807
52	0x3e23a86e	0.1598222
53	0x3dc494d4	0.09598699
54	0xbdb43edf	-0.08801054
55	0x3df830be	0.12118672
56	0xbe0a422c	-0.13501805
57	0xbce5d197	-0.028054042
58	0xbd53125a	-0.051531173
59	0x3e1de541	0.15419485
60	0x3d2bcab7	0.04194137
61	0xbd5bcfbe	-0.053664915
62	0x3e667c2c	0.22508305
63	0xbd13eb95	-0.03611334

rnn.weight_hh_l0 f4 [64, 64]
0	0x3cfbb449	0.030725615
1	0xbd120b2b	-0.03565518
2	0xbd6d9dc9	-0.058011804
3	0xbd5793d5	-0.052631218
4	0x3d34bfdf	0.044128295
5	0xbd4a0326	-0.04931941
6	0xbd01aaca	-0.031657018
7	0x3de99dfd	0.11407087
8	0xbde2e9d4	-0.110797554
9	0x3d4dd1ba	0.05024884
10	0x3cc4008a	0.023926038
11	0x3c471d98	0.012153052
12	0xbe0218f4	-0.12704831
13	0xbde96082	-0.113953605
14	0xbc515f36	-0.012779048
15	0xbd87e1d4	-0.0663487
16	0x3d9dc6c7	0.077039294
17	0xbcda07af	-0.026614992
18	0xbc3fcfd8	-0.011707269
19	0x3dd07e83	0.1018038
20	0xbda95072	-0.08267297
21	0x3d66ecd8	0.056378216
22	0xbe066f64	-0.1312843
23	0x3de53dec	0.11193451
24	0xbdb829ff	-0.08992385
25	0xbcd3272c	-0.025775515
26	0xbb9437ae	-0.004523239
27	0x3c9081fc	0.017640106
28	0x3d9f9a6d	0.07793126
29	0xbd8c0dd0	-0.06838572
30	0x3d8f25cf	0.06989633
31	0xbcbac126	-0.022797178
32	0xbd880235	-0.06641046
33	0xbdf3d599	-0.11905975
34	0xbca3ad3b	-0.019980064
35	0x3e0ff033	0.14056472
36	0x3d620ea6	0.05518975
37	0xbd2d60da	-0.042328693
38	0xbd1d922f	-0.03846949
39	0x3e118cb2	0.14213827
40	0x3db675ca	0.08909185
41	0xbe1efcf5	-0.15526183
42	0xbc85ce90	-0.016333848
43	0x3c0418ec	0.008062582
44	0x3d0e6c1c	0.03477107
45	0xbb0fb6b0	-0.0021928959
46	0x3dcf33f0	0.10117328
47	0x3b35b7ea	0.002772803
48	0x3cda9481	0.02668214
49	0x3d9cd7b2	0.07658328
50	0x3cdb29fe	0.026753422
51	0xbd208b3a	-0.039195277
52	0x3c55f9d2	0.01306005
53	0xbceaaef3	-0.028647875
54	0xbc108411	-0.00882055
55	0x3c3951ef	0.011311038
56	0xbd8ec934	-0.0697197
57	0x3d34d6f6	0.044150315
58	0xbc84a788	-0.016193166
59	0xbd030700	-0.031989098
60	0x3da0b5d3	0.0784718
61	0x3bfbefc5	0.007688495
62	0xbdb0b10d	-0.0862752
63	0x3c2607c7	0.01013369
64	0x3cbce759	0.023059534
65	0x3d9a30ee	0.07528864
66	0xbceed577	-0.029154522
67	0xbe163c86	-0.14671525
68	0xbd32a928	-0.04361835
69	0xbe133d47	-0.14378844
70	0x3d7fcab5	0.062449176
71	0xbd9b5e06	-0.07586293
72	0xbc848c50	-0.016180187
73	0xbdc075c9	-0.09397466
74	0x3dc9d69c	0.098553866
75	0xbe45560c	-0.19271106
76	0x3dcc6307	0.099798255
77	0xbdacaf5b	-0.08431884
78	0x3d409449	0.047016416
79	0xbca8d71e	-0.020610388
80	0xbdbf445d	-0.09339211
81	0xbdc39e65	-0.09551696
82	0x3dcd33a1	0.10019613
83	0xbc4fcbd4	-0.012682874
84	0xbcf14af9	-0.029454695
85	0x3e27d64b	0.1639034
86	0x3cb55c12	0.02213863
87	0x3e0b9feb	0.13635223
88	0xbd117002	-0.03550721
89	0xbdab45e5	-0.08362941
90	0x3d721093	0.059097838
91	0xbd83f358	-0.064428985
92	0x3c7fa053	0.015602189
93	0xbc02fa49	-0.007994243
94	0x3e4165a7	0.18886434
95	0xbd2c5ab3	-0.042078685
96	0xbdb21652	-0.086956635
97	0x3e1323ef	0.14369176
98	0xbdc4449d	-0.095833994
99	0xbd981a88	-0.074269354
100	0xbdd0f9ba	-0.102038816
101	0x3dd7a663	0.105297826
102	0x3de7b1df	0.11313223
103	0xbd257bce	-0.040401272
104	0x3d56e709	0.052466426
105	0x3e19ed12	0.15031841
106	0x3d3454df	0.044026252
107	0xbda5b3e8	-0.08090955
108	0xbe2fe417	-0.17176853
109	0x3d546f66	0.05186405
110	0x3d6091c4	0.054826513
111	0xbe14a98c	-0.14517802
112	0x3d954593	0.07288661
113	0x3bc2959c	0.005938245
114	0xbde5cb3e	-0.11220406
115	0x3d30a222	0.043123372
116	0xbda9f4f5	-0.08298675
117	0x3d3e6b88	0.04648927
118	0x3dd61c4f	0.10454618
119	0x3d4d6105	0.050141353
120	0x3d611196	0.054948412
121	0x3d6a76f6	0.057242356
122	0xbcff6df6	-0.031180363
123	0xbd05e9aa	-0.032693543
124	0x3c3d88a4	0.011568222
125	0x3d1d87e1	0.038459662
126	0x3dfb70bf	0.12277364
127	0xbdab6991	-0.083697446
128	0xbe10aed9	-0.14129199
129	0x3c6235c2	0.013806762
130	0x3da3256e	0.079661235
131	0x3c9b67f4	0.018970467
132	0xbc909727	-0.0176502
133	0xbe0c9337	-0.13728033
134	0x3c510e24	0.012759719
135	0x3d28285d	0.04105412
136	0x3dd55b69	0.10417826
137	0x3a796edc	0.00095151155
138	0xbcf9bc23	-0.030485218
139	0xbdb87660	-0.09006953
140	0xbd82ddfc	-0.063899964
141	0x3de06721	0.1095717
142	0xbd713720	-0.058890462
143	0x3e07d0d3	0.13263254
144	0x3c2efb3b	0.010680015
145	0xbd1879cd	-0.037225533
146	0xbd21987f	-0.039452072
147	0x3e22a0db	0.15881674
148	0x3dfa4bc5	0.12221483
149	0x3d940a57	0.07228535
150	0x3cb22792	0.021747384
151	0x3d0ae1fa	0.033906914
152	0xbc8abafe	-0.016934868
153	0x3d18e302	0.037325867
154	0xbd0ac1f6	-0.03387638
155	0x3ddb3e26	0.10705213
156	0x3db43d2f	0.08800732
157	0x3d8c91df	0.0686376
158	0x38c46da8	9.3664334e-05
159	0x3d5347b4	0.051582053
160	0x3d53952b	0.05165593
161	0xbd8841d9	-0.066531844
162	0x3e2a011e	0.16601989
163	0x3d4403f0	0.047855318
164	0xbd220acc	-0.039561078
165	0xbc2c79cc	-0.0105270855
166	0xbd828e70	-0.06374824
167	0xbda9ba71	-0.08287514
168	0xbd254dc8	-0.04035738
169	0xbd9f52f8	-0.07779497
170	0xbc6b0e8f	-0.014346733
171	0x3c8610e6	0.01636548
172	0xbd041bbe	-0.03225302
173	0xbe18ccdf	-0.14921902
174	0xbdae7b20	-0.08519578
175	0x3da38638	0.079845846
176	0xbdc66239	-0.09686703
177	0x3da12af3	0.0786952
178	0x3e0a6128	0.13513625
179	0x3d4da63f	0.050207373
180	0x3d3a8cf4	0.04554458
181	0xbd067fdf	-0.03283679
182	0xbd12c447	-0.035831716
183	0xbe1b3129	-0.15155472
184	0xbe21e3c8	-0.15809548
185	0xbe10a717	-0.1412624
186	0x3d74fc14	0.059810713
187	0xbd88aa80	-0.06673145
188	0x3d85d34f	0.065344445
189	0xbdff4d0d	-0.12465868
190	0xbdb2883a	-0.087173894
191	0x3d38b02c	0.045089886
192	0x3e124c2f	0.14286874
193	0x3bee4117	0.007270943
194	0x3c19c0d9	0.009384357
195	0xbcf66735	-0.03007851
196	0x3df78222	0.12085368
197	0xbd692e04	-0.05692865
198	0xbdc6d10f	-0.097078435
199	0x3d18a63b	0.037267905
200	0xbe12aea1	-0.14324428
201	0xbced6170	-0.028977126
202	0x3d23608e	0.039887004
203	0x3dcef886	0.10105996
204	0x3d97c7c3	0.074111484
205	0xbd54e598	-0.05197677
206	0xbcd94930	-0.026524156
207	0x3dd6b615	0.10483948
208	0x3d8a6f27	0.06759482
209	0xbe0396cd	-0.12850495
210	0xbd99c92e	-0.07509075
211	0xbdbeb865	-0.09312514
212	0x3d480524	0.048833027
213	0x3e2d0152	0.16895035
214	0xbdbf0d7c	-0.09328744
215	0xbda31832	-0.07963599
216	0x3ce8aa5e	0.02840155
217	0xbe330282	-0.17481425
218	0xbd96616f	-0.07342803
219	0xbc453657	-0.012036881
220	0x3e2eab35	0.17057498
221	0xbd09cac8	-0.033640653
222	0xbe02926b	-0.12751167
223	0x3cedc3ca	0.029024024
224	0x3e1d0a14	0.15335876
225	0x3d4d706c	0.050156042
226	0xbc8c931f	-0.017159997
227	0xbacaf15f	-0.0015483311
228	0xbe004ed5	-0.12530072
229	0xbde30f9f	-0.11086964
230	0x3d75f4b7	0.06004783
231	0x3df35a80	0.11882496
232	0xbd82381e	-0.0635836
233	0x3b9dcd23	0.004815714
234	0xbd0fe694	-0.035132006
235	0xbd7a8838	-0.061165065
236	0xbb557231	-0.0032569284
237	0xbb9deaec	-0.0048192646
238	0x3d69e17e	0.05709981
239	0x3e29193c	0.16513532
240	0xbd8cc85f	-0.06874155
241	0xbe08f9b6	-0.13376507
242	0x3cf00a0c	0.029301666
243	0x3e1fc914	0.15604049
244	0xbb95405b	-0.004554791
245	0x3d6f2e7f	0.05839395
246	0xbd45b438	-0.048267573
247	0xbd6366f7	-0.055518117
248	0xbd8eae94	-0.06966892
249	0xbe477556	-0.19478354
250	0xbcd32d7c	-0.025778525
251	0xbd22c1e7	-0.0397357
252	0xbdcba703	-0.09943964
253	0xbdcea156	-0.10089366
254	0x3baf271e	0.0053452393
255	0xbdc4393c	-0.09581229

rnn.bias_ih_l0 f4 [64]
0	0x3d9fc1ef	0.07800662
1	0x3d75f0a3	0.060043942
2	0x3e0969bc	0.1341924
3	0xbbc6effa	-0.006071088
4	0x3de61595	0.11234585
5	0x3dae4c6a	0.085106686
6	0xbc466667	-0.012109376
7	0x3da160d6	0.07879798
8	0x3c7dbf67	0.015487528
9	0xbdd367b7	-0.103225164
10	0x3d8f86de	0.07008146
11	0xbd0b49da	-0.034005977
12	0xbd56ff08	-0.05248931
13	0x3d5cbdf4	0.05389209
14	0xbd2c9085	-0.042130012
15	0x3d99496b	0.074847065
16	0x3c02fc1e	0.00799468
17	0xbdc60735	-0.096693434
18	0xbd09f55c	-0.03368126
19	0xbdb91e69	-0.090390034
20	0xbcba851c	-0.02276855
21	0x3c87cd35	0.016577343
22	0x3d312cce	0.04325562
23	0x3c8aec0a	0.016958255
24	0x3d7da609	0.06192592
25	0x3d36b187	0.044602897
26	0x3d3d0cdd	0.046154846
27	0x3c05e0a8	0.008171238
28	0xbd1233ef	-0.03569406
29	0xbd32148e	-0.043476634
30	0xbccb67b0	-0.024829715
31	0x3d6f3e50	0.058409035
32	0x3da2b986	0.07945542
33	0xbd79449e	-0.060856454
34	0xbda2e75d	-0.07954285
35	0x3d8b4ab0	0.06801355
36	0x3d5b2a2c	0.053507015
37	0xbb4f6891	-0.003164802
38	0x3dae7577	0.085184984
39	0x3caef5b9	0.021357404
40	0x3e13f334	0.14448243
41	0xbd94277c	-0.072340935
42	0x3bf67e20	0.0075223595
43	0xbc7947ae	-0.015214844
44	0x3ce5a790	0.028034002
45	0xbbccf3f9	-0.0062546697
46	0x3c090eae	0.008365316
47	0xbc395506	-0.011311775
48	0x3cd12207	0.02552892
49	0xbcd2cb3f	-0.02573168
50	0xbc8e6d3a	-0.017386068
51	0xbc149e27	-0.00907091
52	0x3b3e581a	0.0029044212
53	0x3d6d68c6	0.057961248
54	0xbd8fb868	-0.070175946
55	0x3c450f6e	0.0120276045
56	0x3c9a1996	0.018811028
57	0x3dd3b24d	0.103367426
58	0xbd89c00c	-0.06726083
59	0x3d130ed1	0.035902802
60	0x3d75f36b	0.060046595
61	0x3cbde3a2	0.023179833
62	0x3dee2db0	0.11629808
63	0x3c03f7f5	0.008054723

rnn.bias_hh_l0 f4 [64]
0	0xbda2c7f8	-0.07948297
1	0xbd8b9020	-0.06814599
2	0xbd8b3e8c	-0.06799039
3	0xbb9193be	-0.004442661
4	0xbd8936a7	-0.06699877
5	0xbde97d91	-0.11400903
6	0xbc5b64d3	-0.013390738
7	0xbd89ca2c	-0.06728014
8	0xbb6e4970	-0.003635969
9	0x3ddf7c41	0.109123714
10	0xbd0cb041	-0.034347776
11	0x3d26c698	0.040716738
12	0x3d28ed1b	0.041241746
13	0xbda18af4	-0.07887831
14	0x3d93f080	0.07223606
15	0xbd91c2d9	-0.07117242
16	0x3c732ec8	0.0148426965
17	0x3da869c9	0.08223302
18	0x3cf8e744	0.030383714
19	0x3d91db51	0.071219094
20	0xbd9ca5fb	-0.07648846
21	0xbc577d49	-0.013152429
22	0xbd3eebcd	-0.046611596
23	0xbcee8f74	-0.029121138
24	0xbd9715f0	-0.07377231
25	0xbd3ee6cf	-0.046606835
26	0xbd748e42	-0.05970598
27	0x3ca935f7	0.020655615
28	0x3d80e313	0.06293311
29	0x3c849577	0.016184552
30	0x3cfe71ec	0.031060182
31	0xbd3b455e	-0.04572045
32	0xbd6c1d3f	-0.05764508
33	0x3d2430b0	0.040085495
34	0x3cc3fdea	0.023924787
35	0xbd2724ff	-0.040806767
36	0xbd8070f4	-0.06271544
37	0x3c640404	0.013916973
38	0xbd8e06d9	-0.069349
39	0xbd794c51	-0.060863797
40	0xbd8320ce	-0.064027414
41	0x3d7b5d85	0.061368484
42	0xbc9d5f0d	-0.019210363
43	0x3cd3b818	0.025844619
44	0xbd6b728b	-0.057482284
45	0x397a91e0	0.000238962
46	0x3c7336b9	0.01484459
47	0x3b2034b2	0.0024445471
48	0xbb67c206	-0.003536345
49	0x3bff4ca8	0.0077911206
50	0x3d064d54	0.03278859
51	0xbc04c954	-0.008104641
52	0xbccf4b7b	-0.025304547
53	0xbd06b88f	-0.032890853
54	0x3d4f013f	0.050538298
55	0xbc8aebab	-0.016958078
56	0xbd084618	-0.03326997
57	0xbdc36949	-0.09541566
58	0x3d6e28f8	0.05814454
59	0xbcc2fe38	-0.023802862
60	0xbd966a37	-0.073444776
61	0x3c1eeaac	0.009699505
62	0xbdd0d5e8	-0.101970494
63	0xbccb6980	-0.02483058

dense.weight f4 [1, 64]
0	0xbd59d94c	-0.053185746
1	0xbd3c1829	-0.04592148
2	0x3e01ff8f	0.12695144
3	0x3c826c49	0.015920775
4	0x3e04b432	0.12959364
5	0xbdf82c7e	-0.12117861
6	0x3d3734cb	0.04472808
7	0xbd8aad19	-0.06771297
8	0xbb9c928d	-0.0047782124
9	0xbdb852fb	-0.09000202
10	0xbcc449b1	-0.02396092
11	0xbdab0805	-0.08351139
12	0xbd46b8fe	-0.048516266
13	0xbbf13a10	-0.007361658
14	0x3bdd3e22	0.0067517916
15	0xbd0a9d7e	-0.033841603
16	0xbb43ed7f	-0.0029896197
17	0xbd6309b9	-0.055429194
18	0x3d4615a7	0.048360493
19	0x3deed958	0.11662549
20	0x3e3b8eec	0.18316239
21	0x3cdfa3df	0.02729982
22	0x3df06880	0.11738682
23	0x3d59778a	0.053092517
24	0xbe080b6c	-0.13285607
25	0xbbb7a60d	-0.0056045116
26	0x3d0d1672	0.034445234
27	0x3be557c6	0.006998989
28	0x3e11306e	0.1417863
29	0xbd98fed9	-0.07470483
30	0x3dc961a2	0.09833075
31	0x3daa5070	0.083161235
32	0x3e038a3f	0.12845705
33	0x3e424526	0.1897169
34	0x3e2ccc01	0.16874696
35	0x3e009ffe	0.12561032
36	0x3c49f714	0.012326974
37	0xbcb60513	-0.022219216
38	0xbd6bbf04	-0.057555214
39	0xbd262289	-0.04056028
40	0x3e2c3ee8	0.16820872
41	0xbce87298	-0.028374955
42	0xbd99d801	-0.075119026
43	0x3caefef1	0.0213618
44	0xbe2a11db	-0.16608374
45	0xbde9d9c3	-0.11418488
46	0x3c80f956	0.015743893
47	0x3dd0119e	0.1015961
48	0x3cc0cde4	0.023535676
49	0x3cf65d47	0.030073775
50	0x3c8f4a4f	0.017491488
51	0xbc8e3fff	-0.0173645
52	0x3d790da0	0.06080401
53	0xbcfb49bd	-0.03067481
54	0xb7c5f640	-2.35989e-05
55	0x3dbc288f	0.091874234
56	0xbdca4308	-0.098760664
57	0x3c846039	0.016159164
58	0xbd5f2a09	-0.054483447
59	0x3dcabff0	0.098998904
60	0x3d392e27	0.04521003
61	0x3bb1e74f	0.0054291855
62	0x3e2541ee	0.16138431
63	0xbc6fbcc4	-0.014632408

exp_avg f4 [64, 1]
0	0x3b24454c	0.0025065718
1	0xb9eb4548	-0.0004487431
2	0xbb611fd2	-0.0034351242
3	0x3a2d497e	0.00066103775
4	0xbb372226	-0.0027943938
5	0x3b57ad96	0.0032909862
6	0xba48c480	-0.00076586753
7	0x3a50f339	0.00079708133
8	0xb9f84a65	-0.00047357674
9	0x3b067f47	0.002052264
10	0x3a2fa8e1	0.0006700885
11	0x39e828d2	0.00044280902
12	0x3ac202a5	0.0014801814
13	0x3a7871aa	0.00094773865
14	0x391265b4	0.00013961532
15	0x3a9ba89f	0.0011875815
16	0x3a16a827	0.00057471026
17	0xb97bedf1	-0.00024025865
18	0xba05bc84	-0.00051016384
19	0xbb141c75	-0.002259997
20	0xbb3aa1d9	-0.0028477816
21	0x39994747	0.0002923554
22	0xbb48c137	-0.0030632743
23	0xba37c6de	-0.00070105295
24	0x3b16ceba	0.0023011402
25	0xba2f0015	-0.00066757324
26	0xba8bbd9b	-0.0010661365
27	0x39bc8d27	0.0003596332
28	0xbb0dca3a	-0.002163543
29	0x3a455a54	0.00075284136
30	0xbb02697b	-0.0019899297
31	0xbadfb46f	-0.0017067323
32	0xbb224e9a	-0.0024766088
33	0xbb9d893a	-0.0048076184
34	0xbb3fa32f	-0.0029241552
35	0xbb1a174c	-0.0023512421
36	0x38d33dc6	0.0001007277
37	0xb9e258f6	-0.0004317236
38	0x3a93d4f5	0.0011278676
39	0x3b5cdb8d	0.0033700198
40	0xbb642c02	-0.003481627
41	0xba77d18b	-0.00094535266
42	0x3a447e09	0.00074955873
43	0x3a91d26c	0.0011125333
44	0x3b861e94	0.0040930007
45	0x3ac8e326	0.0015326485
46	0x38ebc314	0.00011242009
47	0xba80f024	-0.0009837192
48	0xb9efe057	-0.00045752779
49	0xba95de6f	-0.0011434088
50	0xba2a26af	-0.00064907497
51	0x3a6dc1b9	0.00090696994
52	0xba9024d0	-0.0010997299
53	0xb852147c	-5.008698e-05
54	0xb9b1da2b	-0.0003392262
55	0xbafed7e9	-0.0019443008
56	0x3ac81269	0.0015264276
57	0xb93000be	-0.00016784944
58	0x3a8b26df	0.0010616443
59	0xbb084e1a	-0.0020798505
60	0xba1ad3fc	-0.0005906222
61	0x3a8fbba9	0.0010965961
62	0xbb9fc0e4	-0.0048752893
63	0xb947a1f4	-0.00019038451

exp_avg_sq f4 [64, 1]
0	0x392742ac	0.00015951198
1	0x38463193	4.725305e-05
2	0x3a0289fd	0.00049796683
3	0x385fa3d2	5.3319913e-05
4	0x399d839f	0.0003004344
5	0x38f0c406	0.00011480604
6	0x37aeeab7	2.0851714e-05
7	0x383fd1b0	4.5733235e-05
8	0x38e5cf10	0.00010958139
9	0x3937e1b2	0.00017536318
10	0x37c6ba96	2.3690325e-05
11	0x3816ce49	3.5954905e-05
12	0x390fbd0e	0.00013707971
13	0x38b010ff	8.3955e-05
14	0x38496d7f	4.802411e-05
15	0x3897a5dc	7.231135e-05
16	0x3806300e	3.1992844e-05
17	0x38b58599	8.655637e-05
18	0x37b32225	2.1354363e-05
19	0x397cda8b	0.00024114006
20	0x39f159e7	0.00046034085
21	0x381552e0	3.560155e-05
22	0x39765813	0.00023493198
23	0x37e01e82	2.6717087e-05
24	0x391e05ad	0.00015070169
25	0x3812ce23	3.5001092e-05
26	0x386d0746	5.6511977e-05
27	0x38aacbac	8.1441685e-05
28	0x39b02604	0.0003359766
29	0x3857a3c1	5.1412502e-05
30	0x39b8d3d7	0.00035253048
31	0x395ffb44	0.00021360541
32	0x3945ffc3	0.00018882663
33	0x3a4b78e7	0.00077618513
34	0x39f2b9f9	0.00046296397
35	0x39ddb742	0.00042288942
36	0x3806acdb	3.2109074e-05
37	0x382f13e3	4.1741772e-05
38	0x38cbbe78	9.715272e-05
39	0x398bfeba	0.00026701932
40	0x3a32742e	0.0006807473
41	0x38d9a01d	0.0001037719
42	0x38972ee2	7.208974e-05
43	0x39040e57	0.00012593843
44	0x39be152b	0.00036255395
45	0x38587acc	5.1612777e-05
46	0x38060c9e	3.195984e-05
47	0x387bf3bf	6.007007e-05
48	0x382ca81f	4.116457e-05
49	0x38c9ac9c	9.616578e-05
50	0x3816f960	3.5995035e-05
51	0x379c8f2d	1.866332e-05
52	0x38c39ab6	9.327142e-05
53	0x383b4caa	4.4655673e-05
54	0x3929ef7a	0.00016206308
55	0x388270ca	6.219892e-05
56	0x394936b3	0.00019189231
57	0x38074efe	3.2260075e-05
58	0x38a29428	7.752358e-05
59	0x39f1d797	0.0004612773
60	0x381d073d	3.7438458e-05
61	0x3887f863	6.483567e-05
62	0x3a33bb1f	0.00068561913
63	0x391d8108	0.00015020755

exp_avg f4 [64, 64]
0	0xba0f8b87	-0.0005475808
1	0xb8c91fc3	-9.590343e-05
2	0x3a708b38	0.00091760186
3	0x38fff041	0.00012204098
4	0x39bac804	0.00035625708
5	0xb9c19a85	-0.00036926955
6	0x3889f04b	6.577427e-05
7	0xb8d02f84	-9.9270634e-05
8	0xb868fc19	-5.5547895e-05
9	0xba0db0cf	-0.00054050697
10	0xb7fdbc9f	-3.0247784e-05
11	0xb9a1c195	-0.00030852543
12	0xba1f085a	-0.0006066613
13	0x3896881f	7.177912e-05
14	0xb887c386	-6.473721e-05
15	0xb88a5489	-6.596099e-05
16	0xb7f5fb65	-2.932334e-05
17	0xb8bd6bc1	-9.032293e-05
18	0x38b1b93f	8.4745225e-05
19	0x3a840125	0.0010071142
20	0x3aaa784f	0.0013005825
21	0x393d7d52	0.0001807113
22	0x3a551981	0.00081291056
23	0x3906e025	0.00012862736
24	0xba23b71d	-0.00062452425
25	0xb939e276	-0.00017727338
26	0x3921cfd0	0.00015431573
27	0x387e35dc	6.060848e-05
28	0x3a170140	0.0005760379
29	0xb932a591	-0.00017037081
30	0x3a20d64a	0.0006135447
31	0x39b0688e	0.00033647235
32	0x39eea744	0.0004551952
33	0x3a73fea0	0.00093076564
34	0x3a929923	0.0011184554
35	0x3a2d3b09	0.0006608223
36	0xb7117dca	-8.671961e-06
37	0xb91eff86	-0.00015163244
38	0xba04f7b0	-0.00050723087
39	0xba176e93	-0.000577667
40	0x3a2b3ba8	0.0006532022
41	0xb892cd14	-7.000021e-05
42	0xb931f893	-0.00016972637
43	0x37c4d096	2.3462151e-05
44	0xb979a6a5	-0.0002380857
45	0xb94a5fbb	-0.00019299884
46	0xb8f6ae6b	-0.00011762682
47	0x39fbbe1a	0.00048016087
48	0xb8c3ebb6	-9.342229e-05
49	0x39671359	0.00022037084
50	0x36c31313	5.8136734e-06
51	0x37b1c713	2.1192745e-05
52	0x3a1697ee	0.0005744685
53	0xb910edee	-0.00013821546
54	0xb6bb419a	-5.5806713e-06
55	0x39281cae	0.00016032413
56	0xba76e56c	-0.0009418342
57	0xb7bc7e5d	-2.2470189e-05
58	0xb8408cf7	-4.590765e-05
59	0x3a8719b5	0.0010307344
60	0x3902480c	0.00012424606
61	0xb8bd621d	-9.030497e-05
62	0x3a46c8b1	0.0007583006
63	0xb91742eb	-0.00014425411
64	0x39208665	0.00015308855
65	0x38ec118f	0.000112566275
66	0xb92d3d32	-0.00016521363
67	0xb8a4f85d	-7.866391e-05
68	0xb8f0ca01	-0.00011481718
69	0x37e7b6bd	2.762244e-05
70	0xb7cb42e0	-2.4230627e-05
71	0x3904db4c	0.00012670195
72	0x386eb96e	5.6916317e-05
73	0x39608394	0.00021411321
74	0xb833a271	-4.282821e-05
75	0x38f10329	0.00011492364
76	0x39430c03	0.00018601124
77	0xb7a7b1ff	-1.9990837e-05
78	0xb7faf28a	-2.9915263e-05
79	0x37794289	1.4857048e-05
80	0xb8248ee3	-3.923372e-05
81	0x38fd5062	0.000120789526
82	0xb85955a3	-5.1816587e-05
83	0xb9b0616c	-0.0003364192
84	0xb9de218a	-0.00042368128
85	0xb89aeeaf	-7.3877505e-05
86	0xb8b67617	-8.700432e-05
87	0xb8b49f0b	-8.612693e-05
88	0x395fece0	0.0002135518
89	0x39064888	0.00012806256
90	0x38a7d0ec	8.002095e-05
91	0x3812f9d0	3.504177e-05
92	0xb90bd410	-0.00013335072
93	0x37af6a56	2.0911142e-05
94	0xb97df29b	-0.00024218338
95	0xb9308bbc	-0.00016836723
96	0xb92f796b	-0.00016734532
97	0xb99614dd	-0.00028625774
98	0xb9bc8558	-0.00035957503
99	0xb9111362	-0.00013835498
100	0x38252855	3.9376628e-05
101	0x38b6108f	8.6815206e-05
102	0x39082c28	0.0001298642
103	0x38cc2400	9.7341835e-05
104	0xb9504b88	-0.00019864563
105	0x39420b0f	0.00018505401
106	0x391c0d8d	0.00014882367
107	0xb919e1c5	-0.00014675323
108	0x38beb12c	9.092907e-05
109	0x38857341	6.363402e-05
110	0x3784abb8	1.5815589e-05
111	0xb960d35e	-0.00021441045
112	0xb800c006	-3.0696414e-05
113	0xb71e6dce	-9.4431e-06
114	0x38560109	5.102254e-05
115	0xb8d31a2f	-0.00010066141
116	0xb92c7fbe	-0.00016450786
117	0x37af83a5	2.0922927e-05
118	0x38a450d1	7.8351826e-05
119	0xb8c1d3cf	-9.2424096e-05
120	0x3985a008	0.0002548697
121	0xb7cbb547	-2.42839e-05
122	0x384cff1d	4.8874983e-05
123	0xb99deba8	-0.0003012095
124	0xb8a07c1b	-7.652511e-05
125	0xb806bb05	-3.2122265e-05
126	0xb94b8cc3	-0.00019412026
127	0x38d2f4c6	0.00010059173
128	0x3a38382c	0.0007027413
129	0xb81d64be	-3.752554e-05
130	0xba9bb191	-0.001187848
131	0x37aa370f	2.0291218e-05
132	0xba04cecd	-0.0005066216
133	0x3a11cbb9	0.0005561668
134	0xb8de26ef	-0.00010593037
135	0x39255cb3	0.0001577016
136	0x3899820c	7.319832e-05
137	0x3a3a0f4c	0.00070976163
138	0x371b206f	9.2462715e-06
139	0x397ffdf8	0.00024413306
140	0x3a5611e9	0.0008166121
141	0x3820655f	3.8241382e-05
142	0x396df2dc	0.00022692553
143	0x39453c7d	0.00018809918
144	0x3941f550	0.000184973
145	0xb8a66edd	-7.936147e-05
146	0xb918c29e	-0.0001456835
147	0xbaa12801	-0.0012295247
148	0xbad46771	-0.0016205144
149	0x38b45308	8.5985346e-05
150	0xba988799	-0.0011637091
151	0xb97a20ed	-0.00023854124
152	0x3a6c7495	0.00090200576
153	0x380b3bf9	3.3196036e-05
154	0xb9366e0c	-0.00017397868
155	0x38bb50a8	8.931878e-05
156	0xba5ce291	-0.0008426095
157	0x3802add7	3.1156316e-05
158	0xba68afa8	-0.00088762725
159	0xb9db0ce1	-0.0004178053
160	0xba24631d	-0.00062708725
161	0xbaa20562	-0.0012361223
162	0xbac0a887	-0.0014698663
163	0xba814da1	-0.0009865054
164	0x38997b02	7.3185205e-05
165	0x3944cbaa	0.00018767887
166	0x3a290905	0.00064481824
167	0x3a655180	0.0008747801
168	0xba8e1554	-0.0010840097
169	0xb77c0e4c	-1.5023699e-05
170	0x38b70326	8.7267064e-05
171	0x38a02043	7.635404e-05
172	0x39b47739	0.00034421103
173	0x397c73f2	0.00024075786
174	0x393b13c8	0.00017841079
175	0xba1737c5	-0.0005768503
176	0xb78c1e8a	-1.6703521e-05
177	0xb9917342	-0.0002774243
178	0xb8bf79bd	-9.130265e-05
179	0x381044fa	3.4396515e-05
180	0xba1cde57	-0.0005984059
181	0x38ab1361	8.157525e-05
182	0x38405089	4.585137e-05
183	0xb876250e	-5.868548e-05
184	0x3a9ac710	0.0011808593
185	0x37e76609	2.758486e-05
186	0x3851b392	4.999672e-05
187	0xbab76494	-0.0013991767
188	0xb89808fa	-7.249597e-05
189	0x3944eab8	0.00018779456
190	0xba7178c5	-0.00092114165
191	0x3954bd7e	0.00020288487
192	0xb8e657a1	-0.00010983577
193	0xb857f7b4	-5.1490686e-05
194	0x3927496f	0.00015953717
195	0x37fd29c8	3.0179406e-05
196	0x38b657fe	8.694826e-05
197	0x3744de55	1.1734276e-05
198	0x37110e25	8.645967e-06
199	0xb828090a	-4.006274e-05
200	0xb8613029	-5.3689033e-05
201	0xb92eb188	-0.00016660069
202	0x38039e61	3.1380336e-05
203	0xb8af3538	-8.354563e-05
204	0xb92e88fa	-0.00016644961
205	0x376ad9c0	1.3998186e-05
206	0x374c4ebb	1.2177678e-05
207	0xb740b950	-1.1487238e-05
208	0x373c69a9	1.1230274e-05
209	0xb83cfe33	-4.5059434e-05
210	0x3661ee70	3.3666402e-06
211	0x398c57a8	0.0002676819
212	0x39bf028d	0.0003643226
213	0x3824d57e	3.9299477e-05
214	0x38ed34c5	0.0001131087
215	0x38152561	3.555918e-05
216	0xb954d80a	-0.00020298376
217	0xb8da6e64	-0.00010415612
218	0xb8940e19	-7.059816e-05
219	0xb7d3d6c5	-2.525317e-05
220	0x38f1bd81	0.000115270734
221	0xb502a991	-4.8675525e-07
222	0x396c0a4a	0.00022510547
223	0x390a1bdb	0.00013171083
224	0x390dec31	0.00013534796
225	0x396372ae	0.00021691128
226	0x399f0f09	0.00030338045
227	0x39316c42	0.00016920365
228	0xb81b912a	-3.7090074e-05
229	0xb86b20e1	-5.6058987e-05
230	0xb8d8bdc5	-0.0001033503
231	0xb89fc60a	-7.6185985e-05
232	0x39428a22	0.0001855274
233	0xb90521fc	-0.00012696529
234	0xb8823d0b	-6.210253e-05
235	0x388531a2	6.351179e-05
236	0xb88598fb	-6.370429e-05
237	0x37b6d307	2.1794358e-05
238	0xb7ca7f8a	-2.4139666e-05
239	0x3915787f	0.00014254636
240	0x370d248a	8.412762e-06
241	0x37d1ecd0	2.5025016e-05
242	0xb89afde7	-7.390585e-05
243	0x384a22e4	4.8193047e-05
244	0x38d17054	9.986819e-05
245	0xb816f877	-3.5994188e-05
246	0xb7e6a114	-2.7493144e-05
247	0x36dece2b	6.6401167e-06
248	0xb969129d	-0.00022227546
249	0x38243680	3.9151404e-05
250	0xb7ccc145	-2.4408693e-05
251	0x3983eecd	0.00025164188
252	0x38668982	5.4964337e-05
253	0xb5d607dc	-1.594653e-06
254	0x3928f589	0.00016113197
255	0xb881fef7	-6.19869e-05

exp_avg_sq f4 [64, 64]
0	0x37550c32	1.2698629e-05
1	0x362f5715	2.612772e-06
2	0x3854697a	5.064297e-05
3	0x36f97eec	7.435554e-06
4	0x3732a4b7	1.0647977e-05
5	0x37672489	1.3777179e-05
6	0x366fed19	3.5751784e-06
7	0x373a2b3c	1.109653e-05
8	0x36fd1177	7.5420207e-06
9	0x3750745e	1.242486e-05
10	0x35eb694d	1.7539511e-06
11	0x371e678a	9.441641e-06
12	0x37a2a7cc	1.9390041e-05
13	0x3713a8de	8.8012e-06
14	0x36ea657d	6.9855582e-06
15	0x36f59176	7.318503e-06
16	0x35ef43d0	1.7826624e-06
17	0x35a1a7a7	1.2044228e-06
18	0x36550a25	3.1745378e-06
19	0x37c6f38b	2.3716848e-05
20	0x37f73921	2.9471297e-05
21	0x3680969a	3.8322296e-06
22	0x37a4ed4f	1.9660829e-05
23	0x36b41f05	5.368029e-06
24	0x3801f4e3	3.0984065e-05
25	0x36b0b6e9	5.2665023e-06
26	0x374d990a	1.2254584e-05
27	0x3620d44d	2.3965433e-06
28	0x376310fd	1.353421e-05
29	0x37a808a6	2.0031188e-05
30	0x3721041d	9.5973055e-06
31	0x3758397d	1.2887988e-05
32	0x3778c7d4	1.4828478e-05
33	0x371371d6	8.788387e-06
34	0x37ec82a0	2.819422e-05
35	0x378fbe3f	1.7135519e-05
36	0x36950bad	4.4419053e-06
37	0x3630632c	2.628377e-06
38	0x3796d23e	1.7979295e-05
39	0x375d0239	1.3173144e-05
40	0x385326ce	5.034246e-05
41	0x37423e29	1.1577774e-05
42	0x3756822d	1.2785703e-05
43	0x36a87eed	5.0215663e-06
44	0x3672e64d	3.6194863e-06
45	0x36a5f0c8	4.945414e-06
46	0x372ae236	1.0185458e-05
47	0x37c8d254	2.39398e-05
48	0x363cddc0	2.8143259e-06
49	0x378f0e58	1.7053608e-05
50	0x36cb0882	6.050862e-06
51	0x36e6e43e	6.881105e-06
52	0x3719cd3f	9.167298e-06
53	0x37208a6d	9.568973e-06
54	0x35c1f0fd	1.4449757e-06
55	0x3697e342	4.526607e-06
56	0x382897a9	4.0195566e-05
57	0x370d669c	8.4281455e-06
58	0x36179daf	2.2592537e-06
59	0x38567fc7	5.1140578e-05
60	0x36c166a9	5.7637994e-06
61	0x3754e495	1.2689406e-05
62	0x37af9889	2.0932655e-05
63	0x371995a5	9.1543525e-06
64	0x368ee765	4.2588676e-06
65	0x36237d36	2.4361775e-06
66	0x373d2b42	1.127535e-05
67	0x36ceff43	6.168995e-06
68	0x36b16452	5.28669e-06
69	0x36773c5c	3.6841002e-06
70	0x35e140dd	1.6782684e-06
71	0x36a729d8	4.981859e-06
72	0x3695181b	4.4433523e-06
73	0x36562dab	3.1915067e-06
74	0x352e313b	6.489169e-07
75	0x3758ad38	1.2914934e-05
76	0x36994914	4.5682627e-06
77	0x36be17ba	5.6652034e-06
78	0x36a5e1f9	4.94369e-06
79	0x35d76497	1.6048024e-06
80	0x3670bb8b	3.5871951e-06
81	0x360335e2	1.9551885e-06
82	0x361865d8	2.2709046e-06
83	0x36bfd4e0	5.7170255e-06
84	0x37059a02	7.9632755e-06
85	0x3779a41f	1.4879769e-05
86	0x37ce8c32	2.4622397e-05
87	0x35c86367	1.4930091e-06
88	0x36d5c386	6.3706566e-06
89	0x375aadb2	1.3034254e-05
90	0x3814326e	3.5332916e-05
91	0x3794c2e0	1.773372e-05
92	0x37259599	9.869597e-06
93	0x378d4bf0	1.6843871e-05
94	0x35ea2fcb	1.7448268e-06
95	0x3669a22b	3.48141e-06
96	0x3710f7fd	8.640808e-06
97	0x361047cd	2.1499466e-06
98	0x36aac30e	5.089102e-06
99	0x36fca5b1	7.5294743e-06
100	0x37586dd7	1.2900177e-05
101	0x356a4bed	8.728228e-07
102	0x36f6b678	7.3526135e-06
103	0x3669fca0	3.4866753e-06
104	0x371ee41a	9.470643e-06
105	0x371d6d0b	9.383318e-06
106	0x369b50db	4.628773e-06
107	0x37abfb9c	2.0501953e-05
108	0x3587b889	1.0111991e-06
109	0x36437937	2.912782e-06
110	0x36cefe09	6.168852e-06
111	0x369bf8e1	4.6483333e-06
112	0x372fb235	1.0472305e-05
113	0x36ca0b58	6.0213897e-06
114	0x35d3ea31	1.5788884e-06
115	0x36958d33	4.456984e-06
116	0x36461ab7	2.951985e-06
117	0x36f357c1	7.2521802e-06
118	0x34d5869e	3.9772289e-07
119	0x35a9f87a	1.2663797e-06
120	0x371f2bd4	9.487343e-06
121	0x370f1b14	8.529769e-06
122	0x354c1865	7.603142e-07
123	0x372c78eb	1.0280152e-05
124	0x372cb5d2	1.0294332e-05
125	0x36d89c77	6.4555165e-06
126	0x3696485f	4.4787735e-06
127	0x37abae70	2.0466017e-05
128	0x37c64f3d	2.3640338e-05
129	0x36adcf94	5.179967e-06
130	0x38d77509	0.000102737984
131	0x3762b51f	1.351282e-05
132	0x37c1f037	2.3119252e-05
133	0x37d9c26f	2.5958956e-05
134	0x36a88d7f	5.0232625e-06
135	0x377689de	1.4694842e-05
136	0x371955d4	9.139494e-06
137	0x37c03f9e	2.2917808e-05
138	0x364eeaed	3.0833137e-06
139	0x3770a909	1.4344471e-05
140	0x38109600	3.4471974e-05
141	0x3738ab61	1.1007157e-05
142	0x3709795e	8.194094e-06
143	0x3775141e	1.4607822e-05
144	0x363e70c1	2.8377838e-06
145	0x363030e5	2.6254504e-06
146	0x36a5d2d1	4.9419255e-06
147	0x385f85f2	5.329209e-05
148	0x389fa1cc	7.611848e-05
149	0x36b3b6e9	5.3559093e-06
150	0x384d7559	4.8985097e-05
151	0x36d3de72	6.314186e-06
152	0x387cc576	6.026538e-05
153	0x370279cc	7.776962e-06
154	0x3758c595	1.2920606e-05
155	0x364840c4	2.984002e-06
156	0x37e42ef8	2.720159e-05
157	0x37fdba5e	3.0246734e-05
158	0x37e1aa47	2.6901382e-05
159	0x37b7a964	2.1894179e-05
160	0x37ff3d78	3.0426992e-05
161	0x37f42769	2.9105418e-05
162	0x3888f357	6.530311e-05
163	0x38284db3	4.0126684e-05
164	0x36b9fa54	5.5425717e-06
165	0x368c8b20	4.1885214e-06
166	0x380a5d80	3.2988843e-05
167	0x37d2b49f	2.5118059e-05
168	0x38e59e43	0.000109490495
169	0x3782870a	1.556009e-05
170	0x378d7250	1.686174e-05
171	0x370be939	8.339347e-06
172	0x37351051	1.079224e-05
173	0x371fd018	9.525589e-06
174	0x37260f83	9.897983e-06
175	0x38376e82	4.373352e-05
176	0x36811dbf	3.8479625e-06
177	0x37b7735e	2.1869022e-05
178	0x36e00178	6.675891e-06
179	0x373dcc4d	1.1312845e-05
180	0x379172a4	1.733873e-05
181	0x37581cf7	1.2881347e-05
182	0x360a1ae9	2.0579266e-06
183	0x370d9bc5	8.440523e-06
184	0x38b21495	8.491535e-05
185	0x37184894	9.076804e-06
186	0x36af7c26	5.229859e-06
187	0x38e481ce	0.00010896065
188	0x36dea12e	6.6348794e-06
189	0x379dda86	1.8817616e-05
190	0x38420ab8	4.6263187e-05
191	0x372bb698	1.0234908e-05
192	0x35abd420	1.2802229e-06
193	0x35d9b19d	1.6219452e-06
194	0x366d62c9	3.5373253e-06
195	0x369ad6a4	4.614545e-06
196	0x367d7016	3.776518e-06
197	0x35b9f184	1.3853864e-06
198	0x35814072	9.630005e-07
199	0x3600d922	1.9199874e-06
200	0x36619670	3.3615179e-06
201	0x358f52ff	1.0678485e-06
202	0x35b27362	1.3295614e-06
203	0x370e86c8	8.495241e-06
204	0x36108638	2.1535798e-06
205	0x3671b507	3.601717e-06
206	0x368b318b	4.1482904e-06
207	0x3613507b	2.1951553e-06
208	0x36432822	2.9080625e-06
209	0x35e8355a	1.7300874e-06
210	0x35db57ee	1.6342362e-06
211	0x35cf2f80	1.5436526e-06
212	0x36a16b82	4.8106895e-06
213	0x372da00a	1.03488655e-05
214	0x378da3f2	1.6884853e-05
215	0x34f4341d	4.548646e-07
216	0x361c2e4b	2.3272758e-06
217	0x370e3ec4	8.478473e-06
218	0x37c566e3	2.353214e-05
219	0x375b862c	1.30846565e-05
220	0x36cb29bd	6.0547304e-06
221	0x3732547b	1.0629296e-05
222	0x358689b9	1.002386e-06
223	0x35cb1f1f	1.5133736e-06
224	0x36cdcc92	6.133291e-06
225	0x35e5fc09	1.7135181e-06
226	0x35dd6915	1.6496366e-06
227	0x36c985f2	6.00586e-06
228	0x3722465d	9.672335e-06
229	0x35a9d7cc	1.2654286e-06
230	0x363f1401	2.8472862e-06
231	0x35630c72	8.45822e-07
232	0x3674db97	3.6486651e-06
233	0x36ffab30	7.619521e-06
234	0x35f052e7	1.7905521e-06
235	0x3781cbfe	1.547299e-05
236	0x353691bf	6.801237e-07
237	0x35d442c6	1.5814664e-06
238	0x36388b91	2.7499375e-06
239	0x364a87d4	3.0179408e-06
240	0x36df8ae6	6.662088e-06
241	0x35e1ed98	1.6832955e-06
242	0x350ad388	5.1716825e-07
243	0x360b06aa	2.0716493e-06
244	0x35875573	1.0083153e-06
245	0x3696e834	4.4973804e-06
246	0x350da056	5.275991e-07
247	0x357484f6	9.1090567e-07
248	0x366f83f5	3.5690584e-06
249	0x36a43d8f	4.8947472e-06
250	0x35bc37da	1.4023346e-06
251	0x366eb09e	3.5567568e-06
252	0x36d3344d	6.2943786e-06
253	0x36362385	2.7140788e-06
254	0x35837d14	9.796663e-07
255	0x376ca8bb	1.4105982e-05

exp_avg f4 [64]
0	0xbbc3f5de	-0.0059802374
1	0x3adf1859	0.0017020806
2	0x3bd6d531	0.006556176
3	0xbaab50c7	-0.0013070338
4	0x3ba609c8	0.005067084
5	0xbb94fcc5	-0.004546734
6	0x3aa8e5bb	0.0012885848
7	0xbaaac747	-0.001302936
8	0x3a9d643e	0.0012008024
9	0xbb823e6b	-0.003974726
10	0xb95be8ae	-0.00020972147
11	0x3a633694	0.00086674956
12	0xbb130853	-0.0022435382
13	0xbb350f04	-0.0027627358
14	0x37ce86d9	2.4619907e-05
15	0xbb307f1d	-0.0026931234
16	0xbb0a72ba	-0.0021125511
17	0x3b4c67ca	0.0031189793
18	0x3a6bceed	0.0008995373
19	0x3b803835	0.0039129504
20	0x3b9c019d	0.0047609345
21	0xbb264e1f	-0.0025376154
22	0x3b9a08fa	0.004700777
23	0x3a9187e1	0.0011103117
24	0xbb58dc7f	-0.003309041
25	0x3b463c39	0.0030248298
26	0x3adf8b98	0.0017055152
27	0xbaea9948	-0.0017898465
28	0x3b58b70d	0.003306809
29	0xb9b570d0	-0.00034607062
30	0x3b20884f	0.0024495309
31	0x3b401c6d	0.0029313818
32	0x3b465bb5	0.0030267064
33	0x3c04613c	0.008079823
34	0x3b90131c	0.0043968093
35	0x3b77b432	0.0037796614
36	0xba7dee69	-0.000968671
37	0x3b07d485	0.0020726037
38	0xba954e92	-0.0011391214
39	0xbbd05118	-0.0063573234
40	0x3bbe2cbe	0.0058036735
41	0x3b3e2b5f	0.002901755
42	0xba2217e1	-0.0006183368
43	0xbb427e3c	-0.0029677292
44	0xbbbdd4f6	-0.005793209
45	0xbb3bbb57	-0.0028645599
46	0xb9dbb955	-0.00041909018
47	0x3a320aff	0.00067917997
48	0x3b16adfe	0.002299189
49	0x3aebec42	0.0017999487
50	0x3ad66755	0.00163577
51	0xba93e4b5	-0.001128337
52	0x3906897e	0.00012830456
53	0x3b039765	0.0020079252
54	0x39cd4527	0.0003915217
55	0x3b3efd54	0.0029142695
56	0xbb2b8fbb	-0.00261782
57	0xba6bac89	-0.00089902483
58	0xb9eb9bf3	-0.00044938884
59	0x3bafebbc	0.005368678
60	0xb8c57960	-9.4163e-05
61	0xbb02df1d	-0.0019969412
62	0x3c080e20	0.008304149
63	0xb8ee2082	-0.000113547794

exp_avg_sq f4 [64]
0	0x38f45dc8	0.00011652295
1	0x37509e92	1.2434686e-05
2	0x39ffa1d7	0.0004875797
3	0x378b0be6	1.6575632e-05
4	0x391c3250	0.00014896062
5	0x389079e1	6.889157e-05
6	0x36aea644	5.20496e-06
7	0x3794595b	1.7684584e-05
8	0x37a358e9	1.9472516e-05
9	0x38af7cf3	8.367924e-05
10	0x36aef39d	5.2139644e-06
11	0x37375f08	1.0929776e-05
12	0x38ec98f9	0.0001128185
13	0x37be8d96	2.2715696e-05
14	0x373c7ff2	1.1235463e-05
15	0x3801c6b4	3.0941053e-05
16	0x3707f316	8.103225e-06
17	0x374553fd	1.176167e-05
18	0x369f5a0b	4.7490516e-06
19	0x398b3165	0.00026548948
20	0x3a001c00	0.0004886985
21	0x366a8b04	3.4949635e-06
22	0x39734bb0	0.00023202482
23	0x367cb33a	3.765525e-06
24	0x38f9665f	0.00011892313
25	0x3706a274	8.0248465e-06
26	0x36acabd8	5.1460047e-06
27	0x36c0beb9	5.744249e-06
28	0x3901e75a	0.00012388584
29	0x3768725a	1.3854902e-05
30	0x3999f59b	0.00029365424
31	0x389c3363	7.448231e-05
32	0x38ba3083	8.878207e-05
33	0x3a1daa2d	0.0006014433
34	0x39be73cc	0.000363259
35	0x396130fe	0.00021475923
36	0x36fabfb0	7.472896e-06
37	0x37113995	8.65608e-06
38	0x37bc6f64	2.2463217e-05
39	0x397eae38	0.00024288229
40	0x3a45ae58	0.0007540933
41	0x371450d6	8.8403085e-06
42	0x375b4db3	1.3071508e-05
43	0x389c8300	7.46306e-05
44	0x39202d69	0.00015275706
45	0x3789051a	1.6334048e-05
46	0x37182016	9.067377e-06
47	0x385114e1	4.9848928e-05
48	0x370979dc	8.194209e-06
49	0x381afb78	3.695066e-05
50	0x3704fc7d	7.9266e-06
51	0x37333382	1.0681224e-05
52	0x384f597f	4.9435996e-05
53	0x37463692	1.1814425e-05
54	0x3812741d	3.491725e-05
55	0x37d8580d	2.5790208e-05
56	0x394ff185	0.00019831031
57	0x36aa2996	5.071236e-06
58	0x37949b0a	1.771517e-05
59	0x3a14cfd6	0.0005676722
60	0x3727e278	1.00067045e-05
61	0x37903be5	1.7194028e-05
62	0x3a0b65ac	0.00053175795
63	0x381c8294	3.731491e-05

exp_avg f4 [64]
0	0xbbc3f5df	-0.005980238
1	0x3adf185b	0.0017020808
2	0x3bd6d532	0.0065561766
3	0xbaab50c7	-0.0013070338
4	0x3ba609c6	0.005067083
5	0xbb94fcc5	-0.004546734
6	0x3aa8e5b9	0.0012885845
7	0xbaaac748	-0.0013029361
8	0x3a9d643e	0.0012008024
9	0xbb823e6b	-0.003974726
10	0xb95be8b1	-0.00020972152
11	0x3a633692	0.00086674944
12	0xbb130856	-0.0022435389
13	0xbb350f01	-0.0027627351
14	0x37ce86ca	2.461988e-05
15	0xbb307f1e	-0.0026931236
16	0xbb0a72bb	-0.0021125514
17	0x3b4c67c9	0.003118979
18	0x3a6bcef0	0.00089953747
19	0x3b803831	0.0039129485
20	0x3b9c01a2	0.004760937
21	0xbb264e20	-0.0025376156
22	0x3b9a08f9	0.0047007767
23	0x3a9187e0	0.0011103116
24	0xbb58dc82	-0.0033090417
25	0x3b463c3a	0.00302483
26	0x3adf8b98	0.0017055152
27	0xbaea994c	-0.0017898469
28	0x3b58b70e	0.0033068093
29	0xb9b570c0	-0.00034607016
30	0x3b20884b	0.00244953
31	0x3b401c69	0.0029313809
32	0x3b465baf	0.003026705
33	0x3c04613f	0.008079826
34	0x3b90131f	0.0043968107
35	0x3b77b432	0.0037796614
36	0xba7dee6b	-0.0009686711
37	0x3b07d486	0.002072604
38	0xba954e8a	-0.0011391204
39	0xbbd0511d	-0.0063573257
40	0x3bbe2cbe	0.0058036735
41	0x3b3e2b5f	0.002901755
42	0xba2217e6	-0.0006183371
43	0xbb427e3c	-0.0029677292
44	0xbbbdd4f8	-0.00579321
45	0xbb3bbb57	-0.0028645599
46	0xb9dbb959	-0.0004190903
47	0x3a320af6	0.00067917944
48	0x3b16adfe	0.002299189
49	0x3aebec43	0.0017999489
50	0x3ad66757	0.0016357702
51	0xba93e4b5	-0.001128337
52	0x390689b2	0.00012830531
53	0x3b039766	0.0020079254
54	0x39cd452a	0.00039152178
55	0x3b3efd55	0.0029142697
56	0xbb2b8fbb	-0.00261782
57	0xba6bac8e	-0.0008990251
58	0xb9eb9bf4	-0.00044938887
59	0x3bafebbc	0.005368678
60	0xb8c57960	-9.4163e-05
61	0xbb02df1c	-0.001996941
62	0x3c080e24	0.008304153
63	0xb8ee20a5	-0.00011354805

exp_avg_sq f4 [64]
0	0x38f45dc6	0.00011652293
1	0x37509e95	1.2434689e-05
2	0x39ffa1d9	0.00048757976
3	0x378b0be6	1.6575632e-05
4	0x391c3252	0.00014896065
5	0x389079e1	6.889157e-05
6	0x36aea644	5.20496e-06
7	0x3794595a	1.7684582e-05
8	0x37a358ea	1.9472518e-05
9	0x38af7cf2	8.367923e-05
10	0x36aef39d	5.2139644e-06
11	0x37375f09	1.0929777e-05
12	0x38ec98fa	0.00011281851
13	0x37be8d96	2.2715696e-05
14	0x373c7ff1	1.1235462e-05
15	0x3801c6b4	3.0941053e-05
16	0x3707f316	8.103225e-06
17	0x374553fe	1.1761671e-05
18	0x369f5a09	4.7490507e-06
19	0x398b3165	0.00026548948
20	0x3a001c00	0.0004886985
21	0x366a8b02	3.494963e-06
22	0x39734bae	0.00023202479
23	0x367cb333	3.7655234e-06
24	0x38f96660	0.00011892314
25	0x3706a274	8.0248465e-06
26	0x36acabd7	5.1460042e-06
27	0x36c0beb7	5.744248e-06
28	0x3901e75a	0.00012388584
29	0x37687258	1.38549e-05
30	0x3999f59b	0.00029365424
31	0x389c3360	7.448229e-05
32	0x38ba3085	8.8782086e-05
33	0x3a1daa2e	0.00060144335
34	0x39be73cc	0.000363259
35	0x396130ff	0.00021475925
36	0x36fabfb0	7.472896e-06
37	0x37113997	8.656082e-06
38	0x37bc6f65	2.2463219e-05
39	0x397eae36	0.00024288226
40	0x3a45ae59	0.00075409334
41	0x371450d8	8.84031e-06
42	0x375b4db1	1.3071506e-05
43	0x389c8301	7.463061e-05
44	0x39202d6b	0.00015275709
45	0x37890519	1.6334046e-05
46	0x37182016	9.067377e-06
47	0x385114e0	4.9848924e-05
48	0x370979dd	8.19421e-06
49	0x381afb76	3.6950652e-05
50	0x3704fc7d	7.9266e-06
51	0x37333383	1.0681225e-05
52	0x384f5980	4.9436e-05
53	0x37463693	1.1814426e-05
54	0x3812741c	3.4917248e-05
55	0x37d8580f	2.5790212e-05
56	0x394ff186	0.00019831033
57	0x36aa2996	5.071236e-06
58	0x37949b0a	1.771517e-05
59	0x3a14cfd7	0.00056767225
60	0x3727e27a	1.0006706e-05
61	0x37903be5	1.7194028e-05
62	0x3a0b65ac	0.00053175795
63	0x381c8293	3.7314905e-05

exp_avg f4 [1, 64]
0	0x3b83bbd1	0.004020192
1	0x3aed3290	0.0018096734
2	0xbb70dc5f	-0.0036752445
3	0xbab73def	-0.001398025
4	0xbb4fe4e8	-0.0031722132
5	0x3a35dbfd	0.0006937383
6	0xba750c59	-0.0009347848
7	0x3b2cb412	0.0026352447
8	0x396bc490	0.00022484572
9	0x3b505a1b	0.0031791988
10	0xb9d2b99f	-0.0004019262
11	0x3ab35ced	0.001368431
12	0x3b683843	0.0035433925
13	0x37b62d6b	2.171724e-05
14	0x3a07bcd4	0.0005177979
15	0x3ae1b412	0.0017219803
16	0x3a86b461	0.0010277146
17	0xba02b0bf	-0.00049854437
18	0xbb048144	-0.002021865
19	0xbbbf9c89	-0.005847518
20	0xbbd64459	-0.0065389094
21	0x3a76fa70	0.00094214734
22	0xbb0686d7	-0.0020527148
23	0xbabf78e7	-0.0014608175
24	0x3b8aae67	0.004232216
25	0xba075474	-0.0005162426
26	0x3a8c2692	0.0010692647
27	0x3b07dca0	0.0020730868
28	0xbb701abe	-0.0036637033
29	0x3a344816	0.0006877197
30	0xbb7a8a42	-0.003822938
31	0xbb29bc73	-0.0025899678
32	0xbb619a7a	-0.003442435
33	0xbb924730	-0.0044640526
34	0xbbb8ac30	-0.0056357607
35	0xbb5ddc48	-0.0033853222
36	0x39ee97c4	0.00045507972
37	0x3a66ba87	0.00088015985
38	0x3b1edd0e	0.0024240646
39	0x3ad9ce02	0.0016617181
40	0xbb80554b	-0.0039164177
41	0x3ae0a6b2	0.0017139523
42	0x3b15b6d6	0.0022844574
43	0xba93f82e	-0.0011289173
44	0x3b0854ad	0.0020802424
45	0x3b0ba087	0.0021305399
46	0xb91508df	-0.00014213052
47	0xbb6b14d0	-0.003587056
48	0xbb240e05	-0.002503277
49	0xba831c4f	-0.0010002943
50	0x39c0a7e1	0.00036746173
51	0xbaf358ea	-0.0018565927
52	0xbb389989	-0.0028167686
53	0xba23ab63	-0.0006243495
54	0x3ab8b722	0.0014092664
55	0xb9fa5a66	-0.00047751068
56	0x3b88ede8	0.0041787513
57	0x3a598fdb	0.0008299329
58	0x3a0b194b	0.0005306198
59	0xbb90c7b9	-0.00441834
60	0xba5116c2	-0.00079761085
61	0x3a0d0832	0.00053799443
62	0xbb5c223d	-0.0033589744
63	0x3aa349fe	0.0012457964

exp_avg_sq f4 [1, 64]
0	0x3a225970	0.0006193137
1	0x38ee2627	0.00011355831
2	0x3b1823d3	0.0023214712
3	0x3989f03a	0.0002630966
4	0x3a0523b8	0.000507887
5	0x3a281784	0.00064121955
6	0x392cb52a	0.00016470687
7	0x39de1858	0.00042361277
8	0x398622cc	0.00025584397
9	0x3a13ca3b	0.00056377397
10	0x38d5c55e	0.00010193394
11	0x39c72713	0.0003798535
12	0x3a5cf33b	0.0008428578
13	0x39aa11a1	0.0003243806
14	0x395ff449	0.0002135794
15	0x39b1d291	0.00033916955
16	0x38a75083	7.978177e-05
17	0x388f6950	6.838387e-05
18	0x3903cb57	0.00012568884
19	0x3a992d7f	0.0011686533
20	0x3ad2ee0e	0.0016092674
21	0x38d519b0	0.00010161416
22	0x3a80e11d	0.0009832714
23	0x3958ae3c	0.00020664273
24	0x3abaf968	0.0014265003
25	0x39496633	0.00019206926
26	0x39c8400d	0.00038194694
27	0x38c039ea	9.166061e-05
28	0x3a2885cd	0.0006428629
29	0x3a53e9fd	0.0008083878
30	0x3a1974dd	0.0005853901
31	0x3a14f462	0.0005682168
32	0x3a3b6269	0.0007148148
33	0x3a1ca1c7	0.00059750344
34	0x3ab9e397	0.0014182207
35	0x3a5ded77	0.0008465866
36	0x39248b83	0.00015692231
37	0x391a736a	0.0001472958
38	0x3a495a45	0.0007680993
39	0x3a2c6eb7	0.0006577777
40	0x3b1f55b6	0.0024312562
41	0x39c9daca	0.00038500718
42	0x3a000165	0.00048830203
43	0x394b049f	0.0001936131
44	0x39771bcb	0.0002356611
45	0x398b486e	0.0002656611
46	0x39bf34a1	0.0003646957
47	0x3a7dec71	0.00096864166
48	0x38f83f40	0.00011837343
49	0x3a1e9748	0.00060497643
50	0x396da4f5	0.00022663533
51	0x39906779	0.00027542913
52	0x39c401ba	0.0003738532
53	0x39b335c3	0.00034181596
54	0x3886e8a1	6.4329484e-05
55	0x396233ea	0.00021572379
56	0x3afe4ccd	0.001940155
57	0x399dd62e	0.0003010495
58	0x39030d7f	0.00012498161
59	0x3b1da469	0.0024054295
60	0x394fff7c	0.00019836234
61	0x39e5920d	0.000437871
62	0x3a8c49e1	0.001070317
63	0x39a2897d	0.00031001485
