05_NeuralNetwork/logs/mlp/version_1/checkpoints/last.ckpt (torch, 6281 bytes, 8 tensors)

model.0.weight f4 [4, 2]
00000000: 3c4c 3ebe 18ff f53d dd2b 4c3f 659d 0dbf
00000010: da89 9bbf be07 1b3e 6010 b3bd 40c5 383e
-0.18583769 0.12011546 0.7975443 -0.5531829 -1.2151444 0.15139672 -0.08743358 0.18043995

model.0.bias f4 [4]
00000000: 2838 0abf 0b85 d83e e9ff 493f dce4 15bf
-0.5399194 0.42289004 0.7890611 -0.58552337

model.2.weight f4 [8, 4]
00000000: 2008 9abe d3f2 37bb 9746 033e 5026 823e
00000010: fad2 f9be 1153 22be 5c98 983f b83a d8be
00000020: 6640 ca3e 7531 263f 3db3 a6be 4c42 013e
00000030: 88ab f23d 907f 6dbe b3ae cf3d 80db 05bd
00000040: 9814 eb3e f835 65be 40be 68bc d0dc b03e
00000050: 1063 513e 1c02 d93e 4518 adbe acb6 efbe
00000060: e08d 563e c29c e5be dc7f 38be b21e 803e
00000070: ee59 a83e 4047 1fbd 225f afbe b224 863e
-0.30084324 -0.0028068318 0.12819897 0.25419855 -0.48793775 -0.15852 1.1921496 -0.422323
0.39502257 0.64919215 -0.32558623 0.12622947 0.11849123 -0.23193192 0.10140743 -0.032680035
0.4591415 -0.22383869 -0.014205515 0.34543467 0.20447946 0.42384422 -0.3380758 -0.46819055
0.20952559 -0.4484616 -0.18017524 0.2502342 0.3288111 -0.03888631 -0.34252268 0.2619987

model.2.bias f4 [8]
00000000: 6fa4 01be 2baf 813e 312c 063f a1aa c0bd
00000010: b83b 96be 8f9d 0f3f 401d 22be 6498 38be
-0.12660383 0.25328955 0.5241118 -0.09407545 -0.29342437 0.5609979 -0.1583147 -0.18026882

model.4.weight f4 [4, 8]
00000000: 42fa 85be fc14 d6bd cd41 e83d 864f 98be
00000010: 23eb 39be f768 4e3d 23a5 a83e 550f 38be
00000020: 988d 88bd b064 0bbe 2930 323f 0076 6dbe
00000030: 5af9 753e be34 2e3f 642e c33d 9fd2 923e
00000040: b6bb 5e3e 570b 963f 04e1 19bf a5da 15bd
00000050: 7f74 903e 3637 f8be 0bed 92be d28f 52be
00000060: 5faa 2cbe 7967 983e 36bc 3c3e c382 e8bd
00000070: 2b1b 8a3e 8336 4fbd 86dd 363e d996 9c3e
-0.26167494 -0.10453221 0.113406755 -0.29748172 -0.18156104 0.05039307 0.3293849 -0.17974599
-0.06667632 -0.13612628 0.69604737 -0.23189545 0.24020901 0.6804923 0.09530333 0.28676316
0.21751294 1.1722211 -0.6010897 -0.03658547 0.2821388 -0.48479623 -0.28696474 -0.20562676
-0.16861866 0.29766443 0.18431172 -0.11353066 0.26973853 -0.050589096 0.17857942 0.30583838

model.4.bias f4 [4]
00000000: 0ba1 59be 4b56 b03e d934 d53e 546d 86be
-0.2125284 0.34440836 0.41641882 -0.26255286

model.6.weight f4 [2, 4]
00000000: dbe1 4fbe 5148 5bbf 9467 773f 54f6 36be
00000010: 102e d7be a9c9 163f 51e6 8abf 5e2c e2be
-0.20301001 -0.8565722 0.9664242 -0.17867404 -0.4202733 0.5890146 -1.0851537 -0.44174474

model.6.bias f4 [2]
00000000: f774 05bf 46c5 503f
-0.521316 0.81551015
