05_NeuralNetwork/logs/mlp/version_2/checkpoints/epoch=9-step=1600.ckpt (torch, 6281 bytes, 8 tensors)

model.0.weight f4 [4, 2]
0.20942016 -0.5940191 -0.25391382 -0.56445247 -1.0183249 0.095984824 0.7274984 -0.71757835
00000000: 3d72 563e a311 18bf fe00 82be f57f 10bf
00000010: 7858 82bf b193 c43d 563d 3a3f 37b3 37bf

model.0.bias f4 [4]
-0.50116503 0.28650963 0.68869776 0.100940794
00000000: 5a4c 00bf 64b1 923e 7f4e 303f 0cba ce3d

model.2.weight f4 [8, 4]
0.4413077 -0.08758461 -0.050719835 0.13973697 0.42444137 -0.035621423 0.064211994 0.30247495
0.12177403 0.53933537 -0.046764027 0.17273825 0.042264193 0.103494264 0.89147204 -0.50553
0.04958573 -0.20762399 -0.44130173 0.76116306 -0.37833175 0.14419174 0.38558072 -0.099740185
-0.16340949 0.28670132 -0.46071738 -0.51092786 -0.31637403 -0.49238724 -0.19126335 0.11901403
00000000: 15f3 e13e 8f5f b3bd 9abf 4fbd 3517 0f3e
00000010: 6150 d93e c5e7 11bd 9481 833d ffdd 9a3e
00000020: aa64 f93d e211 0a3f a38b 3fbd 4ce2 303e
00000030: 381d 2d3d cdf4 d33d 8337 643f 6a6a 01bf
00000040: 681a 4b3d 629b 54be 4df2 e1be 95db 423f
00000050: b3b4 c1be 00a7 133e d66a c53e 9544 ccbd
00000060: d154 27be 84ca 923e 26e3 ebbe 2bcc 02bf
00000070: c7fb a1be 2e1a fcbe 8ada 43be a1bd f33d

model.2.bias f4 [8]
-0.39968804 -0.29513565 -0.32023612 0.18559603 0.706244 0.28497452 0.20354766 0.040369924
00000000: e9a3 ccbe 051c 97be fdf5 a3be e30c 3e3e
00000010: 68cc 343f 2ee8 913e cc6e 503e ef5a 253d

model.4.weight f4 [4, 8]
-0.061016314 0.22913231 -0.29107112 -0.10786503 0.076840825 -0.20102113 0.28214353 0.25111032
0.22796063 0.013489086 -0.23183066 -0.3792601 -0.21068053 0.2789552 0.35092354 -0.09097547
-0.24010423 -0.34531307 0.23517768 -0.10596565 0.14049031 -0.18630326 0.13458402 0.06947534
-0.21895128 -0.07171748 0.30852205 -0.8268107 1.0458766 -0.16123925 -0.017687444 -0.014573888
00000000: 3eec 79bd a9a1 6a3e 4607 95be 57e8 dcbd
00000010: b95e 9d3d 7cd8 4dbe 1e75 903e 8891 803e
00000020: 836e 693e 5401 5d3c 0465 6dbe 612e c2be
00000030: a3bc 57be 37d3 8e3e 40ac b33e 5951 babd
00000040: e2dd 75be e0cc b0be 6bd2 703e 8504 d9bd
00000050: b1dc 0f3e 48c6 3ebe 65d0 093e 1649 8e3d
00000060: c434 60be 9de0 92bd 9af6 9d3e dea9 53bf
00000070: 49df 853f e71b 25be 42e5 90bc 51c7 6ebc

model.4.bias f4 [4]
-0.10479227 0.27584726 0.04553664 1.1176512
00000000: 549d d6bd da3b 8d3e a184 3a3d 320f 8f3f

model.6.weight f4 [2, 4]
0.09743363 -0.51945657 -0.030514227 -1.2082655 -0.35903528 -0.29478252 0.025995463 1.2426866
00000000: 488b c73d 1bfb 04bf f9f8 f9bc 72a8 9abf
00000010: 79d3 b7be bced 96be 70f4 d43c 5b10 9f3f

model.6.bias f4 [2]
1.005709 -0.79926825
00000000: 13bb 803f d89c 4cbf
