07_RNN/logs/rnn/version_13/checkpoints/epoch=36-step=8769.ckpt (torch, 41560 bytes, 27 tensors)

rnn.weight_ih_l0 f4 [32, 1]
0	0xbe734692	-0.23757389
1	0x3e1a0921	0.15042545
2	0xc001eb9c	-2.0300055
3	0x3b994b06	0.004678133
4	0xbd9f5a93	-0.077809475
5	0x3e0a9db7	0.13536726
6	0xbe05de5a	-0.13073102
7	0xbe32ff7c	-0.17480272
8	0x404ca1b0	3.1973686
9	0x3f9da36a	1.2315495
10	0xbd825653	-0.06364121
11	0x3e242f82	0.16033748
12	0x3e7e3e97	0.24828564
13	0xc037e6ea	-2.8734689
14	0x3d86d9da	0.06584521
15	0xbdd05013	-0.10171523
16	0x3bf0859e	0.007340147
17	0x3fcd4056	1.6035259
18	0xbd974165	-0.0738552
19	0xbc9e7c74	-0.019346453
20	0xbd01e03c	-0.031707987
21	0x3e92db69	0.28683022
22	0x3d513e7e	0.051084988
23	0x3e9b77e5	0.3036491
24	0x3d94b67a	0.07261367
25	0xbe1cbcab	-0.15306346
26	0x3df6d9e0	0.12053275
27	0xbec7c073	-0.39014015
28	0xbd423f23	-0.047423493
29	0xbe65aa9e	-0.22428367
30	0x3efbe5e9	0.49198845
31	0x3c98534d	0.018594408

rnn.weight_hh_l0 f4 [32, 32]
0	0x3e44c6b9	0.19216432
1	0xbdf1b11a	-0.118013576
2	0xbefd5587	-0.49479315
3	0x3edd3505	0.43204513
4	0xbefca614	-0.49345458
5	0xbdad7a97	-0.08470648
6	0x3ecaf1be	0.3963756
7	0xbeb25267	-0.34828493
8	0xbda3719b	-0.07980653
9	0xbed4ceec	-0.4156412
10	0x3e84188e	0.25799984
11	0x3ed4eeb8	0.41588378
12	0x3e936785	0.28789917
13	0xbeb50ad5	-0.35359827
14	0x3e3ee7eb	0.18643157
15	0x3ec6eb9b	0.38851628
16	0x3ef5ea83	0.4803048
17	0x3e8baefa	0.27281934
18	0xbcd62067	-0.026138498
19	0xbeaa1574	-0.33219492
20	0x3f0425fe	0.5162047
21	0xbf000961	-0.5001431
22	0xbed313bc	-0.41225994
23	0xbd467d3e	-0.048459284
24	0x3aaa8519	0.0013009637
25	0x3eafab2f	0.3431029
26	0x3e82c86e	0.2554354
27	0x3d5356d1	0.051596466
28	0x3ed770a5	0.42078128
29	0x3dd13834	0.10215798
30	0xbe01059b	-0.12599795
31	0x3ebb53aa	0.36587268
32	0xbe819b3f	-0.25313756
33	0xbe78c38d	-0.24293347
34	0x3dbc281a	0.09187336
35	0x3e8f87ed	0.2803339
36	0xbe8065c4	-0.2507764
37	0x3e08e8bd	0.13370033
38	0x3e94641e	0.28982633
39	0xbe645b4d	-0.22300453
40	0x3e0889b9	0.13333787
41	0x3dc3a474	0.09552851
42	0x3e710717	0.23537861
43	0x3ed7c05e	0.42138952
44	0x3eae819e	0.34083265
45	0xbe87a000	-0.26489258
46	0x3ea5e038	0.32397628
47	0xbe0bc197	-0.13648067
48	0x3e8cec23	0.27523908
49	0x3d8edcb5	0.0697569
50	0xbec04e27	-0.37559626
51	0xbe410b1b	-0.18851893
52	0x3ea0d324	0.31411088
53	0xbdb59615	-0.088665165
54	0xbe98779b	-0.29778752
55	0xbe78d437	-0.24299704
56	0x3e0d4ca2	0.13798764
57	0x3e569c76	0.20958123
58	0x3f053683	0.52036303
59	0x3ebced0a	0.36899596
60	0x3dff464f	0.12464582
61	0x3d642b04	0.055705085
62	0xbdbf559a	-0.09342499
63	0x3e886e21	0.26646522
64	0xbe356893	-0.17715673
65	0xbe079025	-0.1323858
66	0xbec0c211	-0.3764806
67	0x3e8f989e	0.28046125
68	0xbe7da5c5	-0.24770267
69	0xbf4c4dc6	-0.7980617
70	0x3ee2fabc	0.4433192
71	0xbe30459b	-0.17214052
72	0xbeb9f52c	-0.36319864
73	0xbfa5c27e	-1.2949979
74	0x3dc17f73	0.09448137
75	0x3eba2ed4	0.36363852
76	0x3ea409df	0.3203878
77	0x3faaa48e	1.3331468
78	0x3e2f3b3c	0.1711244
79	0x3d961759	0.07328672
80	0x3eb0b6e2	0.3451453
81	0xbf90793b	-1.1286997
82	0x3e947361	0.28994277
83	0xbda6667a	-0.081250146
84	0x3ebe028e	0.37111324
85	0xbe3fabd4	-0.18717891
86	0xbe12f54b	-0.14351384
87	0x3ce3ac55	0.027792135
88	0x3da21b87	0.07915407
89	0x3e440617	0.19142948
90	0x3ebf50c6	0.37366313
91	0xbd837007	-0.06417852
92	0x3e30b81f	0.17257737
93	0xbe7b8088	-0.2456075
94	0xbf92e649	-1.1476527
95	0x3f148d9b	0.5802857
96	0xbde87dd3	-0.11352124
97	0x3dc0f0ec	0.09420952
98	0xbdd59d02	-0.104303375
99	0xbf3b7d80	-0.7323837
100	0x3ec562da	0.3855198
101	0x3dfeed16	0.12447564
102	0xbf056973	-0.5211403
103	0x3ef9fdab	0.48826346
104	0x3e926eb7	0.28600094
105	0xbdd01ed8	-0.10162133
106	0xbedade49	-0.42747715
107	0xbe8c2860	-0.27374554
108	0xbf071faa	-0.5278269
109	0x3d14e4f0	0.036351144
110	0xbe4af41e	-0.19819686
111	0xbec9c9c4	-0.39411747
112	0xbe5e72ee	-0.2172353
113	0x3d592872	0.053017087
114	0x3eb926f2	0.36162525
115	0x3ef688ca	0.48151237
116	0xbf070d7c	-0.5275495
117	0x3e850e32	0.25987393
118	0x3edc0de0	0.42979336
119	0x3da45ba0	0.080252886
120	0xbb4a17cd	-0.003083694
121	0xbef5aacb	-0.47981867
122	0xbee804ea	-0.4531625
123	0x3cba1b0d	0.022717977
124	0x3db20193	0.086917065
125	0xbe8b5a2c	-0.27217233
126	0x3cfacac3	0.030614262
127	0xbe0e2271	-0.13880326
128	0x3cdfb979	0.02731012
129	0xbf0ade14	-0.54245114
130	0xbdd8ed32	-0.105921164
131	0x3e992b78	0.29915977
132	0xbf7bfe0c	-0.9843452
133	0xbc4a61c5	-0.012352412
134	0x3ea65bc8	0.324919
135	0xbeae7d4f	-0.34079978
136	0xbe92e22d	-0.28688183
137	0xbecca06a	-0.39966136
138	0x3ebd33df	0.36953637
139	0x3e9562e1	0.29177
140	0x3f0458eb	0.5169818
141	0xbe902006	-0.28149432
142	0x3f096469	0.5366884
143	0x3ec27934	0.37983096
144	0x3ea35bff	0.31906125
145	0x3eb21fe0	0.34789944
146	0xbeb77b2a	-0.35836154
147	0xbebecd21	-0.37265876
148	0x3ec7cf68	0.39025426
149	0xbeaeb3d0	-0.3412156
150	0xbf1187e4	-0.5684798
151	0xbd61aa76	-0.055094205
152	0x3d0cc261	0.03436506
153	0x3d8767ee	0.0661162
154	0x3eac4939	0.33649614
155	0xbd75ac20	-0.059978604
156	0x3ec224c5	0.37918678
157	0xbdef9e4f	-0.11700117
158	0xbdfaac1a	-0.12239857
159	0x3e9c98d8	0.3058536
160	0xbe11e408	-0.14247143
161	0x3e18c41f	0.14918564
162	0xbdeca66d	-0.11555181
163	0xbcfd95c0	-0.030955195
164	0x3e10a499	0.14125289
165	0x3f8eaebb	1.1147074
166	0x3e06e835	0.13174517
167	0xbe7dd3f4	-0.24787885
168	0x3f2944ef	0.6612081
169	0x3e8335d8	0.25627017
170	0xbd869abc	-0.06572482
171	0x3e81b4ae	0.2533316
172	0x3e26a1c0	0.1627264
173	0xbe8438ec	-0.25824678
174	0xbd3ba0bc	-0.045807585
175	0xbdda934f	-0.10672628
176	0x3ca97a66	0.020688247
177	0x3ecbb5b0	0.39787054
178	0xbdbb2b3a	-0.09139104
179	0xbd5bc0f2	-0.053650804
180	0xbd858124	-0.06518772
181	0x3e5b6c66	0.2142807
182	0xbdb9d6d8	-0.09074181
183	0xbe48083a	-0.19534388
184	0x3e662da9	0.22478355
185	0xbd5abd0a	-0.053402938
186	0xbd01a072	-0.031647153
187	0x3dd35574	0.10319033
188	0x3e18741a	0.14888039
189	0xbd0225cc	-0.031774327
190	0x3ea0e58a	0.31425124
191	0x3e45c094	0.19311744
192	0x3debd7ae	0.11515747
193	0x3dd3c01f	0.103393786
194	0x3ce49538	0.027903184
195	0xbecd79f1	-0.40132096
196	0x3d5f6c98	0.054546922
197	0x3d99f101	0.07516671
198	0xbe2eba5d	-0.1706328
199	0x3e426241	0.18982793
200	0x3e0d34b7	0.1378964
201	0xbd61c8ca	-0.055123128
202	0xbeed4bc0	-0.46346855
203	0xbeb765f1	-0.35819963
204	0xbea91198	-0.33021235
205	0xbe78be3e	-0.24291322
206	0xbeb51ba5	-0.35372654
207	0xbf04bdb9	-0.51851994
208	0xbea15750	-0.31511927
209	0xbe483f7e	-0.1955547
210	0x3e837ac5	0.25679603
211	0x3f1387da	0.5762917
212	0xbf322a23	-0.69595546
213	0x3e6db0dd	0.23211999
214	0x3eb354f0	0.3502574
215	0x3deeb256	0.11655109
216	0x3e477082	0.19476512
217	0x3d10c1b0	0.035340965
218	0xbedbe903	-0.4295121
219	0xbe099b44	-0.13438135
220	0x3d087551	0.033315007
221	0xbd9436b9	-0.07237
222	0x3eade74a	0.33965522
223	0x3d9a9524	0.075479776
224	0xbd93bd44	-0.07213834
225	0xbee1c3ae	-0.44094604
226	0xbd272754	-0.04080899
227	0x3e5d13f3	0.21589641
228	0xbe08db4c	-0.13364905
229	0x3e3cf0ec	0.1845128
230	0x3ef7b62d	0.48381177
231	0xbefa5558	-0.48893237
232	0xbe17705c	-0.14788955
233	0x3e637305	0.22211845
234	0x3f16fbd0	0.58977985
235	0x3eee5e3c	0.4655627
236	0x3ef593af	0.47964236
237	0xbd289118	-0.041153997
238	0x3e94f68a	0.29094344
239	0x3e37707c	0.17914003
240	0x3f079472	0.52960885
241	0x3e4e4b13	0.20145826
242	0xbe904658	-0.28178668
243	0xbe989faf	-0.2980933
244	0x3f48836f	0.7832555
245	0xbef029b2	-0.4690681
246	0xbefcf4bf	-0.49405476
247	0xbe9ac833	-0.30230865
248	0xbd045677	-0.03230902
249	0x3edc7482	0.43057638
250	0x3ddfb2e3	0.10922792
251	0x3e2343c3	0.15943818
252	0x3e32ef30	0.17474055
253	0x3c2cd527	0.010548866
254	0xbeaf4404	-0.3423158
255	0xbda56fcf	-0.080779664

rnn.bias_ih_l0 f4 [32]
0	0xbc34d7a7	-0.011037744
1	0xbe3dd7f0	-0.18539405
2	0xbcb4e5b2	-0.022082184
3	0xbeb174ab	-0.34659323
4	0x3ea6ea6a	0.3260072
5	0x3ddf7036	0.109100744
6	0xbe9c1182	-0.30482107
7	0x3e969b78	0.29415488
8	0xbd25390c	-0.040337607
9	0x3d87cc64	0.06630781
10	0x3d8cccea	0.06875022
11	0xbed2dfb9	-0.41186312
12	0xbd1fe08a	-0.039032497
13	0xbf20f2ad	-0.62870294
14	0xbe8e2493	-0.2776228
15	0xbeb7cea1	-0.35899833
16	0xbea06b01	-0.31331638
17	0xbdc2d1c4	-0.09512666
18	0xbe5227ab	-0.20522945
19	0x3e446161	0.19177772
20	0xbe96e8b6	-0.2947442
21	0x3dc22063	0.094788335
22	0x3dc3c310	0.095586896
23	0xbe415dbf	-0.18883418
24	0x3c8a483d	0.016880149
25	0xbe5fcce7	-0.21855508
26	0xbec6e71c	-0.38848197
27	0xbe21d3ec	-0.15803498
28	0xbe484655	-0.1955808
29	0x3ef10018	0.47070384
30	0xba2add60	-0.0006517973
31	0xbe12cfef	-0.14337133

rnn.bias_hh_l0 f4 [32]
0	0xbd830aed	-0.06398568
1	0x3d7f8930	0.06238669
2	0xbdaae908	-0.083452284
3	0xbe164934	-0.14676362
4	0x3e5fa656	0.21840796
5	0x3d8193d7	0.06327026
6	0xbdebd613	-0.11515441
7	0x3d3417db	0.043968063
8	0xbe938fb9	-0.2882059
9	0x3e76e207	0.2410966
10	0xbd3a4f5d	-0.045485843
11	0xbe9515c3	-0.29118165
12	0xbe071153	-0.13190202
13	0xbf24ba78	-0.6434703
14	0xbe4e4b44	-0.20145899
15	0xbea5c3b0	-0.3237586
16	0xbd38718e	-0.04503017
17	0x3d9579e5	0.0729864
18	0xbd5e8dfb	-0.054334622
19	0x3e8bc905	0.27301803
20	0xbe957d5d	-0.29197207
21	0xbdc81db9	-0.09771294
22	0x3e904e7b	0.28184876
23	0xbe29a8a9	-0.16568245
24	0x3d18309e	0.03715574
25	0xbe7952de	-0.24348018
26	0xbe858309	-0.26076534
27	0x3c6a30e5	0.014293884
28	0xbe46b089	-0.1940328
29	0x3e97bfb0	0.29638433
30	0x3b636ecc	0.0034703491
31	0xbd72ce17	-0.059278574

rnn.weight_ih_l0_reverse f4 [32, 1]
0	0xb17404ed	-3.5509473e-09
1	0xb4d93f3a	-4.0465403e-07
2	0xb0ec267b	-1.7182197e-09
3	0xb826717d	-3.968318e-05
4	0x2f10a49c	1.3155205e-10
5	0x3ef3fcd5	0.47653833
6	0x3baeaf62	0.005330966
7	0x3c071b7b	0.008246298
8	0xb2108549	-8.412209e-09
9	0xb85117bc	-4.9851587e-05
10	0x3b2b3d1f	0.002612896
11	0xb26ce492	-1.3788979e-08
12	0x3a0d0706	0.000537977
13	0xbe966005	-0.29370132
14	0x3e8a4988	0.27009225
15	0xbdbc092c	-0.09181437
16	0xbc028bf2	-0.007967936
17	0xb7c1c788	-2.3100307e-05
18	0x3ecb4214	0.3969885
19	0xbbd2b97c	-0.006430803
20	0xb78d9478	-1.6877646e-05
21	0xb56521a7	-8.535812e-07
22	0x385f9288	5.330381e-05
23	0xb752a196	-1.2554598e-05
24	0x314e4322	3.0015106e-09
25	0x3b5985cc	0.0033191321
26	0x3a0ed168	0.0005448074
27	0x3ebf9cc6	0.37424296
28	0xbec88ddc	-0.3917073
29	0xb42aa17d	-1.5891233e-07
30	0xb15b0ab5	-3.187478e-09
31	0x3b048826	0.0020222752

rnn.weight_hh_l0_reverse f4 [32, 32]
0	0x3d9e4416	0.0772783
1	0xbdd42b42	-0.10359813
2	0xbd1c19b4	-0.03811045
3	0xbce0d6f0	-0.02744624
4	0xbdd1f08b	-0.10250958
5	0x3df6733e	0.120336995
6	0x3e2ffc5f	0.17186116
7	0xbdbbb478	-0.09165281
8	0xbdcaa7b2	-0.098952666
9	0x3e2d6a9d	0.16935201
10	0x3c23b5f0	0.009992108
11	0x3d30a4d8	0.043125957
12	0x3dc5f4d6	0.096658394
13	0xbd501f90	-0.05081135
14	0xbe0de4fb	-0.1385688
15	0xbe07a20e	-0.13245413
16	0x3d0e889c	0.03479825
17	0x3ddb918e	0.10721122
18	0xbc852600	-0.016253471
19	0xbd205c8c	-0.03915076
20	0xbe1d8562	-0.15382913
21	0xbdf5100f	-0.119659536
22	0x3e17da51	0.14829375
23	0xbd128c2c	-0.03577821
24	0xbca1a798	-0.019733235
25	0x3e0cf47d	0.1376514
26	0x3d726674	0.05917974
27	0x3d7a546c	0.061115667
28	0x3d684c8c	0.056713626
29	0xbca79310	-0.020455867
30	0x3da76952	0.08174385
31	0x3dc58392	0.09644236
32	0xbc12dc40	-0.0089636445
33	0xbe1191f0	-0.14215827
34	0x3d96b4fa	0.07358737
35	0xbdbb3560	-0.0914104
36	0xbe00f208	-0.12592328
37	0xbd5b40b2	-0.053528495
38	0xbcccbca8	-0.024992302
39	0x3e2ab847	0.16671859
40	0x3cb93100	0.022606373
41	0xbe116bf8	-0.14201343
42	0x3da2ed6a	0.079554394
43	0x3d0cb524	0.034352437
44	0xbdc3e52c	-0.095651954
45	0x3e01e40d	0.1268465
46	0xbd103fd0	-0.035217106
47	0xbe1dd56b	-0.15413444
48	0x3df5d06e	0.120026454
49	0xbd6dfac0	-0.058100462
50	0x3e2ad0c5	0.16681202
51	0x3bd17880	0.0063925385
52	0xbc822098	-0.015884683
53	0xbd3c6ac8	-0.046000272
54	0x3d505224	0.050859585
55	0x3d7dfe90	0.062010348
56	0xbe1c9153	-0.15289812
57	0xbde23669	-0.11045534
58	0x3e33c89b	0.17556994
59	0x3e2d4737	0.16921698
60	0x3cac97a8	0.02106841
61	0xbce64320	-0.02810818
62	0x3dd4b82a	0.10386689
63	0x3d1b7068	0.037948996
64	0x3d26082c	0.040535137
65	0xbe1bbb99	-0.15208282
66	0x3e1ce1bf	0.1532049
67	0xbdb0d615	-0.08634583
68	0x3dc60b6e	0.09670149
69	0xbd170dc4	-0.036878362
70	0xbd87556a	-0.06608088
71	0x3e29cb4b	0.16581456
72	0xbd1dcdc4	-0.03852631
73	0x3daf51c6	0.08560519
74	0xbe0e6bca	-0.13908306
75	0x3e26591d	0.16244932
76	0x3da60302	0.081060424
77	0x3e0934ef	0.13399099
78	0x3e094abd	0.13407417
79	0xbc4ea5f0	-0.012612805
80	0xbdda4bf6	-0.1065902
81	0xbd738300	-0.059451103
82	0x3c9ed848	0.01939024
83	0x3dddf8b2	0.108384505
84	0xbe24b11f	-0.16083191
85	0xbcb271e0	-0.021782815
86	0xbaeabc00	-0.0017908812
87	0xbc2af040	-0.010433257
88	0xbcab94a0	-0.020944893
89	0x3d7a87cc	0.061164662
90	0x3d2d2678	0.042273015
91	0xbd9796f5	-0.0740184
92	0xbdbfe53d	-0.093698956
93	0x3defedf2	0.11715306
94	0x3e0f5f8b	0.1400129
95	0xbb18bc80	-0.0023305714
96	0xbd986e4b	-0.07442912
97	0xbda008f9	-0.078142114
98	0xbe2460e3	-0.16052584
99	0x3e2ada45	0.16684826
100	0x3cd66138	0.026169404
101	0x3ddab9ae	0.10679947
102	0xbe1f87eb	-0.15579192
103	0xbddfdeaf	-0.109311454
104	0xbda5288b	-0.080643736
105	0xbb6eb8c0	-0.0036426038
106	0x3d8db5e2	0.06919457
107	0xbe27c473	-0.16383533
108	0xbd172548	-0.03690079
109	0xbd81f6ad	-0.06345878
110	0x3e0c53e3	0.13703875
111	0x3cf2c890	0.029636651
112	0xbd9e99d7	-0.07744186
113	0x3e18db93	0.14927511
114	0xbe1cc267	-0.15308534
115	0xbde4db08	-0.111745894
116	0x3d9f84ba	0.077889875
117	0x3c688a70	0.014193162
118	0xbd96220c	-0.07330713
119	0xbe0619c0	-0.1309576
120	0xbdf464b5	-0.11933271
121	0xbbeda820	-0.007252708
122	0xbdc2702f	-0.094940536
123	0xbce35678	-0.027751192
124	0x3d70f1bc	0.058824286
125	0xbda6ba26	-0.08140974
126	0x3d87ee3a	0.06637235
127	0xbde9a468	-0.11408311
128	0x3ddab5a6	0.10679178
129	0x3dea78b2	0.11448802
130	0x3dca1e06	0.09869008
131	0xbd95b4c7	-0.07309871
132	0xbe1036f5	-0.14083464
133	0x3de9969a	0.11405678
134	0x3ce95980	0.02848506
135	0xbdff7baa	-0.12474759
136	0xbe07b016	-0.13250765
137	0x3dae0702	0.084974304
138	0x3e31a3bd	0.17347617
139	0x3bb4e440	0.0055203736
140	0x3cb3efa0	0.021964848
141	0x3d3de520	0.04636109
142	0x3db8628a	0.0900317
143	0x3e1dc625	0.15407617
144	0x3d8f559a	0.06998749
145	0x3e28c1c1	0.16480161
146	0x3e0538bd	0.13009925
147	0xbe0aca4e	-0.13553736
148	0x3ce4efc8	0.027946368
149	0xbc943520	-0.018091738
150	0x3c227e80	0.009917855
151	0x3df50cba	0.11965318
152	0x3d723d3c	0.05914043
153	0xbdc8a16e	-0.09796415
154	0x3c569dc0	0.013099134
155	0x3e1d9173	0.15387516
156	0xbd257964	-0.04039897
157	0xbdd25a59	-0.10271139
158	0xbe09a35b	-0.13441221
159	0xbdc25a33	-0.094898604
160	0x3de49d56	0.11162822
161	0x3b1c3900	0.0023837686
162	0x3da349ae	0.07973038
163	0xbdd5107b	-0.10403534
164	0xbe2fff07	-0.17187129
165	0xbd9f41a8	-0.07776195
166	0x3de2fc8e	0.11083327
167	0x3deb166a	0.114788845
168	0x3d2c15a4	0.042012826
169	0xbce20bb8	-0.027593479
170	0xbd94cb6c	-0.07265362
171	0xbc21d280	-0.009876847
172	0xbdd4ba34	-0.10387078
173	0x3e32f3a7	0.17475758
174	0x3e006f51	0.12542464
175	0xbd2781f4	-0.040895417
176	0xbe218273	-0.15772419
177	0x3df5714a	0.11984499
178	0xbb866480	-0.004101336
179	0xbe0cbd30	-0.13744044
180	0x3e040f27	0.12896405
181	0x3e3453f5	0.17610152
182	0xbe02ddef	-0.12779973
183	0x3d0b018c	0.033937022
184	0xbe0a57b1	-0.13510014
185	0xbc98b0a8	-0.018638924
186	0xbde70abe	-0.11281346
187	0x3d8e7a12	0.06956877
188	0xbd64bb56	-0.05584272
189	0xbe05eeb2	-0.13079336
190	0x3daab312	0.08334936
191	0x3e0c97b9	0.13729753
192	0xbd9c1c24	-0.07622555
193	0xbd944833	-0.072403334
194	0xbdc1566f	-0.09440314
195	0xbe162a04	-0.14664465
196	0x3d6fcb68	0.058543593
197	0x3d667114	0.056260183
198	0xbde84c0e	-0.11342631
199	0xbdfb4915	-0.12269799
200	0xbd9196fb	-0.07108875
201	0x3cbd89a0	0.023136914
202	0xbcea30e0	-0.028587759
203	0xbde7c792	-0.11317362
204	0x3e2a7c57	0.16648994
205	0xbcfffa10	-0.031247169
206	0xbdc2e0e7	-0.09515553
207	0xbe063ac0	-0.13108349
208	0x3e0ef837	0.13961874
209	0x3e07f925	0.13278635
210	0x3cd91880	0.02650094
211	0x3daf2f1a	0.08553906
212	0x3d5d32a8	0.054003388
213	0x3df1c462	0.11805035
214	0xbc9396e0	-0.018016279
215	0xbe18c85a	-0.14920178
216	0xbe165300	-0.146801
217	0xbe0e1035	-0.1387337
218	0xbe095574	-0.13411504
219	0x3e316627	0.17324124
220	0xbdba3154	-0.0909144
221	0xbdd71bfc	-0.105033845
222	0x3cdb7b60	0.026792228
223	0x3e17ae31	0.14812542
224	0x3b4ef500	0.0031579137
225	0xbdf710d6	-0.12063758
226	0xbd808213	-0.0627481
227	0x3e13c7a5	0.14431627
228	0xbd59ce4a	-0.05317525
229	0x3dcfa58e	0.10138999
230	0x3e165d33	0.1468399
231	0xbe34cce2	-0.17656282
232	0x3d28e368	0.041232497
233	0xbdee9ce6	-0.1165102
234	0x3dbadc8e	0.09124099
235	0x3d051320	0.032488942
236	0x3e23951f	0.15974854
237	0xbda3a258	-0.07989949
238	0xbd4d317c	-0.05009602
239	0xbe1b94ba	-0.15193453
240	0xb9021400	-0.00012405217
241	0x3d0e2240	0.034700632
242	0x3dfa43e2	0.12219979
243	0xbe134072	-0.14380053
244	0x3c41c810	0.011827484
245	0xbe011cab	-0.12608592
246	0xbe040149	-0.12891115
247	0xbd02bafc	-0.031916603
248	0x3c14c920	0.009081155
249	0xbdf42ec8	-0.11922985
250	0xbd4b0e34	-0.049574092
251	0x3d8b650c	0.068063825
252	0xbd3c2f0c	-0.045943305
253	0x3dc830be	0.09774922
254	0xbe29c5be	-0.16579339
255	0x3e02359b	0.12715761

rnn.bias_ih_l0_reverse f4 [32]
0	0x3d947f17	0.07250803
1	0x3c8bf44e	0.017084267
2	0xbd4e1934	-0.050317004
3	0xba659af5	-0.0008758747
4	0x3b935d44	0.004497202
5	0x3e409128	0.18805373
6	0xbc804e03	-0.015662199
7	0x3cdacdb7	0.02670942
8	0x3dc6e76f	0.09712111
9	0x3ca52ea4	0.020163842
10	0xbe203560	-0.15645361
11	0x3cb97e67	0.022643281
12	0xbd9e1688	-0.07719141
13	0xbd40d734	-0.047080234
14	0xbd8c0d58	-0.068384826
15	0x3c3ce27a	0.011528606
16	0x3dcd60ad	0.10028205
17	0xbd5abc48	-0.053402215
18	0x3d181837	0.037132468
19	0x3dc2b875	0.09507839
20	0x3d3bd7b2	0.04586
21	0xbde84130	-0.113405585
22	0x3d960a29	0.07326157
23	0x3d310a17	0.043222513
24	0xbdd9b3bf	-0.10629987
25	0x3db829c0	0.08992338
26	0x3cd9734e	0.02654424
27	0x3de742cc	0.11292037
28	0x3c85e560	0.016344726
29	0x3d27d938	0.04097864
30	0xbdb93687	-0.090436034
31	0x3e10166c	0.14071053

rnn.bias_hh_l0_reverse f4 [32]
0	0xbd947f19	-0.072508045
1	0xbc8bf348	-0.017083779
2	0x3d4e1932	0.050316997
3	0x3a6c94ef	0.00090248784
4	0xbb935d42	-0.004497201
5	0x3cfe5507	0.031046404
6	0x3cf81721	0.030284466
7	0xbd11b5ce	-0.035573773
8	0xbdc6e76f	-0.09712111
9	0xbca5b7ea	-0.020229299
10	0x3e21f7b8	0.15817153
11	0xbcb97e69	-0.022643285
12	0x3d9e676a	0.077345684
13	0x3c391040	0.011295378
14	0x3dc972e0	0.09836364
15	0xbc8d9a8b	-0.017285606
16	0xbdd36587	-0.10322099
17	0x3d5ad4c8	0.05342558
18	0x3d87c3ea	0.066291645
19	0xbdc1b280	-0.09457874
20	0xbd3bc6ce	-0.04584389
21	0x3de841ff	0.11340713
22	0xbd9ac7ab	-0.07557615
23	0xbd30fe19	-0.043211076
24	0x3dd9b3c1	0.106299885
25	0xbdb2fcd6	-0.08739631
26	0xbc70918d	-0.0146831395
27	0xbd0d5fd8	-0.03451523
28	0xbde1623a	-0.11005063
29	0xbd27d8fa	-0.04097841
30	0x3db93687	0.090436034
31	0xbe0e69b6	-0.13907513

dense.weight f4 [1, 64]
0	0xbcdc6987	-0.026905788
1	0xbcbb2c85	-0.022848377
2	0xbd05c7e2	-0.032661326
3	0x3d1b8e48	0.037977487
4	0xbd9dd588	-0.077067435
5	0x3e90f1f3	0.28309593
6	0xbbad01c1	-0.00527975
7	0x3d484066	0.04888954
8	0x3e44a1e6	0.19202384
9	0x3d9948dc	0.074846
10	0xbe054b1e	-0.13016936
11	0x3d0d35d4	0.034475163
12	0x3d78b897	0.060722914
13	0xbdae9772	-0.0852498
14	0x3dcdb348	0.10043961
15	0xbe1d2355	-0.1534551
16	0xbd059ebd	-0.032622088
17	0x3d11fc02	0.035640724
18	0xbd01f867	-0.031731036
19	0xbda80edf	-0.082059614
20	0x3d8ddc0c	0.06926736
21	0xbc8f5cb4	-0.017500259
22	0xbe0b4eae	-0.13604233
23	0x3dbb27bb	0.09138437
24	0x3b207350	0.0024482794
25	0xbcf19ae7	-0.029492809
26	0x3d3e8199	0.046510313
27	0xbc50fc20	-0.012755424
28	0x3cc5d26e	0.024148192
29	0xbdce568e	-0.10075103
30	0x3d8de4cc	0.06928405
31	0xbccfd5f8	-0.025370583
32	0xb18fc8a5	-4.1846584e-09
33	0x348161c0	2.4099245e-07
34	0xb1305dce	-2.5664693e-09
35	0x3700eb17	7.684131e-06
36	0x2f3f79f5	1.7414677e-10
37	0x3eca3a48	0.3949759
38	0x3c54da8a	0.012991557
39	0xba4a486a	-0.0007716479
40	0xb20864c7	-7.939156e-09
41	0xb835444b	-4.3217366e-05
42	0xba29ab71	-0.0006472385
43	0xb208cd8d	-7.962979e-09
44	0x390f5e0a	0.00013672575
45	0xbe1a0c0e	-0.15043661
46	0x3e06c500	0.13161087
47	0xbc82a65e	-0.01594847
48	0xbb6465bd	-0.003485068
49	0x372ff80b	1.0488565e-05
50	0x3e84031f	0.2578363
51	0xbb350f41	-0.00276275
52	0x36be0b2e	5.6637427e-06
53	0x354c447a	7.609557e-07
54	0xbaa81abb	-0.0012825349
55	0x3681651b	3.85627e-06
56	0x317045f0	3.4964351e-09
57	0x3b1f362c	0.0024293764
58	0x3bc485a4	0.0059973765
59	0x3e6d9862	0.2320266
60	0xbe82ec6b	-0.25570998
61	0x33fab286	1.16740054e-07
62	0xb099dc36	-1.1194803e-09
63	0xba335c97	-0.0006842105

exp_avg f4 [32, 1]
0	0x36d983a2	6.482428e-06
1	0x35e2f274	1.6908875e-06
2	0xb7745214	-1.4562644e-05
3	0xb5eb0181	-1.7509302e-06
4	0x36a825cd	5.0111908e-06
5	0x3b448927	0.0029988976
6	0xb5df1d13	-1.6623256e-06
7	0x36b1be77	5.297184e-06
8	0xbb89650e	-0.004192955
9	0x39291cb9	0.00016127796
10	0xb62a0893	-2.5336965e-06
11	0xb64114e2	-2.8771397e-06
12	0xb7258d69	-9.867691e-06
13	0x3aa2a1b9	0.0012407816
14	0xb6cc8b94	-6.095923e-06
15	0xb55e8e9b	-8.2908963e-07
16	0xb60ebb92	-2.126883e-06
17	0xb9156b0a	-0.00014249622
18	0x36cd9b88	6.1275823e-06
19	0x36aaa74f	5.085872e-06
20	0xb61b89d5	-2.3177029e-06
21	0x363d52bd	2.8211355e-06
22	0x37144601	8.8377865e-06
23	0x37429747	1.1598523e-05
24	0x35b715d1	1.3640912e-06
25	0x360bff72	2.0861303e-06
26	0xb63b7c46	-2.7937508e-06
27	0x36af6c50	5.2280157e-06
28	0x35dabdb8	1.6297481e-06
29	0x3628756c	2.51023e-06
30	0xbbe5f4a0	-0.007017687
31	0xb53f511c	-7.1271074e-07

exp_avg_sq f4 [32, 1]
0	0x339a784c	7.193066e-08
1	0x33989bde	7.1064036e-08
2	0x36593949	3.2368864e-06
3	0x331bc4c2	3.62677e-08
4	0x32a49e88	1.9164204e-08
5	0x3a1afbf7	0.00059121795
6	0x331dfac2	3.6782474e-08
7	0x321430b0	8.625804e-09
8	0x39765f8e	0.00023495985
9	0x36c8b63e	5.9816803e-06
10	0x3559842e	8.1031146e-07
11	0x3333a63a	4.1827867e-08
12	0x34aa162e	3.1681105e-07
13	0x384f105d	4.9367885e-05
14	0x3315277d	3.472768e-08
15	0x32e61a6b	2.6787538e-08
16	0x33b6330d	8.4843215e-08
17	0x371505a1	8.882403e-06
18	0x3619308f	2.2827041e-06
19	0x335fd31d	5.211324e-08
20	0x33197bf3	3.573582e-08
21	0x3309e68c	3.210748e-08
22	0x32eb8331	2.741726e-08
23	0x32ddc801	2.5818737e-08
24	0x336f1ba6	5.567167e-08
25	0x32a57016	1.9259499e-08
26	0x32fd981b	2.9522246e-08
27	0x32c3a4f7	2.2776005e-08
28	0x33eac5af	1.09324326e-07
29	0x336b0582	5.472021e-08
30	0x3a6ed7f9	0.0009111162
31	0x3375fa0d	5.7270928e-08

exp_avg f4 [32, 32]
0	0xb340b223	-4.4865498e-08
1	0xb36d7de0	-5.5295345e-08
2	0xb3e8af1c	-1.0835194e-07
3	0xb3df0fee	-1.0387144e-07
4	0x33fcde9e	1.1775158e-07
5	0x33cb8315	9.476768e-08
6	0xb3c7386f	-9.276925e-08
7	0x339cbabb	7.298282e-08
8	0x32931e66	1.7126876e-08
9	0x341f5ff2	1.4842934e-07
10	0x33012a6e	3.0073743e-08
11	0xb41c8db7	-1.4580188e-07
12	0xb2acbf67	-2.0110475e-08
13	0xb49bbf17	-2.9010036e-07
14	0xb3dbd6fa	-1.0237086e-07
15	0xb41a0baa	-1.4346611e-07
16	0xb39eb5c1	-7.390509e-08
17	0x33a88d8c	7.848857e-08
18	0xb3d02739	-9.692889e-08
19	0x33df2f8c	1.03928954e-07
20	0xb405af1a	-1.2450292e-07
21	0xb2928f2a	-1.706174e-08
22	0x33b098c2	8.223425e-08
23	0xb3dfb24e	-1.041668e-07
24	0xb2046318	-7.7059426e-09
25	0xb3d9a905	-1.01355944e-07
26	0xb4121abf	-1.360704e-07
27	0xb3063d7e	-3.1255233e-08
28	0xb40a77c5	-1.2895823e-07
29	0x34596a2f	2.0248329e-07
30	0x335730e3	5.010305e-08
31	0xb30ee57c	-3.3270666e-08
32	0x35136e29	5.492207e-07
33	0x3523a78f	6.096606e-07
34	0x35a779c6	1.247791e-06
35	0x35db1cce	1.6325155e-06
36	0xb5f4413f	-1.8198406e-06
37	0xb5114f1f	-5.4131846e-07
38	0x35c8b739	1.4954486e-06
39	0xb59aeb08	-1.1542297e-06
40	0xb29d4caa	-1.8312068e-08
41	0xb5ba5b73	-1.3884695e-06
42	0xb490c0ca	-2.6962363e-07
43	0x36143700	2.2085733e-06
44	0x34cbfb3d	3.7994496e-07
45	0x3672c043	3.6172721e-06
46	0x35d6f61a	1.6015867e-06
47	0x36149a79	2.2143633e-06
48	0x35a13799	1.2011616e-06
49	0xb5539a4e	-7.882817e-07
50	0x35a89e69	1.2563079e-06
51	0xb5daed4b	-1.6311327e-06
52	0x3601c222	1.9335498e-06
53	0x332e8aa5	4.063863e-08
54	0xb5b32ebb	-1.335014e-06
55	0x35ac2bc9	1.2827742e-06
56	0xb36bb480	-5.4879365e-08
57	0x35d9c84b	1.6226053e-06
58	0x360b3b96	2.0747298e-06
59	0x35371089	6.8196874e-07
60	0x35e50156	1.7062218e-06
61	0xb6368f01	-2.7203353e-06
62	0x341fe235	1.4890323e-07
63	0x3524e44e	6.142699e-07
64	0x39935560	0.00028101634
65	0x39945c3d	0.00028297483
66	0x39931fc7	0.000280617
67	0xb99366d6	-0.00028114644
68	0x39937284	0.00028123346
69	0xb8c2bdeb	-9.286016e-05
70	0xb99399a6	-0.00028152502
71	0x3993cdd4	0.0002819138
72	0x39b0a456	0.00033691776
73	0x382070ff	3.825221e-05
74	0xb9934ebb	-0.00028096684
75	0xb993311f	-0.00028074623
76	0xb99345c8	-0.00028090016
77	0x399319b6	0.0002805718
78	0xb9938a00	-0.00028140843
79	0xb9940fcd	-0.00028240532
80	0xb9937a86	-0.00028129312
81	0xb99322a8	-0.00028063846
82	0x39936b12	0.00028117799
83	0x3993f75e	0.00028222328
84	0xb9935401	-0.00028100613
85	0x39942126	0.00028253457
86	0x3993e538	0.00028208806
87	0x399812ee	0.00029005803
88	0x39965578	0.0002867391
89	0xb99775e2	-0.00028888794
90	0xb99401a3	-0.0002822998
91	0xb9982daa	-0.00029025722
92	0x39936b46	0.0002811795
93	0xb9940e8e	-0.00028239604
94	0xb990e41a	-0.0002763577
95	0xb9943d28	-0.00028274325
96	0xb44cdea1	-1.9079972e-07
97	0xb4854706	-2.4824857e-07
98	0xb544aecb	-7.3270047e-07
99	0xb5a21eb8	-1.2078881e-06
100	0x35b3b365	1.338875e-06
101	0x34df61ad	4.1608055e-07
102	0xb5966bbe	-1.1207228e-06
103	0x3576b254	9.1901643e-07
104	0x3263f4ca	1.3268798e-08
105	0x358cd7d7	1.049363e-06
106	0x32fdfa4b	2.9566896e-08
107	0xb5d4dc4f	-1.5859349e-06
108	0xb4d951ce	-4.047892e-07
109	0xb61fd254	-2.3815273e-06
110	0xb5a02b34	-1.1933503e-06
111	0xb5d45300	-1.5819387e-06
112	0xb579a706	-9.300278e-07
113	0x34d8eaa0	4.0403847e-07
114	0xb5329a89	-6.6535046e-07
115	0x35a3d23d	1.2205634e-06
116	0xb5bc3199	-1.4021526e-06
117	0x33f763cd	1.15199875e-07
118	0x35892a9b	1.0219695e-06
119	0xb5350c47	-6.744562e-07
120	0x344374bf	1.8203262e-07
121	0xb5a10ad0	-1.1998582e-06
122	0xb5c93682	-1.4991531e-06
123	0xb51f572b	-5.935896e-07
124	0xb580650b	-9.56615e-07
125	0x35d9a9ff	1.6217235e-06
126	0x3378c782	5.792345e-08
127	0xb513ad75	-5.501418e-07
128	0xb3fbd5ab	-1.1726964e-07
129	0xb4318283	-1.653189e-07
130	0xb4f6749a	-4.590591e-07
131	0xb54000a6	-7.152652e-07
132	0x35556cea	7.9507174e-07
133	0x34997a6f	2.8587553e-07
134	0xb5307d53	-6.574748e-07
135	0x3512385a	5.447124e-07
136	0x328ab010	1.6145378e-08
137	0x352cea80	6.4416236e-07
138	0x330352c5	3.0576093e-08
139	0xb57db512	-9.4513337e-07
140	0xb48156fc	-2.4091412e-07
141	0xb5bf5414	-1.4255079e-06
142	0xb53dea15	-7.074862e-07
143	0xb57b8f69	-9.3713476e-07
144	0xb5131e7b	-5.480612e-07
145	0x348893fa	2.543964e-07
146	0xb4dabfa4	-4.07451e-07
147	0x3541b519	7.2161635e-07
148	0xb55f0422	-8.307999e-07
149	0x3358001d	5.0291522e-08
150	0x35211b81	6.00172e-07
151	0xb4e5c352	-4.2796688e-07
152	0x33ce4065	9.604336e-08
153	0xb53d3d3f	-7.049711e-07
154	0xb56fa556	-8.9275034e-07
155	0xb4b0be14	-3.2920855e-07
156	0xb51cada6	-5.836722e-07
157	0x3584c1dc	9.891187e-07
158	0x338628f8	6.2473134e-08
159	0xb4abe5f7	-3.2018553e-07
160	0xbbbd9918	-0.0057860725
161	0xbbbd823f	-0.005783349
162	0xbbc37fea	-0.0059661763
163	0x3bbeb774	0.005820209
164	0xbbbed46a	-0.0058236616
165	0xbad8997e	-0.0016525236
166	0x3bbea77f	0.005818307
167	0xbbbe875a	-0.005814475
168	0xbbba9cb1	-0.0056949486
169	0xbbbb2297	-0.0057109105
170	0x3bbdb19b	0.0057889945
171	0x3bbf073e	0.0058297208
172	0x3bbe13c5	0.0058006966
173	0xbbad65e6	-0.0052916883
174	0x3bbec138	0.0058213733
175	0x3bbf0b84	0.00583023
176	0x3bbe7da6	0.0058133183
177	0x3bb44b19	0.0055021164
178	0xbbbd299e	-0.0057727834
179	0xbbbec221	-0.005821482
180	0x3bbede90	0.0058248714
181	0xbbbdb7e7	-0.005789745
182	0xbbbe9747	-0.0058163735
183	0xbbbd8887	-0.0057840976
184	0xbbbde08d	-0.005794591
185	0x3bbed643	0.005823882
186	0x3bbefa0b	0.0058281473
187	0x3bbef0ec	0.00582706
188	0xbbbc3edc	-0.005744798
189	0x3bbc96e5	0.0057552927
190	0x3bf6e645	0.0075347745
191	0x3bbe30b7	0.005804147
192	0xb4cc434b	-3.8046923e-07
193	0xb4e379c9	-4.2370655e-07
194	0xb5e868b1	-1.7315816e-06
195	0xb60ef480	-2.1301967e-06
196	0x361ec6ff	2.3659666e-06
197	0x354f839d	7.730503e-07
198	0xb606aa76	-2.0066777e-06
199	0x35d96d22	1.6199522e-06
200	0x351c1478	5.8144315e-07
201	0x360a8926	2.0643433e-06
202	0x33796808	5.8069446e-08
203	0xb63b068f	-2.786899e-06
204	0xb531db5d	-6.6256854e-07
205	0xb6949a5c	-4.4287135e-06
206	0xb60d12e4	-2.1021633e-06
207	0xb63c3f36	-2.8050977e-06
208	0xb5dc352b	-1.6406751e-06
209	0x35928b9f	1.0918483e-06
210	0xb5a28d66	-1.2111093e-06
211	0x3611e7f6	2.1741703e-06
212	0xb6266c06	-2.4798805e-06
213	0x3487200e	2.5169032e-07
214	0x35f4c295	1.8236047e-06
215	0xb596ccce	-1.1235477e-06
216	0x34ac8336	3.2132965e-07
217	0xb60ff3aa	-2.1450492e-06
218	0xb631022b	-2.6376317e-06
219	0xb598b6b4	-1.1378056e-06
220	0xb5e6fec3	-1.7210481e-06
221	0x3640a79a	2.8707786e-06
222	0x34607ffb	2.0908185e-07
223	0xb5818573	-9.650088e-07
224	0x33eb8d25	1.0968714e-07
225	0x33702a62	5.59179e-08
226	0x352ccd71	6.437395e-07
227	0x34eb6cb7	4.3851261e-07
228	0xb500e9a2	-4.8023696e-07
229	0xb43ff088	-1.7875766e-07
230	0x34e67b36	4.2930486e-07
231	0xb4a74039	-3.1152902e-07
232	0xb50a5620	-5.1534334e-07
233	0xb521dc50	-6.029777e-07
234	0x3105bc6b	1.946115e-09
235	0x3514e114	5.546183e-07
236	0x33d74b35	1.0025398e-07
237	0x358b8ee1	1.039789e-06
238	0x34e4e077	4.263163e-07
239	0x351d6254	5.8630144e-07
240	0x34b4d6fb	3.3684032e-07
241	0xb4f75bfa	-4.6074257e-07
242	0x3488c258	2.5473378e-07
243	0xb4f0e2b3	-4.486843e-07
244	0x3509e2cf	5.1366527e-07
245	0xb3d463c6	-9.890168e-08
246	0xb4cf3993	-3.8598645e-07
247	0x343e62f3	1.7731126e-07
248	0xb3b32278	-8.341607e-08
249	0x34f71f00	4.602989e-07
250	0x350dfd70	5.2895393e-07
251	0x34a15a15	3.005413e-07
252	0x34bd8367	3.52996e-07
253	0xb5164f6b	-5.599492e-07
254	0xb3ffa8df	-1.190508e-07
255	0x3451e247	1.9546961e-07

exp_avg_sq f4 [32, 32]
0	0x32a4990e	1.9161714e-08
1	0x32920c73	1.7002298e-08
2	0x325fb3bf	1.3021178e-08
3	0x32d26cc0	2.4496671e-08
4	0x32ca0430	2.35178e-08
5	0x32af78e7	2.0427661e-08
6	0x32bc0d5b	2.1892154e-08
7	0x32b9d766	2.1634786e-08
8	0x32385200	1.0728854e-08
9	0x32750f43	1.4264347e-08
10	0x32d22214	2.4462715e-08
11	0x32c215a0	2.2594406e-08
12	0x32bb692c	2.1817492e-08
13	0x329bec67	1.8151878e-08
14	0x32d89dfa	2.5217549e-08
15	0x32f40f7b	2.8412378e-08
16	0x32bf7b8c	2.2291509e-08
17	0x32b5399e	2.1097375e-08
18	0x3250b7ce	1.2148986e-08
19	0x32d2f77d	2.4559762e-08
20	0x32b821d0	2.1435795e-08
21	0x32ca919d	2.3582112e-08
22	0x32cf783f	2.4152653e-08
23	0x329bcb42	1.8136806e-08
24	0x32bd1d22	2.2015744e-08
25	0x32adb9e2	2.022438e-08
26	0x32dcaed8	2.569088e-08
27	0x32a42532	1.9109027e-08
28	0x3293ed64	1.7221005e-08
29	0x32ab8250	1.996628e-08
30	0x32ae26ef	2.0273971e-08
31	0x32b554d6	2.1109752e-08
32	0x3230d2f6	1.0292515e-08
33	0x31d22f73	6.1171987e-09
34	0x3221d856	9.4206225e-09
35	0x3207a94e	7.89653e-09
36	0x3286b0f9	1.5680131e-08
37	0x32312976	1.0312183e-08
38	0x31d18d73	6.0987815e-09
39	0x31dc6ab0	6.4149717e-09
40	0x31d5a558	6.2179133e-09
41	0x3232576a	1.0380839e-08
42	0x3257a9a6	1.2553221e-08
43	0x31e3d234	6.630467e-09
44	0x320eeaab	8.318845e-09
45	0x319baa91	4.530485e-09
46	0x3268ae79	1.3543848e-08
47	0x32a7ad40	1.9520144e-08
48	0x31e721bf	6.7268213e-09
49	0x32245417	9.565176e-09
50	0x32209f20	9.349407e-09
51	0x3240c5dc	1.1220859e-08
52	0x31d5b4d3	6.219673e-09
53	0x327b67e5	1.4633746e-08
54	0x325bda77	1.2797151e-08
55	0x32a5ed25	1.9316369e-08
56	0x325db8b7	1.2905892e-08
57	0x32cde954	2.3971246e-08
58	0x31ed3fef	6.9048762e-09
59	0x32811920	1.5029002e-08
60	0x3216d2b8	8.779061e-09
61	0x3231be5b	1.0346038e-08
62	0x31d67a3a	6.2421153e-09
63	0x31d6d8db	6.2528733e-09
64	0x366a0647	3.487237e-06
65	0x3669559f	3.4769544e-06
66	0x3669f30f	3.4861184e-06
67	0x3669f0c2	3.4859845e-06
68	0x366aed7d	3.5006954e-06
69	0x363e85bc	2.839005e-06
70	0x3669c10e	3.4832078e-06
71	0x3669e08b	3.4850407e-06
72	0x3602cd1a	1.9490894e-06
73	0x36362a98	2.7144906e-06
74	0x3669e00b	3.4850116e-06
75	0x3669db50	3.4847362e-06
76	0x3669b1f7	3.4823295e-06
77	0x365f1e1a	3.324711e-06
78	0x366a8837	3.4948005e-06
79	0x366ac914	3.498576e-06
80	0x3669bd54	3.482991e-06
81	0x3650ad10	3.109515e-06
82	0x362bbf6a	2.5592403e-06
83	0x366a725f	3.493529e-06
84	0x3669c918	3.4836758e-06
85	0x3667d0ae	3.454315e-06
86	0x366a8119	3.4943862e-06
87	0x366a9401	3.4954867e-06
88	0x3669c256	3.4832824e-06
89	0x366adea6	3.4998316e-06
90	0x3669f8e5	3.4864581e-06
91	0x366a318a	3.4897553e-06
92	0x3667b836	3.4528907e-06
93	0x36687202	3.4637055e-06
94	0x36171fb8	2.2519216e-06
95	0x3669d7ec	3.4845389e-06
96	0x32125e0d	8.519703e-09
97	0x32138379	8.58642e-09
98	0x32a64965	1.935832e-08
99	0x32237193	9.5136725e-09
100	0x32421439	1.1296884e-08
101	0x309325fc	1.0706454e-09
102	0x319b0c75	4.51251e-09
103	0x318143fb	3.7621226e-09
104	0x32486024	1.1663392e-08
105	0x321d3f85	9.153045e-09
106	0x31c54161	5.7408873e-09
107	0x31a99ebb	4.936593e-09
108	0x31db7f8e	6.38824e-09
109	0x3246767a	1.1552055e-08
110	0x32144c65	8.632104e-09
111	0x328b93ca	1.6248936e-08
112	0x32004ac7	7.467583e-09
113	0x311f3f5e	2.3173565e-09
114	0x31faa504	7.2947177e-09
115	0x32168880	8.762186e-09
116	0x31e1ad45	6.5680603e-09
117	0x32113e6c	8.454304e-09
118	0x321f0d0d	9.2579855e-09
119	0x32a738b0	1.9467137e-08
120	0x32417df3	1.1262716e-08
121	0x32a0628e	1.8671269e-08
122	0x3257b543	1.2555861e-08
123	0x32a595fd	1.9276735e-08
124	0x3251c0bf	1.22092265e-08
125	0x329cdd2c	1.8261368e-08
126	0x31fa0cac	7.2773982e-09
127	0x324fadec	1.2088531e-08
128	0x3073e4e9	8.8728186e-10
129	0x317fb120	3.7208068e-09
130	0x3291f33f	1.6990837e-08
131	0x32b8fe72	2.1536128e-08
132	0x32491fcc	1.170697e-08
133	0x31165577	2.1876454e-09
134	0x327c3baa	1.4681897e-08
135	0x326ec2c3	1.3897707e-08
136	0x318f031e	4.162202e-09
137	0x31b5988f	5.285137e-09
138	0x3202ba2e	7.609328e-09
139	0x32a6a654	1.940058e-08
140	0x3237ab6a	1.0690977e-08
141	0x3242cb96	1.1338576e-08
142	0x3266ec30	1.3441465e-08
143	0x32a09cf5	1.8697827e-08
144	0x32ad1047	2.0147253e-08
145	0x31bd6c01	5.5129026e-09
146	0x31300320	2.5613147e-09
147	0x32872ade	1.5735562e-08
148	0x32855fa8	1.5526737e-08
149	0x31c66281	5.773757e-09
150	0x3262aa4d	1.3193653e-08
151	0x32431e6f	1.1357414e-08
152	0x30cd46fc	1.4935888e-09
153	0x322783fd	9.75069e-09
154	0x32caaf4f	2.3595616e-08
155	0x3255854a	1.2428538e-08
156	0x31f659c3	7.169747e-09
157	0x32b5358e	2.1095527e-08
158	0x31938594	4.293449e-09
159	0x32a52346	1.9224569e-08
160	0x39713661	0.00023003809
161	0x39710ea4	0.00022989005
162	0x3965db8a	0.00021920927
163	0x3971b39f	0.00023050465
164	0x3971b5c7	0.00023051268
165	0x3a02d75f	0.0004991199
166	0x3971b073	0.00023049283
167	0x3971b9b7	0.00023052735
168	0x395ea52f	0.00021233106
169	0x396f85a5	0.00022842603
170	0x39719806	0.00023040184
171	0x3971b9c7	0.00023052758
172	0x39718e1b	0.0002303649
173	0x395d5372	0.00021107288
174	0x3971afe1	0.00023049071
175	0x3971c6b7	0.00023057578
176	0x3971a0d0	0.00023043458
177	0x39651d2d	0.0002185001
178	0x393fcd8d	0.00018291753
179	0x3971b7f6	0.00023052082
180	0x3971ae25	0.00023048425
181	0x3971fcc7	0.00023077718
182	0x3971a5e8	0.00023045356
183	0x3971d10e	0.0002306143
184	0x3971944f	0.000230388
185	0x3971f0ce	0.00023073258
186	0x3971d0f1	0.00023061388
187	0x39719a21	0.00023040969
188	0x396e9a7c	0.00022754999
189	0x396d6fe0	0.00022643758
190	0x3a375c35	0.0006994636
191	0x3971a9fa	0.00023046872
192	0x338386b5	6.124666e-08
193	0x338a6f3a	6.446358e-08
194	0x33acbe1c	8.043955e-08
195	0x33880233	6.3333935e-08
196	0x339ac224	7.206498e-08
197	0x31670a92	3.3620933e-09
198	0x31e2c9a0	6.600388e-09
199	0x32c1d506	2.2565029e-08
200	0x338ff962	6.704319e-08
201	0x33954c4a	6.95223e-08
202	0x333ba50a	4.3689433e-08
203	0x3280c6d8	1.4991585e-08
204	0x337958ba	5.8055527e-08
205	0x33917c4d	6.774699e-08
206	0x338f7fa0	6.682171e-08
207	0x33a1fc42	7.543032e-08
208	0x3262d532	1.3203406e-08
209	0x31bd1fb1	5.504227e-09
210	0x3381309e	6.015874e-08
211	0x338aa94d	6.4569214e-08
212	0x335bf1cc	5.1209824e-08
213	0x3384747c	6.1679174e-08
214	0x3394c501	6.927622e-08
215	0x33ad4aa2	8.069516e-08
216	0x3399d44c	7.163234e-08
217	0x33ad632d	8.07398e-08
218	0x339a3054	7.179975e-08
219	0x33b31195	8.338535e-08
220	0x33995a79	7.1410746e-08
221	0x33a74ff8	7.79109e-08
222	0x331237c0	3.404398e-08
223	0x32d8a85d	2.5222272e-08
224	0x324f16b8	1.20541515e-08
225	0x32430229	1.1350985e-08
226	0x32c4e466	2.2921267e-08
227	0x32602733	1.3047429e-08
228	0x32695293	1.358116e-08
229	0x30f8a1fe	1.8090416e-09
230	0x31a370fc	4.756769e-09
231	0x31e0a819	6.5383685e-09
232	0x326eee60	1.39076235e-08
233	0x326e6a78	1.38776315e-08
234	0x3225927b	9.63757e-09
235	0x31a29cd3	4.7326494e-09
236	0x321e0b6c	9.1994075e-09
237	0x3280c596	1.4991013e-08
238	0x3255d25b	1.2446061e-08
239	0x32d1225b	2.4346425e-08
240	0x31c32492	5.6794045e-09
241	0x3194b224	4.327619e-09
242	0x323be195	1.0936124e-08
243	0x32526bee	1.2248149e-08
244	0x322cec27	1.00654125e-08
245	0x325aab08	1.2728158e-08
246	0x3252158e	1.222851e-08
247	0x32cdf754	2.3977613e-08
248	0x327b2a86	1.4619792e-08
249	0x32bc1ab1	2.1898218e-08
250	0x32861b0a	1.5611949e-08
251	0x32cb1ec5	2.3646303e-08
252	0x32863544	1.5623876e-08
253	0x32e0462e	2.6108946e-08
254	0x3217f353	8.844682e-09
255	0x3223b995	9.530045e-09

exp_avg f4 [32]
0	0x388889a9	6.5106266e-05
1	0x35b6f950	1.3632616e-06
2	0x39f7549e	0.00047174556
3	0xb73b5d4d	-1.1167792e-05
4	0x3827783d	3.9927883e-05
5	0xbd05f0e6	-0.03270044
6	0xb7f794d9	-2.9514007e-05
7	0x385e7ea7	5.304688e-05
8	0xbba53790	-0.005042024
9	0xb72657f2	-9.914847e-06
10	0xb675607f	-3.6564013e-06
11	0xb802ff88	-3.1232397e-05
12	0xb8d00b15	-9.920277e-05
13	0x39dc73ed	0.0004204804
14	0xb801efd8	-3.097937e-05
15	0xb7967205	-1.7934488e-05
16	0xb7d64e39	-2.5547213e-05
17	0xb9b0b8ba	-0.00033706968
18	0x382f9fe8	4.1872176e-05
19	0x383c07fb	4.4830125e-05
20	0xb79af0d8	-1.8470382e-05
21	0x37749bc7	1.4579803e-05
22	0x383b17c4	4.4606408e-05
23	0x38467f95	4.73257e-05
24	0x3760b54c	1.3393652e-05
25	0xb7b5dbb5	-2.167919e-05
26	0xb7d969fd	-2.591777e-05
27	0xb82355b0	-3.894203e-05
28	0x36836bcf	3.916655e-06
29	0x37254449	9.850665e-06
30	0xbd6d3dee	-0.05792039
31	0xb7616595	-1.34346965e-05

exp_avg_sq f4 [32]
0	0x33da4051	1.0163115e-07
1	0x338b7408	6.493798e-08
2	0x36981774	4.5326833e-06
3	0x32a8e8bf	1.9663615e-08
4	0x32a62135	1.9340044e-08
5	0x3ba55f00	0.0050467253
6	0x32c90db4	2.3405711e-08
7	0x32a0a29b	1.8700396e-08
8	0x3963fe70	0.00021743192
9	0x3702a431	7.786833e-06
10	0x35d8e360	1.6159429e-06
11	0x328426d3	1.5384478e-08
12	0x351848c7	5.673032e-07
13	0x3878a810	5.9284328e-05
14	0x329a48fc	1.7961149e-08
15	0x32a9ab4a	1.9752083e-08
16	0x33207ac7	3.736457e-08
17	0x377cd767	1.5070523e-05
18	0x373f8a57	1.1416697e-05
19	0x3283716e	1.5301989e-08
20	0x32cdfa00	2.3978828e-08
21	0x335bf1a2	5.1209675e-08
22	0x33096d94	3.199746e-08
23	0x32df3c17	2.5987942e-08
24	0x33d487a6	9.8966936e-08
25	0x32c714b3	2.3176062e-08
26	0x32899570	1.6016855e-08
27	0x32775206	1.4395942e-08
28	0x3422b002	1.5151457e-07
29	0x32e3485a	2.645918e-08
30	0x3c48cddf	0.012256115
31	0x33137eae	3.434132e-08

exp_avg f4 [32]
0	0x388889a9	6.5106266e-05
1	0x35b6f96d	1.3632649e-06
2	0x39f7549b	0.00047174547
3	0xb73b5d4c	-1.1167791e-05
4	0x3827783b	3.9927876e-05
5	0xbd05f0e6	-0.03270044
6	0xb7f794db	-2.951401e-05
7	0x385e7ea7	5.304688e-05
8	0xbba53791	-0.0050420244
9	0xb7265722	-9.914658e-06
10	0xb6756082	-3.656402e-06
11	0xb802ff87	-3.1232394e-05
12	0xb8d00b17	-9.9202785e-05
13	0x39dc73ea	0.00042048033
14	0xb801efd8	-3.097937e-05
15	0xb7967202	-1.7934482e-05
16	0xb7d64e39	-2.5547213e-05
17	0xb9b0b8b7	-0.0003370696
18	0x382f9fe9	4.187218e-05
19	0x383c07fb	4.4830125e-05
20	0xb79af0d8	-1.8470382e-05
21	0x37749bc2	1.45797985e-05
22	0x383b17c4	4.4606408e-05
23	0x38467f95	4.73257e-05
24	0x3760b54b	1.3393651e-05
25	0xb7b5dbb7	-2.1679194e-05
26	0xb7d969fd	-2.591777e-05
27	0xb82355b0	-3.894203e-05
28	0x36836bd0	3.9166553e-06
29	0x37254447	9.850663e-06
30	0xbd6d3ded	-0.057920385
31	0xb7616595	-1.34346965e-05

exp_avg_sq f4 [32]
0	0x33da4051	1.0163115e-07
1	0x338b7408	6.493798e-08
2	0x36981775	4.5326838e-06
3	0x32a8e8bd	1.9663611e-08
4	0x32a62135	1.9340044e-08
5	0x3ba55eff	0.005046725
6	0x32c90db4	2.3405711e-08
7	0x32a0a29b	1.8700396e-08
8	0x3963fe6f	0.00021743191
9	0x3702a431	7.786833e-06
10	0x35d8e360	1.6159429e-06
11	0x328426cf	1.538447e-08
12	0x351848c7	5.673032e-07
13	0x3878a810	5.9284328e-05
14	0x329a48fa	1.7961145e-08
15	0x32a9ab4d	1.9752088e-08
16	0x33207ac7	3.736457e-08
17	0x377cd769	1.5070525e-05
18	0x373f8a57	1.1416697e-05
19	0x3283716e	1.5301989e-08
20	0x32cdfa02	2.3978831e-08
21	0x335bf19d	5.1209657e-08
22	0x33096d97	3.199747e-08
23	0x32df3c0e	2.5987926e-08
24	0x33d487a4	9.896692e-08
25	0x32c714b3	2.3176062e-08
26	0x32899570	1.6016855e-08
27	0x32775206	1.4395942e-08
28	0x3422b002	1.5151457e-07
29	0x32e34859	2.6459178e-08
30	0x3c48cde0	0.012256116
31	0x33137ead	3.4341316e-08

exp_avg f4 [32, 1]
0	0x2f0182c0	1.1778933e-10
1	0x3322d955	3.7916227e-08
2	0x2db4837c	2.0522022e-11
3	0x35218802	6.017509e-07
4	0x2c953f1b	4.241841e-12
5	0xbc8c317c	-0.01711344
6	0x3912596c	0.00013956957
7	0x39b9d1e0	0.0003544232
8	0x2f7e64a7	2.3136924e-10
9	0x35a3c867	1.2202771e-06
10	0x39c5d674	0.00037734548
11	0x2f9bba4f	2.8326716e-10
12	0xb59cedcb	-1.1692113e-06
13	0x3c0bf1fa	0.008541578
14	0xbbf838b2	-0.007575118
15	0x3a9dd8f4	0.0012042806
16	0x3936ec3d	0.00017444878
17	0x356e9dbf	8.889146e-07
18	0xbc55ab65	-0.013041352
19	0x39852181	0.000253927
20	0x366f38c3	3.5646815e-06
21	0x3438ad20	1.7199318e-07
22	0x35ebcabd	1.7567869e-06
23	0x34803fb9	2.3888222e-07
24	0x2daa6dff	1.937561e-11
25	0x383e2f6c	4.5343695e-05
26	0x3891b780	6.948318e-05
27	0xbc473b72	-0.012160169
28	0x3c564907	0.0130789345
29	0x31b504de	5.2683466e-09
30	0x2f890878	2.4926172e-10
31	0x39c3688d	0.00037271195

exp_avg_sq f4 [32, 1]
0	0x3728181e	1.00191955e-05
1	0x3667095f	3.4427137e-06
2	0x36a39ff0	4.8763977e-06
3	0x35ed610f	1.7686124e-06
4	0x370654c7	8.006761e-06
5	0x3ab8522f	0.0014062579
6	0x369ad86d	4.614753e-06
7	0x370caa03	8.384234e-06
8	0x366f2434	3.5634848e-06
9	0x3604cbcd	1.978816e-06
10	0x36d66df4	6.390497e-06
11	0x3620c926	2.3958942e-06
12	0x3801e61b	3.09703e-05
13	0x39b8cd14	0.0003524801
14	0x399dbb73	0.00030085034
15	0x3516de79	5.6203095e-07
16	0x35d119fd	1.5579277e-06
17	0x3667cab1	3.4539664e-06
18	0x3a3bfed7	0.0007171458
19	0x36b9847a	5.528852e-06
20	0x36723e40	3.6097044e-06
21	0x368c4a81	4.1809985e-06
22	0x359bfbc9	1.1621679e-06
23	0x3596a4a1	1.1223784e-06
24	0x3615e731	2.2337301e-06
25	0x36c5ac7c	5.8911373e-06
26	0x35e6364a	1.7152136e-06
27	0x3a23597d	0.00062312913
28	0x3a3c6ead	0.0007188123
29	0x3624e69e	2.4572141e-06
30	0x36811b37	3.847668e-06
31	0x36fdb602	7.561176e-06

exp_avg f4 [32, 32]
0	0x00000000	0.0
1	0x00000000	0.0
2	0x00000000	0.0
3	0x00000000	0.0
4	0x00000000	0.0
5	0x00000000	0.0
6	0x00000000	0.0
7	0x00000000	0.0
8	0x00000000	0.0
9	0x00000000	0.0
10	0x00000000	0.0
11	0x00000000	0.0
12	0x00000000	0.0
13	0x00000000	0.0
14	0x00000000	0.0
15	0x00000000	0.0
16	0x00000000	0.0
17	0x00000000	0.0
18	0x00000000	0.0
19	0x00000000	0.0
20	0x00000000	0.0
21	0x00000000	0.0
22	0x00000000	0.0
23	0x00000000	0.0
24	0x00000000	0.0
25	0x00000000	0.0
26	0x00000000	0.0
27	0x00000000	0.0
28	0x00000000	0.0
29	0x00000000	0.0
30	0x00000000	0.0
31	0x00000000	0.0
32	0x00000000	0.0
33	0x00000000	0.0
34	0x00000000	0.0
35	0x00000000	0.0
36	0x00000000	0.0
37	0x00000000	0.0
38	0x00000000	0.0
39	0x00000000	0.0
40	0x00000000	0.0
41	0x00000000	0.0
42	0x00000000	0.0
43	0x00000000	0.0
44	0x00000000	0.0
45	0x00000000	0.0
46	0x00000000	0.0
47	0x00000000	0.0
48	0x00000000	0.0
49	0x00000000	0.0
50	0x00000000	0.0
51	0x00000000	0.0
52	0x00000000	0.0
53	0x00000000	0.0
54	0x00000000	0.0
55	0x00000000	0.0
56	0x00000000	0.0
57	0x00000000	0.0
58	0x00000000	0.0
59	0x00000000	0.0
60	0x00000000	0.0
61	0x00000000	0.0
62	0x00000000	0.0
63	0x00000000	0.0
64	0x00000000	0.0
65	0x00000000	0.0
66	0x00000000	0.0
67	0x00000000	0.0
68	0x00000000	0.0
69	0x00000000	0.0
70	0x00000000	0.0
71	0x00000000	0.0
72	0x00000000	0.0
73	0x00000000	0.0
74	0x00000000	0.0
75	0x00000000	0.0
76	0x00000000	0.0
77	0x00000000	0.0
78	0x00000000	0.0
79	0x00000000	0.0
80	0x00000000	0.0
81	0x00000000	0.0
82	0x00000000	0.0
83	0x00000000	0.0
84	0x00000000	0.0
85	0x00000000	0.0
86	0x00000000	0.0
87	0x00000000	0.0
88	0x00000000	0.0
89	0x00000000	0.0
90	0x00000000	0.0
91	0x00000000	0.0
92	0x00000000	0.0
93	0x00000000	0.0
94	0x00000000	0.0
95	0x00000000	0.0
96	0x00000000	0.0
97	0x00000000	0.0
98	0x00000000	0.0
99	0x00000000	0.0
100	0x00000000	0.0
101	0x00000000	0.0
102	0x00000000	0.0
103	0x00000000	0.0
104	0x00000000	0.0
105	0x00000000	0.0
106	0x00000000	0.0
107	0x00000000	0.0
108	0x00000000	0.0
109	0x00000000	0.0
110	0x00000000	0.0
111	0x00000000	0.0
112	0x00000000	0.0
113	0x00000000	0.0
114	0x00000000	0.0
115	0x00000000	0.0
116	0x00000000	0.0
117	0x00000000	0.0
118	0x00000000	0.0
119	0x00000000	0.0
120	0x00000000	0.0
121	0x00000000	0.0
122	0x00000000	0.0
123	0x00000000	0.0
124	0x00000000	0.0
125	0x00000000	0.0
126	0x00000000	0.0
127	0x00000000	0.0
128	0x00000000	0.0
129	0x00000000	0.0
130	0x00000000	0.0
131	0x00000000	0.0
132	0x00000000	0.0
133	0x00000000	0.0
134	0x00000000	0.0
135	0x00000000	0.0
136	0x00000000	0.0
137	0x00000000	0.0
138	0x00000000	0.0
139	0x00000000	0.0
140	0x00000000	0.0
141	0x00000000	0.0
142	0x00000000	0.0
143	0x00000000	0.0
144	0x00000000	0.0
145	0x00000000	0.0
146	0x00000000	0.0
147	0x00000000	0.0
148	0x00000000	0.0
149	0x00000000	0.0
150	0x00000000	0.0
151	0x00000000	0.0
152	0x00000000	0.0
153	0x00000000	0.0
154	0x00000000	0.0
155	0x00000000	0.0
156	0x00000000	0.0
157	0x00000000	0.0
158	0x00000000	0.0
159	0x00000000	0.0
160	0x00000000	0.0
161	0x00000000	0.0
162	0x00000000	0.0
163	0x00000000	0.0
164	0x00000000	0.0
165	0x00000000	0.0
166	0x00000000	0.0
167	0x00000000	0.0
168	0x00000000	0.0
169	0x00000000	0.0
170	0x00000000	0.0
171	0x00000000	0.0
172	0x00000000	0.0
173	0x00000000	0.0
174	0x00000000	0.0
175	0x00000000	0.0
176	0x00000000	0.0
177	0x00000000	0.0
178	0x00000000	0.0
179	0x00000000	0.0
180	0x00000000	0.0
181	0x00000000	0.0
182	0x00000000	0.0
183	0x00000000	0.0
184	0x00000000	0.0
185	0x00000000	0.0
186	0x00000000	0.0
187	0x00000000	0.0
188	0x00000000	0.0
189	0x00000000	0.0
190	0x00000000	0.0
191	0x00000000	0.0
192	0x00000000	0.0
193	0x00000000	0.0
194	0x00000000	0.0
195	0x00000000	0.0
196	0x00000000	0.0
197	0x00000000	0.0
198	0x00000000	0.0
199	0x00000000	0.0
200	0x00000000	0.0
201	0x00000000	0.0
202	0x00000000	0.0
203	0x00000000	0.0
204	0x00000000	0.0
205	0x00000000	0.0
206	0x00000000	0.0
207	0x00000000	0.0
208	0x00000000	0.0
209	0x00000000	0.0
210	0x00000000	0.0
211	0x00000000	0.0
212	0x00000000	0.0
213	0x00000000	0.0
214	0x00000000	0.0
215	0x00000000	0.0
216	0x00000000	0.0
217	0x00000000	0.0
218	0x00000000	0.0
219	0x00000000	0.0
220	0x00000000	0.0
221	0x00000000	0.0
222	0x00000000	0.0
223	0x00000000	0.0
224	0x00000000	0.0
225	0x00000000	0.0
226	0x00000000	0.0
227	0x00000000	0.0
228	0x00000000	0.0
229	0x00000000	0.0
230	0x00000000	0.0
231	0x00000000	0.0
232	0x00000000	0.0
233	0x00000000	0.0
234	0x00000000	0.0
235	0x00000000	0.0
236	0x00000000	0.0
237	0x00000000	0.0
238	0x00000000	0.0
239	0x00000000	0.0
240	0x00000000	0.0
241	0x00000000	0.0
242	0x00000000	0.0
243	0x00000000	0.0
244	0x00000000	0.0
245	0x00000000	0.0
246	0x00000000	0.0
247	0x00000000	0.0
248	0x00000000	0.0
249	0x00000000	0.0
250	0x00000000	0.0
251	0x00000000	0.0
252	0x00000000	0.0
253	0x00000000	0.0
254	0x00000000	0.0
255	0x00000000	0.0
