07_RNN/logs/rnn/version_6/checkpoints/epoch=33-step=8058.ckpt (torch, 23624 bytes, 15 tensors)

rnn.weight_ih_l0 f4 [32, 1]
000000 76 4d 55 3f 0e 82 f0 bf 57 2e 02 c0 7b 88 22 3e
       0.8332132 -1.878969 -2.0340784 0.15872376
000010 c7 8d 53 3c 1d 67 1d bf 52 8d a3 bf 5b c8 9d 3e
       0.01291222 -0.61485463 -1.2777503 0.30816922
000020 f4 7f b3 3f 1e aa 75 bf b6 04 cc be 02 de 72 bf
       1.4023423 -0.95962703 -0.39847344 -0.9487001
000030 a2 5c 46 3f da 04 c2 bf b1 ab f5 3d 95 79 4f be
       0.77485096 -1.515773 0.11995638 -0.20261224
000040 3c bf e6 3f 7d 33 f0 bf 84 b8 a7 3f 79 25 a4 bd
       1.802711 -1.8765713 1.3103185 -0.0801496
000050 13 e9 06 40 bb 98 82 3f 33 5c 0f c0 ed d0 fe bf
       2.1079757 1.020286 -2.2400024 -1.9907509
000060 31 9b c1 bf c3 1a 82 bf 8b bc 00 40 77 d7 08 40
       -1.5125486 -1.0164417 2.0115077 2.138151
000070 d5 ff 0d c0 9b 90 71 bf b4 f7 6e 3f cd ee 03 c0
       -2.2187397 -0.94361275 0.93346715 -2.0614502

rnn.weight_hh_l0 f4 [32, 32]
000000 89 bc 22 bf 60 49 84 be eb 21 c6 bf b3 08 27 3f
       -0.6356893 -0.2583723 -1.5479101 0.6524765
000010 4f 79 cf bc 94 58 3b 3f 2d b1 6a 3e 36 13 f5 3c
       -0.0253264 0.73182034 0.2291915 0.029916387
000020 6b f8 06 3d e2 19 bb be d6 4d 54 be a7 17 be 3f
       0.032951754 -0.36543185 -0.20732817 1.4850968
000030 4b 00 60 3f e5 12 77 be a4 23 65 3f 12 05 00 3e
       0.8750045 -0.24128301 0.8950751 0.12501934
000040 5b 12 83 3e bd 0f 8c bf 20 f5 84 be 49 62 e4 3e
       0.25599942 -1.0942303 -0.25968266 0.44606236
000050 ef cf 9a 3f da 7a 80 3c da 31 20 bf c1 f3 84 bd
       1.2094706 0.01568358 -0.6257607 -0.06491805
000060 a2 9e 52 bf 75 ca 85 bc 46 f9 bb 3e 40 d1 a2 3f
       -0.82273304 -0.01633189 0.36713618 1.2720108
000070 2c f2 ad bf 8e a8 fc 3e 04 e1 0a 3f 9a 1d 1f bd
       -1.358953 0.49347347 0.54249597 -0.03884659
000080 e1 9a 33 3e a5 23 e1 be 3b a5 88 bf 16 4f 70 3f
       0.1753955 -0.43972507 -1.0675424 0.93870676
000090 0c fc 04 bf e6 4e 16 3e 84 f6 9b 3e 3b d6 f8 bd
       -0.51947093 0.14678535 0.30461514 -0.12150236
0000a0 84 12 43 3f a9 aa 88 bf 27 70 d4 be a4 61 3a bf
       0.7620013 -1.0677081 -0.41491815 -0.7280524
0000b0 1c bd f8 3e c9 d4 c7 be 56 16 e7 be d0 56 06 3f
       0.4858178 -0.3902953 -0.45134228 0.52476215
0000c0 30 49 f0 3f c3 a2 82 be f6 35 ab 3e 03 37 0b 3f
       1.8772335 -0.25514802 0.33439606 0.54380816
0000d0 24 c0 79 3f 1c 85 7b 3f 51 6f 39 bf 19 4d 90 be
       0.9755881 0.98249984 -0.7243548 -0.2818382
0000e0 36 95 d8 bf 0a d8 9a bf e0 ab 92 3f 50 79 04 3d
       -1.6920536 -1.209718 1.1458702 0.032342255
0000f0 1d 57 bc bf 73 91 98 3e 7e 84 b6 3f 09 13 10 bf
       -1.4714085 0.2979847 1.4259183 -0.56279045
000100 59 60 a1 3d b7 d1 9b bf f6 95 b4 bf a2 b4 01 40
       0.07879705 -1.2173375 -1.4108264 2.02665
000110 a7 98 82 3f ec 2b 4a 3e 21 5f 15 bf a6 de 4d bf
       1.0202836 0.19743317 -0.5834828 -0.8041786
000120 ba c5 c1 3f ac 86 15 c0 85 ba de 3d 6b 6a 8a be
       1.5138466 -2.3363447 0.108754195 -0.27034315
000130 88 7c 1f bf 9f 7e 8b 3f 77 65 e2 bc 98 93 8a 3f
       -0.62299395 1.0898017 -0.027636273 1.0826292
000140 8f 92 1b bf 93 07 97 3e 02 73 ee be fd da 40 3f
       -0.60770506 0.29497966 -0.4657212 0.7533415
000150 b9 5c 17 bf 48 7b ab 3e f9 85 cb 3e 4d 5c bb be
       -0.5912586 0.33492494 0.3975065 -0.36593857
000160 0d 0c 0d bf 8e 88 2e be 18 6e df 3d bb ba 69 3d
       -0.55096513 -0.17044279 0.109096706 0.057062846
000170 c0 0d c3 be 33 59 4a bc 3c 93 bf be 3c 08 84 bf
       -0.38096428 -0.012350368 -0.37417018 -1.0315013
000180 14 39 56 bf 40 8f 88 bf bb 3e 49 bf 71 c9 94 3a
       -0.83680844 -1.0668716 -0.78611344 0.0011351538
000190 97 7e d6 bd b0 fb 01 40 88 48 ac 3f 9c df 5c be
       -0.10473364 2.0309868 1.3459635 -0.21569675
0001a0 42 44 2c be 61 11 4a 3a 2b f6 80 bf c2 30 d7 3f
       -0.16822913 0.0007708278 -1.0075125 1.6811755
0001b0 05 e1 e8 3e 7d 2b 9f 3d 37 65 89 3f 58 ec 33 be
       0.45484176 0.077719666 1.0734013 -0.17570627
0001c0 73 33 66 3d 08 09 5b 3e 06 8e b0 be 42 ed 3e be
       0.05620141 0.21390164 -0.34483355 -0.18645194
0001d0 75 90 6d be 0d fa f3 be ef e9 20 3d ca 3e 3b be
       -0.23199637 -0.4765171 0.039285596 -0.18285671
0001e0 fb 6f f7 be 1f 99 39 be e8 95 30 bf f5 92 a0 3f
       -0.48327622 -0.18124817 -0.6897874 1.2544848
0001f0 0c e2 8a bf d2 b0 cd 3e 73 33 0d 3d 5d 85 ce 3f
       -1.0850234 0.40173966 0.034472894 1.6134449
000200 68 f1 6f bf c7 f3 71 bf 72 49 5a bf ad ac 36 3f
       -0.9372773 -0.945126 -0.8526832 0.7135723
000210 33 3b 58 bf a8 9e 40 3f f5 61 b1 3f 47 6b 0b bf
       -0.8446533 0.7524209 1.3858019 -0.5446057
000220 98 e2 ab 3e 11 7d 4a bf 23 22 a9 bf 32 6f ba 3f
       0.33571315 -0.79097086 -1.3213543 1.4565184
000230 a7 39 aa 3f 5f ba ad 3d 2a 68 3c bd 6d ad dc bd
       1.3298844 0.08482813 -0.045997776 -0.10775266
000240 7e 77 eb 3d 37 7b 38 3c 99 70 cd 3c 54 1a 63 be
       0.11497401 0.011259845 0.025078105 -0.22178012
000250 b5 c1 ae 3e 03 14 da 3e 53 ea 84 bf 01 c2 61 3f
       0.34132162 0.42593393 -1.038401 0.8818665
000260 c4 bf 8d be 3f d0 20 bf 52 47 bd 3e b5 db 17 be
       -0.27685368 -0.6281776 0.36968476 -0.14829905
000270 f4 df f3 3d 15 16 9a be ad a6 03 3f d2 e7 7b be
       0.1190795 -0.30094972 0.514262 -0.24600151
000280 6c 9a 19 bf f4 90 dd 3e 21 00 17 3f 95 15 76 bd
       -0.60001254 0.43274653 0.5898457 -0.060079176
000290 bf da 35 bf f5 4f 21 3e 66 b2 49 bf 6e a7 89 bf
       -0.71036905 0.15753157 -0.7878784 -1.075422
0002a0 1b 7b 07 bf b7 2a 1d 3d f2 7f 15 3f 00 8a b8 bf
       -0.5292222 0.038370814 0.58398354 -1.4417114
0002b0 9e 8e 29 3f 49 b4 2e bf e8 c0 6e 3e 55 f8 9e 3d
       0.6623324 -0.68243843 0.23315775 0.07762209
0002c0 c2 fa d3 bf 8a e2 bf 3f 57 3d 3b 3f a2 ea ff be
       -1.65609 1.4991009 0.7314047 -0.49983698
0002d0 bb cf 2d bf 2a 10 3d 3d dd 82 bb 3d d8 43 8f be
       -0.67895097 0.046157993 0.091558196 -0.27981448
0002e0 0d f9 5f 3f f1 84 0e bf b2 e5 e6 bf b5 cb 8c be
       0.87489396 -0.556716 -1.8038847 -0.27499166
0002f0 d8 17 51 3f fb b1 83 bf 20 79 b3 bf 93 90 6b be
       0.8167701 -1.028869 -1.402134 -0.2300437
000300 66 94 9d bf b6 40 3e 3d 87 51 ad 3e c1 75 5a bf
       -1.2310913 0.046448432 0.33851263 -0.8533593
000310 89 11 66 bf e4 1d f3 3e 26 5e 61 3e 11 0b 71 bf
       -0.89870507 0.47483742 0.22008571 -0.9415751
000320 c0 ab 35 bf 27 5f 8c 3f 1a 8f 54 bf 3e bf 4d 3e
       -0.70965195 1.0966538 -0.83030856 0.20092484
000330 75 8b 12 3f 1a fc c5 bd 8d c0 fe 3e d9 25 bb bc
       0.57244045 -0.09667225 0.4975628 -0.022845196
000340 94 00 29 bd b5 ff 8d 3f 33 f2 38 bd d1 c5 e7 be
       -0.041260317 1.109366 -0.045152854 -0.4526811
000350 35 63 bf be a7 27 87 bd 23 93 5b bd 36 f9 52 bf
       -0.37380376 -0.0659936 -0.053607117 -0.82411516
000360 8d a7 84 3f 47 cd 91 3d 4a 99 93 bf 4d e2 8d bf
       1.0363632 0.07119232 -1.1531155 -1.1084687
000370 65 26 6a be 94 42 89 bf f1 54 e0 bf ff 20 e8 3e
       -0.22866209 -1.0723443 -1.7525922 0.45337674
000380 0b a0 17 bf 4b 59 82 bf ee 10 41 be 6d 3b 6b 3e
       -0.5922858 -1.01835 -0.18854114 0.22971888
000390 0c 56 85 bf 69 4d 5a 3f 75 2b ea 3d f0 e4 75 3d
       -1.0416884 0.8527437 0.1143407 0.060032785
0003a0 f3 94 72 3e 6b 69 64 be 6f 8b 18 bf 40 19 3a bf
       0.23689632 -0.22305839 -0.5958776 -0.7269478
0003b0 a0 6f d2 3f 57 2b f1 bf 16 0f ae bc ed d9 a4 be
       1.6440315 -1.8841351 -0.021247428 -0.32197514
0003c0 8a 16 3c 3c e4 ff b6 bd a9 99 57 3f 92 5d df bd
       0.011479983 -0.08935526 0.8421884 -0.10906519
0003d0 c7 cd 46 3f 26 5e 56 bd d6 34 95 bf ea 88 b1 be
       0.7765774 -0.05233588 -1.1656749 -0.3467477
0003e0 e2 2e 28 bf 41 60 ab bf c1 3d 1c 40 fd cf 2a 3f
       -0.6569654 -1.3388749 2.4412692 0.66723615
0003f0 43 09 c9 3e ef 00 a4 3e 02 2b 1e bf 9d 3f 80 bf
       0.3926488 0.32031962 -0.61784375 -1.0019413

rnn.bias_ih_l0 f4 [32]
000000 e4 15 00 bf 86 5d 13 be 7e 6e 35 be 60 a7 20 3f
       -0.500334 -0.14391145 -0.1771793 0.62755394
000010 8e c6 38 bf dc db 62 3f e5 4c 19 3f 10 ce 54 bf
       -0.7217797 0.8861673 0.59882957 -0.83126926
000020 09 b1 2a 3f ff 4a 02 bf ae 0f 3f bf 30 89 24 be
       0.66676384 -0.50895685 -0.746333 -0.16067958
000030 2d e2 ca 3e 42 93 4e 3d 9d 13 67 3f 12 5b e6 3e
       0.39625683 0.050433405 0.902643 0.44991356
000040 92 14 3d 3c 0c 25 67 3e 79 13 48 3e 22 75 37 3f
       0.011540549 0.22572726 0.19538678 0.71663105
000050 a9 e0 0a bd f4 b4 3a bf 11 3c 66 3d 10 f1 ad 3e
       -0.03390566 -0.7293236 0.056209628 0.3397298
000060 26 b3 b8 be 34 ba 29 be 2f e2 49 3d e3 5c 87 3d
       -0.3607418 -0.16574937 0.04928797 0.066095136
000070 06 09 e3 be 12 8b 19 3f c5 4f 17 bf 51 76 a7 3d
       -0.44342822 0.5997783 -0.59106094 0.08176864

rnn.bias_hh_l0 f4 [32]
000000 d0 cb 19 bf 1c 5c 3b be a9 91 74 be 03 91 2e 3f
       -0.6007662 -0.18296856 -0.2388369 0.6819002
000010 52 8c 34 bf ef 9d 5b 3f e6 e4 ec 3e 7a ed 79 bf
       -0.7052661 0.8578786 0.46268386 -0.97627985
000020 23 19 5d 3f 9a c1 0c bf e7 6f 05 bf cd a8 47 be
       0.8636648 -0.5498291 -0.52123874 -0.19497986
000030 15 35 e4 3d 00 12 01 3e 35 eb 57 3f 56 ec bf 3e
       0.11142937 0.12604523 0.8434327 0.37484998
000040 97 26 98 bd 5d eb e8 3e ce 2d fb 3d fb 41 4f 3f
       -0.074292354 0.45492068 0.12264596 0.80960053
000050 b4 93 1e be 55 f5 1a bf 24 fc 1b 3e 22 1e 00 3f
       -0.15486032 -0.60530597 0.15232903 0.5004598
000060 e3 be 05 be 65 2c 32 be d4 37 f3 bd a9 d6 87 3e
       -0.13061099 -0.17399748 -0.11875883 0.2653096
000070 f2 88 1d be 14 d0 68 3f 62 53 2e bf 0b 80 18 3e
       -0.15384272 0.909425 -0.6809598 0.14892595

dense.weight f4 [1, 32]
000000 a2 27 26 3d df 82 4b 3d 8c df c3 bd 57 2b 46 be
       0.04056514 0.049685355 -0.095641226 -0.1935247
000010 11 92 50 3e 46 99 27 bd 27 15 7a be b4 20 2e be
       0.2036822 -0.040917657 -0.24422131 -0.17004663
000020 07 46 04 3d 5a a1 00 bd 31 97 69 3e 4e 93 5c be
       0.032293346 -0.031403877 0.22811581 -0.21540567
000030 0a 22 25 3b 46 5a 3b 3e c7 18 42 be a6 75 83 3d
       0.002519729 0.18296155 -0.18954764 0.06418924
000040 7a e5 06 bc d9 ca 48 bd ac b0 f7 3d 46 4b 17 3e
       -0.008233422 -0.049021576 0.12094244 0.14774808
000050 51 8e 2a 3e f2 92 ba 3e 3f 10 88 be a4 82 21 be
       0.16655852 0.36440235 -0.26574895 -0.15772492
000060 cb b0 d9 bc ce 84 8b bc 57 a9 9a 3e 11 1f a1 3e
       -0.02657356 -0.0170311 0.3020732 0.31469014
000070 33 8e a7 be 77 7b b7 be 80 a6 4d bd e0 63 bb be
       -0.32725677 -0.35836384 -0.050207615 -0.36599636

exp_avg f4 [32, 1]
000000 25 2d 84 38 2a a5 1c 39 86 e0 1c 37 86 b1 18 38
       6.302659e-05 0.00014938848 9.3506005e-06 3.6404956e-05
000010 55 67 03 3a 58 65 43 b7 af 22 e0 38 8b f5 eb b8
       0.0005012651 -1.1646502e-05 0.00010687613 -0.00011251409
000020 39 8d 8f 38 aa 54 b4 b8 ec d6 14 3a 58 8d de 38
       6.845076e-05 -8.598839e-05 0.0005677778 0.00010612112
000030 60 78 3e b9 d5 52 c8 b8 cd fd 71 38 9d 23 18 38
       -0.00018164655 -9.552172e-05 5.7695248e-05 3.627279e-05
000040 50 2a 57 3b ac c7 af b6 0c 2f b2 b5 95 95 a2 b9
       0.0032831617 -5.2386513e-06 -1.3275726e-06 -0.00031010495
000050 2b fa b4 38 9c 80 23 b9 40 a5 6c 38 4d 26 c1 39
       8.629666e-05 -0.00015592802 5.6420686e-05 0.00036840365
000060 6f 70 70 37 3f 3b bb 39 10 e1 c1 ba f8 5a be ba
       1.4331293e-05 0.0003571156 -0.0014791805 -0.001452296
000070 3e a8 1c bc 50 38 fa 36 1e 84 b9 b7 7b c5 04 bc
       -0.009561596 7.4571362e-06 -2.211524e-05 -0.008103724

exp_avg_sq f4 [32, 1]
000000 77 0c 27 3f 3a 75 f5 3c c6 c5 5d 40 27 60 f4 3f
       0.65253395 0.029963125 3.4651961 1.9091843
000010 2e 8c c3 3b 5f 00 40 3c b4 07 d5 3c 3d 9d 06 3c
       0.0059676385 0.0117188385 0.02600465 0.008216199
000020 4e ca 1c 3e bf c1 f9 3f b7 ef e7 3c 4b a9 06 3e
       0.15311548 1.9512252 0.028312547 0.13150518
000030 7a 16 fc 3c 40 0e 1f 3d 1f 4b 1e 3e 07 81 8e 3f
       0.030772436 0.03883195 0.15458344 1.1133126
000040 6d 2e 6a 41 09 db 08 41 18 02 5a 3c 23 ae 6e 3d
       14.636334 8.553475 0.013306163 0.05827154
000050 00 b3 07 41 1e 44 07 3e 7b e3 49 3f 5d a2 ab 3f
       8.481201 0.13209578 0.7886273 1.3408924
000060 bc ea 24 41 fa f1 81 3f 55 20 44 41 46 e3 5e 3c
       10.307308 1.015197 12.257894 0.013603991
000070 1d e4 97 3f cb 1c 0d 40 7d 80 2c 3f eb 82 58 3d
       1.186649 2.2048824 0.6738356 0.052859228

exp_avg f4 [32, 32]
000000 8f 27 87 38 ed 19 89 38 8b 60 88 b8 20 45 2a 38
       6.44467e-05 6.537498e-05 -6.502968e-05 4.0595536e-05
000010 79 c3 25 38 45 28 86 b8 dd 09 66 b8 d5 48 87 38
       3.9521114e-05 -6.397119e-05 -5.484546e-05 6.450868e-05
000020 1a 16 2a 38 7c 9f 29 b8 33 7f 87 38 b4 15 83 b8
       4.0551742e-05 -4.044127e-05 6.460994e-05 -6.250609e-05
000030 ad f0 26 b8 7c 72 29 38 dc e0 24 b8 d9 d9 29 38
       -3.980163e-05 4.039936e-05 -3.9310064e-05 4.0495626e-05
000040 5e c4 88 b8 c3 3e 87 b8 79 e0 88 b8 0e 76 2a 38
       -6.5215616e-05 -6.448992e-05 -6.526797e-05 4.0641105e-05
000050 db 75 87 38 45 2a 21 b8 a5 dc 2e 38 2f 29 29 38
       6.459254e-05 -3.8424758e-05 4.1690324e-05 4.0331095e-05
000060 65 bb 88 b8 5d 82 81 b8 64 8e c9 37 b1 26 72 b8
       -6.51989e-05 -6.1754814e-05 2.4027373e-05 -5.773333e-05
000070 99 c0 88 38 6c 27 8a 38 60 8f 86 38 31 95 1c b8
       6.5208595e-05 6.587696e-05 6.4163236e-05 -3.7332244e-05
000080 d1 f0 cd 3a 26 ea cd 3a 7e 65 a6 3a b2 e5 c8 3a
       0.0015712028 0.001571004 0.0012695042 0.0015327244
000090 84 f6 c8 3a 42 f9 cd ba d3 f3 c6 ba 8c 78 64 3a
       0.0015332256 -0.0015714543 -0.0015178866 0.00087154726
0000a0 1c ed c8 3a 2a a2 c8 ba 4f f4 cd 3a f8 e9 cd ba
       0.0015329453 -0.0015307118 0.0015713068 -0.0015709987
0000b0 83 f2 c8 ba ac ef c8 3a d9 f4 c8 ba e4 ec c8 3a
       -0.0015331063 0.0015330217 -0.0015331759 0.0015329388
0000c0 60 58 cd ba 73 72 a6 3a 18 f1 cd ba f1 ed c8 3a
       -0.0015666597 0.0012698903 -0.001571211 0.0015329701
0000d0 bf 9c a6 ba eb 18 a2 3a 31 46 c9 3a ff f2 c8 3a
       -0.0012711509 0.0012367045 0.0015356002 0.0015331208
0000e0 4e ef cd ba 28 db cd ba d5 fc c5 ba e9 54 d4 ba
       -0.0015711577 -0.0015705572 -0.0015105257 -0.0016199622
0000f0 53 43 cf 3a 73 e9 cd 3a 3c e1 cd 3a dd a9 c4 ba
       0.0015812911 0.0015709832 0.0015707384 -0.0015004236
000100 83 6d 55 37 7c 4d 47 b7 18 82 48 b7 69 4c 30 b7
       1.2721287e-05 -1.1879365e-05 -1.1951219e-05 -1.0508208e-05
000110 df 04 3a 37 5f 59 58 b7 02 15 59 b7 07 63 48 37
       1.1087598e-05 -1.2895412e-05 -1.2939099e-05 1.1943986e-05
000120 fb 0f 65 36 66 86 09 b6 33 9c 0c 37 85 0b 1d b7
       3.413296e-06 -2.049282e-06 8.381018e-06 -9.360611e-06
000130 87 94 b9 36 2d dd 54 b7 19 dc 49 b7 77 d7 2f b7
       5.5307205e-06 -1.2687681e-05 -1.2031779e-05 -1.048098e-05
000140 2e 27 4a 37 a9 eb 4c b7 56 5f 34 37 f2 44 4b b7
       1.20492605e-05 -1.2214216e-05 1.0751033e-05 -1.21157955e-05
000150 c0 74 4c 37 76 d9 58 37 30 23 58 b7 11 50 4d b7
       1.21865305e-05 1.2925235e-05 -1.2882796e-05 -1.2237594e-05
000160 f2 68 38 b7 10 2b 27 b7 48 68 47 37 95 45 4a 37
       -1.0991689e-05 -9.964002e-06 1.1885604e-05 1.2056339e-05
000170 0b eb 48 b7 cc 24 59 b7 e8 df 4a 37 37 0b 59 b7
       -1.1975654e-05 -1.2942775e-05 1.20922705e-05 -1.2936819e-05
000180 03 a6 f9 b6 fb 1e e9 b6 1f ff f7 36 56 83 fa 36
       -7.4401046e-06 -6.9475477e-06 7.3908736e-06 7.46587e-06
000190 62 b3 f4 36 97 78 fe 36 90 74 fa 36 cb 31 f8 b6
       7.2926496e-06 7.5838284e-06 7.4641503e-06 -7.3967726e-06
0001a0 ea 83 fa 36 03 85 fa b6 bc b2 f9 b6 da 08 03 37
       7.4659374e-06 -7.466065e-06 -7.4415857e-06 7.810269e-06
0001b0 af 73 fa b6 21 74 fa 36 3c 9d fa b6 ba 7f fa 36
       -7.464048e-06 7.4641e-06 -7.468885e-06 7.46545e-06
0001c0 07 08 69 37 a1 fd f7 36 9f 5b f8 36 e9 83 fa 36
       1.3889751e-05 7.3907e-06 7.401642e-06 7.465937e-06
0001d0 3e 6b f8 b6 06 ba f9 b6 ad 59 fa 36 9c 11 fc 36
       -7.4034606e-06 -7.4424343e-06 7.4610202e-06 7.5122352e-06
0001e0 3f 7d fc 36 2e 17 f1 36 9f 63 02 b7 83 77 fe b6
       7.524766e-06 7.185058e-06 -7.771799e-06 -7.583703e-06
0001f0 cb bf 7a 36 ef 1e f8 b6 78 0b f8 b6 8a ed 30 b7
       3.7364541e-06 -7.394577e-06 -7.392311e-06 -1.0545724e-05
000200 aa 8c a4 3a 3f a1 28 3a 8e cb a4 ba 3b ac 96 b9
       0.0012554128 0.0006432719 -0.0012572871 -0.0002873855
000210 35 b5 9d b9 aa 65 a0 ba 5d d2 94 b9 34 ae a4 3a
       -0.00030080383 -0.001223733 -0.00028385493 0.0012564124
000220 62 31 9d b9 07 3c 9f 39 80 e0 a3 3a 74 f7 ee b9
       -0.00029982167 0.00030371567 0.0012502819 -0.00045579264
000230 83 c3 98 39 65 03 95 b9 f9 53 aa 39 8a 2e 96 b9
       0.00029137367 -0.00028422024 0.0003248749 -0.00028644904
000240 d3 24 e5 38 95 a1 a4 ba 67 d2 a7 ba 4c 46 95 b9
       0.0001092643 -0.0012560362 -0.0012803794 -0.0002847187
000250 13 a9 a4 3a 8b 9d 92 39 da a3 92 b9 2a 43 9e ba
       0.0012562595 0.0002796467 -0.0002796937 -0.001207446
000260 9e 06 a5 ba b2 f1 94 b9 a1 2f a1 3a 9f b1 8c 3a
       -0.0012590473 -0.00028408837 0.001229752 0.0010734088
000270 8d e3 93 39 c6 15 a8 3a f1 82 a4 3a 98 3c 5b ba
       0.00028207563 0.0012823872 0.0012551231 -0.0008363216
000280 09 eb bb b7 68 81 b4 b7 e5 65 43 37 d2 69 14 36
       -2.2401584e-05 -2.1517932e-05 1.164663e-05 2.2115314e-06
000290 86 e5 0e 36 2f d2 b5 37 07 bf aa 37 eb f0 ad b7
       2.129325e-06 2.1674756e-05 2.0354533e-05 -2.0735393e-05
0002a0 47 05 47 36 06 db 07 b6 51 7f b4 b7 66 1c b6 37
       2.9656383e-06 -2.0244056e-06 -2.1516958e-05 2.1709315e-05
0002b0 c4 01 20 b6 b1 d7 18 36 ba 14 17 b6 aa 86 18 36
       -2.3842886e-06 2.2775314e-06 -2.2512818e-06 2.272815e-06
0002c0 f8 04 b5 37 5a 6c 55 37 2c 7f b4 37 09 bc 18 36
       2.1579195e-05 1.2721017e-05 2.1516891e-05 2.2759216e-06
0002d0 42 3e 45 b7 1c 9d 45 b7 75 3c c3 35 f4 7a 5e 36
       -1.1756611e-05 -1.1778695e-05 1.4546227e-06 3.3152146e-06
0002e0 10 84 b4 37 dc 1b ab 37 b2 6d 43 b6 19 4b f0 35
       2.1519169e-05 2.0397762e-05 -2.9121115e-06 1.790325e-06
0002f0 64 c0 ac b7 dc 7c b4 b7 cc cf ce b7 ef 49 80 37
       -2.0593587e-05 -2.1515814e-05 -2.4653877e-05 1.5293217e-05
000300 ab 82 1f b9 d9 8c 1f b9 f5 89 1d b9 b0 7e 11 b9
       -0.00015212099 -0.00015215891 -0.0001502408 -0.00013875472
000310 cd 61 10 b9 45 81 1f 39 95 8c 1f 39 ee 82 15 39
       -0.00013769344 0.00015211578 0.00015215793 0.00014258522
000320 a0 05 20 39 ef f5 1d 39 f8 8c 1f b9 06 85 1f 39
       0.00015260885 0.00015064304 -0.00015215937 0.00015212977
000330 30 3b 1e 39 f5 4c 2a b8 fe 89 1d 39 38 7f 1f 39
       0.00015090103 -4.060283e-05 0.00015024093 0.00015210814
000340 b4 8c 1f 39 bd 89 1d b9 00 6d 1f 39 ec 7a 0c 39
       0.00015215838 -0.00015023998 0.00015204027 0.00013397232
000350 8e 84 1d 39 c0 79 1f b9 00 b6 ff b8 2a 8a 1d b9
       0.00015022067 -0.00015208777 -0.00012193248 -0.00015024157
000360 eb 81 1d b9 83 80 1f 39 78 33 11 39 d8 b6 1e 39
       -0.00015021085 0.00015211296 0.00013847451 0.00015136169
000370 47 93 1f b9 93 77 1d 39 d6 49 1d 39 53 86 1d 39
       -0.00015218287 0.00015017232 0.00015000193 0.00015022726
000380 17 32 8f ba 3c 2f 83 ba 10 9d 84 ba f9 75 84 3a
       -0.0010924962 -0.0010008584 -0.0010117609 0.0010105959
000390 b5 68 4b 3a dd 13 89 3a 6c 96 84 3a 4b d0 45 3a
       0.0007759438 0.001045819 0.001011563 0.00075459917
0003a0 1f 9d 84 3a b8 80 60 ba 3d 0f 83 ba ed 08 89 3a
       0.0010117627 -0.00085641025 -0.0009999048 0.0010454931
0003b0 c8 35 8a 3a 18 9d 84 3a 91 fa 8f 3a 1f 9d 84 3a
       0.0010544593 0.0010117618 0.0010984709 0.0010117627
0003c0 0b 92 84 3a ba 9c 84 ba c7 1f 8f 3a 04 9d 84 3a
       0.0010114325 -0.0010117509 0.0010919505 0.0010117595
0003d0 81 9b 84 3a e1 9c 84 ba 6b 8a 84 3a f0 92 84 ba
       0.0010117145 -0.0010117554 0.0010112053 -0.0010114592
0003e0 12 9d 84 ba d9 95 84 3a 1f c3 c8 39 06 8e 84 3a
       -0.0010117611 0.0010115459 0.0003829235 0.0010113127
0003f0 15 8f 89 ba 20 9d 84 3a c9 99 84 3a 19 68 89 3a
       -0.0010494912 0.0010117628 0.0010116632 0.0010483294

exp_avg_sq f4 [32, 32]
000000 0a f9 5a 3e 4f e2 23 3e 93 63 46 3e df b3 69 3e
       0.21384063 0.16004299 0.19373922 0.22822522
000010 4b c8 5f 3e 14 ee 69 3e 4b d0 50 3e 74 e4 43 3e
       0.2185375 0.22844726 0.20391957 0.19130117
000020 44 12 67 3e 5c f5 66 3e 80 ae 41 3e aa ba 4d 3e
       0.22565562 0.22554535 0.18914223 0.20090738
000030 29 9c 60 3e 7f f3 69 3e 08 15 13 3e c6 be 5b 3e
       0.2193457 0.22846793 0.14363492 0.21459493
000040 79 a8 ae 3d 50 c6 31 3e e1 8d 2d 3e 78 7e 2b 3e
       0.08528227 0.17360806 0.16948654 0.16747463
000050 6a 10 54 3e aa ee 70 3e f0 bd 74 3e 27 15 c8 3d
       0.20709386 0.23528543 0.2390058 0.097696595
000060 1d 66 65 3e 3c 1e 65 3e 77 a9 64 3e 97 2f 61 3e
       0.22402234 0.22374815 0.2233027 0.2199081
000070 25 74 92 3d d0 03 6b 3e 6b ed 66 3e 22 b2 41 3e
       0.07151059 0.22950673 0.22551505 0.18915609
000080 ea f1 e5 40 7c d0 19 41 27 95 bc 40 87 fe 4f 40
       7.1857805 9.6133995 5.893207 3.24991
000090 a1 22 0f 41 b0 d1 1d 41 8c 2b c4 40 26 ad 1f 41
       8.945954 9.863693 6.130316 9.979773
0000a0 6a 0b 12 41 78 5e a8 40 0f 6e 19 41 39 a1 83 3d
       9.127787 5.261532 9.58937 0.06427235
0000b0 8d 53 b4 40 c9 c2 bd 3e ed 1e 04 41 6c 82 dc 40
       5.635199 0.37062672 8.25755 6.8909206
0000c0 21 70 6f 3f b2 60 40 3f d9 4a ed 40 31 fd 8e 40
       0.9353047 0.75147545 7.4153867 4.468407
0000d0 f6 0f ba 3f 6b 8c 08 41 8e 65 8d 3f e6 ba a6 3f
       1.4536121 8.534282 1.1046617 1.3025787
0000e0 e1 a0 71 40 a5 f2 aa 3d 39 b3 e4 3f 31 e9 00 41
       3.7754443 0.08347062 1.7867194 8.0569315
0000f0 95 f0 f7 40 cf 0c 92 3d d4 bf eb 40 90 3a 94 3f
       7.748118 0.07131349 7.3671665 1.1580372
000100 4e 2a 9f 3c 38 ae 6d 3d 37 c2 1f 3d 08 42 24 3c
       0.019429352 0.058027476 0.039003577 0.010025509
000110 d9 3c 6b 3d 84 5b 73 3d 86 76 6f 3d 68 4c 20 3d
       0.057431076 0.059413448 0.058462642 0.039135367
000120 ec 18 4b 3d f9 42 27 3d 54 04 70 3d 58 a8 70 3d
       0.049584314 0.040835354 0.058597878 0.058754295
000130 19 bc d4 3c f5 37 25 3d 9f 5e e2 3c 17 21 6e 3d
       0.025968598 0.040336568 0.02763301 0.058137026
000140 c0 61 70 3d ba 48 73 3d 6e 94 19 3d fd 52 72 3d
       0.05868697 0.05939553 0.03749507 0.059161175
000150 8f 74 5d 3d 01 d3 70 3d f9 4e 36 3d f6 9b 16 3d
       0.054066237 0.05879498 0.044508908 0.03676983
000160 d1 06 1f 3d fa 07 71 3d b9 72 03 3c ec ee 7b 3d
       0.03882486 0.058845498 0.0080229575 0.06150715
000170 f8 f5 76 3d 0f 52 1c 3d 7f 3a 1e 3d e7 3c 2c 3d
       0.060293168 0.038164195 0.038630005 0.04205027
000180 84 32 28 3e 17 1d 40 3e fb ed 43 3e 90 15 44 3e
       0.1642552 0.18761097 0.19133751 0.1914885
000190 40 cf 2d 3e 90 cd 42 3e d7 3f 3d 3e e6 36 0d 3d
       0.16973591 0.19023728 0.18481384 0.034476183
0001a0 fd c1 42 3e 97 f4 43 3e 49 2c 43 3e a2 86 1b 3e
       0.19019313 0.19136272 0.19059862 0.15188077
0001b0 07 e7 41 3e 2c 39 43 3e de 17 44 3e fa c1 43 3e
       0.18935786 0.19064778 0.1914973 0.19116965
0001c0 a1 27 43 3e 9a 91 1d 3d de f1 42 3e 3c f2 43 3e
       0.19058086 0.038468935 0.19037578 0.19135374
0001d0 ca 2b 42 3e e8 7f 18 3e f8 65 42 3e 53 6a 3f 3e
       0.18962017 0.14892542 0.1898421 0.18692903
0001e0 2a 6f 43 3e 41 1a 88 3d d2 1a 3c 3e 18 8b 3f 3e
       0.19085374 0.066456325 0.18369606 0.18705404
0001f0 aa 2b 3b 3d da 3e 43 3e f0 24 43 3e e8 fe 42 3e
       0.04569594 0.19066945 0.1905706 0.19042552
000200 0c c6 e9 3c 25 ca e6 3c d7 21 ea 3c 9f 09 ef 3b
       0.028536819 0.028172562 0.02858059 0.007294848
000210 e1 5b f6 3c 7e 50 e4 3c 10 f1 0d 3c 91 c3 f4 3c
       0.030073108 0.027870413 0.008663431 0.02987841
000220 00 fe f2 3c 18 78 e9 3b d6 53 db 3c a2 cc bf 3b
       0.029662132 0.007124912 0.026773375 0.0058532516
000230 b8 6f e7 3c e2 bd e1 3c 98 fa 02 3c fa 9c 46 3c
       0.028251514 0.027556363 0.0079943165 0.012122387
000240 4c 8f dd 3c b4 09 e4 3c 38 a1 fd 3c ec c8 f2 3c
       0.027045868 0.027836658 0.030960664 0.029636823
000250 78 e9 e2 3c d0 55 ed 3b 09 b9 58 3c 35 7c dd 3c
       0.027699217 0.0072428957 0.01322771 0.027036766
000260 3d ff 05 3d ad 29 f3 3c 66 1e ce 3b df ae 26 3c
       0.032714117 0.029682958 0.006290245 0.010173528
000270 d7 f7 82 3c a1 f4 06 3d 7c 77 ed 3c ae d7 49 3c
       0.01598732 0.03294814 0.028987639 0.012319488
000280 2d 73 8a 3c 49 1d 98 3c 17 6e 95 3c 5d 3f a4 3c
       0.016900623 0.018568652 0.018240971 0.020049745
000290 85 44 63 3b c2 af ac 3c c3 f7 9d 3c 2c af 85 3c
       0.0034678292 0.021079902 0.019283181 0.01631888
0002a0 ab 4c 9f 3c c0 90 a5 3c c7 22 96 3c 55 3f 98 3c
       0.019445738 0.020210624 0.01832713 0.018584887
0002b0 67 4e 98 3c 47 70 97 3c 0c 80 e1 3b 41 51 99 3c
       0.018592073 0.018486155 0.0068817195 0.018715503
0002c0 19 f0 f3 3b 35 b2 53 3b c4 0a 23 3c ee 95 a2 3c
       0.0074443934 0.0032302265 0.009951297 0.019846883
0002d0 db 42 e0 3a d6 63 a3 3c f6 a3 98 3c 6f e6 87 3c
       0.0017109768 0.019945066 0.01863287 0.016589371
0002e0 8a d8 7f 3c 82 cb 99 3c da fd 5f 3b 3d 07 25 3c
       0.015615592 0.018773798 0.0034178407 0.0100725265
0002f0 a6 9d 8e 3c f5 f0 a3 3c f6 93 84 3b 9c 86 87 3c
       0.017409157 0.020012358 0.0040459586 0.016543679
000300 3e 31 f7 3c 95 13 3e 3c e1 96 f7 3c e8 68 49 3d
       0.030174848 0.011601348 0.030223312 0.049172312
000310 15 ea 23 3d 46 f1 5b 3d 16 fa 4a 3d 9e 57 e9 3c
       0.04001816 0.053696893 0.049554907 0.028484162
000320 d7 db 45 3d c6 23 4a 3d 81 4a b2 3c 91 ab ec 3c
       0.04830536 0.049350522 0.021764042 0.028890403
000330 ae 77 41 3d 4e b8 3d 3d c1 56 c0 3c 0b 35 44 3d
       0.047233276 0.046318345 0.023478867 0.04790215
000340 99 0d 02 3d c6 f7 02 3d a2 95 52 3d ce 63 50 3d
       0.03175125 0.031974576 0.051412232 0.05087643
000350 7e 60 1c 3d a8 7d 45 3d 27 93 3d 3d 7c cd 40 3d
       0.03817796 0.04821554 0.046282914 0.047070965
000360 91 f1 4e 3d 64 98 58 3d df 6f 47 3d ea f7 47 3d
       0.050523344 0.052879706 0.048690673 0.048820414
000370 b7 92 42 3c 0c 9a 3b 3d 8b c0 0e 3d 7a a9 3d 3c
       0.0118758 0.045801207 0.034851592 0.011576051
000380 12 88 df 3d ed e5 13 3e a8 17 91 3d 76 82 11 3d
       0.10914625 0.14443178 0.0708459 0.035524808
000390 2a 38 14 3e 59 40 17 3e c6 69 b9 3d 77 86 1a 3e
       0.1447455 0.1477064 0.09053378 0.15090357
0003a0 15 9f 0b 3e 95 49 78 3d c6 08 14 3e 41 f8 cf 3b
       0.13634904 0.06061705 0.14456472 0.006346733
0003b0 30 26 ef 3d 89 9b 2e 3c db de 18 3e ac ae ae 3d
       0.116772056 0.0106572 0.14928763 0.0852941
0003c0 ac e3 60 3c 3a f4 87 3c 3c ec 0c 3e bb ea 53 3d
       0.013726156 0.016595948 0.13761991 0.05173753
0003d0 e9 65 9e 3c 40 c0 01 3e ae 12 f1 3c 56 91 a6 3c
       0.019335704 0.12670994 0.029427852 0.020332973
0003e0 78 ac 37 3d 3e aa 23 3c 0d 90 c5 3c a9 89 09 3e
       0.044842213 0.009989319 0.02411654 0.1343142
0003f0 c1 1b d4 3d 0b 6f 8e 3b 15 83 05 3e 92 00 d2 3c
       0.10356856 0.0043467334 0.13038285 0.025635038

exp_avg f4 [32]
000000 95 c9 f7 37 a1 17 ca 3a 0f a4 2a b7 c6 ac db b7
       2.9538563e-05 0.0015418419 -1.01709875e-05 -2.6187288e-05
000010 4a fd a5 ba a6 95 ea 36 ed 0e 21 39 a6 ec 8f 3a
       -0.0012663987 6.991165e-06 0.00015359717 0.0010980561
000020 18 b3 39 b9 f5 1d 19 36 44 a5 32 3a 3c 85 15 ba
       -0.00017709692 2.2816214e-06 0.00068147876 -0.00057037524
000030 98 14 85 39 2c 7c d4 b8 92 46 3a b8 24 56 12 b8
       0.0002538308 -0.000101320766 -4.441158e-05 -3.4889337e-05
000040 49 b0 95 bb 85 bd 87 b6 d4 a3 62 37 fe 7a 94 b9
       -0.004568134 -4.0453765e-06 1.3508794e-05 -0.00028320396
000050 6f 8a c9 38 1e d4 98 b9 3d 7a cf 36 67 60 ae b9
       9.610212e-05 -0.0002914974 6.183311e-06 -0.00033259692
000060 bc 29 e0 b7 24 75 79 39 98 60 e8 3a 32 7d 09 3a
       -2.6722315e-05 0.00023790129 0.0017728982 0.0005244791
000070 ea 64 49 3c bf 2d 3a 36 89 24 d2 b6 11 f2 bf 3a
       0.012292126 2.7742788e-06 -6.262741e-06 0.0014644285

exp_avg_sq f4 [32]
000000 60 38 7d 3f 2e 21 18 41 dc f4 f2 40 25 35 81 40
       0.98914146 9.5081005 7.59239 4.0377374
000010 a3 cd 42 3d f4 5c 4c 3d c4 5a 81 3e a9 4b 58 3e
       0.04755939 0.049893335 0.2526456 0.21122612
000020 0c 44 cd 3e ff f4 75 40 df 2f 99 3f 0c ff 59 3f
       0.40090978 3.8430784 1.1967734 0.85154796
000030 24 d6 25 3d 1f 2f 27 3e 41 50 7a 3e 6b d9 3d 40
       0.040487424 0.16326569 0.24444677 2.9663951
000040 26 fe 32 42 45 c5 9b 41 e4 03 9d 3c e0 d1 97 3d
       44.74819 19.471323 0.019166894 0.07413077
000050 b0 ce 9f 41 a4 dd 29 40 74 e7 11 40 f9 e3 06 41
       19.975922 2.6541529 2.2797518 8.430657
000060 d8 09 c3 41 b5 2d 12 40 db fc cd 41 6a 5a 33 3c
       24.379807 2.2840397 25.748465 0.010946849
000070 d2 49 de 3f b3 d3 a5 40 12 c9 96 40 aa 6d 1a 40
       1.7366278 5.182092 4.7120447 2.4129434

exp_avg f4 [32]
000000 91 c9 f7 37 a1 17 ca 3a 11 a4 2a b7 c0 ac db b7
       2.9538556e-05 0.0015418419 -1.0170989e-05 -2.6187277e-05
000010 4a fd a5 ba ad 95 ea 36 ef 0e 21 39 a7 ec 8f 3a
       -0.0012663987 6.991168e-06 0.0001535972 0.0010980562
000020 18 b3 39 b9 15 1e 19 36 44 a5 32 3a 3e 85 15 ba
       -0.00017709692 2.2816287e-06 0.00068147876 -0.00057037536
000030 98 14 85 39 2c 7c d4 b8 92 46 3a b8 24 56 12 b8
       0.0002538308 -0.000101320766 -4.441158e-05 -3.4889337e-05
000040 49 b0 95 bb 87 bd 87 b6 d6 a3 62 37 ff 7a 94 b9
       -0.004568134 -4.0453774e-06 1.3508796e-05 -0.000283204
000050 71 8a c9 38 20 d4 98 b9 4d 7a cf 36 67 60 ae b9
       9.6102136e-05 -0.00029149745 6.1833184e-06 -0.00033259692
000060 bc 29 e0 b7 23 75 79 39 9e 60 e8 3a 38 7d 09 3a
       -2.6722315e-05 0.00023790127 0.001772899 0.00052447943
000070 e9 64 49 3c c1 2d 3a 36 9a 24 d2 b6 18 f2 bf 3a
       0.012292125 2.7742792e-06 -6.2627487e-06 0.0014644293

exp_avg_sq f4 [32]
000000 60 38 7d 3f 2c 21 18 41 dc f4 f2 40 24 35 81 40
       0.98914146 9.508099 7.59239 4.037737
000010 a1 cd 42 3d f8 5c 4c 3d c4 5a 81 3e a9 4b 58 3e
       0.047559384 0.04989335 0.2526456 0.21122612
000020 0a 44 cd 3e fb f4 75 40 df 2f 99 3f 10 ff 59 3f
       0.40090972 3.8430774 1.1967734 0.8515482
000030 24 d6 25 3d 20 2f 27 3e 41 50 7a 3e 6f d9 3d 40
       0.040487424 0.1632657 0.24444677 2.966396
000040 26 fe 32 42 45 c5 9b 41 e5 03 9d 3c df d1 97 3d
       44.74819 19.471323 0.019166896 0.074130766
000050 b2 ce 9f 41 a5 dd 29 40 74 e7 11 40 f9 e3 06 41
       19.975925 2.654153 2.2797518 8.430657
000060 d9 09 c3 41 b0 2d 12 40 df fc cd 41 6c 5a 33 3c
       24.379808 2.2840385 25.748472 0.010946851
000070 d0 49 de 3f b3 d3 a5 40 0f c9 96 40 aa 6d 1a 40
       1.7366276 5.182092 4.7120433 2.4129434

exp_avg f4 [1, 32]
000000 cd ba 85 bc c8 40 2f bc 2b 5b 7a 3c 07 4f 77 bc
       -0.016324425 -0.010696597 0.015280525 -0.015094525
000010 c9 c3 77 bc 25 3b a5 3c 4a 7b 75 bc 3c 3b 7b bc
       -0.015122362 0.020169804 -0.014983008 -0.015333947
000020 73 69 76 bc 52 0d 79 3c 42 d3 b8 bc 7c 0a 49 bc
       -0.0150397895 0.01520093 -0.022561673 -0.012270566
000030 87 69 76 3c 66 69 76 bc 95 77 78 3c b7 7b 76 bc
       0.015039808 -0.015039777 0.015165229 -0.015044144
000040 0f 3c 09 bd 9f 91 7a 3c 59 49 7b 3c 7a 6a 76 bc
       -0.033504542 0.015293508 0.015337312 -0.015040034
000050 a0 5c 7a bc e4 c4 70 3c 8a 2e 73 bc e4 c2 87 3c
       -0.015280873 0.01469538 -0.014842639 0.016572423
000060 01 41 7b 3c 41 8e 70 bc 02 80 8b bc df 60 9c bc
       0.015335322 -0.0146823535 -0.017028812 -0.01908916
000070 68 19 23 bc b2 40 7b bc 99 82 7e bc 2d 19 12 3c
       -0.009954788 -0.015335249 -0.015534067 0.008917135

exp_avg_sq f4 [1, 32]
000000 cc e6 15 3d eb 53 11 3d 3d 07 20 3d 51 04 37 3d
       0.03659706 0.03548042 0.039069403 0.04468185
000010 19 93 29 3d 16 0b 22 3d e2 5f 29 3d de f4 2b 3d
       0.04140005 0.039561354 0.041351207 0.04198157
000020 db 63 3c 3d 06 2e 2d 3d ce 45 23 3d e3 ad 23 3d
       0.045993667 0.04228022 0.039861493 0.039960753
000030 28 4d 36 3d 4e de 38 3d 1b f1 0c 3d de 91 36 3d
       0.044507176 0.04513388 0.034409624 0.044572704
000040 fc ae 13 3d 5e 72 1c 3d d6 82 1c 3d 09 55 34 3d
       0.03605555 0.038195007 0.038210712 0.04402641
000050 89 91 25 3d 27 ef 24 3d 67 91 39 3d d7 b6 17 3d
       0.040421996 0.040267136 0.045304682 0.037039604
000060 5f 77 20 3d ab a9 2a 3d c8 6b 0c 3d 42 08 f4 3c
       0.03917634 0.041665714 0.034282476 0.029789094
000070 c3 b9 f8 3c e3 97 1c 3d cb 2b 23 3d 26 2e eb 3c
       0.030362016 0.038230788 0.039836686 0.028708529
