05_NeuralNetwork/logs/slp/version_3/checkpoints/last.ckpt (torch, 4513 bytes, 2 tensors)

model.weight f4 [10, 2]
000000 19 b7 a7 bf fd be 03 40 9a 81 25 40 96 0b 2a bf
       -1.3102752 2.058532 2.5860353 -0.6642393
000010 64 7e 86 3f 7f d1 e4 3f 0e ce 0a 40 ff 6a d8 3f
       1.0507321 1.7876433 2.1688266 1.6907653
000020 1f c2 de bf 74 9d 5c bf f1 54 fc bf ee 3b 04 c0
       -1.7402991 -0.86177754 -1.9713422 -2.0661578
000030 e0 42 05 40 0f 6e fc bf 01 21 36 c0 42 4e a3 3f
       2.0822067 -1.9721087 -2.8457644 1.2758257
000040 e2 5b ac bd 16 af 38 3f 08 3a cc 3d 9b c3 39 c0
       -0.08415963 0.7214216 0.09972006 -2.9025638

model.bias f4 [10]
000000 fd 3f 7f 3d bc 08 bb bd 3f 1f 60 3e 5c 1d f6 be
       0.062316883 -0.09132525 0.2188692 -0.48069274
000010 a9 7b 29 3f 29 7c c0 be 6f e3 d2 bc 0e 69 2d bf
       0.66204315 -0.37594727 -0.025743214 -0.67738426
000020 82 77 9b 3f 4b f5 61 be
       1.2145846 -0.22066228
