07_RNN/logs/rnn/version_4/checkpoints/epoch=23-step=5712.ckpt (torch, 62024 bytes, 15 tensors)

rnn.weight_ih_l0 f4 [64, 1]
0	0x3f1e5286	0.6184467
1	0xbdaf0b77	-0.085471086
2	0xbe7882c7	-0.24268638
3	0x3ea23d7d	0.31687537
4	0x3eccf181	0.40028003
5	0x3d5e4fed	0.054275442
6	0xbe4ed598	-0.20198667
7	0x3e543ae8	0.20725596
8	0xbe90029d	-0.28126994
9	0x3e4db9f7	0.20090471
10	0xbea6b9e1	-0.3256369
11	0xbe015145	-0.12628658
12	0xbdc9b46e	-0.09848867
13	0xbe985df7	-0.2975919
14	0x3f7c2eb0	0.9850874
15	0xbebced0c	-0.36899602
16	0xbed4fc28	-0.4159863
17	0x3f2a2513	0.6646282
18	0x3fbcf6da	1.4762833
19	0xbf00ff5d	-0.50389653
20	0x3f1451ec	0.579375
21	0xbecd245d	-0.40066805
22	0x3f8c5b57	1.0965375
23	0xbf655f6b	-0.8959872
24	0xbe9e4377	-0.30910847
25	0x3e0a99aa	0.1353518
26	0xbe91c9f9	-0.28474405
27	0xbe6497c9	-0.22323526
28	0xbf779a1a	-0.96719515
29	0x3e07bc30	0.13255382
30	0x3ece1976	0.402538
31	0x3fc18ace	1.5120485
32	0x3e8570e2	0.26062685
33	0x3fd72080	1.6806793
34	0x3eaa8fcd	0.33312836
35	0x3d90e2ac	0.07074484
36	0xbe928f9c	-0.2862519
37	0xbe13dac4	-0.14438921
38	0xbeea88c9	-0.45807484
39	0xbe5cdc05	-0.21568306
40	0xbf884512	-1.0646079
41	0xbe23393f	-0.15939806
42	0xbe1fa980	-0.15592003
43	0xbf600f1d	-0.8752306
44	0x3f3f71ad	0.7478283
45	0xbfd29ab0	-1.6453457
46	0xbe0700cb	-0.13183896
47	0xbd369fe8	-0.044586092
48	0xbecd9d79	-0.40159205
49	0xbea9345d	-0.33047763
50	0x3fd14560	1.6349297
51	0x3e50ac9a	0.20378342
52	0x3f392543	0.7232248
53	0x3de976ba	0.113995984
54	0xbe9fbd2a	-0.31199008
55	0xbe766cca	-0.24064937
56	0xbd15d521	-0.03658021
57	0x3e47c68e	0.19509336
58	0x3f1d1bd2	0.61370575
59	0xbe2fb7b2	-0.17159918
60	0x3cddaf08	0.027061
61	0x3e8930fc	0.26795185
62	0xbcc27001	-0.023735048
63	0x3d674cb7	0.056469645

rnn.weight_hh_l0 f4 [64, 64]
0	0x3eb352e3	0.35024175
1	0x3da3151f	0.07963013
2	0x3df72a13	0.12068572
3	0xbd4ecec0	-0.05049014
4	0x3e802d6a	0.25034648
5	0x3e0804e5	0.13283117
6	0x3e77649a	0.2415947
7	0x3bbdc48c	0.0057912525
8	0x3ee1a010	0.4406743
9	0x3d167b32	0.036738582
10	0xbe63b3d7	-0.22236572
11	0x3e3c8683	0.18410687
12	0x3d96113d	0.07327507
13	0xbe79679b	-0.24355929
14	0xbeb2e029	-0.34936646
15	0xbc9f7bfb	-0.019468298
16	0xbe7fe45a	-0.24989453
17	0xbd2576cf	-0.040396508
18	0xbdcb9a85	-0.09941582
19	0xbea15a14	-0.31514037
20	0x3ee26778	0.44219565
21	0xbebb8d31	-0.36631158
22	0x3f0d4426	0.5518211
23	0x3e477fc1	0.19482328
24	0xbea4516a	-0.32093364
25	0xba04967e	-0.00050578255
26	0x3eef94ec	0.46793306
27	0x3ec1890f	0.3779988
28	0xbe5351e0	-0.20636702
29	0x3d6a972a	0.057273068
30	0x3ec292db	0.38002667
31	0x3dabfd2f	0.083979
32	0x3e0671c0	0.1312933
33	0x3e5cc6ff	0.21560286
34	0xbecf3abc	-0.40474498
35	0xbe3cafa6	-0.1842638
36	0xbe805239	-0.2506273
37	0xbdf16f72	-0.11788835
38	0xbe006a9f	-0.12540673
39	0x3e64ddc8	0.22350228
40	0xbe3e3a77	-0.1857699
41	0xbce187c5	-0.02753056
42	0x3e7f66c9	0.24941553
43	0xbde3f872	-0.111313716
44	0x3ee1e199	0.4411743
45	0xbc37ae66	-0.011211013
46	0xbe87eb43	-0.26546678
47	0xbdcfb629	-0.10142166
48	0x3c1358c8	0.008993335
49	0xbd60f313	-0.054919314
50	0x3e8356eb	0.2565225
51	0x3e49a00e	0.19689962
52	0xbef09488	-0.4698832
53	0x3e2de0ab	0.16980235
54	0xbe81ade3	-0.25327978
55	0xbe327fce	-0.17431566
56	0xbe88fb97	-0.26754448
57	0xbe35f25f	-0.17768238
58	0x3e9f9929	0.3117154
59	0x3e6f4cb6	0.23369107
60	0x3e9e4130	0.3090911
61	0x3e1374aa	0.14399973
62	0xbe6462cf	-0.22303317
63	0xbe85259a	-0.2600525
64	0xbe1cb162	-0.15302041
65	0xbf4dea77	-0.8043589
66	0x3e44df7a	0.19225875
67	0xbf114684	-0.56748223
68	0x3bb84a14	0.005624065
69	0xbcb68e70	-0.022284716
70	0xbe1d0857	-0.15335213
71	0xbd5c7ea6	-0.05383172
72	0xbf0afb24	-0.5428946
73	0xbeba7c20	-0.36422825
74	0x3eb32545	0.34989372
75	0x3e82c80a	0.25543243
76	0xbe2e8298	-0.17042005
77	0x3e228863	0.1587234
78	0x3e436d36	0.1908463
79	0x3eda9036	0.4268815
80	0xbe5bcf02	-0.21465686
81	0x3e5e8f6c	0.21734399
82	0xbdbe027b	-0.09277817
83	0x3ec30d3d	0.38096038
84	0x3daed340	0.085363865
85	0x3e5c2cfb	0.21501534
86	0x3e3b02b8	0.18262756
87	0xbec919d0	-0.39277506
88	0xbca541c0	-0.020172954
89	0x3ea7dffc	0.32788074
90	0xbf022b95	-0.5084775
91	0xbf2c18af	-0.67225164
92	0x3eede3f2	0.4646297
93	0x3e08be30	0.13353801
94	0xbf2667e4	-0.65002275
95	0xbcdbcfb7	-0.026832445
96	0xbe535e56	-0.20641455
97	0xbdebe7f7	-0.11518853
98	0x3f04eeaf	0.519267
99	0x3e31e02a	0.17370668
100	0x3da39384	0.07987121
101	0x3e1eab5e	0.15495059
102	0x3f070a6d	0.52750283
103	0x3e41b59f	0.18916939
104	0x3e489797	0.19589077
105	0x3d7cde87	0.061735656
106	0x3e2fe6ff	0.17177962
107	0x3ea5e1ce	0.32398838
108	0xbe0a3afe	-0.13499066
109	0x3eb1576e	0.34637016
110	0xbd30f147	-0.04319885
111	0xba815b5c	-0.0009869146
112	0x3dc1aae8	0.09456426
113	0x3f03c97a	0.51479304
114	0x3e5f6121	0.21814395
115	0xbeaccc85	-0.33749786
116	0x3e2456f1	0.1604879
117	0xbf02665c	-0.5093744
118	0x3d63a565	0.055577654
119	0x3dfb857f	0.12281322
120	0xbe980151	-0.29688504
121	0xbdbb68c7	-0.09150844
122	0xbe6f5387	-0.23371707
123	0xbe806e59	-0.2508419
124	0xbc9ecc01	-0.019384386
125	0xbda267b1	-0.07929934
126	0x3d0879cc	0.03331928
127	0xbe8c1aa8	-0.27364087
128	0x3e284335	0.16431887
129	0x3eb72793	0.3577238
130	0xbf5e7f42	-0.8691293
131	0x3e9cdad4	0.30635703
132	0x3eba74f8	0.36417365
133	0x3e67b923	0.22629218
134	0x3d219e25	0.03945746
135	0xbea585e9	-0.32328728
136	0x3e64eacc	0.22355193
137	0xbd98c60a	-0.07459648
138	0xbd9f47ff	-0.07777404
139	0xbd23467f	-0.039862152
140	0xbe60a00e	-0.21936056
141	0xbedc824a	-0.43068153
142	0xbf0688a5	-0.52552253
143	0xbec463e3	-0.38357458
144	0x3e88fca1	0.2675524
145	0xbecbea12	-0.3982702
146	0xbeda22e2	-0.42604738
147	0xbe772311	-0.2413447
148	0xbd009233	-0.031389426
149	0xbe5ef914	-0.21774703
150	0x3d84ce1b	0.06484624
151	0x3f27e239	0.65579563
152	0xbe5ee51a	-0.21767083
153	0xbe013fcf	-0.12621997
154	0x3f470663	0.7774412
155	0x3f034186	0.51271856
156	0xbec81e42	-0.39085585
157	0xbe207cc0	-0.15672588
158	0x3e02d735	0.12777407
159	0xbe11bb3e	-0.14231583
160	0x3ea18f9e	0.31554884
161	0x3e8bb7ac	0.27288568
162	0xbd054776	-0.032538854
163	0xbe57a2e5	-0.21058233
164	0xbd9b4b0a	-0.07582672
165	0x3db3ae31	0.08773459
166	0xbeb5bb92	-0.35494667
167	0x3d9fe030	0.07806432
168	0x3ea83db2	0.3285957
169	0x3c7b7a6a	0.01534901
170	0x3e9607da	0.29302865
171	0xbe0f5d9d	-0.14000554
172	0x3e6ac58d	0.22926922
173	0x3dc058d6	0.09391944
174	0xbcdcc93a	-0.026951421
175	0x3c54f117	0.012996933
176	0xbeb709a5	-0.35749546
177	0xbe8f93ff	-0.280426
178	0xbef8d2ab	-0.48598227
179	0x3d9e7df2	0.07738866
180	0xbeecd6ac	-0.46257532
181	0x3eb92cd9	0.3616703
182	0xbeb24bd5	-0.3482348
183	0xbe70db53	-0.23521166
184	0xbe230c07	-0.15922557
185	0x3dd69d8c	0.104792684
186	0x3a3e3108	0.0007255231
187	0xbd905750	-0.070479035
188	0x3e0ca7c0	0.13735867
189	0x3e901470	0.28140593
190	0x3d9d1ff6	0.07672112
191	0x3c0d1d5e	0.008612959
192	0x3ebbe1bd	0.36695662
193	0x3ddf8f8d	0.10916052
194	0x3e8dc56f	0.27689692
195	0x3dd63373	0.10459032
196	0xbe8df20a	-0.27723724
197	0x3ec806f3	0.39067802
198	0xbedfa245	-0.4367849
199	0x3ea0b616	0.3138892
200	0xbe119fab	-0.14221065
201	0xbe920f40	-0.2852726
202	0xbe8c3d03	-0.27390298
203	0xbe98638f	-0.29763457
204	0xbeac8b11	-0.3369985
205	0x3e8d5cd2	0.2760988
206	0x3dc878eb	0.09788688
207	0x3d5e4405	0.054264087
208	0x3cc3f85f	0.023922144
209	0x3b6e48a8	0.0036359224
210	0xbd4fc0b5	-0.05072089
211	0x3aa884b8	0.0012856936
212	0x3d70ab61	0.05875719
213	0x3cd40856	0.025882881
214	0x3c502d0e	0.012706054
215	0x3e50f95a	0.2040762
216	0x3e30e300	0.17274094
217	0xbf0e5dea	-0.5561205
218	0xbe91afb0	-0.2845435
219	0xbe8aee31	-0.2713485
220	0xbd6ea16f	-0.058259424
221	0xbe5ead16	-0.21745715
222	0xbdaff306	-0.08591275
223	0x3d2e35e4	0.042531863
224	0xbe7abcec	-0.2448613
225	0x3d830495	0.06397358
226	0x3e2dd3d8	0.16975343
227	0xbe69dff7	-0.22839342
228	0x3e1a48e9	0.15066876
229	0x3e134fa2	0.14385846
230	0xbdaf4750	-0.08558524
231	0x3ed986ea	0.42485744
232	0x3cd18d29	0.025580006
233	0x3ea2ae46	0.31773585
234	0xbedda8ec	-0.4329294
235	0xbb6a7e72	-0.0035780934
236	0x3d88c6d1	0.06678546
237	0x3e50f25f	0.20404957
238	0x3e3dfad5	0.18552716
239	0xbebd5d27	-0.36985132
240	0x3e869dc4	0.2629224
241	0xbd7b89f4	-0.06141086
242	0xbda35d8d	-0.07976828
243	0xbea49d25	-0.32151142
244	0xbe0bcbfd	-0.13652034
245	0xbe6d11b2	-0.23151281
246	0x3e8bec21	0.2732859
247	0x3eb27b2d	0.348596
248	0x3d4844a7	0.048893597
249	0x3eea75ee	0.45793098
250	0xbe12b61a	-0.14327279
251	0xbeabbe40	-0.33543587
252	0x3e9f0f2d	0.31066266
253	0xbe4c9cfa	-0.19981757
254	0x3ee27798	0.44231868
255	0x3ee2949b	0.44254002

rnn.bias_ih_l0 f4 [64]
0	0xbe49fd1a	-0.19725457
1	0x3e1b4d26	0.15166149
2	0xbeaaaf76	-0.3333699
3	0x3e9a8fcc	0.30187833
4	0x3eedec11	0.46469167
5	0xbeb467cf	-0.3523545
6	0xbe1d959e	-0.15389106
7	0xbe1cb30b	-0.15302674
8	0x3ec2a08a	0.38013107
9	0x3e117ca1	0.14207698
10	0xbd456c2d	-0.048198868
11	0x3d9d3210	0.07675564
12	0x3e004ac5	0.12528522
13	0xbef46235	-0.47731176
14	0x3bf4b172	0.007467442
15	0x3cdad90e	0.026714828
16	0x3d34497c	0.044015393
17	0xbec62cc4	-0.38706028
18	0xbd0b4ef3	-0.03401084
19	0xbb211058	-0.0024576392
20	0xbe8bcd42	-0.27305037
21	0xbf052c4a	-0.52020705
22	0x3e9038c3	0.28168306
23	0x3e0e8113	0.13916425
24	0xbe4583aa	-0.19288507
25	0x3da5c468	0.08094102
26	0x3efd4b35	0.4947144
27	0x3ef686cf	0.48149726
28	0xbf02e6d0	-0.5113344
29	0xb9ff506c	-0.0004869731
30	0x3f15797b	0.5838849
31	0xbbc803ef	-0.0061039845
32	0x3f02dcff	0.51118463
33	0xbb90e806	-0.0044221906
34	0xbf06d4f2	-0.5266868
35	0xbd3721cf	-0.044709977
36	0xbe4a6d07	-0.19768153
37	0xbd46200c	-0.048370406
38	0xbc5d1271	-0.013493166
39	0xbe8aabd6	-0.27084225
40	0xbcfd16a1	-0.03089458
41	0xbea45d7a	-0.32102567
42	0x3d691081	0.056900505
43	0x3b5fdc08	0.0034158248
44	0x3e5aaca7	0.21354924
45	0xbe4ee38c	-0.2020399
46	0xbe802aac	-0.25032556
47	0x3ebf287f	0.37335584
48	0xbeeb28b1	-0.45929483
49	0xbb890f9c	-0.004182769
50	0xbd807f35	-0.06274263
51	0x3e60a952	0.2193959
52	0xbcb147ec	-0.02164074
53	0x3edfc799	0.43706968
54	0xbede86af	-0.4346213
55	0xbee16f01	-0.44030002
56	0xbe847128	-0.2586758
57	0xbe416347	-0.18885528
58	0x3e131e90	0.14367127
59	0x3dd02d00	0.10164833
60	0xbe73f988	-0.23825657
61	0x3ee2485c	0.4419583
62	0xbe69eb82	-0.22843745
63	0xbe82bbce	-0.2553391

rnn.bias_hh_l0 f4 [64]
0	0xbe486583	-0.19569974
1	0x3e5af352	0.21381882
2	0xbec8684d	-0.39142075
3	0x3ec8f953	0.3925272
4	0x3e989117	0.29798195
5	0xbe14edee	-0.14543888
6	0xbda2221e	-0.079166636
7	0xbd2ab003	-0.041671764
8	0x3e593915	0.21213181
9	0x3ded078f	0.11573707
10	0xbd7524a2	-0.05984939
11	0x3e1dcca2	0.15410092
12	0x3d9a0b9f	0.07521748
13	0xbef07b55	-0.46969095
14	0xbc8520b0	-0.016250938
15	0xbe08ae8f	-0.13347839
16	0x3ce1ad9e	0.027548607
17	0xbeaad60e	-0.33366436
18	0x3ce41cc8	0.027845755
19	0x3d51d744	0.051230684
20	0xbea348fb	-0.31891617
21	0xbefcf72a	-0.4940732
22	0x3ed1b52b	0.40958533
23	0x3e70383d	0.23458953
24	0xbe6d9719	-0.2320217
25	0x3e67e2cb	0.22645108
26	0x3eceb1f3	0.4037014
27	0x3edd3483	0.43204126
28	0xbf12e587	-0.5738148
29	0x3db1e6d4	0.08686605
30	0x3eb9f4ee	0.3631968
31	0xbc620bbd	-0.013796744
32	0x3f072135	0.52785045
33	0xbdaf2442	-0.085518375
34	0xbea52c34	-0.32260287
35	0x3d9a19a9	0.075244255
36	0xbe916259	-0.28395346
37	0x3d9f7ef8	0.07787889
38	0xbcbb363d	-0.022853011
39	0xbe9ab17e	-0.3021354
40	0x3c451750	0.012029484
41	0xbeb2fc1c	-0.3495797
42	0x3d2cf4bb	0.04222558
43	0x3e181bcb	0.14854352
44	0x3ec56171	0.38550904
45	0xbe3c39be	-0.18381402
46	0xbecc28cf	-0.39874884
47	0x3e8d0fbc	0.27551067
48	0xbec90239	-0.39259508
49	0xbdb6daeb	-0.08928474
50	0x3be9eacf	0.007138587
51	0x3e199422	0.14997914
52	0xbdc50d70	-0.096217036
53	0x3e83d794	0.2575041
54	0xbed4be4a	-0.4155143
55	0xbf017e59	-0.50583416
56	0xbe43c82b	-0.19119327
57	0xbeb9f4aa	-0.36319476
58	0x3dc60faa	0.096709564
59	0x3e827997	0.2548339
60	0xbe7d352c	-0.24727315
61	0x3ee58e59	0.44835165
62	0xbe3ffb5b	-0.18748228
63	0xbe90862b	-0.28227362

dense.weight f4 [1, 64]
0	0xbe4a8734	-0.19778138
1	0x3b3dd3f2	0.002896544
2	0xbd51775a	-0.051139213
3	0xbdbd1aaa	-0.092336014
4	0xbdc7af88	-0.09750277
5	0xbe0b6cbe	-0.136157
6	0xbd9a1238	-0.07523006
7	0x3d206a7a	0.039164044
8	0xbcec3bd3	-0.02883712
9	0x3b76acc0	0.0037639588
10	0x3b57196f	0.0032821556
11	0x3df18b86	0.1179419
12	0xbb1a9cdf	-0.0023592038
13	0x3e2075b2	0.15669897
14	0x3dc83dba	0.097773984
15	0xbe84d564	-0.25944054
16	0xbcdc9f0b	-0.026931306
17	0x3da11de1	0.07867027
18	0x3df3c545	0.119028606
19	0xbe007858	-0.12545907
20	0xbca80f0e	-0.020514991
21	0x3e1e5220	0.15461016
22	0x3b55e6b7	0.0032638737
23	0xbddf5c96	-0.10906331
24	0x3d675f44	0.056487337
25	0x3dd3da87	0.10344415
26	0xbdb1ebbd	-0.08687542
27	0xbd59ef4b	-0.053206723
28	0x3cca6d8c	0.02471044
29	0x3d3e5512	0.046467848
30	0x3e0e9e99	0.13927688
31	0x3e55c5dc	0.20876259
32	0xbde0a77a	-0.109694436
33	0x3e910180	0.28321457
34	0x3d993f70	0.07482803
35	0x3d9b5a43	0.075855754
36	0x3e2c2277	0.16810022
37	0xbd35a57a	-0.044347264
38	0xbb9f8b7a	-0.004868922
39	0xbd982cd3	-0.074304245
40	0xbc8301fa	-0.015992153
41	0xbd49feab	-0.049315136
42	0xbdc4f2c1	-0.09616614
43	0xbc84714b	-0.016167304
44	0xbd06e247	-0.03293064
45	0xbd475e5a	-0.048673965
46	0x3cc8de72	0.024520133
47	0x3e76dae5	0.24106939
48	0x3c3aeca9	0.011408963
49	0x3db4af11	0.08822454
50	0x3ed002c8	0.40627122
51	0x3d9a77e0	0.075423956
52	0x3d85839f	0.06519245
53	0xbcb3d6c4	-0.021952994
54	0x3da17e4f	0.078854196
55	0x3d9d21e8	0.07672483
56	0x3e69c3b5	0.22828563
57	0xbe0bf294	-0.13666755
58	0x3d3cc48a	0.04608587
59	0x3db70131	0.08935774
60	0xbd8c8641	-0.068615444
61	0x3c61d6cf	0.0137841245
62	0xbd9d1973	-0.0767087
63	0xbdebde4a	-0.11517008

exp_avg f4 [64, 1]
0	0xba3ffcf5	-0.00073237653
1	0x3ac4eb25	0.0015023692
2	0x39ceadc1	0.0003942084
3	0xba11006c	-0.0005531374
4	0xb924ae3d	-0.00015705168
5	0xb9b5da27	-0.00034685546
6	0xb99dded3	-0.0003011139
7	0xb9bf19a5	-0.00036449466
8	0x39c33469	0.00037232347
9	0x399b6519	0.00029639227
10	0x3a4ed312	0.00078897283
11	0x395889a7	0.00020650645
12	0xba87aaa1	-0.0010350534
13	0x39471b42	0.00018988273
14	0xba39af72	-0.00070833333
15	0x3a1ab7bc	0.00059020123
16	0xba4e9f98	-0.00078820577
17	0xb9aa9849	-0.00032538388
18	0xbaf78c11	-0.0018886348
19	0x3a219cfc	0.0006165055
20	0x3a0b76b0	0.0005320115
21	0x390fb39c	0.00013704452
22	0xbaed2ad4	-0.0018094429
23	0x3a3d6c03	0.0007225873
24	0xb8cbbf06	-9.715375e-05
25	0x398d2713	0.00026922728
26	0xb9a2cfc6	-0.0003105385
27	0x3a9b8ced	0.0011867561
28	0x3a93cac1	0.0011275635
29	0x39c8be0d	0.00038288572
30	0xb9a244d5	-0.00030950332
31	0x3aaf90b8	0.001339457
32	0xb93fb158	-0.00018281245
33	0xb91b8b95	-0.0001483395
34	0x39300c9b	0.00016789364
35	0x3a4145d7	0.00073727727
36	0x3894f582	7.102919e-05
37	0x38677148	5.5180193e-05
38	0x3a18f872	0.0005835361
39	0x3998c89e	0.0002914117
40	0x3aa14ce8	0.0012306245
41	0x381f84d2	3.8032253e-05
42	0xb8b76c9b	-8.746349e-05
43	0x3b84f193	0.004057118
44	0x3b096d8e	0.002096984
45	0x3a018081	0.0004940108
46	0xb70447a0	-7.88449e-06
47	0x396cf06b	0.00022596277
48	0x383ef77c	4.5530018e-05
49	0x3a2fa671	0.0006700522
50	0xbb563b87	-0.003268929
51	0xba00caaa	-0.0004913012
52	0xba68abe5	-0.0008875712
53	0xba2c6d9f	-0.0006577614
54	0x37527fc6	1.2546725e-05
55	0x392e7f3f	0.00016641336
56	0xb96ed424	-0.00022776477
57	0xb8bdcff7	-9.050959e-05
58	0xb9dbd556	-0.00041929883
59	0xb8212376	-3.8418417e-05
60	0xb9cb12a1	-0.00038733057
61	0xb92f5570	-0.00016721128
62	0xb78a6039	-1.649569e-05
63	0xb903ad20	-0.00012557628

exp_avg_sq f4 [64, 1]
0	0x394be8cb	0.00019446311
1	0x38114f7d	3.4644723e-05
2	0x37ff7905	3.0454723e-05
3	0x38c0560a	9.1712995e-05
4	0x37b028c7	2.0999823e-05
5	0x3801596b	3.0839274e-05
6	0x38d00c92	9.920554e-05
7	0x3855f8fe	5.101505e-05
8	0x3805b401	3.1877313e-05
9	0x386ccde7	5.6458546e-05
10	0x3899c2a3	7.3318624e-05
11	0x380971f7	3.2769483e-05
12	0x38843c09	6.305433e-05
13	0x37a88bfd	2.0092348e-05
14	0x38b42d01	8.5914515e-05
15	0x3a504a0b	0.00079456036
16	0x38c8f230	9.581854e-05
17	0x38251526	3.935876e-05
18	0x38896493	6.5514025e-05
19	0x39ed2c9a	0.00045237393
20	0x3857f3e7	5.1487146e-05
21	0x37b796d6	2.1885538e-05
22	0x381c3020	3.723812e-05
23	0x3861efe6	5.3867603e-05
24	0x3813d86a	3.5249082e-05
25	0x381e79a9	3.778344e-05
26	0x384debb9	4.9095343e-05
27	0x37daa89b	2.6066138e-05
28	0x37ab58ee	2.04262e-05
29	0x381d8a15	3.7560316e-05
30	0x37dbb12b	2.6189335e-05
31	0x3a57359c	0.00082095875
32	0x37c92717	2.397927e-05
33	0x3b0d05e8	0.0021518413
34	0x37cc01ec	2.431959e-05
35	0x38651361	5.4615903e-05
36	0x37fde451	3.0266268e-05
37	0x385a78c2	5.2087715e-05
38	0x39a7c7e7	0.0003200166
39	0x37ecb2e6	2.8216698e-05
40	0x3866cdfb	5.5028107e-05
41	0x37e71960	2.7549162e-05
42	0x3835f8d3	4.33855e-05
43	0x39f884fb	0.00047401324
44	0x387ca895	6.0238486e-05
45	0x39016931	0.00012341586
46	0x378e5ee8	1.6971913e-05
47	0x3763e296	1.35830105e-05
48	0x37373c46	1.09216835e-05
49	0x3897473b	7.213509e-05
50	0x3b390b0b	0.0028235342
51	0x3857c60c	5.144444e-05
52	0x3869bcea	5.572747e-05
53	0x383f113f	4.555401e-05
54	0x37aebd4a	2.0830561e-05
55	0x378250c4	1.5534817e-05
56	0x38753722	5.84639e-05
57	0x37bd8095	2.2590431e-05
58	0x387222cd	5.7729707e-05
59	0x388dcb50	6.761274e-05
60	0x3827117d	3.983219e-05
61	0x376bc889	1.4053782e-05
62	0x388ecbc0	6.809039e-05
63	0x37dfd62b	2.6683401e-05

exp_avg f4 [64, 64]
0	0x3835e727	4.336904e-05
1	0x39b20867	0.00033957066
2	0xb9ceee90	-0.00039469125
3	0xb98a645e	-0.0002639619
4	0x39f428f2	0.00046569813
5	0xba001837	-0.0004886421
6	0x396b281b	0.00022426287
7	0xb9edefd2	-0.00045382843
8	0xb9230f95	-0.00015550696
9	0xb99f1223	-0.00030340356
10	0x39d4e69f	0.00040607617
11	0x39eaa29d	0.00044753114
12	0xb95866ba	-0.00020637634
13	0xba076a94	-0.00051657227
14	0xb9c2bbd4	-0.00037142506
15	0x39dc12e8	0.00041975756
16	0xb99e7275	-0.00030221386
17	0xba00ad69	-0.00049086526
18	0xb9cd21e6	-0.00039125903
19	0x39fcb08a	0.00048196717
20	0xb948f40a	-0.00019164398
21	0xba06ba4b	-0.0005139454
22	0xb8754e9c	-5.8485763e-05
23	0x39fb8fed	0.00047981684
24	0xb9d3c364	-0.00040390634
25	0x39d6bc85	0.0004095772
26	0x39f37b57	0.00046440467
27	0xb950566c	-0.0001986862
28	0x39a920b6	0.00032258563
29	0x39c47531	0.00037471348
30	0x39f2f543	0.0004634057
31	0xba17a9b8	-0.0005785483
32	0x3a0bfae9	0.0005339818
33	0xba18265a	-0.00058040547
34	0x3926ff04	0.00015925994
35	0x39b99290	0.00035395147
36	0xb9de5a2b	-0.0004241032
37	0xb8f652fd	-0.00011745652
38	0x39ee96f7	0.00045507375
39	0xb9ee9ad4	-0.00045510253
40	0x3a116c2e	0.0005547431
41	0xb9ff573c	-0.00048702385
42	0x39de13f1	0.00042357997
43	0x39bdc210	0.00036193477
44	0xb9b6729f	-0.00034799144
45	0x3a164c16	0.00057333836
46	0xb9ffbc07	-0.0004877748
47	0x3a06ce14	0.00051424024
48	0xb9fc952f	-0.00048176336
49	0x39d83ca0	0.000412439
50	0xba0991f1	-0.0005247882
51	0xb8ded9b7	-0.000106263375
52	0x394bb217	0.00019425932
53	0xb96e1e41	-0.00022708719
54	0xba024c99	-0.00049705204
55	0xba093a2d	-0.0005234804
56	0xb9f2bbfa	-0.0004629789
57	0xba087131	-0.0005204855
58	0xb8f0c3fe	-0.00011480598
59	0x39fb93b0	0.00047984486
60	0xb9fc876e	-0.00048166089
61	0x3a05edc7	0.0005108979
62	0xb9f0ea04	-0.00045950722
63	0xba02314d	-0.0004966453
64	0xbab7cf9d	-0.0014023666
65	0xb8b84876	-8.7873006e-05
66	0xbadf4d67	-0.0017036618
67	0x3ae92506	0.0017787523
68	0xbae725b4	-0.0017635138
69	0x3ae60651	0.001754949
70	0xbade47c7	-0.0016958647
71	0x3ab08553	0.0013467468
72	0xbad824a4	-0.0016490412
73	0xba962b24	-0.0011456949
74	0xbae77324	-0.0017658216
75	0xbae71740	-0.001763083
76	0xb998730a	-0.0002907741
77	0x3ae67113	0.0017581306
78	0x3ab1ea34	0.0013573826
79	0xbae72aad	-0.001763662
80	0x3863759a	5.4230542e-05
81	0x3a9d3404	0.0011993651
82	0x3774af7b	1.4584391e-05
83	0xbae684f6	-0.0017587233
84	0xba8a41e8	-0.0010548206
85	0x3ae686b5	0.0017587753
86	0xba77d7c1	-0.0009454452
87	0xbaa89019	-0.0012860327
88	0x3ae7e429	0.0017691898
89	0xbae7b147	-0.0017676734
90	0xbada5cf2	-0.001665978
91	0xbae3802b	-0.0017356923
92	0xb9aa197a	-0.00032443908
93	0xbaa284ea	-0.0012399231
94	0xbae68d6b	-0.0017589753
95	0x3abf0f2d	0.0014576666
96	0xbae62b41	-0.0017560498
97	0x3ac784b4	0.0015222044
98	0xb94523b8	-0.0001880069
99	0xbad9c17f	-0.0016613452
100	0x3ae7a199	0.0017672061
101	0x3ad023f8	0.001587986
102	0xbae6c87b	-0.0017607355
103	0x39f080bf	0.0004587229
104	0xba1d9e32	-0.00060126476
105	0x3ae6c22c	0.0017605475
106	0xbae757c3	-0.0017650056
107	0xba67e494	-0.00088460115
108	0xbac752ef	-0.0015207211
109	0xba9d0884	-0.0011980687
110	0x3ae6ab4f	0.0017598661
111	0xbac9d22b	-0.0015397718
112	0x3ae6ae5c	0.001759957
113	0xbae76743	-0.0017654676
114	0x3a9fce50	0.0012192223
115	0xbad41cac	-0.0016182861
116	0x3ac8cf5d	0.0015320588
117	0x394f75d3	0.00019784951
118	0x3ae6b466	0.001760137
119	0x3ae653d4	0.001757259
120	0x3ae6fa50	0.0017622206
121	0x3ae637eb	0.0017564272
122	0xba88cf56	-0.0010437767
123	0xbae0eb2e	-0.0017159933
124	0x3ae639ef	0.0017564873
125	0xbae66788	-0.0017578462
126	0x3ae68488	0.0017587105
127	0x3ae68aa0	0.0017588921
128	0xb9dfadf1	-0.0004266347
129	0x391c79dc	0.00014922715
130	0xb9874651	-0.00025801596
131	0x39dd236d	0.000421788
132	0xb9df8732	-0.00042634603
133	0x39deff7d	0.00042533493
134	0xb9d5d65e	-0.00040786242
135	0x39cc1467	0.00038925113
136	0xb9aa029c	-0.0003242687
137	0xb9b63db0	-0.00034759706
138	0xb9ddcf02	-0.00042306638
139	0xb9de899a	-0.0004244566
140	0xb99f285d	-0.00030356916
141	0x39df9bbb	0.00042649903
142	0x3a53eca0	0.0008084271
143	0xb9ddc056	-0.00042295706
144	0x399be8e5	0.00029737424
145	0x39db5201	0.00041832033
146	0xb9d9f26d	-0.00041570087
147	0xb9ddde57	-0.0004231806
148	0xb94cba59	-0.00019524376
149	0x39dfaacd	0.0004266113
150	0xb9aed537	-0.00033346724
151	0xb9ec82f4	-0.00045110995
152	0x39df2ff4	0.00042569602
153	0xb9dee7c8	-0.0004251583
154	0xb9c53856	-0.00037616742
155	0xb9ca992b	-0.0003864256
156	0xb9dd985d	-0.00042265924
157	0xb9dc2567	-0.00041989537
158	0xb9d2d11b	-0.00040210117
159	0x3a4f761a	0.0007914022
160	0xb9dfa580	-0.00042657182
161	0x392e7d1b	0.00016640539
162	0xb9ac2141	-0.00032831173
163	0xb9de5d0a	-0.0004241246
164	0x39df3b98	0.00042578275
165	0x39cd328f	0.00039138316
166	0xb9ddc941	-0.0004230235
167	0x39de5e42	0.00042413367
168	0x38b0462d	8.405405e-05
169	0x39df58ca	0.00042600028
170	0xb9de4ae2	-0.00042398932
171	0x3983b150	0.00025118375
172	0xb99262f9	-0.0002792103
173	0xba8858ea	-0.0010402475
174	0x39df4e70	0.00042592315
175	0xb9df47a5	-0.00042587254
176	0x39df94c6	0.0004264472
177	0xb9ddd2da	-0.000423095
178	0x3851f308	5.0055824e-05
179	0xb9adf338	-0.00033178343
180	0x3a051a42	0.000507746
181	0x3a8595db	0.0010191755
182	0x39df8e31	0.00042639815
183	0x39df971e	0.00042646466
184	0x39df0395	0.00042536543
185	0x39def198	0.0004252314
186	0xb99d5b7b	-0.00030013532
187	0xb9dcb638	-0.00042097433
188	0x39defe24	0.0004253249
189	0xb9df8f1d	-0.00042640502
190	0x39def847	0.0004252812
191	0x39df0bbf	0.00042542626
192	0xb5c20d1d	-1.4457943e-06
193	0x35805c6f	9.563645e-07
194	0xb5a324be	-1.215514e-06
195	0x356cbe24	8.819354e-07
196	0x3591a1c7	1.0850425e-06
197	0xb59ae662	-1.1540944e-06
198	0xb4c34f7e	-3.637942e-07
199	0xb54f3de0	-7.720355e-07
200	0x35a9b931	1.2645379e-06
201	0x341078af	1.345495e-07
202	0x3499861e	2.8596054e-07
203	0x3546e501	7.409399e-07
204	0x34f6b9b4	4.5956187e-07
205	0xb5c64ef9	-1.4775134e-06
206	0xb584e73c	-9.902064e-07
207	0x34bbe0b4	3.4994957e-07
208	0x355b0926	8.159717e-07
209	0xb5e71218	-1.7216107e-06
210	0xb5916003	-1.0831285e-06
211	0x35546980	7.9129677e-07
212	0xb5c50b96	-1.4681016e-06
213	0xb5c3d8ac	-1.4591692e-06
214	0x31c28c36	5.6620832e-09
215	0x35bba1ba	1.3979654e-06
216	0xb51b7010	-5.790507e-07
217	0x3518bd6d	5.6900063e-07
218	0x35ee53ec	1.7756806e-06
219	0x360b3e40	2.0748848e-06
220	0xb54ea184	-7.6976016e-07
221	0xb4af9ce5	-3.2710446e-07
222	0x35b2e40f	1.3328407e-06
223	0xb5956423	-1.1130509e-06
224	0x35d94808	1.6188724e-06
225	0xb5b8b390	-1.3761328e-06
226	0xb5d2539e	-1.5670555e-06
227	0xb5016348	-4.820072e-07
228	0xb5427ac8	-7.24493e-07
229	0x34cec847	3.851621e-07
230	0x351ea596	5.9100546e-07
231	0xb43443eb	-1.6788515e-07
232	0x358706d0	1.0060267e-06
233	0xb5a36de3	-1.2176428e-06
234	0x350a0ac3	5.1424666e-07
235	0x359898e9	1.1369385e-06
236	0x348aa3b9	2.5823627e-07
237	0x355c0cad	8.197483e-07
238	0xb5a170b5	-1.2028237e-06
239	0x35bbef2e	1.4002196e-06
240	0xb5a3777e	-1.2179223e-06
241	0x34ae3dc6	3.2454972e-07
242	0xb5cd62f6	-1.5302492e-06
243	0x34d528bd	3.9703983e-07
244	0xb58935fb	-1.0223006e-06
245	0x3592cae2	1.0936894e-06
246	0xb5b1efc5	-1.325731e-06
247	0xb5cd3ed2	-1.5291973e-06
248	0xb583271e	-9.771645e-07
249	0xb5b708df	-1.3637144e-06
250	0xb4ecf4dc	-4.4136584e-07
251	0x3561d1ba	8.4124224e-07
252	0xb594824c	-1.1064781e-06
253	0x35c0146e	1.431106e-06
254	0xb4f8c0c2	-4.633385e-07
255	0xb5a41753	-1.222574e-06

exp_avg_sq f4 [64, 64]
0	0x37bb4737	2.23253e-05
1	0x3782d051	1.5594213e-05
2	0x37cf31ee	2.4699573e-05
3	0x37c99205	2.4029063e-05
4	0x37b2a70a	2.1297037e-05
5	0x372e4e5f	1.0389455e-05
6	0x3752c6a4	1.2563225e-05
7	0x37a153d5	1.9231733e-05
8	0x379ea297	1.891078e-05
9	0x37cd0f15	2.4444927e-05
10	0x37cb7d25	2.425776e-05
11	0x374ac956	1.2087015e-05
12	0x374e54c0	1.2298289e-05
13	0x37c66367	2.3649727e-05
14	0x373cef5f	1.1261406e-05
15	0x37edaa28	2.8331837e-05
16	0x3741565d	1.15238045e-05
17	0x37198935	9.151457e-06
18	0x372d0413	1.0312552e-05
19	0x3806f107	3.2172564e-05
20	0x37410566	1.1504953e-05
21	0x38030c0f	3.1244064e-05
22	0x37a640e2	1.9818955e-05
23	0x379eb305	1.891843e-05
24	0x3780e1f1	1.5364001e-05
25	0x3796d512	1.7980612e-05
26	0x37b66e8b	2.1747566e-05
27	0x37a126c4	1.9210747e-05
28	0x37b31115	2.1346417e-05
29	0x37287b21	1.00422485e-05
30	0x37827814	1.5553123e-05
31	0x3831e3b5	4.2412157e-05
32	0x37deb0c9	2.6546784e-05
33	0x380d8db3	3.3748987e-05
34	0x37877c7d	1.6151223e-05
35	0x37537c78	1.260556e-05
36	0x37aeff2f	2.0861246e-05
37	0x371a91e5	9.213084e-06
38	0x38023273	3.10414e-05
39	0x373dc4fe	1.1311144e-05
40	0x37836fb7	1.5668438e-05
41	0x37b6db64	2.1798252e-05
42	0x37a838ab	2.0053549e-05
43	0x37f4d454	2.918594e-05
44	0x37849433	1.5804637e-05
45	0x3783e338	1.5722224e-05
46	0x37a20ae4	1.9316976e-05
47	0x373bb7cb	1.1188861e-05
48	0x37e48504	2.7241658e-05
49	0x37438088	1.1652832e-05
50	0x37ee61a2	2.8417275e-05
51	0x3790613f	1.7211421e-05
52	0x372a6441	1.0156132e-05
53	0x37ad7b87	2.0680729e-05
54	0x37a292c0	1.938024e-05
55	0x37bce393	2.2517319e-05
56	0x379455c4	1.7682913e-05
57	0x3772745b	1.4451415e-05
58	0x3760a6e5	1.3390299e-05
59	0x375d0b63	1.3175278e-05
60	0x3776c0ed	1.4707662e-05
61	0x37be5daa	2.269338e-05
62	0x374cd078	1.2207885e-05
63	0x3774fc5a	1.46022885e-05
64	0x370b6afc	8.309955e-06
65	0x36e60acc	6.855791e-06
66	0x36e794c6	6.901656e-06
67	0x36f20fcf	7.2140024e-06
68	0x36a15a42	4.8086813e-06
69	0x36e4e8fb	6.822052e-06
70	0x370dd72a	8.454352e-06
71	0x36aa98bf	5.084177e-06
72	0x37086b8d	8.131273e-06
73	0x3745aab1	1.1781857e-05
74	0x36b94927	5.5219457e-06
75	0x36e2ffa9	6.7650876e-06
76	0x37408ea7	1.1477306e-05
77	0x36a47843	4.901581e-06
78	0x36bd2bf7	5.637757e-06
79	0x36cd2971	6.1143005e-06
80	0x3718d815	9.1102165e-06
81	0x370b77b5	8.312917e-06
82	0x36c34a25	5.8200844e-06
83	0x36d1f572	6.257259e-06
84	0x36cd3657	6.115802e-06
85	0x36bd7c9f	5.6471467e-06
86	0x36f9c5d2	7.4438076e-06
87	0x36cfbdb3	6.1911646e-06
88	0x36c72afc	5.935666e-06
89	0x36b2c5e3	5.3278504e-06
90	0x36f1b927	7.2039143e-06
91	0x36fe199f	7.5727726e-06
92	0x36d0384a	6.205436e-06
93	0x373444f4	1.07448905e-05
94	0x36a25041	4.837319e-06
95	0x36c00620	5.722759e-06
96	0x36d3256e	6.2926474e-06
97	0x36b81d85	5.487064e-06
98	0x36fbb0ce	7.5009657e-06
99	0x36ce4829	6.147679e-06
100	0x37191b18	9.125819e-06
101	0x37191fde	9.12693e-06
102	0x36c8644f	5.972142e-06
103	0x374d4d45	1.2236943e-05
104	0x36f3e938	7.2691146e-06
105	0x36ae7af6	5.1999186e-06
106	0x36a80c42	5.008217e-06
107	0x37016070	7.711453e-06
108	0x37065d73	8.00878e-06
109	0x36ff2e04	7.604949e-06
110	0x370a74ca	8.252633e-06
111	0x36ea285c	6.978442e-06
112	0x36c786b9	5.946346e-06
113	0x36c1314d	5.7575876e-06
114	0x3691db85	4.346892e-06
115	0x3704b4b9	7.909891e-06
116	0x36e915c8	6.946477e-06
117	0x36f92d99	7.4260865e-06
118	0x36a5c51d	4.94033e-06
119	0x36af19c2	5.218405e-06
120	0x36b981ce	5.528541e-06
121	0x36c52511	5.8753726e-06
122	0x36da711a	6.510073e-06
123	0x36f7ee79	7.3889355e-06
124	0x36c7eccb	5.9582285e-06
125	0x36d133ed	6.2347303e-06
126	0x36f53910	7.308212e-06
127	0x36a65afd	4.957778e-06
128	0x36ca99a5	6.0379557e-06
129	0x371c19ec	9.30436e-06
130	0x37275d88	9.975753e-06
131	0x370eb948	8.506999e-06
132	0x36c27a78	5.795908e-06
133	0x370f6614	8.547231e-06
134	0x3750ad36	1.2438095e-05
135	0x371faae2	9.516925e-06
136	0x36d30093	6.288357e-06
137	0x37126b93	8.727325e-06
138	0x369de53b	4.7056506e-06
139	0x3721f27c	9.652806e-06
140	0x3733f539	1.0726327e-05
141	0x36c2a56f	5.8009095e-06
142	0x371b74ed	9.265944e-06
143	0x37212d8e	9.606954e-06
144	0x3733dc58	1.0720534e-05
145	0x37353eb3	1.0803039e-05
146	0x37037ad7	7.836809e-06
147	0x37102809	8.59239e-06
148	0x370fda17	8.574242e-06
149	0x36d04fd3	6.208176e-06
150	0x3711b995	8.685883e-06
151	0x36f64278	7.3391093e-06
152	0x36b65f09	5.435086e-06
153	0x370be1d7	8.337628e-06
154	0x3712f2f2	8.758843e-06
155	0x36d62b41	6.3827324e-06
156	0x3717f004	9.056184e-06
157	0x37298fdf	1.0106683e-05
158	0x36cf2564	6.1734336e-06
159	0x36cb5b27	6.060483e-06
160	0x36d3fe11	6.3178672e-06
161	0x36ce926d	6.1563246e-06
162	0x3722b19f	9.697308e-06
163	0x3721938f	9.630704e-06
164	0x36db5874	6.537006e-06
165	0x372bcc76	1.0239999e-05
166	0x370ff967	8.581533e-06
167	0x3720ca21	9.583805e-06
168	0x371c9a74	9.334286e-06
169	0x36dc5e7c	6.5675104e-06
170	0x36f79403	7.3784045e-06
171	0x36fab79c	7.4719555e-06
172	0x371f6578	9.500764e-06
173	0x36e34b55	6.773897e-06
174	0x36f3abac	7.2619496e-06
175	0x36e61955	6.857483e-06
176	0x37052b78	7.937539e-06
177	0x371971f8	9.146046e-06
178	0x36dc0b4b	6.5578256e-06
179	0x36dacb73	6.520591e-06
180	0x372713d1	9.9585895e-06
181	0x36e2e8d8	6.7624314e-06
182	0x36ab18d9	5.09909e-06
183	0x36b607c5	5.424927e-06
184	0x36d5cb36	6.3715515e-06
185	0x37178f61	9.033684e-06
186	0x36c87684	5.9742615e-06
187	0x3723f076	9.771544e-06
188	0x37101c09	8.589596e-06
189	0x36c0c87e	5.7453863e-06
190	0x372e645f	1.0394578e-05
191	0x36f66a90	7.343777e-06
192	0x3695ec81	4.4680787e-06
193	0x35a64703	1.2388631e-06
194	0x360546e4	1.9859808e-06
195	0x36b40c8d	5.365879e-06
196	0x35a986f8	1.2630762e-06
197	0x363a5c47	2.7769872e-06
198	0x35bd2aad	1.4094018e-06
199	0x35b43d86	1.3428951e-06
200	0x36961c83	4.4736676e-06
201	0x36a7ce5d	5.0010117e-06
202	0x36260285	2.4737394e-06
203	0x36503a76	3.1028444e-06
204	0x36b63061	5.4296547e-06
205	0x35f66581	1.835797e-06
206	0x358d82ff	1.0543444e-06
207	0x36cb19c8	6.052873e-06
208	0x35a29249	1.2112515e-06
209	0x356b8889	8.7743007e-07
210	0x35925bba	1.0904544e-06
211	0x36dc5a46	6.56702e-06
212	0x359e629c	1.1800616e-06
213	0x367d02af	3.77015e-06
214	0x368006b7	3.815479e-06
215	0x36135835	2.195605e-06
216	0x35e918f0	1.736711e-06
217	0x354fffdd	7.748584e-07
218	0x364cc5e0	3.0513547e-06
219	0x3621ae21	2.4092226e-06
220	0x3646bd23	2.9614391e-06
221	0x368f0ac1	4.262984e-06
222	0x35e25b8a	1.6864954e-06
223	0x370ac7fc	8.2720035e-06
224	0x3690fd7a	4.321043e-06
225	0x371b1fdc	9.246138e-06
226	0x36c41623	5.8438322e-06
227	0x35c059cb	1.4331248e-06
228	0x36aca9f4	5.1457846e-06
229	0x36a9511a	5.046034e-06
230	0x36a79099	4.993821e-06
231	0x36949f3f	4.4292824e-06
232	0x36054f50	1.986471e-06
233	0x364ff0af	3.09855e-06
234	0x35d50d9c	1.5873698e-06
235	0x37121833	8.7079125e-06
236	0x35951193	1.110648e-06
237	0x366ca461	3.5262422e-06
238	0x36a0d3af	4.793015e-06
239	0x3656a0d9	3.198211e-06
240	0x363de22f	2.829485e-06
241	0x356e260e	8.8717286e-07
242	0x371619a1	8.946664e-06
243	0x36acf571	5.1545726e-06
244	0x3604a0c8	1.976312e-06
245	0x365798d1	3.2126447e-06
246	0x35b43075	1.3425148e-06
247	0x3655042d	3.1741904e-06
248	0x35c941d4	1.4994826e-06
249	0x362b4206	2.5519416e-06
250	0x368e320f	4.2377574e-06
251	0x36189c4d	2.2740744e-06
252	0x362e525c	2.597596e-06
253	0x3680e71b	3.8416015e-06
254	0x3600da38	1.9200506e-06
255	0x35863fcf	1.0002349e-06

exp_avg f4 [64]
0	0xb806eb1a	-3.2167045e-05
1	0xba8e83c3	-0.0010873008
2	0xba33343f	-0.00068360934
3	0x3a078484	0.00051695877
4	0x3977af66	0.00023621097
5	0x39effac2	0.0004577246
6	0xba0133a6	-0.00049286557
7	0xb9b94f14	-0.00035344868
8	0xb9aa6211	-0.00032497992
9	0xba01eb80	-0.00049560517
10	0xba087183	-0.0005204903
11	0xb9cfed9a	-0.00039659144
12	0x38520388	5.007119e-05
13	0xb9b270fd	-0.00034034988
14	0x37cca40e	2.4395089e-05
15	0xb9d1db0c	-0.0004002679
16	0x3a3b0200	0.0007133782
17	0xba3f1f64	-0.00072907493
18	0x3a9561eb	0.001139698
19	0xb911eaa2	-0.00013915685
20	0xba00ad61	-0.0004908648
21	0xb994b70f	-0.0002836515
22	0x3b023b3c	0.0019871732
23	0x3a1012e4	0.0005495979
24	0xb810fcb0	-3.456761e-05
25	0xb99efda7	-0.00030325094
26	0x3914eb29	0.00014201984
27	0xb9feebac	-0.00048622245
28	0xbaa0515a	-0.0012231276
29	0xba429f18	-0.00074242195
30	0x3a047a8d	0.0005053662
31	0x3a9d674b	0.0012008933
32	0x393e7fca	0.00018167417
33	0x3a8360ee	0.0010023394
34	0xba150f54	-0.0005686183
35	0xba8575d9	-0.0010182216
36	0xb88047c4	-6.116883e-05
37	0x39a99342	0.00032343908
38	0xb88c7620	-6.697723e-05
39	0x395fca8d	0.00021342393
40	0xb9430900	-0.00018600002
41	0x38b82608	8.7808876e-05
42	0xb8f45556	-0.00011650722
43	0xba92cf16	-0.0011200632
44	0xb9670236	-0.000220307
45	0x3974ea83	0.00023357016
46	0x395ef2f7	0.00021262081
47	0xb999e0d0	-0.00029349932
48	0xb87f9dd2	-6.094372e-05
49	0xba06926f	-0.00051335146
50	0x3a194713	0.00058470777
51	0x39a233ee	0.00030937738
52	0xba856b18	-0.0010179011
53	0x3a54af85	0.00081133127
54	0xb8f9c2a7	-0.00011909502
55	0xb944f0c9	-0.00018781716
56	0x381c6244	3.7284815e-05
57	0x39725a1e	0.0002311249
58	0x39cae83d	0.00038701473
59	0x39827eab	0.00024889907
60	0x39cc3dc3	0.00038955928
61	0x3970319f	0.00022906669
62	0x395186a6	0.00019981954
63	0x39ad979a	0.00033110083

exp_avg_sq f4 [64]
0	0x398ffa48	0.0002746156
1	0x383921fc	4.4139088e-05
2	0x381e2de8	3.771289e-05
3	0x38e313c5	0.00010827886
4	0x377c6df4	1.5045971e-05
5	0x3873e23a	5.8146405e-05
6	0x38e5803f	0.000109434586
7	0x38b9e505	8.864146e-05
8	0x381eadc5	3.783197e-05
9	0x388328b8	6.254151e-05
10	0x38825023	6.21381e-05
11	0x37c60cf0	2.3609464e-05
12	0x3886dcad	6.430722e-05
13	0x37a535ef	1.9694648e-05
14	0x3928da4f	0.00016103055
15	0x3adf23e8	0.0017024251
16	0x387b379c	5.9894854e-05
17	0x38a974c6	8.080299e-05
18	0x38c6b4c6	9.4750474e-05
19	0x3a2f8dd4	0.0006696854
20	0x37d4ba3c	2.5359092e-05
21	0x3790cb27	1.7260738e-05
22	0x3832af6d	4.2601885e-05
23	0x39063230	0.00012797932
24	0x377ab2a6	1.4942756e-05
25	0x381dac14	3.7591977e-05
26	0x382cc6d0	4.1193154e-05
27	0x382cc6d1	4.1193158e-05
28	0x37e7e786	2.7645157e-05
29	0x380e022d	3.3857465e-05
30	0x38017c7b	3.0871928e-05
31	0x3ab06445	0.0013457617
32	0x3802b0fb	3.115924e-05
33	0x3b777863	0.0037760965
34	0x38025288	3.107128e-05
35	0x385f2836	5.3204792e-05
36	0x377d1699	1.5085237e-05
37	0x383696a1	4.3532465e-05
38	0x3a14cf62	0.00056766544
39	0x381997e3	3.6619498e-05
40	0x38bb842a	8.941472e-05
41	0x37ea0ab2	2.7899954e-05
42	0x3893f774	7.055598e-05
43	0x3a61e786	0.00086175685
44	0x3894ee80	7.101614e-05
45	0x3997ed4b	0.0002897776
46	0x37b8c028	2.2023989e-05
47	0x3857c89a	5.144682e-05
48	0x37c202e6	2.3127952e-05
49	0x38719298	5.7595404e-05
50	0x3ba082ec	0.0048984196
51	0x384f6181	4.9443453e-05
52	0x38b5cc72	8.6688335e-05
53	0x389b0343	7.3915835e-05
54	0x37ad8603	2.0685611e-05
55	0x37f6a5a5	2.940262e-05
56	0x386c7332	5.637407e-05
57	0x37b350e0	2.1376123e-05
58	0x38242e01	3.914349e-05
59	0x385521d8	5.0814677e-05
60	0x38807208	6.1247556e-05
61	0x3792278c	1.7422972e-05
62	0x3880f9d9	6.1500534e-05
63	0x37b0b2a4	2.1064021e-05

exp_avg f4 [64]
0	0xb806eb14	-3.2167023e-05
1	0xba8e83c2	-0.0010873007
2	0xba333443	-0.00068360957
3	0x3a078482	0.00051695865
4	0x3977af68	0.000236211
5	0x39effac2	0.0004577246
6	0xba0133a6	-0.00049286557
7	0xb9b94f14	-0.00035344868
8	0xb9aa6210	-0.0003249799
9	0xba01eb7f	-0.0004956051
10	0xba087184	-0.00052049034
11	0xb9cfed9c	-0.0003965915
12	0x3852039f	5.0071274e-05
13	0xb9b270fe	-0.0003403499
14	0x37cca401	2.4395065e-05
15	0xb9d1db10	-0.000400268
16	0x3a3b0201	0.00071337825
17	0xba3f1f66	-0.00072907505
18	0x3a9561ec	0.0011396981
19	0xb911eaa3	-0.00013915687
20	0xba00ad60	-0.00049086474
21	0xb994b710	-0.00028365152
22	0x3b023b3b	0.001987173
23	0x3a1012e4	0.0005495979
24	0xb810fcac	-3.4567594e-05
25	0xb99efda7	-0.00030325094
26	0x3914eb24	0.00014201977
27	0xb9feebac	-0.00048622245
28	0xbaa0515a	-0.0012231276
29	0xba429f19	-0.000742422
30	0x3a047a8f	0.0005053663
31	0x3a9d674a	0.0012008932
32	0x393e7fcb	0.00018167419
33	0x3a8360f6	0.0010023403
34	0xba150f53	-0.00056861824
35	0xba8575da	-0.0010182217
36	0xb88047be	-6.116879e-05
37	0x39a99340	0.00032343902
38	0xb88c7625	-6.697726e-05
39	0x395fca90	0.00021342398
40	0xb9430909	-0.00018600015
41	0x38b82607	8.780887e-05
42	0xb8f45554	-0.0001165072
43	0xba92cf15	-0.0011200631
44	0xb9670227	-0.00022030679
45	0x3974ea73	0.00023356992
46	0x395ef2f7	0.00021262081
47	0xb999e0d0	-0.00029349932
48	0xb87f9dd3	-6.0943723e-05
49	0xba06926e	-0.0005133514
50	0x3a194715	0.0005847079
51	0x39a233ef	0.0003093774
52	0xba856b18	-0.0010179011
53	0x3a54af84	0.0008113312
54	0xb8f9c2a8	-0.00011909503
55	0xb944f0c7	-0.00018781713
56	0x381c6248	3.728483e-05
57	0x39725a20	0.00023112493
58	0x39cae83d	0.00038701473
59	0x39827ead	0.00024889913
60	0x39cc3dc3	0.00038955928
61	0x3970319f	0.00022906669
62	0x395186a7	0.00019981955
63	0x39ad979b	0.00033110086

exp_avg_sq f4 [64]
0	0x398ffa48	0.0002746156
1	0x383921fc	4.4139088e-05
2	0x381e2de4	3.7712874e-05
3	0x38e313c5	0.00010827886
4	0x377c6df2	1.5045969e-05
5	0x3873e23a	5.8146405e-05
6	0x38e5803f	0.000109434586
7	0x38b9e505	8.864146e-05
8	0x381eadc5	3.783197e-05
9	0x388328b8	6.254151e-05
10	0x38825023	6.21381e-05
11	0x37c60cf5	2.3609473e-05
12	0x3886dcae	6.430723e-05
13	0x37a535ef	1.9694648e-05
14	0x3928da4f	0.00016103055
15	0x3adf23ea	0.0017024253
16	0x387b379e	5.989486e-05
17	0x38a974c4	8.080297e-05
18	0x38c6b4c6	9.4750474e-05
19	0x3a2f8dd4	0.0006696854
20	0x37d4ba39	2.5359086e-05
21	0x3790cb27	1.7260738e-05
22	0x3832af6e	4.260189e-05
23	0x39063231	0.00012797934
24	0x377ab2a8	1.4942758e-05
25	0x381dac12	3.759197e-05
26	0x382cc6cf	4.119315e-05
27	0x382cc6d1	4.1193158e-05
28	0x37e7e786	2.7645157e-05
29	0x380e022d	3.3857465e-05
30	0x38017c7b	3.0871928e-05
31	0x3ab06447	0.0013457619
32	0x3802b0fb	3.115924e-05
33	0x3b777863	0.0037760965
34	0x38025288	3.107128e-05
35	0x385f2836	5.3204792e-05
36	0x377d1699	1.5085237e-05
37	0x383696a1	4.3532465e-05
38	0x3a14cf60	0.0005676653
39	0x381997e3	3.6619498e-05
40	0x38bb842a	8.941472e-05
41	0x37ea0ab2	2.7899954e-05
42	0x3893f774	7.055598e-05
43	0x3a61e786	0.00086175685
44	0x3894ee82	7.1016155e-05
45	0x3997ed4c	0.00028977764
46	0x37b8c022	2.2023978e-05
47	0x3857c89a	5.144682e-05
48	0x37c202e6	2.3127952e-05
49	0x38719298	5.7595404e-05
50	0x3ba082ec	0.0048984196
51	0x384f6181	4.9443453e-05
52	0x38b5cc74	8.668835e-05
53	0x389b0343	7.3915835e-05
54	0x37ad8603	2.0685611e-05
55	0x37f6a5a5	2.940262e-05
56	0x386c7332	5.637407e-05
57	0x37b350e0	2.1376123e-05
58	0x38242e01	3.914349e-05
59	0x385521d8	5.0814677e-05
60	0x38807208	6.1247556e-05
61	0x3792278c	1.7422972e-05
62	0x3880f9d9	6.1500534e-05
63	0x37b0b2a4	2.1064021e-05

exp_avg f4 [1, 64]
0	0x3c50b5d0	0.01273866
1	0x3cd9e250	0.026597172
2	0xba9fc9cf	-0.0012190881
3	0xbc50bddd	-0.012740579
4	0x3c50bddb	0.012740578
5	0xbc50bddc	-0.0127405785
6	0x3c50bca6	0.01274029
7	0xbc4f9ed1	-0.012672142
8	0xbc314f53	-0.010822135
9	0x3c5044b0	0.012711689
10	0x3c50bddc	0.0127405785
11	0x3c50bddc	0.0127405785
12	0xbcadc4a8	-0.021211937
13	0xbc50bddc	-0.0127405785
14	0xbaa72063	-0.0012750741
15	0x3c50bddf	0.012740581
16	0xbc60c9a5	-0.013719951
17	0x396572b3	0.0002188187
18	0x3b931258	0.0044882707
19	0x3c50bdde	0.01274058
20	0xb9b9da21	-0.00035448468
21	0xbc50bddc	-0.0127405785
22	0xbd1f94e0	-0.038960338
23	0x3bbf7ef4	0.0058439914
24	0xbc50bddc	-0.0127405785
25	0x3c50bddc	0.0127405785
26	0x3af1c765	0.0018446265
27	0x3c55fc7d	0.013060686
28	0x3c5b84a3	0.013398322
29	0x3c51da79	0.012808436
30	0x3c50bef4	0.012740839
31	0xbb85ca96	-0.004082988
32	0x3c50bddc	0.0127405785
33	0xba4eec4f	-0.0007893489
34	0x3c50d301	0.01274562
35	0x3c50bf31	0.012740896
36	0xbc50bddf	-0.012740581
37	0xbc50a2ac	-0.0127340965
38	0x3c50bdde	0.01274058
39	0xbc50bde7	-0.012740589
40	0x3ccb6010	0.02482608
41	0xbc50bddc	-0.0127405785
42	0x3c50bddc	0.0127405785
43	0xbbd51df8	-0.0065038167
44	0xbb914d75	-0.0044342824
45	0x3c151707	0.009099728
46	0xbc50bdda	-0.012740577
47	0x3c50bff2	0.012741076
48	0xbc50bde1	-0.012740583
49	0x3c50bddc	0.0127405785
50	0xbaa9f5af	-0.0012966896
51	0x3c52a2be	0.012856184
52	0x3ceceda9	0.028921919
53	0xbc50fbc2	-0.012755336
54	0xbc50bddc	-0.0127405785
55	0xbc50bddc	-0.0127405785
56	0xbc50bddc	-0.0127405785
57	0xbc50bddc	-0.0127405785
58	0x3c86690e	0.016407516
59	0x3c50f80d	0.012754452
60	0xbc50bddc	-0.0127405785
61	0x3c50bddc	0.0127405785
62	0xbc50be02	-0.012740614
63	0xbc50bddc	-0.0127405785

exp_avg_sq f4 [1, 64]
0	0x3d6e03f3	0.058109235
1	0x3cec79b7	0.028866632
2	0x3d19276b	0.037391108
3	0x3d70e835	0.0588152
4	0x3d6d580b	0.057945292
5	0x3d736c6e	0.05942958
6	0x3d745e5b	0.059660297
7	0x3d725cfc	0.059170708
8	0x3d281c2d	0.041042496
9	0x3d6c9198	0.057756037
10	0x3d6d8f2f	0.05799788
11	0x3d74916c	0.059708998
12	0x3cf5f456	0.030023735
13	0x3d6f749f	0.058460828
14	0x3cc56a26	0.024098467
15	0x3d7536f3	0.059866857
16	0x3d34e59d	0.04416429
17	0x3d06376a	0.03276769
18	0x3ca80176	0.02050851
19	0x3d73b2e4	0.059496775
20	0x3d3ac1ca	0.045594968
21	0x3d6dee7e	0.058088772
22	0x3cba000b	0.022705099
23	0x3cdd8cd3	0.02704469
24	0x3d6e7182	0.05821372
25	0x3d72947e	0.059223644
26	0x3d0c8ddd	0.03431498
27	0x3cce5422	0.025186602
28	0x3d721c51	0.059109036
29	0x3d6dd89a	0.058067895
30	0x3d6f9ab0	0.05849713
31	0x3d1a0cd8	0.037609905
32	0x3d6edecc	0.058317944
33	0x3cd65ec3	0.026168233
34	0x3d042bda	0.032268383
35	0x3d735cd6	0.059414707
36	0x3d6c3af5	0.057673413
37	0x3d6cf8c4	0.05785443
38	0x3d72e0a4	0.059296265
39	0x3d6ffef2	0.058592744
40	0x3d15fe52	0.036619492
41	0x3d6e7d44	0.05822493
42	0x3d6f6e19	0.058454607
43	0x3d5a824c	0.053346917
44	0x3d075678	0.033041447
45	0x3cd54b76	0.02603696
46	0x3d6c25a3	0.05765308
47	0x3d713b32	0.058894344
48	0x3d7325b5	0.059362132
49	0x3d74a2b8	0.059725493
50	0x3cdcdaeb	0.026959857
51	0x3d6a82c1	0.057253603
52	0x3ce93cdd	0.028471405
53	0x3d657c12	0.056026526
54	0x3d6cf948	0.05785492
55	0x3d6d79b3	0.05797739
56	0x3d6e8355	0.058230717
57	0x3d742c4a	0.05961255
58	0x3d532dd6	0.051557384
59	0x3d71d4f2	0.05904097
60	0x3d742f5e	0.059615485
61	0x3d6c493b	0.057687026
62	0x3d72b32d	0.059252907
63	0x3d71bf94	0.059020594
