07_RNN/logs/rnn/version_16/checkpoints/last.ckpt (torch, 164936 bytes, 15 tensors)

rnn.weight_ih_l0 f4 [192, 1]
000000 82 65 05 bf d0 53 aa bf 9d ad 96 bd 99 60 41 bf
       -0.52108014 -1.3306828 -0.07357333 -0.7553802
000010 c8 51 a4 be e4 8f 0f 3f fc 8f 81 bf c9 b8 fa 3d
       -0.32093644 0.56078935 -1.0122066 0.12242276
000020 93 fd ab 3f 7c 82 d8 be d6 66 89 3e a8 0e f7 be
       1.343676 -0.42287052 0.2683627 -0.4825337
000030 c0 2b 27 be c4 6e c3 be 74 a2 e3 3d 36 7c 15 bd
       -0.16325283 -0.38170445 0.1111497 -0.03649541
000040 16 68 a7 be ac f5 5f 3f 54 e2 e3 be a1 33 17 3f
       -0.326966 0.8748424 -0.44508612 0.59063154
000050 1b 2e b8 3e 24 ad 23 be 0f 49 20 bf 90 ed c2 be
       0.35972676 -0.15984017 -0.6261148 -0.3807187
000060 d8 e1 de be 74 ed b2 be b9 f9 6e 3d 14 73 97 be
       -0.4353168 -0.34946787 0.058343623 -0.29579985
000070 e3 b8 02 3e 39 73 0f 3f e8 67 f8 bb 09 d7 cf bc
       0.12765841 0.5603519 -0.007580746 -0.025371091
000080 47 05 31 bf bf e0 2c 3f f8 02 2f 3e 20 67 eb 3e
       -0.6914868 0.67530435 0.17090976 0.45977116
000090 2e 97 6e be 3c 5c b0 be e0 dd 09 bf 30 c3 fc 3d
       -0.23299858 -0.3444537 -0.5385418 0.123419166
0000a0 14 d6 22 bf 1c b8 49 bd a4 34 04 bf 8e 2d 67 3f
       -0.6360791 -0.049247846 -0.51642823 0.90303886
0000b0 b9 a6 ef 3d a5 bb 06 bf 50 e2 47 bf 63 e0 63 be
       0.11701722 -0.5263007 -0.780797 -0.22253565
0000c0 cc 01 2b bf 73 ae 30 bf 8f 5a 13 3f b2 a6 eb bd
       -0.66799617 -0.6901619 0.57560056 -0.11506404
0000d0 45 c5 da bd 9f ff 68 be ee ac ae 3d 23 d1 12 bf
       -0.106821574 -0.22753762 0.085290775 -0.5735037
0000e0 30 27 bb 3f 09 99 5b be cf 5e 25 bf ca 9c f4 bd
       1.4621334 -0.21445097 -0.6459779 -0.11943968
0000f0 9e 3a d2 be 5d 4b 52 bf 64 b5 e3 3e 88 79 5a 3e
       -0.41060346 -0.82146245 0.44474328 0.21335423
000100 cb 50 4b c0 6b 0b 67 c0 0a 32 19 c0 55 0c cf bf
       -3.1768062 -3.610072 -2.3936791 -1.6175638
000110 4c aa e2 bf 66 b6 61 3f fb b5 2e c0 39 79 de 3f
       -1.770822 0.8816894 -2.7298572 1.7380744
000120 15 b5 00 40 ba f0 59 40 fe b6 b8 3f 29 6a db bf
       2.0110524 3.4053178 1.4430845 -1.7141773
000130 66 30 55 3f b8 8c b1 be 1c 6b 13 c0 cd cc 11 3f
       0.83276975 -0.34677672 -2.3034124 0.56953126
000140 3b ad 7e bf 56 fd 8a 3f 46 0b 16 3f 3b c4 09 c0
       -0.9948308 1.0858562 0.5861095 -2.152602
000150 65 00 e8 bf ed 7b 0f c0 bf f1 16 c0 e3 66 3d c0
       -1.812512 -2.2419388 -2.358505 -2.9594047
000160 20 50 f3 bf a0 ba 46 c0 e8 8a f0 bf 35 11 c9 be
       -1.9008827 -3.1051407 -1.8792391 -0.3927094
000170 31 e4 1b c0 09 bb 4d 3d fc 11 c9 3e aa 4c 6b c0
       -2.4358027 0.0502272 0.39271533 -3.6765542
000180 b2 9d 25 c0 c6 4c 77 3e bc 7d 6c 3f dd 0a ef bf
       -2.58775 0.2415038 0.92379355 -1.867519
000190 39 92 c1 bf c3 0d 57 bf 48 ec ed bf 49 2d e2 3e
       -1.5122749 -0.84005374 -1.8587732 0.44175175
0001a0 29 6a 23 c0 da f2 09 3f 19 06 ed bf aa 0f ff 3e
       -2.5533545 0.5388619 -1.8517486 0.49816638
0001b0 f0 0d 60 bf 86 85 82 bf 46 f5 cd be 16 cc 81 bf
       -0.87521267 -1.0196998 -0.4022619 -1.0140407
0001c0 18 20 f6 be 78 90 ca bf 14 84 30 bf b4 9a 3b bf
       -0.4807136 -1.5825338 -0.68951535 -0.73282933
0001d0 05 f0 09 c0 cc 42 94 bf 28 dd b1 bf 01 18 2c 3f
       -2.1552746 -1.1582885 -1.3895617 0.6722413
0001e0 37 ed 95 3f 82 83 dd bf 0b a1 cb bf 8e e0 2a c0
       1.1713017 -1.7305758 -1.5908521 -2.6699557
0001f0 6c 77 ff bf 54 30 f8 be b4 c4 9e 3e a3 1e 1e be
       -1.995832 -0.4847437 0.31009448 -0.15441374
000200 85 e4 fb 3e 1d af 95 be d2 56 49 3f e8 01 82 3e
       0.49197784 -0.29235163 0.786481 0.2539208
000210 fe fa 7f be 77 c3 d2 bd fd 26 b1 3e 90 6b 36 be
       -0.2499809 -0.10291188 0.34600058 -0.1781447
000220 83 cc ef be c5 80 02 3e 3d a7 1c 3f d5 74 49 be
       -0.46835718 0.12744434 0.61192685 -0.19673474
000230 f2 02 6e be f2 0f d7 bd a8 90 15 be e3 83 ae 3d
       -0.23243311 -0.10501088 -0.14605963 0.08521249
000240 23 51 07 3e d6 07 2e be 47 8a 2d be 80 fa 9e be
       0.13214545 -0.16995177 -0.1694728 -0.3105049
000250 bf b7 83 be ce 56 a0 be c2 a2 b0 be d6 ac f6 be
       -0.25726125 -0.31316227 -0.34499174 -0.48178738
000260 60 9c 47 be e3 d5 cd 3e 98 06 de 3e a1 82 ca be
       -0.19493246 0.40202245 0.43364406 -0.39552787
000270 c9 f4 cc 3e 0d ad 2f 3e bf 6f b5 be df b0 8a 3e
       0.40030506 0.17155857 -0.35436818 0.27088067
000280 ef fe a6 be 57 ab 04 be bc 6c 9a 3e d5 ff 37 3e
       -0.32616374 -0.12955986 0.30161083 0.17968686
000290 bd fd 62 bd e9 50 a3 be 4b 95 85 3e 1e 82 82 3e
       -0.055417765 -0.31897667 0.26090464 0.25489897
0002a0 77 a9 b4 be cc 6e fe bd 77 de 5e 3e 4c 3d 54 3e
       -0.3528554 -0.124234766 0.21764551 0.20726508
0002b0 a7 72 14 3e 46 79 1e be 51 b5 f4 3c ec b1 0e 3f
       0.14496861 -0.1547595 0.029871615 0.5574024
0002c0 30 f3 a4 3e fd c5 da be 5e ef ad bd cf ad 85 bd
       0.32216787 -0.42729178 -0.08492921 -0.06527292
0002d0 23 44 9c 3e 66 a0 0c bf 93 d3 0b 3e 1f 7c 00 3f
       0.30520734 -0.5493225 0.13654928 0.50189394
0002e0 73 b6 20 3f 08 3f d5 3e 1d 60 5a be 68 d3 00 be
       0.62778395 0.41649652 -0.21325727 -0.12580645
0002f0 5a 5f f8 bd d9 1d 30 3e 6b 66 4a be d7 c7 74 3d
       -0.12127562 0.17198886 -0.19765632 0.059760895

rnn.weight_hh_l0 f4 [192, 64]
000000 cb fa bb bd 6b bf f1 bc 18 d2 17 bf 7a 59 98 be
       -0.09178694 -0.02951022 -0.5930495 -0.29755765
000010 c3 07 a7 3e e4 72 c2 3e 86 f3 43 bf 49 8c 07 bd
       0.3262311 0.3797828 -0.7654346 -0.03309277
000020 33 2f 9a bf 41 55 82 3e 22 46 b1 3f d3 90 48 3d
       -1.2045654 0.2545567 1.3849528 0.04896624
000030 a8 f7 9f 3e 2c f3 fc bc 71 86 0c 3f dc 07 05 be
       0.31243634 -0.030877672 0.5489264 -0.1299128
000040 92 ad 1d bf c9 85 44 3f 06 44 53 3e 35 4a 9f bf
       -0.6159297 0.7676664 0.20631418 -1.2444521
000050 3f e5 af 3f 0f fe a6 3f 38 56 f2 be 76 24 ee 3e
       1.3741835 1.3046283 -0.47331405 0.46512192
000060 bf 87 e0 3e 4f 06 93 be 1d 4d e9 bf e9 d4 16 3e
       0.43853566 -0.2871575 -1.8226658 0.14729656
000070 db 96 9a be a7 5c 97 3c 55 70 03 3f a7 f5 f5 be
       -0.3019322 0.018476797 0.5134328 -0.4803898
000080 1b 5c 84 be 6e a2 56 3d 41 f0 c2 be d7 03 42 3f
       -0.2585152 0.052401 -0.38073924 0.7578711
000090 66 38 0e bf 92 52 88 bd ee ed b5 be a8 fa cc bd
       -0.5555481 -0.06656374 -0.35533088 -0.100087464
0000a0 7c e7 fb bc 1b c8 46 3e ec 80 b9 be 41 7a e6 be
       -0.030750029 0.19412272 -0.36231172 -0.45015147
0000b0 a1 51 64 bf 60 ee 11 3f 87 9d ec 3f 36 6b 8c bf
       -0.89187056 0.57004356 1.8485574 -1.0970218
0000c0 87 c2 31 bf 69 d3 4b 3e f0 b0 b6 be 9e 39 26 3f
       -0.6943745 0.19904865 -0.35681868 0.64931667
0000d0 dc bd 8d be 64 96 3f 3f 76 20 b4 be 8d 47 39 be
       -0.27683914 0.7483885 -0.35181016 -0.180937
0000e0 e3 c4 33 be 09 d7 82 bf d9 4d 2f 3e d5 58 49 3f
       -0.17555575 -1.0221874 0.1711954 0.7865117
0000f0 30 5d ba 3e bb 00 98 be 05 19 04 3f 4d b5 86 3e
       0.3639922 -0.29688057 0.51600677 0.26310197
000100 25 6c 5b be 5c 5c 42 be 33 22 97 bf 6f 70 14 bf
       -0.21427973 -0.18980545 -1.1807312 -0.5798406
000110 fd 96 23 be ce b7 1e 3e 94 bb dd 3e 13 6d 88 3f
       -0.15975566 0.15499803 0.43307173 1.0658287
000120 61 37 44 3f 47 7a 7f be fe 34 bc 3e 91 14 fb 3d
       0.76647 -0.24948989 0.3675918 0.12259782
000130 93 c7 80 3f d7 53 87 bf 5e 9d 00 3d a9 93 78 be
       1.0060905 -1.0572461 0.031400077 -0.24275078
000140 eb 75 0b 3f c3 89 21 3d 17 b6 0f 3f 6e 53 9b bf
       0.54476804 0.03943802 0.5613722 -1.2134836
000150 5a 31 2e bd 67 3c 13 3e 46 73 09 3d 22 38 f2 bd
       -0.042527534 0.1437851 0.0335572 -0.11827113
000160 05 09 18 3f 91 2c 3d be 1f 6a 26 3c 10 d8 d4 3d
       0.5938876 -0.18474032 0.010157137 0.10392773
000170 c6 b4 01 bf bc b9 83 bf 6a e1 bf bd 8d 5c 52 bf
       -0.50666463 -1.0291057 -0.09369166 -0.8217247
000180 3a e0 15 bf b7 2a 04 be 06 6e 41 3e 3a 16 25 3f
       -0.5854527 -0.1290692 0.18889627 0.6448704
000190 df 58 d3 3e 10 69 5d be 7a 53 1f 3e 54 43 01 bf
       0.4127874 -0.2162211 0.15559188 -0.5049336
0001a0 24 5e 6c bf d8 c5 1f 3f 3c 27 08 be c3 9d e5 bd
       -0.9233115 0.6241126 -0.13296217 -0.11211731
0001b0 33 88 99 be 47 d2 9f 3c d2 bf d5 3c 59 27 28 be
       -0.29986724 0.019509448 0.026092444 -0.1642126
0001c0 41 d8 c1 3e fc 44 83 3f 9c f6 14 be 46 93 82 bf
       0.378603 1.0255427 -0.14547199 -1.0201194
0001d0 38 ee da 3d 7c 8d 12 bb bf 04 f4 be 21 32 f9 be
       0.10689968 -0.0022362163 -0.4765987 -0.48671058
0001e0 8b 0e 1b bf 26 81 f0 be 9f 0d e8 be 44 40 25 3f
       -0.60569066 -0.46973532 -0.45322892 0.64551187
0001f0 16 aa e7 be 27 fd 91 bd de 2c 5b 3e 45 f5 08 bf
       -0.45246953 -0.07128363 0.21403834 -0.5349925
000200 6e c0 d5 3e 95 c1 f7 3e 74 d4 c9 be 1c 2b 58 bf
       0.41748375 0.4838988 -0.394199 -0.8444078
000210 52 3d 37 bd 23 79 0a 3e 50 5c 1f bf 3c 86 06 3f
       -0.044736214 0.13522772 -0.6225023 0.52548575
000220 03 d6 6a be f7 3f c6 be 5c 89 64 bd 56 34 28 3f
       -0.22933201 -0.38720676 -0.05579506 0.6570486
000230 42 76 72 3f 2c 5c be 3e b0 96 cd 3d 54 44 86 3c
       0.947117 0.37179697 0.10038507 0.016390003
000240 7d 21 3e 3e 49 16 e8 3e fe a2 35 3f 3d ce 9c be
       0.18567462 0.45329502 0.7095183 -0.30626097
000250 b1 cf 82 3f 24 c8 bf 3f b1 d4 a7 3d ae 52 c9 bd
       1.0219632 1.4982953 0.081948645 -0.09830223
000260 b4 16 6e 3f a2 d4 cf 3e 0e 6b 48 3d 65 9c 7c bd
       0.9300339 0.40591913 0.04893022 -0.061672587
000270 6e 54 8f 3e 05 da 4a 3d ef ea 52 be 1f ec 94 bd
       0.27994102 0.049524326 -0.20597433 -0.07271599
000280 9e 12 39 be d3 97 3e 3e 13 13 11 be 28 e4 80 3e
       -0.18073508 0.18612604 -0.14167432 0.2517407
000290 47 92 f9 3e be b7 0b 3f 9c de 15 bf 1f 7c 0d bf
       0.48744413 0.54577243 -0.585428 -0.5526752
0002a0 e3 0f 02 bf 66 72 9e be c5 38 bd 3e 44 78 99 be
       -0.5080549 -0.30946654 0.36957374 -0.29974568
0002b0 99 89 e0 3d bc ce 2f 3f c4 11 93 bf 39 0f 83 be
       0.10963745 0.68674827 -1.1489797 -0.2559755
0002c0 c9 5b c2 be 93 db 84 3f 68 cd 8a 3d e7 b4 57 be
       -0.37960652 1.0379509 0.067774594 -0.21065103
0002d0 24 7c 3c 3e af be 99 3d 66 5c cf 3d e8 44 e4 bf
       0.18406731 0.07507073 0.101250455 -1.7833529
0002e0 2f 3e f2 3e e1 4c 4a bd b8 fa eb 3e 1e 11 87 bf
       0.47313067 -0.049389724 0.4608972 -1.0552099
0002f0 81 3f d8 3e 05 ff 98 bf 55 9a 8a 3e 77 63 79 bd
       0.4223595 -1.1952826 0.2707087 -0.060885873
000300 3e 4a 9d 3d 07 43 b4 be 4e 7a 13 3f da 42 36 3f
       0.07680176 -0.35207388 0.576085 0.7119576
000310 14 02 89 3e 7f c7 9c 3e 94 a6 05 3f d8 46 b3 bd
       0.26759398 0.30620953 0.52207303 -0.08753747
000320 97 70 78 3c 7b 8a b9 be 12 ae d2 be 75 04 0a be
       0.015163562 -0.36238465 -0.4114843 -0.13478263
000330 56 2b 01 3f 47 b6 6e 3f 3a 6a 51 3d f0 33 15 3e
       0.5045675 0.93246883 0.051126696 0.14570594
000340 3f 96 8a be 3b 46 08 3e 88 06 20 be a7 29 47 3f
       -0.27067754 0.13308041 -0.15627491 0.7779793
000350 02 0c 6a bf 5e 5d 8c be 37 c2 65 be f6 8c 58 3d
       -0.9142457 -0.27414984 -0.22437368 0.052868806
000360 94 35 7a be 3c 48 42 3e 3a 50 42 3f a9 c6 86 3e
       -0.24434501 0.18972868 0.75903666 0.2632344
000370 6a cd 92 bc 6a e8 b3 3e 26 3d 10 3d 4e 39 32 3f
       -0.017920215 0.35138255 0.035214566 0.6961869
000380 da b0 8d 3d b3 82 70 3e 80 c2 d8 bb 37 6e 50 bf
       0.069184974 0.23487358 -0.006614983 -0.81418175
000390 46 20 9a 3e 7e bb 4d 3e 64 f9 67 3e f7 66 72 3f
       0.30102748 0.20091054 0.22653729 0.9468836
0003a0 e7 a9 02 bf ed d5 6f 3e 5d b0 8d be ad 39 0f be
       -0.510405 0.2342145 -0.27673617 -0.13986845
0003b0 8e 52 c7 be ae ef 9c 3d bc a0 8f bf f4 91 cf be
       -0.38930172 0.07662903 -1.1220927 -0.4054104
0003c0 83 48 6e 3d bc 2b d3 be 5c 5e 8b be fe ba 92 be
       0.05817462 -0.41244304 -0.27220428 -0.2865829
0003d0 7d 42 37 be 0b 7f 9d 3e f5 f5 70 3f 46 5c 97 bf
       -0.17896457 0.3076099 0.941253 -1.1825035
0003e0 7e 30 55 bf 6e ae dd be 07 29 ba bd d0 64 62 bf
       -0.8327712 -0.43297142 -0.090898566 -0.8843508
0003f0 ba dc d2 be 79 ea 5a be 12 5b 25 3d ca 71 3a bf
       -0.41184026 -0.21378507 0.040370055 -0.7282988

rnn.bias_ih_l0 f4 [192]
000000 7c 24 50 be cb 5c 08 bf ca 0d 25 3d f8 ee ad be
       -0.20326418 -0.5326659 0.040296353 -0.3397138
000010 24 58 11 bf 0e 01 4f 3d 1a 54 55 3d fe c9 0b bf
       -0.56775117 0.050538115 0.05208216 -0.5460509
000020 ec 07 cb 3c c5 c5 a3 be b5 75 fb 3d cc d2 06 bf
       0.02478405 -0.31986824 0.1227831 -0.526654
000030 09 d8 8c be aa 91 15 bf 66 16 fe be f7 e0 2a bf
       -0.27508572 -0.5842539 -0.49626464 -0.6674952
000040 38 58 41 bf 8f 09 73 bf 8a de a3 3e 6a a8 21 3d
       -0.75525236 -0.9493646 0.3200572 0.039467253
000050 5f 43 2c bf d8 aa 8b be 13 ad 98 be b0 ad f4 bf
       -0.672903 -0.2727878 -0.29819545 -1.9115505
000060 ee e5 19 bf 9f 8a f6 be 4a 75 17 bf fe a9 c6 bf
       -0.6011647 -0.48152635 -0.59163344 -1.5520627
000070 6d ee 02 bf 40 3d c3 be 3d 43 a6 bf f8 36 04 bf
       -0.5114506 -0.38132668 -1.298927 -0.51646376
000080 2f 57 a0 be 10 6d 9d be 42 78 3e be 39 40 92 3e
       -0.31316516 -0.3074727 -0.18600562 0.28564623
000090 c5 bb 50 bf fe 3b 40 bf 95 c2 55 bf 4e e9 2f bf
       -0.81536514 -0.7509154 -0.83500034 -0.6871537
0000a0 32 dd 85 be c9 d0 be be 35 4e c6 be 38 54 df be
       -0.2614532 -0.37268665 -0.38731542 -0.4361894
0000b0 01 02 7f bf c3 67 4f bf 93 95 8c 3e 36 e5 96 bf
       -0.9961243 -0.810177 0.27457866 -1.17887
0000c0 e0 c9 50 bf 44 97 c8 be 44 da 25 bf d8 f3 40 bf
       -0.81558037 -0.39177907 -0.6478617 -0.75372076
0000d0 d5 7d c8 bf 42 8e a7 bf fb 05 1f bf 8d 73 d8 be
       -1.5663401 -1.3090289 -0.621185 -0.42275658
0000e0 50 3c e3 be 07 b4 f6 bf 5b ae cb be c7 93 5c be
       -0.44381952 -1.927369 -0.3978146 -0.21540748
0000f0 19 1c 8a bf f0 80 c5 be 69 4e c7 be 23 1c 19 bf
       -1.0789825 -0.38574934 -0.3892701 -0.5980856
000100 31 26 ad 3f 0e 7e 39 3f bc 01 cd 3e c0 af 9b 3e
       1.352728 0.7245797 0.40040386 0.30407524
000110 4d 86 82 3f 23 2b c5 3f 7d e4 b7 be 7d 3b a5 3f
       1.0197235 1.5403789 -0.3591651 1.2908779
000120 37 61 ce 3f f4 54 2f be 30 e2 d9 bd 1c e5 2d 3f
       1.6123418 -0.17122251 -0.10638845 0.6792772
000130 60 08 dd 3f ab e1 6b 3f c8 ce 72 3f 90 af bd 3f
       1.7268181 0.92141217 0.94846773 1.4819202
000140 02 8d 90 3f 1f 61 8e 3e 8f b0 87 3e c3 e7 03 40
       1.1293032 0.27808473 0.2650189 2.0610206
000150 a2 c3 9b 3d ad 98 7a 3f e5 17 98 3f 77 83 fe be
       0.076056734 0.97889215 1.1882292 -0.49709675
000160 13 6f ba be 6e 94 83 3f 61 2f 1d 3f b2 d6 41 bf
       -0.36412868 1.0279672 0.6140042 -0.75718224
000170 29 e1 a2 3f 10 b5 eb 3f 57 65 07 3f 77 57 a0 3f
       1.2724963 1.8414631 0.5288901 1.2526692
000180 7c ac e4 3f 1b 18 84 3e d3 88 c5 3d 0a 83 87 3f
       1.7865138 0.2579964 0.09645238 1.0586865
000190 cf ae 7a 3f af a2 38 3e 09 ee 4f 3f 04 ce fe 3f
       0.97922987 0.18030809 0.8122259 1.9906621
0001a0 5b 1c 9d 3f 58 91 ba 3f e1 b6 be 3f 8a 6f 99 3e
       1.2274278 1.4575605 1.489956 0.2996791
0001b0 bd d5 ba 3f 52 df 6b 3f b8 ac b4 3f 1a 98 8a 3f
       1.4596478 0.92137635 1.411521 1.0827668
0001c0 20 82 5c 3f ad 62 b1 3d 9f 10 e1 be 65 ee 24 40
       0.86136055 0.08661399 -0.43957993 2.5770504
0001d0 74 1b 5b bf 5f 1b 6d 3f 7e c0 7c 3f 79 4b e4 be
       -0.85588765 0.9261989 0.9873122 -0.4458883
0001e0 34 29 1d 3f 7e 3c a3 3f 4e 14 d1 3f 31 91 b6 3f
       0.61390996 1.2752836 1.6334321 1.4263059
0001f0 ee da 2e 3e 7a 37 49 3f 3f cd 90 3f 5b a4 0a 40
       0.17075703 0.78600276 1.1312636 2.1662815
000200 83 d8 fc be 1c 27 31 3d 48 76 8f be be f5 a3 bd
       -0.49383935 0.04325019 -0.2801993 -0.08005856
000210 f6 91 88 3b c9 c8 bf bc 66 f7 66 be 67 df c5 bd
       0.0041677905 -0.023411172 -0.22555313 -0.09661751
000220 5a 4e 59 be d7 3a 59 3c 2e 56 66 bb e0 66 dd 3d
       -0.21221295 0.013258657 -0.0035146582 0.108106375
000230 36 49 56 3d 97 e4 ab bd cf 12 27 3e 31 ad a6 3c
       0.052315913 -0.083932094 0.16315769 0.020346256
000240 75 1c e4 bc e1 f2 05 be d9 74 1d 3d ce db d4 bb
       -0.0278456 -0.13080932 0.038441513 -0.0064959293
000250 6e 94 b8 3d 39 c2 af 3e e6 4d 9a 3d 6c e4 ca 3d
       0.09012686 0.34327868 0.07534389 0.09906849
000260 44 24 0d 3c 1b f9 af bd a8 47 67 be ca 51 76 3d
       0.008614603 -0.08592435 -0.22585928 0.060136594
000270 00 4f b6 be 1c bb 28 bd 2d c7 8f bc e6 c2 82 be
       -0.35607147 -0.041194066 -0.01755103 -0.2553932
000280 b2 f3 b9 3e 4b fb 44 bd 06 4f ca bd 54 fe 7f bd
       0.36318737 -0.048091214 -0.09878354 -0.062498406
000290 7b 03 61 3d 93 07 82 bd 92 d5 a2 3d 89 52 06 be
       0.05493496 -0.06349101 0.079508916 -0.13117422
0002a0 b3 06 fd 3d fb 57 81 bd 37 db 0e be f6 4e 85 3e
       0.123547934 -0.06315609 -0.13950811 0.26036805
0002b0 03 e0 e6 bc 23 e6 46 3d bd b0 ae bd db 3c 11 be
       -0.028182989 0.04855932 -0.08529804 -0.14183371
0002c0 c6 19 ae 3d d8 76 df 3c 44 1c e0 bc 20 e5 83 bd
       0.0850101 0.027278349 -0.027357228 -0.064401865
0002d0 88 16 55 bd b7 43 4d 3d 63 73 09 be 95 e0 4a 3e
       -0.05202344 0.050113406 -0.13422923 0.19812234
0002e0 04 1a af 3e c0 9e 65 bc 80 2a 3f 3e 50 bf 53 3e
       0.34199536 -0.0140149 0.18668556 0.20678449
0002f0 05 29 21 bd ee b9 ea bc 42 ed 8e 3c d7 ff d1 bc
       -0.03934576 -0.028653111 0.017447118 -0.02563469

rnn.bias_hh_l0 f4 [192]
000000 4e a7 1b bd 91 90 00 bf 57 b0 5a 3e fc dc cd be
       -0.03800135 -0.5022059 0.21356331 -0.4020766
000010 8b 7b d5 be 5e 94 2d bd c3 1f 53 3e 75 e7 17 bf
       -0.41695818 -0.042377822 0.20617585 -0.5933755
000020 c2 43 07 be 22 ad 98 be 43 d2 17 bd cf 9d e3 be
       -0.13209441 -0.2981959 -0.037065756 -0.44456336
000030 1f 24 84 be 3d 4b fa be 33 31 f0 be df f8 47 bf
       -0.25808808 -0.48885527 -0.46912536 -0.7811412
000040 2c 58 15 bf 7f 04 51 bf 09 4b 16 3e b1 8e 35 3c
       -0.58337665 -0.81647485 0.14677061 0.011081384
000050 40 fe 3b bf 5f ef 3c be 4a 9d bc be 24 86 fc bf
       -0.7343483 -0.18450688 -0.36838752 -1.9728436
000060 23 6d 26 bf f1 29 f8 be 88 dd ed be e0 8d c1 bf
       -0.6501028 -0.484695 -0.46458077 -1.5121422
000070 29 02 2e bf 81 4b cb be f5 0d b5 bf 0c 46 0a bf
       -0.67972046 -0.39706042 -1.4144884 -0.54013133
000080 07 1d 75 be 28 fc 6f be 91 65 58 be ae 42 91 3e
       -0.23936854 -0.23436034 -0.21132495 0.28371185
000090 03 b0 22 bf c5 d8 41 bf e7 c2 2b bf ea b8 37 bf
       -0.6354982 -0.7572139 -0.6709427 -0.7176653
0000a0 e2 d9 c4 be 0d 29 02 bf ed f2 fd be 08 54 c8 be
       -0.3844748 -0.5084389 -0.495994 -0.3912661
0000b0 7a 16 87 bf a9 22 44 bf 88 9e 25 3e 10 75 88 bf
       -1.0553734 -0.7661539 0.16173756 -1.0660725
0000c0 03 2f 4e bf 52 d7 f2 be 36 27 21 bf 69 b1 10 bf
       -0.80540484 -0.474299 -0.62950456 -0.56520706
0000d0 2f 4d cc bf eb 9d bc bf 08 89 1e bf 82 b9 c9 be
       -1.5961055 -1.4735693 -0.61927843 -0.39399344
0000e0 7c fa 02 bf b3 b7 ed bf 1f 5a bf be 22 98 ad be
       -0.5116346 -1.8571686 -0.37373444 -0.3390513
0000f0 0a 68 78 bf b9 14 b2 be c3 7c e7 be 03 a2 fe be
       -0.9703375 -0.34781435 -0.45212373 -0.4973298
000100 dd fb b5 3f ff f0 3a 3f a6 76 e7 3e bf 60 f9 3d
       1.4217488 0.7302398 0.4520771 0.12176656
000110 c1 76 8d 3f 1a ef a7 3f 69 4e ac be 33 04 b3 3f
       1.1051866 1.3119843 -0.33653572 1.3985656
000120 cb c8 bf 3f c8 ac 5f be 7d 6b e0 bd 6a 5e 5a 3f
       1.4983152 -0.21843255 -0.10958002 0.85300314
000130 b8 55 ea 3f 4f a2 83 3f d5 3b 7c 3f c8 ae a6 3f
       1.8307409 1.0283908 0.98528796 1.3022089
000140 e8 89 9d 3f b7 f9 9d 3e f5 b8 33 3e 09 77 02 40
       1.2307711 0.3085458 0.17551024 2.0385153
000150 6f 6b 1c 3e 18 bf 73 3f 4d 86 8d 3f ba bf ea be
       0.15275358 0.9521346 1.105661 -0.458494
000160 d0 6b cf be 3c 8f 83 3f 07 d5 02 3f e2 87 17 bf
       -0.40511942 1.0278087 0.51106304 -0.59191716
000170 a3 4f af 3f 63 70 f1 3f b0 e6 22 3f bf 9b ad 3f
       1.3696178 1.8862423 0.6363325 1.3563155
000180 ee dc d1 3f 6b 2f 26 3e 81 a2 81 3e 0f a1 8f 3f
       1.6395547 0.16229026 0.25319293 1.1221026
000190 fa 4f 81 3f 2b f5 b4 3e 37 52 52 3f b2 75 ff 3f
       1.0102532 0.35343298 0.821567 1.9957793
0001a0 c5 79 81 3f db 0c bf 3f d2 26 b6 3f 58 68 8d 3e
       1.0115286 1.4925798 1.4230597 0.2761867
0001b0 62 b7 aa 3f 14 e5 6f 3f 3a e2 bc 3f 60 d2 8d 3f
       1.3337214 0.9370892 1.4756539 1.1079826
0001c0 b7 b7 38 3f a7 db c6 3d 35 6b 8b be af d3 1c 40
       0.72155327 0.09709864 -0.2723023 2.4504201
0001d0 a3 39 62 bf 08 61 42 3f 91 2e 53 3f 18 2d e6 be
       -0.88369197 0.7592931 0.8249293 -0.4495628
0001e0 be 69 f3 3e 11 0d aa 3f a6 bc bd 3f 84 33 b2 3f
       0.47541612 1.3285238 1.4823196 1.3921971
0001f0 98 2d ca 3e a6 33 13 3f 78 88 96 3f fd 71 05 40
       0.3948791 0.57500684 1.1760397 2.0850823
000200 73 03 e5 bc b9 f2 9f 3d df bf 3e be 2f eb 1b be
       -0.027955746 0.078099675 -0.1862788 -0.15226434
000210 11 74 cb 3d 68 59 99 bd af f4 1d 3f 24 f5 3e 3e
       0.09934247 -0.07487756 0.6170148 0.18648201
000220 0d 1d cd bd 78 d7 f9 3c 44 d9 51 be b1 3f 54 3e
       -0.100153066 0.030498251 -0.20493037 0.20727421
000230 4c 65 ec bc c1 18 02 3d a3 88 50 bd 5f 94 fe bc
       -0.028856896 0.03176189 -0.050911557 -0.031076608
000240 ca 32 f0 3b 4a 6f 9a bd 8a 53 be 3d a7 45 c5 bd
       0.0073302733 -0.07540758 0.092932776 -0.09632426
000250 cc de aa be 6f cd b9 be 12 67 95 bd bf 8e 62 3d
       -0.33373106 -0.36289546 -0.0729505 0.055311915
000260 75 34 33 3e 07 3b 25 3e 6c 17 4d 3e 90 44 09 3e
       0.1750048 0.16135798 0.20028466 0.13405061
000270 ce 3f b3 3c 71 ac ad 3d a7 85 83 3d e7 02 2b be
       0.02188101 0.08480156 0.064219765 -0.16700326
000280 34 09 23 bd 6f b4 71 be 2b 18 d6 3e 0f 41 5f 3d
       -0.0398037 -0.23603986 0.41815314 0.054505404
000290 c3 02 a8 be 35 77 98 3e 84 3a a3 be 92 39 31 be
       -0.32814607 0.29778448 -0.3188058 -0.17307118
0002a0 7f 73 22 3d 8d 74 63 3d 1a c5 65 3d fb 40 1f 3e
       0.039660927 0.055531073 0.056096174 0.15552132
0002b0 e2 fa 87 bc 6b e2 f5 bd 70 ac b4 be ee ad 9c bd
       -0.016599122 -0.120060764 -0.3528781 -0.07650362
0002c0 59 b2 12 bf 03 7d 63 3e cb 91 ca be af 5d 17 3c
       -0.57303387 0.22215657 -0.39564356 0.0092386445
0002d0 a4 d2 ac 3b 2d b8 b6 3d 3d 3a 64 3c db c3 a8 be
       0.0052741338 0.089218475 0.013929901 -0.32961926
0002e0 6c e7 1e 3e 04 7b 8a bd b3 a8 13 be d9 89 71 3e
       0.15517968 -0.067617446 -0.14419822 0.23587741
0002f0 42 2a c9 3e 97 92 93 be 34 de 35 be 4e d2 94 3d
       0.39290053 -0.28822777 -0.17760545 0.07266675

dense.weight f4 [1, 64]
000000 fc d1 5e 3e 39 76 c1 bd bb c4 e6 3d be 58 6a 3d
       0.2175979 -0.09446377 0.11267992 0.057213537
000010 0c 90 54 bd 68 d4 5c bd e7 fa e3 3d 58 5d 83 bd
       -0.051895186 -0.053913504 0.1113184 -0.06414288
000020 35 cc e1 bc 56 24 98 3b 3a 6b be bd 18 93 4d bd
       -0.027563194 0.0046430035 -0.092977956 -0.050189108
000030 0e 8c 29 bd 92 31 1d bc 93 a3 44 bd 31 e9 37 3d
       -0.041393332 -0.009594338 -0.04800756 0.044900123
000040 9f e9 33 3d b3 9b 36 bd 0e e6 ab bc d4 7e 1a bc
       0.04392397 -0.04458208 -0.020983722 -0.009429652
000050 54 2e 23 3c 67 fe 7d bd 34 4d a5 bd ee 24 ca be
       0.009959776 -0.062010195 -0.08071366 -0.394813
000060 81 a5 4f bd 16 7b 1c 3e 6e 18 e1 3d 5c 3d 8f be
       -0.050694946 0.15281329 0.10990988 -0.279765
000070 00 32 0b 3e 82 d2 7a 3c 62 f8 79 be 68 25 be 3d
       0.13593292 0.015308978 -0.24411157 0.092844784
000080 68 43 d2 bd 4f 5a 12 bd be 9b 3d 3b 9a ad af bd
       -0.10266763 -0.035730656 0.002893194 -0.08578034
000090 49 ef 25 bd 98 70 11 bd ce a4 e9 bb b8 47 d7 39
       -0.040511403 -0.03550777 -0.007130242 0.0004106143
0000a0 c1 91 96 bd ec 2a de bd f0 d9 95 3d cd e3 60 3d
       -0.07352019 -0.108480304 0.07316959 0.054904748
0000b0 13 cf 90 3d 50 b9 ba bc a3 3d e6 bc 76 f0 b0 3e
       0.07070746 -0.022793442 -0.028105563 0.34558457
0000c0 0a 4c 4a 3d 32 ac 3d bd c5 c8 4d bb 66 30 a1 bc
       0.049388923 -0.046306796 -0.0031400186 -0.019676398
0000d0 8a eb 21 3e fe a9 c3 be 00 47 eb 3d 01 03 2f 3d
       0.15812507 -0.3821563 0.114881516 0.042727474
0000e0 c1 dd 90 3e b9 6b a9 3e 04 c4 a5 bd 73 a4 5c bd
       0.28294185 0.33089998 -0.08094028 -0.05386777
0000f0 42 b8 4c bd b3 d2 0f 3d cd 3f 88 bd 5e e5 ba bc
       -0.04998041 0.035113048 -0.06652794 -0.022814449

exp_avg f4 [192, 1]
000000 46 e5 3a b8 68 83 d9 38 01 97 d8 b9 41 25 eb 38
       -4.4559383e-05 0.00010371843 -0.00041311237 0.00011212612
000010 85 a1 05 b9 36 d8 db 36 ee ca 03 39 88 bf 6a b7
       -0.00012744039 6.551879e-06 0.00012568731 -1.3992081e-05
000020 b1 33 9b 39 6a b8 ec 39 ed 98 22 3a 00 ae 46 b6
       0.00029602417 0.00045150827 0.0006202597 -2.960558e-06
000030 82 3f 3b b8 97 83 0b 38 0a f2 fb 38 69 a4 64 37
       -4.464342e-05 3.3262735e-05 0.00012013696 1.3628139e-05
000040 88 a4 00 b9 81 a3 1f b9 21 08 82 38 6c 5c 81 38
       -0.00012268324 -0.00015224332 6.200397e-05 6.168414e-05
000050 04 03 e6 37 55 7a a2 38 a7 4e fc 38 76 3f 05 b9
       2.741954e-05 7.747548e-05 0.000120309465 -0.0001270751
000060 c5 54 00 b8 e9 e4 99 b7 26 3b f8 b7 a2 f2 a6 b7
       -3.0596526e-05 -1.8345616e-05 -2.9591447e-05 -1.9901727e-05
000070 bf 36 d4 37 cf b7 d8 b6 7d f2 84 38 aa e8 ff 37
       2.5297863e-05 -6.4586998e-06 6.3394175e-05 3.0506711e-05
000080 f3 ae c1 35 6a d9 47 38 2f 72 2f b8 a3 32 e9 39
       1.4430537e-06 4.764778e-05 -4.1829593e-05 0.0004447895
000090 4c c6 1d 37 ba 97 4c 37 8a a0 1e 38 2a 5e 06 38
       9.404099e-06 1.2194674e-05 3.781965e-05 3.2035787e-05
0000a0 f4 ab 3e b9 2f 6a 29 37 8b 5c b5 36 86 6c 73 38
       -0.0001818387 1.0097908e-05 5.4049938e-06 5.8036785e-05
0000b0 69 a2 c4 b8 13 72 50 b7 ec 5c 29 38 cf 6d 28 38
       -9.3762595e-05 -1.2424326e-05 4.037928e-05 4.015659e-05
0000c0 ab 5b ea b6 de 21 11 39 2e df 9f 38 bc 65 8f 36
       -6.984415e-06 0.00013840894 7.623281e-05 4.2735755e-06
0000d0 f0 dd df b8 07 18 56 b7 8a 21 05 b7 6d 14 81 39
       -0.00010674808 -1.2760988e-05 -7.935227e-06 0.00024620016
0000e0 42 a2 9c 38 18 96 dc b7 41 68 fc b7 20 b2 a6 38
       7.4688825e-05 -2.6295937e-05 -3.0089288e-05 7.948675e-05
0000f0 f9 90 85 b7 3e 40 ae b7 41 78 e7 b8 66 1c 55 38
       -1.5922344e-05 -2.0772331e-05 -0.000110373374 5.0809605e-05
000100 53 41 af b9 3e c5 3e b8 54 12 cb b8 e3 6d df b8
       -0.0003342727 -4.5483226e-05 -9.683208e-05 -0.000106539366
000110 80 35 83 b8 e0 64 41 37 b4 2c 97 b8 35 5d 61 b6
       -6.256532e-05 1.1527183e-05 -7.208568e-05 -3.3581866e-06
000120 88 bf 17 b9 74 29 eb b5 1c f5 93 b7 00 db 1e b5
       -0.00014471833 -1.7520929e-06 -1.7637904e-05 -5.9178274e-07
000130 26 c1 1a b9 47 dd 20 37 96 aa a7 b7 64 49 23 b6
       -0.00014758538 9.588263e-06 -1.9987387e-05 -2.4331612e-06
000140 43 20 8c b7 47 f1 6c b8 62 9a b7 37 9a 4b 10 35
       -1.6704324e-05 -5.649149e-05 2.188719e-05 5.3754195e-07
000150 b3 82 60 b8 1d 1c 92 b8 d3 6b ce b8 26 9e 6a b9
       -5.3527485e-05 -6.967059e-05 -9.842929e-05 -0.00022374894
000160 ad 90 ce 37 7f af 65 b9 7e ef 9c b9 eb 9d 2c b9
       2.4624484e-05 -0.00021904519 -0.00029933074 -0.00016462027
000170 39 bd 63 b9 c7 c2 57 b8 ab 7e 33 ba 9d 5e be b7
       -0.00021718898 -5.1441395e-05 -0.0006847183 -2.2693823e-05
000180 3b dc 8e b8 7b 02 fd b8 c2 64 4f b9 2f c2 e8 b8
       -6.812109e-05 -0.00012064442 -0.00019778594 -0.000110987916
000190 3d e8 2f b7 ad dd 4e b8 10 6a c0 b8 33 26 09 b9
       -1.0484885e-05 -4.932068e-05 -9.175029e-05 -0.00013079568
0001a0 2a 41 aa b7 f1 fd 06 b8 0e 49 c5 b7 75 85 1e 38
       -2.0295924e-05 -3.218459e-05 -2.3518249e-05 3.7794427e-05
0001b0 4e c8 c3 b8 f5 0b ff 36 df d9 1f b9 a2 0f 13 b9
       -9.335634e-05 7.600984e-06 -0.00015244585 -0.00014024836
0001c0 4a 32 b6 b7 b3 36 6f b9 e6 a8 da b7 14 4b ab b7
       -2.1719508e-05 -0.00022813193 -2.6066275e-05 -2.041975e-05
0001d0 56 6b 2f b8 fd 64 84 ba 5b e9 3b b9 7c 67 fa b9
       -4.1823216e-05 -0.0010100898 -0.00017920641 -0.00047760818
0001e0 5f ff c7 b9 77 5c 34 ba 8f e3 95 b7 1b 2a 22 b9
       -0.00038146504 -0.00068802334 -1.786815e-05 -0.0001546521
0001f0 4b dd ea b7 ec 5e 36 b8 bb cf 0d 38 c1 98 24 b7
       -2.7998021e-05 -4.3480584e-05 3.3810484e-05 -9.8107275e-06
000200 4b 51 6e 3b 01 b1 10 bb 05 6d b3 3a b8 20 97 39
       0.0036364372 -0.0022078159 0.0013689107 0.00028825342
000210 5b dc 92 39 33 3d 13 3a 27 6d 23 3b 51 b8 20 37
       0.00028011468 0.00056167244 0.0024936886 9.579658e-06
000220 14 9d 97 ba 4e f9 11 ba 55 fa 34 39 8a 78 25 ba
       -0.0011567199 -0.00055684603 0.00017259394 -0.0006312212
000230 b7 21 2f b9 96 06 75 b7 8e 8d 4c 3a 0e 9a 2d b9
       -0.0001670186 -1.4604671e-05 0.0007803076 -0.00016555956
000240 fc 95 71 3a 75 94 9a ba ef 92 52 39 8b 00 c8 b9
       0.000921577 -0.0011793511 0.00020081898 -0.00038147377
000250 02 23 07 3a 20 4c d0 b9 1f 9a 6d b9 47 7d ea bb
       0.0005155058 -0.0003972957 -0.00022659496 -0.0071560475
000260 f5 ee b3 ba 9a 32 9a 3a da ab 9e 3a 40 7d 59 bb
       -0.0013727831 0.0011764348 0.0012105659 -0.0033186227
000270 2e 2d 57 3a 8c be 34 39 71 b6 19 bb 35 24 11 3a
       0.00082083314 0.00017237122 -0.002345469 0.00055367063
000280 cc 5a 82 ba 2c 7a d4 39 a4 d4 62 ba 4e 6c cd b8
       -0.0009945272 0.00040526816 -0.0008652902 -9.795335e-05
000290 13 bb 60 ba 8b 5a 85 ba c8 3a 6b 38 2f 6d 37 3a
       -0.0008572798 -0.0010174079 5.608311e-05 0.00069971656
0002a0 3f 67 20 ba a7 67 2b b9 d7 74 fa b9 d0 eb 91 39
       -0.00061189005 -0.00016346444 -0.00047770768 0.0002783225
0002b0 df d4 53 3a f4 91 51 ba 72 96 55 ba b1 a5 e8 3b
       0.00080807315 -0.0007994466 -0.0008147723 0.00709983
0002c0 64 64 31 3a 2d 32 1c ba 60 e5 05 39 ff e4 82 b9
       0.00067669735 -0.00059584045 0.00012769317 -0.00024966148
0002d0 7d 86 b2 3a 91 68 c0 bb 87 0f c6 3a 63 04 8c b9
       0.0013620403 -0.0058718403 0.0015110829 -0.0002670615
0002e0 21 ee d8 ba e9 ed e6 3b d0 0f 1e bb 2b 45 e4 b9
       -0.001655046 0.007047404 -0.0024118312 -0.00043539083
0002f0 78 57 d9 b9 9c 1e 1d 39 8e 57 a7 3a c7 66 12 ba
       -0.00041454635 0.0001498409 0.0012767182 -0.0005584773

exp_avg_sq f4 [192, 1]
000000 4b c3 9b 34 75 d9 31 35 c0 33 70 35 34 72 93 34
       2.9013094e-07 6.625408e-07 8.9482273e-07 2.7463977e-07
000010 b7 81 e6 34 e1 a7 db 32 a1 91 40 37 4f 04 c6 31
       4.2935218e-07 2.5571298e-08 1.1477999e-05 5.7630483e-09
000020 eb 3d 7f 35 c1 06 81 37 22 25 4f 35 50 ba ea 33
       9.5085005e-07 1.5381143e-05 7.7167545e-07 1.0930364e-07
000030 71 94 4b 33 10 aa 7f 33 a1 69 6e 32 6c a2 01 33
       4.7399627e-08 5.9526485e-08 1.38774405e-08 3.0182875e-08
000040 d6 1a a2 33 75 6d 2e 35 25 54 b8 35 76 fa cc 33
       7.548594e-08 6.497933e-07 1.3733558e-06 9.545049e-08
000050 85 e0 cc 34 fd fa 80 34 4e b5 47 34 5a b6 f1 34
       3.816132e-07 2.4024476e-07 1.8599277e-07 4.5022426e-07
000060 75 bd a7 34 93 44 76 34 4f 45 af 34 e6 af ac 33
       3.1244022e-07 2.2935482e-07 3.264672e-07 8.04137e-08
000070 43 d1 9d 33 1e 60 db 34 21 f6 32 33 53 30 04 34
       7.348947e-08 4.0861863e-07 4.1667708e-08 1.2311038e-07
000080 68 ce 38 32 5a 4a 3c 34 49 ff 5b 36 c7 72 ab 36
       1.0757141e-08 1.7535913e-07 3.2782139e-06 5.109559e-06
000090 8e 3a b4 33 93 56 2d 35 df 5a 36 35 52 17 c7 34
       8.392554e-08 6.4573504e-07 6.793252e-07 3.7083606e-07
0000a0 0e 44 d6 34 e4 5d cd 33 81 83 af 33 15 5a 4e 34
       3.9910122e-07 9.563135e-08 8.172993e-08 1.9218017e-07
0000b0 6d c5 f9 33 e0 e4 ac 33 50 bf 8b 34 a6 67 0f 34
       1.16308776e-07 8.051006e-08 2.6029966e-07 1.335562e-07
0000c0 bd 30 52 35 69 e1 be 34 bc 46 7e 34 28 a4 10 31
       7.830202e-07 3.5554265e-07 2.3681326e-07 2.104807e-09
0000d0 5c 17 1b 34 93 e3 93 33 a8 73 81 33 f8 e2 b8 35
       1.4443998e-07 6.8866164e-08 6.0280684e-08 1.3775125e-06
0000e0 f2 e8 e8 34 af f8 0f 32 d1 bd 34 33 c7 66 75 34
       4.3382857e-07 8.38024e-09 4.2082153e-08 2.2854793e-07
0000f0 2d 50 80 34 d8 4b d0 33 8e d0 02 34 20 e9 d0 31
       2.3900193e-07 9.699551e-08 1.2183065e-07 6.0801e-09
000100 63 5d 62 35 be 65 1d 33 f8 44 46 35 a3 c3 d0 33
       8.4327456e-07 3.6646945e-08 7.386111e-07 9.721341e-08
000110 a2 18 37 34 39 f6 8f 33 01 ca 72 34 7c f2 0b 33
       1.7052164e-07 6.703744e-08 2.2611495e-07 3.2583998e-08
000120 ed e2 23 34 12 c9 9f 33 bf 3e d3 35 2a 27 2b 33
       1.5263113e-07 7.440589e-08 1.5738987e-06 3.984966e-08
000130 01 84 52 34 06 dd ec 33 61 26 f4 31 b6 dc 8b 33
       1.9605797e-07 1.102981e-07 7.105698e-09 6.512839e-08
000140 bf 7b 17 33 0d 3f 17 35 aa 89 58 36 bb 72 11 35
       3.5269974e-08 5.6343634e-07 3.226664e-06 5.4183664e-07
000150 bd e3 b7 33 cc fc fc 33 2d 36 ab 33 5a 3f ee 34
       8.563027e-08 1.1780648e-07 7.9726625e-08 4.437705e-07
000160 87 7f 08 35 30 e0 49 34 a1 e0 ae 34 ee 5f ac 34
       5.0849525e-07 1.8801143e-07 3.2573465e-07 3.2107295e-07
000170 aa 40 cd 33 41 bd b2 34 da 88 b7 35 f3 3b 13 33
       9.557819e-08 3.3292784e-07 1.3674392e-06 3.4280628e-08
000180 d0 4d c0 33 45 55 d0 34 0f ac 24 36 bd 5a 15 36
       8.954851e-08 3.880506e-07 2.4538056e-06 2.2255547e-06
000190 96 d1 d7 31 35 76 9e 34 6f ab 88 34 b5 a8 21 35
       6.2811507e-09 2.95158e-07 2.5456708e-07 6.0222675e-07
0001a0 22 d9 ac 33 d9 0d ea 33 f5 b9 31 33 27 d4 19 35
       8.0488704e-08 1.0898993e-07 4.138015e-08 5.7305664e-07
0001b0 85 4a 29 34 46 94 db 32 a4 09 30 36 36 d9 74 36
       1.5766462e-07 2.5562382e-08 2.6231655e-06 3.6485267e-06
0001c0 65 9b 9b 34 5b fa 0d 34 0f b2 b3 35 88 6c 7a 32
       2.8984064e-07 1.3222727e-07 1.3388361e-06 1.4576592e-08
0001d0 b7 99 bc 33 29 6d 6c 36 83 62 49 33 a5 a8 14 36
       8.782393e-08 3.523028e-06 4.6888555e-08 2.2151883e-06
0001e0 f0 cb 89 36 ed b2 d4 36 1f 45 bf 32 bb ee 93 33
       4.1066596e-06 6.338922e-06 2.2266759e-08 6.888646e-08
0001f0 92 dc a5 33 bf f6 7b 33 34 03 80 34 56 e9 1a 32
       7.723533e-08 5.8664906e-08 2.3844188e-07 9.017034e-09
000200 6e 53 0d 39 07 e6 ef 37 48 17 ce 37 97 52 94 37
       0.00013477888 2.8598135e-05 2.4567955e-05 1.7681434e-05
000210 2f e9 7b 38 21 84 2a 37 cc 74 2c 3a 79 d1 d8 36
       6.0060232e-05 1.0163553e-05 0.00065786834 6.4616875e-06
000220 3c e6 81 38 89 1f af 37 f6 fb 05 38 1e 83 28 37
       6.194084e-05 2.087631e-05 3.1944328e-05 1.0044108e-05
000230 fd 66 22 37 ee ae 28 37 64 ca a4 36 c3 5b 9b 36
       9.679931e-06 1.0054309e-05 4.9111422e-06 4.6300424e-06
000240 d6 03 8f 37 be 6f 2d 37 7f 01 30 38 90 39 09 37
       1.7048715e-05 1.0337621e-05 4.1963063e-05 8.179239e-06
000250 43 86 d6 38 d0 6b 04 38 3f a7 23 37 2b 95 18 3a
       0.000102293234 3.157166e-05 9.754497e-06 0.00058205676
000260 80 5a db 37 3e 1b 2b 38 6d 88 1f 38 2b 70 af 39
       2.6148977e-05 4.079495e-05 3.803561e-05 0.00033462173
000270 5f 24 48 38 e1 68 07 37 94 38 76 39 eb 95 51 37
       4.771759e-05 8.071046e-06 0.00023481465 1.2492276e-05
000280 46 b8 ea 37 8d 72 14 38 02 5a bd 37 92 9b b8 38
       2.7980783e-05 3.5392633e-05 2.2572469e-05 8.802781e-05
000290 c5 61 df 36 93 b6 65 38 82 23 b7 37 58 b2 67 37
       6.6572998e-06 5.476789e-05 2.1831835e-05 1.3810197e-05
0002a0 16 ff 7c 37 c7 d8 eb 36 bb 70 be 37 07 02 35 38
       1.5079762e-05 7.028782e-06 2.270226e-05 4.315565e-05
0002b0 9e 29 8b 38 ac e2 28 37 8a 64 bc 37 0f dc c4 39
       6.635788e-05 1.00663565e-05 2.2458164e-05 0.0003754799
0002c0 72 9d 63 38 db f4 82 37 2d b7 f6 37 6a 28 85 36
       5.426765e-05 1.5611227e-05 2.9410783e-05 3.9684137e-06
0002d0 ef d4 54 39 c7 29 fb 39 f9 b3 44 37 84 5c ec 37
       0.0002029722 0.00047905577 1.17244135e-05 2.8176473e-05
0002e0 57 0d be 39 47 94 ea 39 49 bb 86 37 e3 2d 1a 37
       0.00036249563 0.00044742433 1.6061256e-05 9.189799e-06
0002f0 06 d8 da 37 34 22 bc 36 c6 02 3e 38 a5 82 60 36
       2.6088219e-05 5.6068184e-06 4.5302113e-05 3.3454646e-06

exp_avg f4 [192, 64]
000000 ee 88 a4 b6 e5 81 a1 37 2b fd 57 b7 0f b7 fe 35
       -4.9035216e-06 1.9253182e-05 -1.2873944e-05 1.8977752e-06
000010 29 a0 7a b4 fd 87 42 b4 22 89 8e b6 a1 31 85 b6
       -2.334133e-07 -1.811713e-07 -4.247894e-06 -3.9694864e-06
000020 1c 3f 95 b7 2c c2 da 36 f1 9b f3 b7 dd e6 2d 36
       -1.7791572e-05 6.519511e-06 -2.9040473e-05 2.591339e-06
000030 f3 fa 22 b7 fb cf 8e 36 6b 3b 8f b6 a2 06 df b5
       -9.714381e-06 4.256142e-06 -4.2686493e-06 -1.6616725e-06
000040 17 ca fc 36 0c 3b 44 37 be 1b 82 36 f2 77 e5 36
       7.5337116e-06 1.1696258e-05 3.8775315e-06 6.8386953e-06
000050 4f 39 77 36 f0 f2 ef b6 63 52 ec 35 43 7e 5e b6
       3.6839226e-06 -7.1510367e-06 1.7607348e-06 -3.3154072e-06
000060 ec 16 2a 37 f3 61 97 b7 fa 79 84 36 10 e0 48 36
       1.01381265e-05 -1.8046214e-05 3.9481065e-06 2.9932744e-06
000070 18 0a 8d b6 8b a6 01 37 75 46 30 36 62 44 e3 36
       -4.2033025e-06 7.7277755e-06 2.6267055e-06 6.773088e-06
000080 13 ee 73 35 e8 3a 57 36 6e 97 1f b8 05 cb 2c 34
       9.0871e-07 3.2071785e-06 -3.8049584e-05 1.6092606e-07
000090 c7 a9 18 36 48 2c db 36 0f 43 7d b6 de c1 fa b4
       2.2748588e-06 6.5318636e-06 -3.773897e-06 -4.6707186e-07
0000a0 7d 90 d9 36 b8 ed 03 b6 37 0a 29 b6 7a ce 94 34
       6.4839246e-06 -1.9658892e-06 -2.5188908e-06 2.771738e-07
0000b0 da fd 4c 35 9b 93 32 36 7c 79 86 b5 03 3c c7 37
       7.6365325e-07 2.6609985e-06 -1.0019135e-06 2.3750594e-05
0000c0 17 ab c4 36 78 4e 8b 37 95 24 1d b6 70 81 f1 35
       5.8611727e-06 1.6606631e-05 -2.3416117e-06 1.799357e-06
0000d0 67 e6 cf 34 81 2c 6a b7 13 bc 38 b6 32 71 89 37
       3.8724394e-07 -1.3957849e-05 -2.752761e-06 1.6384383e-05
0000e0 83 b7 9d b7 84 38 dc b5 2f 80 3b 36 96 4f b0 b6
       -1.8801313e-05 -1.6407726e-06 2.7939784e-06 -5.2544738e-06
0000f0 8c 62 e3 36 15 02 1c 36 56 59 6e b6 fe 8b b4 b5
       6.7765995e-06 2.3247023e-06 -3.5516764e-06 -1.3451788e-06
000100 99 1c fc 37 8c c2 47 b6 7a c4 10 b8 53 12 52 37
       3.0054058e-05 -2.9766552e-06 -3.451526e-05 1.2521242e-05
000110 9c 67 88 b7 b2 8a 6c b5 7e 7f d5 37 09 81 c1 35
       -1.626071e-05 -8.811868e-07 2.5450947e-05 1.4417175e-06
000120 d1 14 83 38 2d 62 b4 b6 6b 20 cb 37 43 2b 99 b7
       6.250444e-05 -5.375847e-06 2.4214582e-05 -1.8259167e-05
000130 e9 ed ae 36 8b 5c 7c 37 d0 2b d5 34 12 3b 0c b6
       5.2133005e-06 1.5041917e-05 3.970622e-07 -2.089601e-06
000140 cb 63 ab 37 84 9d a6 37 bd 36 b3 b7 dd 6d de 36
       2.0431258e-05 1.9862091e-05 -2.1363952e-05 6.6289053e-06
000150 22 bb 88 b7 7e e7 72 b7 56 1f 8d 37 ae dc 8c b8
       -1.6299604e-05 -1.44782225e-05 1.6823102e-05 -6.716825e-05
000160 07 01 a5 37 ae be 29 b7 57 80 87 37 e7 14 9e b8
       1.9670011e-05 -1.0117581e-05 1.6153017e-05 -7.5379205e-05
000170 e9 6c f7 37 9b 7d a6 b7 00 0c a2 b7 43 26 08 37
       2.949541e-05 -1.9847232e-05 -1.9317493e-05 8.11514e-06
000180 ae 7c 7e b7 22 42 db 37 c9 dd 10 b8 88 18 93 b4
       -1.5168609e-05 2.613763e-05 -3.453883e-05 -2.7398733e-07
000190 d6 e6 bc 35 92 e1 29 b7 97 3a 9a 36 5a e1 8e 37
       1.4074274e-06 -1.0125705e-05 4.5963784e-06 1.7032657e-05
0001a0 dd d6 c4 b7 bf 46 41 36 0f 3e 48 37 43 a6 eb b7
       -2.3465074e-05 2.880042e-06 1.1935378e-05 -2.8091605e-05
0001b0 95 c2 d2 37 82 76 8b b7 59 86 e0 b7 cd 0e 01 39
       2.512456e-05 -1.6625276e-05 -2.6765441e-05 0.00012307912
0001c0 4e 96 1d 38 c3 25 14 38 6e 3d 9a 37 84 64 12 b7
       3.75717e-05 3.5321118e-05 1.8386836e-05 -8.725681e-06
0001d0 5a 82 40 38 c2 76 cb b8 d5 11 bf 35 88 f1 b7 b7
       4.5897767e-05 -9.701915e-05 1.4235799e-06 -2.1927772e-05
0001e0 69 fe 4a b8 23 fe 7a 38 eb 6c 03 b7 8a d9 02 35
       -4.839749e-05 5.9841328e-05 -7.833568e-06 4.8745335e-07
0001f0 d3 d8 22 b7 be 37 7e 35 a9 f6 b7 b7 9e 1f 82 b6
       -9.706436e-06 9.470349e-07 -2.193016e-05 -3.8779826e-06
000200 9e 2e bc 36 fd 74 ab 38 9c 3c 23 b9 98 0b 08 38
       5.6082636e-06 8.175706e-05 -0.0001556747 3.2435724e-05
000210 00 7d cd b6 3d ce d4 b5 ac c8 51 b8 d5 f3 76 b7
       -6.124028e-06 -1.5855254e-06 -5.0016373e-05 -1.4719514e-05
000220 e3 e6 0d b7 e9 52 ff b7 af 69 76 b8 b4 2d 08 38
       -8.458012e-06 -3.0436977e-05 -5.8749396e-05 3.246749e-05
000230 40 f8 55 37 45 87 52 b7 6e 95 15 b6 b8 fd 99 36
       1.27535895e-05 -1.254847e-05 -2.228971e-06 4.589292e-06
000240 53 30 44 b5 06 5b 1c 38 73 46 aa 37 d0 21 43 37
       -7.308601e-07 3.727807e-05 2.0298385e-05 1.1630778e-05
000250 8a c7 f5 37 a7 a7 32 35 61 d4 f9 35 b9 7f 97 38
       2.9299194e-05 6.6554134e-07 1.8613756e-06 7.224031e-05
000260 73 9a 8c 38 73 2a aa b8 09 68 85 b8 9f 92 01 38
       6.7044886e-05 -8.1141385e-05 -6.361312e-05 3.089255e-05
000270 ef 05 ac b7 45 a3 24 b8 c6 1a 8d 38 3f 34 b0 b7
       -2.050676e-05 -3.9252704e-05 6.728391e-05 -2.1005164e-05
000280 1f 6a 12 36 b0 f9 6e b8 9f 27 01 b8 e9 99 3d 39
       2.1817466e-06 -5.697616e-05 -3.0792897e-05 0.0001808178
000290 c7 47 f5 36 8a 31 6a 38 93 4c 72 b7 5b 77 de b7
       7.309925e-06 5.5836084e-05 -1.4442153e-05 -2.6520042e-05
0002a0 d9 37 04 37 e8 39 8c 38 2f 54 2a b7 07 fc 89 36
       7.880816e-06 6.686506e-05 -1.015239e-05 4.112258e-06
0002b0 5b 17 bb b7 5b ca f3 37 eb 0e 66 38 d0 94 be b8
       -2.2303013e-05 2.9062086e-05 5.4850167e-05 -9.0876245e-05
0002c0 5e 8d 50 b7 0d be d3 37 dd 7f ab b6 13 2b 16 37
       -1.2430681e-05 2.524166e-05 -5.1110824e-06 8.950726e-06
0002d0 ad c0 29 b8 82 ed d4 38 2d 2c a0 b7 ea a8 f9 37
       -4.0472183e-05 0.00010153187 -1.9094057e-05 2.976177e-05
0002e0 93 64 a0 36 a4 5b c7 b8 14 e3 eb 37 fe 16 0c 38
       4.78008e-06 -9.506129e-05 2.8119925e-05 3.3400014e-05
0002f0 b7 99 36 38 1c 41 54 b7 65 cd 8b 37 2e b8 cd 36
       4.353534e-05 -1.2651344e-05 1.6665736e-05 6.1309174e-06
000300 af ff 9d 37 8b 40 cd b7 e1 ae 9d 37 f9 30 e9 36
       1.883492e-05 -2.446796e-05 1.8797293e-05 6.9496423e-06
000310 fb 10 e9 b6 7d 8d c8 36 08 44 80 38 e7 ba 97 35
       -6.945918e-06 5.976936e-06 6.1161874e-05 1.1304772e-06
000320 5d 16 1f 37 8a 6e 16 37 df 25 ac b7 9c 97 4b b7
       9.482345e-06 8.966434e-06 -2.0521633e-05 -1.2135042e-05
000330 8d 79 22 b5 e9 bb 46 36 08 fc a6 b6 c9 d1 b5 b5
       -6.052658e-07 2.9613677e-06 -4.976526e-06 -1.3546606e-06
000340 79 c4 fa 36 b3 95 15 37 b4 1d 02 37 22 a3 07 37
       7.473453e-06 8.915947e-06 7.75552e-06 8.084609e-06
000350 5a ea 14 b8 ef 28 dd b7 ea 4c 50 b7 5d d5 75 b8
       -3.5504207e-05 -2.6364314e-05 -1.2415674e-05 -5.8611262e-05
000360 c3 02 d1 36 61 aa aa b6 a7 55 01 38 92 87 3f b8
       6.229007e-06 -5.0862295e-06 3.0835767e-05 -4.566421e-05
000370 84 dd 9c 37 44 d6 e9 36 bf f5 44 b7 99 46 d1 b5
       1.86998e-05 6.968885e-06 -1.1739728e-05 -1.559226e-06
000380 8a 93 7e b7 f3 6d 9f b7 38 e1 eb b7 f3 8f c9 37
       -1.5173931e-05 -1.9005476e-05 -2.8119059e-05 2.4028099e-05
000390 d9 96 43 b6 7c d3 93 38 05 f8 4c 37 4e f6 d2 35
       -2.914507e-06 7.048898e-05 1.2217094e-05 1.5717903e-06
0003a0 7e 72 4c b6 05 c7 27 b6 9f 71 c9 36 74 39 ce b6
       -3.0465012e-06 -2.5000784e-06 6.003494e-06 -6.145967e-06
0003b0 f3 d7 1c 37 d7 42 18 b7 af 87 ab b7 7c 96 6c 38
       9.348604e-06 -9.075468e-06 -2.0447971e-05 5.6406934e-05
0003c0 d6 f0 bb 37 b7 e7 a8 b7 5e 32 e1 b7 65 e7 83 36
       2.2404285e-05 -2.0135061e-05 -2.6845544e-05 3.931042e-06
0003d0 74 f3 0b 38 2b ce 58 b8 4c fb 47 34 af 63 4a 38
       3.3366916e-05 -5.1690422e-05 1.862474e-07 4.825339e-05
0003e0 f6 13 95 b7 32 0e 12 38 97 d6 28 b7 83 26 ad 37
       -1.777148e-05 3.4822333e-05 -1.0063543e-05 2.064114e-05
0003f0 c8 a9 8f b7 64 2c 9d b5 64 8d 82 b6 68 e2 b4 34
       -1.7125989e-05 -1.1710331e-06 -3.890762e-06 3.3692345e-07
