07_RNN/logs/rnn/version_15/checkpoints/epoch=22-step=2737.ckpt (torch, 62024 bytes, 15 tensors)

rnn.weight_ih_l0 f4 [64, 1]
00000000: 62ad 6dbe 30e6 ff3e c2eb 833e db27 c23d
00000010: e4ef a3be d760 0cbf 4f8e 843e 222c 25bf
00000020: 9cc0 3bbe 721d 65be 5459 c4be a5b5 8ebe
00000030: 929c 93be 5e0b 43bf 50f3 fc3e 7108 19be
00000040: fa4d 38be 5fc0 023e 2719 3ebe 5cfb 813e
00000050: 5282 ccbe c821 36be e051 aabe 7f19 7c3f
00000060: 7fce 7abe fcac 243e dec5 bc3e 6cf8 1abf
00000070: afb8 ed3e 7e61 b2be 63c7 96ba c104 84be
00000080: 1684 89be 5d54 883e b653 20bf 6722 d83e
00000090: c4ed 633d d18a 8d3e e648 88bf 7d20 dabe
000000a0: a912 c9be da5f 44bf c6d5 adbe 0aad 833e
000000b0: dc68 cfba 7f9e 103d 7f9a aa3d 4060 f03d
000000c0: e77e 583e bdc2 c2be ff6d ac3e 6973 b3be
000000d0: 75de e0bb c226 ccbe 9ad4 edbd 733d 9e3e
000000e0: a980 933e d853 8cbe 3bd8 7fbc 5b16 6abe
000000f0: 4aec c0be beea 29be e94c 95be 1116 ab3f
-0.23210672 0.49980307 0.25765806 0.09480258 -0.3201896 -0.54835266 0.25889823 -0.64520466
-0.18335193 -0.22374514 -0.38349402 -0.2787296 -0.2883039 -0.7618922 0.49404383 -0.14944626
-0.17998496 0.12768696 -0.18564282 0.25387084 -0.39943177 -0.17786324 -0.3326559 0.98476404
-0.24492835 0.16081613 0.3686971 -0.6053531 0.46429965 -0.34840006 -0.0011503514 -0.25784877
-0.26858586 0.26626864 -0.6262773 0.42213747 0.055646673 0.2764497 -1.0647247 -0.42602912
-0.3927205 -0.7670876 -0.3395216 0.25717956 -0.0015824097 0.035307404 0.08330249 0.11737108
0.2114216 -0.380392 0.3367767 -0.35048988 -0.0068624564 -0.3987332 -0.11612816 0.30906257
0.28809097 -0.27407718 -0.015615518 -0.2286009 -0.37680274 -0.16593453 -0.2916024 1.3366109

rnn.weight_hh_l0 f4 [64, 64]
00000000: a252 67bf da1f 37be 6d00 62be cb62 d63e
00000010: 94d0 c1be 1f1b 503e 8a4a 51bd 1c18 1c3d
00000020: 53bd aabe 795e 04bf ad29 093e 6eae 8a3e
00000030: a3fc e13d 8f31 d13c 5667 61bd 7f65 563d
00000040: fceb 9abe 1db2 103f bb56 69bd 9d6d 6a3d
00000050: e9c9 fdbc a3aa 1c3e 24ce 2a3d dd34 9c3e
00000060: 0f03 8d3e f587 bfbe f314 31be a10a cd3d
00000070: 7da6 1ebc 1506 d9be 6894 b4be daca 14bf
00000080: 7344 a33e 3acb ff3e 1015 19bd 5e5e c6bd
00000090: 5095 34be 92a6 8bbe 19b2 743d 853a a93d
000000a0: 2d5c e33b 3bdf 1abe 6689 4bbf 2b3c 563e
000000b0: 340b e93e 6607 eb3e fcb3 403e 096a a5be
000000c0: a314 c43e 1385 8dbd d0e7 90bd 9f59 043e
000000d0: ec07 6abe 9a83 5cbf ed96 703e a7e6 2c3e
000000e0: 0f84 f0bd 06f8 d6be 0b32 aa3e 55c3 1fbe
000000f0: 351f a83e 42d3 483d 51f4 72be 0609 333e
00000100: bf45 7c3b 3305 9fbe e9e2 c8be 6f5b 503e
00000110: d961 233e 53d5 be3e 0c71 fdbe f083 813e
00000120: e4db 24be 6fc1 c2be 0bd4 d93e f983 07bd
00000130: 9bac b93e 6643 f33d dc6a d5be 4147 1e3e
00000140: 54fb d0be 5a24 0bbe eb69 fe3c 3cbe bdbe
00000150: 3773 9c3e ee2d 4a3e 6cd4 dc3e 0b07 4e3e
00000160: 9cc6 e73e 4a66 da3d 7e6a 93be 6dee 013e
00000170: 3589 d5be acf0 293e 8421 d2bd da2f 373e
00000180: 0246 5d3e 6765 293d d5bb 6f3e fa0d f5be
00000190: 848b 99be 473a c0bd 52ae 883d 2508 8f3e
000001a0: 883e 7b3e 6f35 d03d 5615 ca3c b2de 563e
000001b0: 89c5 2e3e b2b3 b73e 75f0 d33e 3798 f9be
000001c0: 59b7 f9bd 85c4 31be f9f3 39be 81d4 563e
000001d0: 4da5 8ebe be88 4f3d 2b16 8d3e 92de 3c3e
000001e0: 3e94 7dbe 8fb2 36be f889 12bd ad7d 753e
000001f0: 7e04 a13e eb6c d63e 5823 06be 6a47 fbbc
00000200: 9b95 83be cd7e e6be 147d 5abf ead4 a43e
00000210: 6973 89be 00ea fe3e c0b3 04bf 6f2b d03e
00000220: f036 1abf 70c0 9ebe f4ed c2be 7201 7e3e
00000230: 6016 8c3e 4ede 51be a245 cbbe bb3d a4be
00000240: 6c44 2ebe 61fd 963e f9b5 583e 3930 823e
00000250: ef15 a63e 38eb 62be 17bf b13c b8ef a53e
00000260: f8df ad3e b9ba 73be 9897 25bf 3c6e e03e
00000270: d274 05bf c7bf 8ebd 81f8 09bf ced4 8fbe
00000280: 2b4a 443f 6971 8c3e cf77 903e 59d9 203e
00000290: 093c 5bbe 870c 3d3d 052e bb3e 1ede e03e
000002a0: f2fb 093f a95b efbd 317a 99be a947 a3be
000002b0: cfa3 933e f10d ce3e 0ef7 8e3e 743c d1be
000002c0: 96ca b33e 4ec6 7e3e 118f 9cbe 9028 d23e
000002d0: 070f 523e 0c74 67be f02f b3bd 5bff 74be
000002e0: 1d56 46bd de27 b3be 8675 26be be07 92be
000002f0: b70e e33e e0d6 37bc b713 2ebe 99eb 80be
00000300: cf49 b73d e2e9 1a3e c63b c63e 3749 65be
00000310: 1fdd 1b3e 8172 35be 3da9 0e3f 7b0e 64be
00000320: 30a1 913e ef82 c33d c688 43be 238f 47be
00000330: dbfd 93be fea5 373d f683 9c3e 154a b33d
00000340: 5216 5d3e f5ca 6dbe a84e 11be 27d2 c23d
00000350: 7c3c 64bd a608 b33d 4e9d ae3d 5d85 043e
00000360: b528 80be 58cf 563e dce9 573e 78a6 40be
00000370: 6e77 783e 19c8 84bd e061 3e3e 9d8f 2d3d
00000380: 807b a7be ad92 873c 1bf9 32be 130f 0abe
00000390: c09f 363e 485b aa3d cb61 69be c671 3bbe
000003a0: 4241 4abe 5621 15bd dace 943d d208 013d
000003b0: 2602 9fbe fcdc 5fbe a607 e5bd 81df b03e
000003c0: ccb3 0a3b 6062 3dbe 9b98 493e c856 74be
000003d0: f225 edbb dc52 0e3e e90d 41be d771 4f3e
000003e0: 9670 ad3d f789 233e 1bfd a7bd bdd4 2b3d
000003f0: 896b 88be 60a0 483e 620a 4a3d d465 403e
-0.9036046 -0.17883244 -0.22070475 0.41872248 -0.37854445 0.20322846 -0.051096477 0.03810893
-0.33347568 -0.51706654 0.13394804 0.27086204 0.11034515 0.025536327 -0.05503019 0.052342888
-0.30258167 0.5652178 -0.05696748 0.05723344 -0.030980067 0.15299468 0.041700497 0.3050908
0.27541396 -0.37408414 -0.17293148 0.10011793 -0.009683249 -0.42387453 -0.35269475 -0.58122027
0.3188816 0.49959737 -0.037373602 -0.09685968 -0.17635083 -0.2727552 0.05974016 0.08263115
0.0069384784 -0.15124218 -0.7950653 0.2092139 0.4551636 0.45904082 0.18818659 -0.3230746
0.38296995 -0.069101475 -0.07075465 0.12924813 -0.22854584 -0.8613831 0.23495074 0.16884862
-0.11743938 -0.41986102 0.33241305 -0.15601857 0.3283631 0.049029596 -0.23726012 0.17483911
0.003849372 -0.31058654 -0.3923562 0.20347379 0.15955295 0.37272128 -0.4950031 0.25295973
-0.16099507 -0.38038203 0.42544588 -0.033084843 0.362645 0.118780896 -0.4168309 0.15456869
-0.40816748 -0.13588086 0.031056365 -0.370592 0.30556652 0.19744083 0.43130815 0.20119874
0.45268714 0.10664041 -0.28792185 0.12688608 -0.41706243 0.16595715 -0.10260299 0.17889348
0.21608737 0.04135647 0.23411496 -0.47862226 -0.29989254 -0.093861155 0.06673874 0.279359
0.24535573 0.10166442 0.024668377 0.20983389 0.17067541 0.35879284 0.41394392 -0.48748943
-0.12193174 -0.17360123 -0.18159474 0.20979501 -0.2786049 0.050667517 0.27555975 0.18444279
-0.24763581 -0.17841552 -0.03577611 0.23973723 0.3144874 0.41879973 -0.1309942 -0.030673701
-0.25700077 -0.45018616 -0.85347104 0.3219369 -0.26845863 0.49787903 -0.51836777 0.40658137
-0.6024008 -0.31006193 -0.3807217 0.24805239 0.2736082 -0.20494959 -0.39701563 -0.32078347
-0.17018288 0.29490188 0.21163167 0.25427416 0.3243861 -0.22160041 0.021697564 0.32409453
0.33959937 -0.23801698 -0.6468444 0.43834102 -0.5213138 -0.069701724 -0.5389481 -0.28092045
0.7667567 0.27430275 0.28216407 0.15707912 -0.2140962 0.046154525 0.36558548 0.43919462
0.53900063 -0.11687405 -0.29976037 -0.3189061 0.28835914 0.4024501 0.27922863 -0.40866435
0.35115498 0.24880335 -0.305779 0.41046572 0.20513545 -0.22602862 -0.08749378 -0.23925535
-0.048421968 -0.34991354 -0.16255769 -0.28521532 0.44347164 -0.011220664 -0.16999708 -0.25179747
0.08949625 0.15128282 0.3871748 -0.2239121 0.1522107 -0.17719461 0.5572699 -0.22271149
0.2844329 0.09546458 -0.19095144 -0.19488196 -0.28904614 0.044836037 0.30569428 0.087543644
0.21590546 -0.23221953 -0.14190161 0.0951274 -0.055721745 0.08741884 0.08526097 0.12941499
-0.25031057 0.20977533 0.21085304 -0.18813503 0.24264309 -0.06483478 0.18592024 0.04237329
-0.3271141 0.016549433 -0.17477839 -0.13482313 0.17834377 0.08318192 -0.22791211 -0.1830512
-0.19751456 -0.036408745 0.07266016 0.031502552 -0.31056327 -0.21861643 -0.111830994 0.3454552
0.0021164296 -0.18494558 0.1968712 -0.2386123 -0.0072371894 0.13898796 -0.18852963 0.2025827
0.0846874 0.15970598 -0.08202573 0.04195093 -0.26644543 0.19592428 0.049326308 0.18788844

rnn.bias_ih_l0 f4 [64]
00000000: a62f 9ebe 5528 593d 66af 7d3e 0389 8cbd
00000010: df30 71be f654 38be 8d9b 153e eb3e dfbd
00000020: 3526 a73d 5be6 48be ecbf 46bd cda8 de3d
00000030: d420 45be 5ae9 d2bd 3e68 2a3d 2e51 8dbe
00000040: 697e 8abe ac4b f7bd 083c 363d eaf7 ac3e
00000050: 4835 d63d 1c8f 5cbe f5ef 8abe 0df9 b13d
00000060: fcfc dbbd 455a e43c 56ac 5b3e 9550 a8bd
00000070: 0b0f c73d f4fa 053d faef ac3d cc26 d9be
00000080: dd20 8dbe d048 673e 2c8e c7bd b001 813e
00000090: 25c9 0bbc 362b 373e 0fe9 203e e477 d7bd
000000a0: 554a f3bc f05f ee3c d582 55be a659 22be
000000b0: 7041 b63d ff64 383e 6181 483e 075c 9d3e
000000c0: 89bd 043e d454 703e 31b9 15be 8aae 0bbe
000000d0: 8642 a13e 7799 a2be 9b5a 97be a0b6 6bbe
000000e0: c54e 6a3e fa70 7ebe c468 70be eb28 afbe
000000f0: 98a3 383d 9fa8 d7be fc67 2b3d e513 d4bd
-0.30895728 0.05301698 0.2477394 -0.068620704 -0.23553799 -0.1800116 0.14610119 -0.109006725
0.08161584 -0.19619124 -0.048522875 0.1087204 -0.19250804 -0.102984145 0.04160332 -0.27600998
-0.27049568 -0.1207498 0.044490844 0.33782893 0.10459381 -0.21538967 -0.27136198 0.08690081
-0.10741612 0.027875075 0.2145246 -0.08218495 0.09719666 0.03271003 0.084442094 -0.42412412
-0.27564135 0.2258637 -0.09743914 0.251966 -0.008531843 0.17887577 0.15713905 -0.10520914
-0.02969853 0.029098481 -0.2085069 -0.1585451 0.088992 0.18007277 0.19580604 0.30734274
0.12962927 0.2346986 -0.14621426 -0.136408 0.31496066 -0.3175771 -0.29561314 -0.23018885
0.2288161 -0.24847785 -0.23477465 -0.34210905 0.04507789 -0.42120835 0.041847214 -0.10355357

rnn.bias_hh_l0 f4 [64]
00000000: 5b70 88be a075 003e 76d4 8e3e 9f44 1bbd
00000010: fe21 23be 83c4 49be 4ed9 a73e e8a0 53bd
00000020: 418c d23d d565 5abe 2eb7 b3bc 4c6c 4d3b
00000030: 71d1 323b a1fe adbd f372 2b3e a976 dcbe
00000040: da59 f6bd 7312 a6bd 417c eb3d 2ef4 ab3e
00000050: a024 173b 5602 9abe bfd1 55be 7038 483e
00000060: 1188 91bd bff9 e83c 7235 633e e147 613d
00000070: 4307 0b3e 45f9 73bd 6325 6aba 887e 74be
00000080: 5da8 82be b732 9b3e 4571 81bd 19d1 973e
00000090: 6a05 d63c 31a2 853e 8527 4dbc f2ee 93bd
000000a0: ae9a 45be b459 86bc 526a 8fbe 45a5 12be
000000b0: fb45 0bbd 67b7 823e 8b26 533e 9dd2 043e
000000c0: 86fb e33d 3be8 883e c81e 9fbe 9ae0 f1bd
000000d0: e48c 323e f347 31be d2cf 5ebe 989c b6bd
000000e0: bcd8 ac3e 15fa 69be d3c4 58be 3a08 33be
000000f0: 5c98 1e3d daa5 6cbe 0778 4b3e 714e babd
-0.2664822 0.1254487 0.2789647 -0.03790724 -0.15930936 -0.1970387 0.32782978 -0.051667124
0.102806576 -0.21327908 -0.021937933 0.0031345068 0.0027285481 -0.08495832 0.16743068 -0.4305928
-0.120288566 -0.08108988 0.11498309 0.33584732 0.0023062602 -0.30079907 -0.20880793 0.19552779
-0.07106031 0.0284394 0.22188357 0.05500019 0.13576989 -0.059563894 -0.00089319627 -0.23876393
-0.25519076 0.3031213 -0.063204326 0.29651716 0.026125629 0.26100305 -0.012521629 -0.072233096
-0.19297287 -0.016400196 -0.28010803 -0.14320858 -0.034002285 0.2553055 0.20620172 0.12970968
0.11131959 0.26739678 -0.31078172 -0.118104175 0.17436558 -0.17312603 -0.21758965 -0.08916587
0.33759105 -0.22849305 -0.21168832 -0.17483607 0.03871952 -0.23110142 0.19870006 -0.09096993

dense.weight f4 [1, 64]
00000000: 62ec 4a3d 0e29 eb3d 1c11 75bd 420d 5f3e
00000010: 37bf db3c 79db 8bbd 58f8 efbc b57b 98bd
00000020: d12c 24be feab 86bd 2ee9 663c 946c 90bd
00000030: 6f58 ddbd 7162 4fbd 2304 a23c 55cc 0a3e
00000040: 4ac5 a1bd 855b f43c 1fc0 053e 9b17 bd3d
00000050: c2ab 2dbe c116 b1bd b33f a3bd 4f81 673e
00000060: 8889 cb3c 8f92 dd3c 6613 66bd e12e b8be
00000070: 7faf 733d f2de e8bc 54e0 a6bc 3e2d 8e3d
00000080: 9931 a73d 4387 a13b d7df 46be 93dc b23d
00000090: 5451 97bd 9437 1cbc 6f6b aebe ea5e e3bd
000000a0: 5a74 48be f405 8ebe e6fe 3abd 0f18 063e
000000b0: f152 983c 6ffa df3c 75ae b43c 7863 9cbd
000000c0: a973 8abc 3f5a a03d 6d3b 203d 1148 2e3d
000000d0: 6258 d23d 1d80 c93c cd69 85bd 1d6b d8bb
000000e0: 3283 e3bc 8a76 7a3d 35ae 1f3e 4fb0 253d
000000f0: bf55 1abc 07bf c7bd 5db9 efbd a64b a13e
0.04954184 0.1148244 -0.05983077 0.21782401 0.026824577 -0.068289705 -0.029293224 -0.0744547
-0.16032721 -0.06575774 0.01409368 -0.0705196 -0.10807883 -0.05063099 0.019777363 0.13554509
-0.07898958 0.029828796 0.1306157 0.09233018 -0.16960052 -0.08646918 -0.07971134 0.22607921
0.024845853 0.027047424 -0.056170844 -0.35973266 0.059493538 -0.028426621 -0.02037064 0.06942223
0.08163757 0.0049294545 -0.19421326 0.087334774 -0.07388559 -0.009534735 -0.3406634 -0.11102088
-0.19575635 -0.27738917 -0.045653246 0.13095115 0.018594237 0.027341096 0.022055844 -0.0763616
-0.016900854 0.07829713 0.039119173 0.042549197 0.10270764 0.024597222 -0.065143205 -0.006604566
-0.02777252 0.061148204 0.15593798 0.040451344 -0.0094198575 -0.097532324 -0.11705277 0.31503028

exp_avg f4 [64, 1]
00000000: 58eb b5b2 91ba 09b3 71af c1b2 7c22 b032
00000010: 40fa 5fb2 81fb 9332 9b54 1fb3 40db b132
00000020: 2f1c d7b2 6225 1db3 1cc2 0a32 4389 8539
00000030: 9a29 6e35 7203 9039 7e00 fbb2 b7af c6b1
00000040: 6616 20b3 bee7 fd32 b768 1032 a609 37b1
00000050: 1e63 9831 9180 4936 b170 7732 1ad2 bfb9
00000060: d849 0933 d7bd 09b3 51bb d7b2 7302 e539
00000070: 3f43 e8b2 27b9 6db2 19c9 03b3 b3fd 38b2
00000080: 0d75 d632 05ba 9032 c432 79b1 d5be dbb7
00000090: 7197 fcb2 9678 82b2 c4e4 c23a a0cf d032
000000a0: 4f09 8c33 f33a 00b9 336d fab2 9beb 4eb8
000000b0: e1a8 2033 b4b7 cab7 097f 2033 743c 00b3
000000c0: e55f 9132 e937 2c34 4ea8 deb2 ca38 bf32
000000d0: c858 9033 6a97 b4b2 12c1 a2b6 afb9 e330
000000e0: eeb1 d2b1 7493 f8b2 5c6c 0bb7 80d8 c3b6
000000f0: 1fe3 2333 661f 1631 7811 3f34 4e6a daba
-2.1178195e-08 -3.206748e-08 -2.2547939e-08 2.0504778e-08 -1.3037209e-08 1.7227423e-08 -3.709702e-08 2.0705215e-08
-2.504211e-08 -3.658841e-08 8.076793e-09 0.00025470005 8.872245e-07 0.00027468387 -2.922047e-08 -5.782535e-09
-3.7273274e-08 2.955846e-08 8.405713e-09 -2.663549e-09 4.4350505e-09 3.002617e-06 1.4402915e-08 -0.00036586897
3.196496e-08 -3.2070457e-08 -2.5114476e-08 0.00043680109 -2.7038935e-08 -1.3837314e-08 -3.068371e-08 -1.0767894e-08
2.4966107e-08 1.6848398e-08 -3.6263126e-09 -2.6195698e-05 -2.9405529e-08 -1.5188828e-08 0.0014869203 2.4308804e-08
6.520951e-08 -0.00012228992 -2.9153489e-08 -4.9333652e-05 3.7406497e-08 -2.416582e-05 3.736844e-08 -2.9857304e-08
1.692383e-08 1.6039088e-07 -2.5920738e-08 2.2261151e-08 6.721672e-08 -2.1023613e-08 -4.8504526e-06 1.6569198e-09
-6.1320327e-09 -2.8938054e-08 -8.310275e-06 -5.836657e-06 3.815796e-08 2.184572e-09 1.7794616e-07 -0.0016663761

exp_avg_sq f4 [64, 1]
00000000: e6b1 0139 3ac2 ae38 9697 7238 9de6 b939
00000010: 86c4 5e39 6753 5e38 ad1a 1c38 5171 0a39
00000020: c9a1 1a39 af2e 2039 3369 1339 39f6 8d39
00000030: a3a7 3d39 75d8 3339 4dc5 8c38 8aab c038
00000040: e0d9 aa38 8985 6138 85ee 0338 2e42 1338
00000050: 48bb 193a 01e3 6e38 a7bb 0939 7686 e53a
00000060: d361 4b38 3d2a da37 6d65 a538 e9e0 803a
00000070: 0a66 d138 6a47 f638 3fec a437 880b 2838
00000080: dc48 9638 caa5 f938 6abe e539 06cb 8338
00000090: e7e9 ef37 ba8f b237 8f4d 423a fe37 f338
000000a0: e636 ae39 36b5 663a e866 7639 6f7c e737
000000b0: d81d a137 efb1 9037 5d72 5538 9c6d 3238
000000c0: 890a a837 fbd6 ae38 fe6a c138 c66a e737
000000d0: 17c1 f437 92c1 1c39 4286 b637 653e d938
000000e0: 6f66 8f38 3752 8739 c9cb 0d39 9cc2 fc38
000000f0: 987f 7737 030a 2739 c78b 7939 81fe 153b
0.00012368671 8.333144e-05 5.783847e-05 0.0003545777 0.0002124478 5.30066e-05 3.7218142e-05 0.00013202919
0.00014746854 0.0001527618 0.00014058202 0.00027077066 0.00018086894 0.00017151407 6.71247e-05 9.187225e-05
8.146814e-05 5.3768545e-05 3.1454972e-05 3.5109166e-05 0.0005864394 5.6955036e-05 0.00013135244 0.0017511386
4.8490077e-05 2.6007294e-05 7.886705e-05 0.0009832653 9.984903e-05 0.00011743496 1.9660334e-05 4.006506e-05
7.1661285e-05 0.00011904126 0.00043820153 6.284383e-05 2.859994e-05 2.1286181e-05 0.000741207 0.00011597572
0.0003322877 0.0008800806 0.00023498724 2.759529e-05 1.9206593e-05 1.7248994e-05 5.0889666e-05 4.254059e-05
2.0032066e-05 8.33701e-05 9.222886e-05 2.7587066e-05 2.9176981e-05 0.0001494943 2.175861e-05 0.00010358988
6.837851e-05 0.0002581046 0.00013522724 0.00012052545 1.4752055e-05 0.00015930091 0.00023798562 0.0022887292

exp_avg f4 [64, 64]
00000000: 8c0b e031 ec6f 3330 a277 98b1 1e07 3031
00000010: 7b4d 7231 7e64 f530 5828 b2b1 e565 07b1
00000020: b63e 37b1 1d7c 8b31 ef42 65b1 660e 9ab1
00000030: 3cd3 8230 bcef 3fb1 d825 c82e 193c f831
00000040: 5dc7 7331 93c8 2a31 cd7b 3fb1 262f f3b1
00000050: 5f88 9ab1 9c02 c231 70a0 9631 bcc4 7e31
00000060: 5371 0631 4558 6fae 9ab6 99b1 15b0 96b1
00000070: 3eee e02f f5d5 24b1 f695 1ab0 92fc d331
00000080: d36b 9831 d255 b9b1 b540 6eb1 4d3d a1b1
00000090: fe7a a2af 8f66 67b1 2d93 32b2 7286 09b1
000000a0: 7ff6 21b0 2637 deb1 62bf 9b31 1c51 c631
000000b0: b1dd c52f 8ed1 a7b1 db74 7cb1 7559 e6b1
000000c0: e8d8 a4b0 dbc7 2ab2 48c6 fc31 e174 f130
000000d0: 91c0 cdb1 202c 9231 6fd8 d031 70b7 d931
000000e0: 9089 93b1 26d0 a931 f894 5d31 3d89 ba31
000000f0: 0d75 5ab1 933a 0132 f34f 97b1 3022 5232
00000100: 951c 4baf ff35 a430 5550 72b1 a5ba f730
00000110: d423 16b1 5ce3 30b0 43e5 64b1 f254 6fb0
00000120: 810e 5ab1 9f0a 0db1 62eb 15b0 495d 57b0
00000130: 4d21 06b1 b533 31b1 e8a9 8530 b2de 61af
00000140: 6b4d 15b1 1462 2b31 6fc7 34b1 eb91 dbb0
00000150: dc14 43b1 6290 f6b0 d4cf 2fb0 fd89 0030
00000160: 7371 3231 1d97 99af 3633 46b1 4ac7 b8af
00000170: 3d1a 1fb0 3acf 32b1 6c31 3cb1 77d4 c1b0
00000180: 2efe 6f31 09d6 db30 4e47 08b1 b3ad 2530
00000190: 2332 e32f 1f01 17b1 acb8 9ab0 771f b530
000001a0: 53e2 f0af cff7 2fb0 e3e3 1bb1 91d7 e4b0
000001b0: 6dad 2f31 4ee5 66b1 b405 1b31 57d4 44b1
000001c0: 8696 952f 03d7 a1b0 f456 a730 e935 3b31
000001d0: 40f6 e1b0 fd9b 17b1 be79 3e30 6727 8e30
000001e0: 28e1 6eb1 e36c 10b0 3996 f52e c008 7bb0
000001f0: 50bd f5b0 ce38 1331 f886 49b1 5547 9d30
00000200: 624c 1831 3c29 4db1 4c38 a330 1056 f6af
00000210: 7973 7931 6a22 4d31 d515 a330 072d 4531
00000220: 601f d430 860c 5431 2bd3 3b31 e87f 2731
00000230: 0e48 6731 60fa 3e31 eee7 25b1 9813 5a31
00000240: c7bc 6d31 6d74 c530 ec75 1231 bee9 2eb1
00000250: d9bd e9ae 6c81 9f31 e4a0 8631 47c7 1db1
00000260: f58d e6b0 33be 17b1 96ba d830 cf14 1031
00000270: 02e1 2cb1 88a3 0231 6b81 8930 ec00 8131
00000280: 91f3 85b0 a575 52b1 e782 3b31 b914 88b1
00000290: f473 31b1 2038 24b1 9663 ef30 b323 e030
000002a0: c783 7531 ea17 1f31 8240 8b31 9358 9531
000002b0: 78ab 03b1 f45d c730 f751 7db1 98cb f030
000002c0: 52e1 4a30 dbcd 9630 8bd3 7eb0 290a 21b0
000002d0: f35b 24b1 eb62 8631 e535 5b31 6df1 cbb0
000002e0: 595c 0030 fa6f 4031 d827 9d31 4aa1 8731
000002f0: 1465 1431 7ae9 f12f 788d 9f30 42be b5b0
00000300: 7716 f3b1 fe16 0432 97e3 4c32 9bc0 28b2
00000310: 26e3 28b1 a796 58b2 5716 6732 dcfa cdb1
00000320: 0c59 0932 3356 32b1 5652 33b1 48f2 4daf
00000330: 3b2b 1cb2 9564 65b1 220c 2632 d19b 0fb2
00000340: 85de 01b1 f62e 2ab2 1f40 56b1 3600 ac32
00000350: 100d 4632 44d9 86b2 7986 84b2 5e17 9db1
00000360: 28d6 2db2 2df4 0d32 a42a 5e32 c2b0 3e32
00000370: 429a 0e32 89e1 0432 3e6c d831 c79d c4b1
00000380: d911 53b2 967d a431 b2bf 0832 7d48 8a32
00000390: af8c 0632 b6de 5f32 4753 9332 3d92 c8b1
000003a0: 3752 f1b1 5660 6432 3afb 82b1 b83a 78b2
000003b0: 347f dfb1 84b4 4332 9335 9230 3c9d 7b32
000003c0: be0d 84b1 976f 0532 951a 80b1 662b 35b2
000003d0: 912d 8d32 159e 79b1 d96a 99b2 990f 20b1
000003e0: 3a27 5832 0ce3 b7b1 f23f 44b2 0a07 d2b1
000003f0: 270c 6db1 8166 9fb2 17b5 3932 f0f8 94b2
6.5205708e-09 6.527887e-10 -4.437383e-09 2.5615416e-09 3.5259677e-09 1.7854658e-09 -5.1850684e-09 -1.9703006e-09
-2.6665652e-09 4.0595425e-09 -3.3361933e-09 -4.483627e-09 9.518781e-10 -2.7930431e-09 9.1016694e-11 7.2245823e-09
3.547448e-09 2.485227e-09 -2.786453e-09 -7.077591e-09 -4.4974935e-09 5.6464398e-09 4.383814e-09 3.7073695e-09
1.9563984e-09 -5.4420708e-11 -4.4736455e-09 -4.3855928e-09 4.0914644e-10 -2.3986761e-09 -5.623798e-10 6.169622e-09
4.4360404e-09 -5.3939653e-09 -3.467034e-09 -4.692686e-09 -2.955502e-10 -3.3673222e-09 -1.03944275e-08 -2.0012547e-09
-5.892175e-10 -6.46732e-09 4.5328514e-09 5.7717795e-09 3.5991612e-10 -4.8841633e-09 -3.673725e-09 -6.704051e-09
-1.1994219e-09 -9.940744e-09 7.3567072e-09 1.7568277e-09 -5.9881775e-09 4.2541757e-09 6.0782024e-09 6.3363856e-09
-4.293902e-09 4.942211e-09 3.2244412e-09 5.4289147e-09 -3.178971e-09 7.5221065e-09 -4.4037676e-09 1.2231382e-08
-1.8472897e-10 1.1947917e-09 -3.5261298e-09 1.8024663e-09 -2.1848239e-09 -6.4351524e-10 -3.3308687e-09 -8.706841e-10
-3.173142e-09 -2.0524238e-09 -5.4540383e-10 -7.834911e-10 -1.9518496e-09 -2.5786282e-09 9.725314e-10 -2.0542748e-10
-2.172636e-09 2.4939526e-09 -2.6306812e-09 -1.597582e-09 -2.8388092e-09 -1.7939892e-09 -6.395997e-10 4.676222e-10
2.5966898e-09 -2.793791e-10 -2.8841902e-09 -3.3611008e-10 -5.788115e-10 -2.6020204e-09 -2.7385694e-09 -1.4102984e-09
3.4923562e-09 1.599518e-09 -1.9831137e-09 6.027349e-10 4.1326684e-10 -2.197403e-09 -1.1257462e-09 1.3178426e-09
-4.381656e-10 -6.4016786e-10 -2.2685007e-09 -1.6650451e-09 2.5564433e-09 -3.359975e-09 2.255871e-09 -2.8642455e-09
2.7209895e-10 -1.1775402e-09 1.2175563e-09 2.7242726e-09 -1.6440893e-09 -2.206206e-09 6.9294603e-10 1.0343059e-09
-3.4761545e-09 -5.254163e-10 1.1167995e-10 -9.13257e-10 -1.7879902e-09 2.1423605e-09 -2.932607e-09 1.1443527e-09
2.216233e-09 -2.9854865e-09 1.1875811e-09 -4.480829e-10 3.6299908e-09 2.9850988e-09 1.1866016e-09 2.8692868e-09
1.5433947e-09 3.085718e-09 2.7332117e-09 2.4374405e-09 3.3655883e-09 2.779096e-09 -2.4142497e-09 3.1734313e-09
3.4595347e-09 1.4366727e-09 2.1312827e-09 -2.54532e-09 -1.0629337e-10 4.6422226e-09 3.9182044e-09 -2.2959783e-09
-1.6775049e-09 -2.2081508e-09 1.5769099e-09 2.0966586e-09 -2.5157196e-09 1.9010447e-09 1.0004845e-09 3.754499e-09
-9.746249e-10 -3.0625895e-09 2.728649e-09 -3.960477e-09 -2.5822802e-09 -2.3897044e-09 1.7417843e-09 1.6308291e-09
3.57271e-09 2.3151139e-09 4.052766e-09 4.3465405e-09 -1.9160478e-09 1.4505859e-09 -3.6862937e-09 1.7520163e-09
7.380737e-10 1.0972444e-09 -9.270528e-10 -5.85859e-10 -2.3917408e-09 3.911159e-09 3.189933e-09 -1.4838811e-09
4.669736e-10 2.8003329e-09 4.573831e-09 3.9473536e-09 2.159429e-09 4.400354e-10 1.160898e-09 -1.3223558e-09
-7.0747848e-09 7.688639e-09 1.1926111e-08 -9.8226804e-09 -2.4576337e-09 -1.2607109e-08 1.3451049e-08 -5.9948047e-09
7.9946965e-09 -2.5951408e-09 -2.609473e-09 -1.8730717e-10 -9.090225e-09 -3.338106e-09 9.66523e-09 -8.359124e-09
-1.8898458e-09 -9.90598e-09 -3.1177547e-09 2.0023531e-08 1.1528087e-08 -1.5698454e-08 -1.5427974e-08 -4.571958e-09
-1.0118619e-08 8.262799e-09 1.2931796e-08 1.1099646e-08 8.300562e-09 7.734692e-09 6.298733e-09 -5.722288e-09
-1.22858745e-08 4.7873057e-09 7.959828e-09 1.6098278e-08 7.831814e-09 1.3030947e-08 1.7150922e-08 -5.8373915e-09
-7.02337e-09 1.3293251e-08 -3.812059e-09 -1.4448851e-08 -6.5046155e-09 1.1391538e-08 1.0638125e-09 1.4645874e-08
-3.843268e-09 7.7669915e-09 -3.7283123e-09 -1.0545454e-08 1.6435282e-08 -3.6324128e-09 -1.7860133e-08 -2.329193e-09
1.2581774e-08 -5.351813e-09 -1.1423241e-08 -6.1126046e-09 -3.4494947e-09 -1.855665e-08 1.0809592e-08 -1.7342671e-08

exp_avg_sq f4 [64, 64]
00000000: 8d69 9537 da90 a937 5263 bf37 3856 a237
00000010: a852 6c35 b674 ba37 c866 bf37 a901 b937
00000020: 8525 b237 cbb0 b137 0b93 a337 a1b0 7c36
00000030: 5029 a237 c210 4937 86fc be37 401f 1a37
00000040: d983 af37 34fe 9e37 0e8f f335 5cad b437
00000050: 7a32 4537 212f 9837 ccf7 a437 9f3b 6a37
00000060: 2131 a237 7c6e 8037 e22c b237 48aa b836
00000070: 7c92 b137 1ef7 1537 9ccc ad37 077f be35
00000080: 602a b637 3810 a636 3a00 a937 1053 af37
00000090: fb6d 8537 942d 8f37 20f6 2837 cd10 b237
000000a0: e671 af37 2a09 9137 63d3 4437 5fe1 8337
000000b0: 4a1a a537 6f9e 9237 4830 ba37 6b73 ae37
000000c0: 2ef5 c736 f0e9 3536 eefb 0c37 017f ab37
000000d0: 285b 9f37 19df e536 7bbf a137 4b7e 4036
000000e0: 349b d337 47f7 7c37 ec21 0a37 d80d 8f37
000000f0: 3433 9a37 66a3 c537 3699 8737 5ef7 8536
00000100: 1787 7537 0881 0f37 c31c 2237 8e77 8837
00000110: b63d 8e37 aba0 5a37 4a56 c036 1a8d 0c37
00000120: 17b8 5d37 134d b236 ca40 7237 1168 4737
00000130: 48e3 8737 a88e 7937 652a 3137 6447 6a37
00000140: 2d42 8036 1981 bf36 043b b536 617c 4537
00000150: ed24 8a37 4c3f 4b37 4369 3137 9319 9837
00000160: 9eba 8236 69b1 e536 aa0b 1937 2640 1737
00000170: 23d3 e136 8524 8237 b3ff 1337 a80c 5537
00000180: 8f97 1237 9815 4137 5a8c 3f37 9078 5737
00000190: f4b2 9036 326e 8b36 c7f3 9937 9910 ef36
000001a0: f99d a837 2e7f a437 f823 6937 5042 4437
000001b0: 0586 2937 bd5a 0d37 2b4c f636 ea4f 0a37
000001c0: 7dbd 7b37 9b93 0437 0dc8 bc36 269e f636
000001d0: 674d 2b37 c0bd a337 2c90 6137 6a69 2937
000001e0: 3446 5e37 bc76 9037 ff8c 2837 ef29 7037
000001f0: 42d8 e236 88d1 4e37 a1df 2037 861b 4a37
00000200: d24a 9738 2fd3 e237 f505 b336 2f30 3c37
00000210: 5b8b 4338 b656 5936 3856 0838 b12f 5d37
00000220: d60e d936 82d4 5b38 b68b f936 e6b3 d936
00000230: 8fec 6b36 5a93 e737 3883 c737 1856 2038
00000240: d1c3 2338 c4df 3e36 713a 9036 984f 7f37
00000250: fbde 3b36 3c7c ab37 3ade 6e36 1eaf 3436
00000260: d8e3 0838 29d7 b237 9fc1 c736 e9f3 0337
00000270: 68da 8d37 20fd 9636 ef2b 0e38 b567 0038
00000280: ae9e 8436 8939 6438 5b85 7436 447c 6637
00000290: 8fdf ab36 3c3f 1336 8c92 9736 446c 2b38
000002a0: aaae 1137 b225 9337 27d7 5838 7598 8b37
000002b0: a4b5 3c38 5aed 8d36 eba6 b138 8cba 2f37
000002c0: 44bd 8237 c3b1 f737 16d3 1938 3cbd d937
000002d0: 336e 6237 b8ba 2938 73b2 8a37 01ea dc36
000002e0: c479 be37 3123 0139 0cf6 5d37 8616 2838
000002f0: 3167 8337 1466 2c38 76f8 3636 84c5 b337
00000300: 5ade 2e38 867f da37 5ae1 4737 b375 ac38
00000310: c6ea f337 248a 5237 cc41 ae37 1265 7737
00000320: cbd7 e837 252b cf37 92d8 0238 2e77 6638
00000330: cafc 2d38 1045 d437 dc13 9c37 1a0f f537
00000340: e42c af37 dc0f 2537 bb3c c636 3991 8137
00000350: e7c9 6238 7a42 9e37 185b 3b37 8cb2 9938
00000360: e8ec 9e37 6b68 a437 0baf 3d37 84f7 2538
00000370: fcd0 9d37 6759 f537 5173 b637 953d d437
00000380: c24b 2c37 fcf5 0138 09bb 1938 ac60 9537
00000390: 09f1 7536 757b d036 e115 8438 f68d 1f38
000003a0: 7a27 af38 af88 8238 bf42 0b38 e8e9 7137
000003b0: 82e3 df37 fe4f 3137 5ab6 1038 b8da 5b37
000003c0: c47c aa37 4f0e c437 a8e0 c437 f3fa 9537
000003d0: 99d2 7837 074b 0138 2224 5f37 f4ba bc37
000003e0: 3e8e 6537 5242 5b38 6339 a437 a836 0338
000003f0: e301 0737 5154 f337 3428 ed37 1db2 a038
1.7811335e-05 2.0213822e-05 2.2815224e-05 1.9352054e-05 8.803713e-07 2.2227276e-05 2.2816836e-05 2.2054492e-05
2.1236725e-05 2.118237e-05 1.9499586e-05 3.7653738e-06 1.9331143e-05 1.1984435e-05 2.2767355e-05 9.186391e-06
2.0923022e-05 1.895344e-05 1.8146545e-06 2.1538399e-05 1.17538675e-05 1.8141758e-05 1.9665713e-05 1.39613685e-05
1.9334782e-05 1.5310237e-05 2.1240154e-05 5.5034507e-06 2.1168256e-05 8.9386285e-06 2.0718486e-05 1.4193073e-06
2.1715823e-05 4.9490736e-06 2.0146475e-05 2.0900305e-05 1.590605e-05 1.7068152e-05 1.0070886e-05 2.1227077e-05
2.0914664e-05 1.7289614e-05 1.1731728e-05 1.5721364e-05 1.9681775e-05 1.7478333e-05 2.219541e-05 2.0796162e-05
5.959205e-06 2.7107271e-06 8.403307e-06 2.044393e-05 1.8996725e-05 6.850704e-06 1.928186e-05 2.8683742e-06
2.5225432e-05 1.5077944e-05 8.233339e-06 1.7053375e-05 1.8382074e-05 2.3560318e-05 1.6164598e-05 3.992506e-06
1.4634591e-05 8.553507e-06 9.662649e-06 1.6268135e-05 1.6956456e-05 1.3031221e-05 5.7320913e-06 8.377503e-06
1.3215488e-05 5.313786e-06 1.4439409e-05 1.1885554e-05 1.619909e-05 1.4874771e-05 1.0559893e-05 1.3964109e-05
3.822401e-06 5.7072725e-06 5.4010907e-06 1.1771074e-05 1.6468077e-05 1.211448e-05 1.057453e-05 1.8131721e-05
3.896027e-06 6.845385e-06 9.122226e-06 9.015237e-06 6.730102e-06 1.5514213e-05 8.821417e-06 1.2698736e-05
8.737566e-06 1.1508724e-05 1.1417165e-05 1.2843069e-05 4.3123673e-06 4.1553512e-06 1.8352539e-05 7.1246873e-06
2.0100722e-05 1.9609546e-05 1.3896257e-05 1.169795e-05 1.0104389e-05 8.425382e-06 7.3402384e-06 8.244047e-06
1.50048845e-05 7.90218e-06 5.6261256e-06 7.349782e-06 1.0210416e-05 1.9519473e-05 1.3444613e-05 1.0097729e-05
1.3248577e-05 1.7221428e-05 1.00464085e-05 1.4314878e-05 6.7605006e-06 1.2327342e-05 9.588811e-06 1.20465465e-05
7.2141775e-05 2.703964e-05 5.335309e-06 1.1216892e-05 4.6621408e-05 3.2385992e-06 3.2505224e-05 1.31837305e-05
6.468831e-06 5.2411582e-05 7.4370428e-06 6.488047e-06 3.5155424e-06 2.7605962e-05 2.3783752e-05 3.8227154e-05
3.9044597e-05 2.8442455e-06 4.298338e-06 1.5217716e-05 2.7994963e-06 2.044264e-05 3.5594117e-06 2.6924022e-06
3.2637123e-05 2.1319445e-05 5.9532026e-06 7.864998e-06 1.6910213e-05 4.499816e-06 3.3896355e-05 3.0614163e-05
3.9523793e-06 5.441302e-05 3.6436456e-06 1.3738001e-05 5.122223e-06 2.1941514e-06 4.517211e-06 4.0870407e-05
8.683341e-06 1.7541319e-05 5.169879e-05 1.6641085e-05 4.499186e-05 4.229759e-06 8.4711086e-05 1.0474247e-05
1.5585341e-05 2.9527471e-05 3.667463e-05 2.5956535e-05 1.34963075e-05 4.0466635e-05 1.6533979e-05 6.5837526e-06
2.2706467e-05 0.00012315509 1.3229914e-05 4.0075298e-05 1.566447e-05 4.1103063e-05 2.7264737e-06 2.1430438e-05
4.1691914e-05 2.6047008e-05 1.1913793e-05 8.223522e-05 2.9077182e-05 1.2549139e-05 2.0773055e-05 1.47458795e-05
2.7757042e-05 2.4696414e-05 3.1196112e-05 5.4947268e-05 4.1481842e-05 2.530453e-05 1.8605897e-05 2.9213308e-05
2.088253e-05 9.838459e-06 5.90793e-06 1.5445623e-05 5.4070635e-05 1.8866023e-05 1.1167278e-05 7.3288655e-05
1.8945386e-05 1.9598947e-05 1.1306033e-05 3.9569582e-05 1.8813174e-05 2.9247907e-05 2.1749789e-05 2.5301046e-05
1.0269638e-05 3.0985088e-05 3.6652233e-05 1.78072e-05 3.6648146e-06 6.2132553e-06 6.298326e-05 3.8040766e-05
8.352003e-05 6.224342e-05 3.3202345e-05 1.441918e-05 2.6689613e-05 1.0568647e-05 3.4502104e-05 1.3104342e-05
2.0323678e-05 2.3371684e-05 2.3469634e-05 1.7879041e-05 1.48309855e-05 3.082587e-05 1.3300249e-05 2.2498403e-05
1.3682582e-05 5.2275434e-05 1.9577046e-05 3.1283736e-05 8.047066e-06 2.900712e-05 2.8271323e-05 7.662571e-05

exp_avg f4 [64]
00000000: 05d6 6133 4ed5 d433 5378 a633 03c2 93b3
00000010: 0dbb 4c33 da7d 75b3 bd82 d633 04f5 dbb3
00000020: 513c ba33 f4b5 f033 5207 35b3 13e5 bcb8
00000030: 37bf eb34 f841 feba 0a67 bc33 d239 5b31
00000040: dcae de33 a77c 96b3 c80e 58b3 eee9 b3b1
00000050: 9291 99b2 517a f5b6 ac74 85b2 e53b 0e3b
00000060: ef91 dfb3 ef0d b133 5b5d 9f33 0cdd 543c
00000070: 73e8 dd33 ed8a a432 201b d733 d432 1333
00000080: 3505 8fb3 ac0e 52b3 feaa f6b3 5a72 af37
00000090: bd1a be33 0cdf 5733 92cc 5ebb 1aed a2b3
000000a0: 20a4 84b3 88eb fa3b 64e2 9733 04bf 3438
000000b0: 7e60 ddb3 79b6 53b7 823a c4b3 64c9 c833
000000c0: 6109 14b3 e582 82b4 9e34 b433 e4c8 bbb3
000000d0: ac0c a832 c965 8233 0d8b 2235 438f 3b33
000000e0: 6c6b 4232 9ecc 5433 0e58 5537 20ed 2537
000000f0: 40a9 c4b3 a286 e432 51be cbb3 108b 8b3b
5.2581544e-08 9.910819e-08 7.751864e-08 -6.8805114e-08 4.7667573e-08 -5.715797e-08 9.988933e-08 -1.024255e-07
8.6722714e-08 1.1208968e-07 -4.2149004e-08 -9.007207e-05 4.3911288e-07 -0.0019398322 8.773175e-08 3.1901561e-09
1.0369487e-07 -7.0075934e-08 -5.0304862e-08 -5.2361804e-09 -1.7877742e-08 -7.3158085e-06 -1.5536294e-08 0.002170318
-1.0410792e-07 8.244739e-08 7.420996e-08 0.012992155 1.0333397e-07 1.9155289e-08 1.0016652e-07 3.4272333e-08
-6.6599036e-08 -4.890778e-08 -1.1486371e-07 2.0914875e-05 8.852428e-08 5.026145e-08 -0.0033996445 -7.5868414e-08
-6.176583e-08 0.007657472 7.072666e-08 4.309324e-05 -1.0308666e-07 -1.2619065e-05 -9.137604e-08 9.3498585e-08
-3.4467465e-08 -2.4309625e-07 8.391474e-08 -8.744408e-08 1.9563537e-08 6.072111e-08 6.055205e-07 4.3669626e-08
1.1316711e-08 4.9546195e-08 1.2716291e-05 9.889976e-06 -9.1577476e-08 2.6603917e-08 -9.4875425e-08 0.004258521

exp_avg_sq f4 [64]
00000000: 1a63 0d39 d37b cd38 806b 0d39 dbae e339
00000010: 9540 4539 4847 af38 322d a738 bc9b 2e39
00000020: 14b2 1339 dd76 c038 4707 3339 c093 b539
00000030: ad19 8239 71cc d538 9cac cf38 0149 e938
00000040: f2b4 3238 2f32 8838 00f6 2238 4b69 cf38
00000050: cedf 4a3a 6eff 6138 ae00 4839 7468 733a
00000060: 4fb1 3838 dd31 1238 544a 1339 27f7 073b
00000070: 76c0 1539 03c4 0539 f428 ca37 30a2 0138
00000080: f40e 2f39 3ffa fa38 b7bf 193a 1dd7 a738
00000090: bfcc 9b37 5342 1538 dc35 023a 2830 0739
000000a0: 25dc 033a 2a64 a73a 0258 3839 8cd1 a937
000000b0: e981 7237 44a7 a437 00bc a237 77cd 8b38
000000c0: 38b7 b637 e1c8 6f38 0b14 a038 011a 3538
000000d0: 1387 2338 1572 0939 d176 2c38 d3e7 d138
000000e0: f1f0 6239 bae0 a139 fc76 d538 412a 3439
000000f0: cd45 a637 9459 053a 8e33 7739 03c3 853a
0.00013483726 9.798226e-05 0.00013486855 0.0004342709 0.00018811443 8.3579274e-05 7.971599e-05 0.00016651949
0.00014085352 9.1774134e-05 0.00017073481 0.00034633093 0.00024814662 0.00010194712 9.90268e-05 0.00011123904
4.2607026e-05 6.494333e-05 3.8852915e-05 9.8901415e-05 0.0007739038 5.3882068e-05 0.0001907374 0.0009285279
4.403415e-05 3.485555e-05 0.00014046702 0.002074668 0.00014281445 0.00012756888 2.4099347e-05 3.0907046e-05
0.00016694871 0.00011967541 0.00058650546 8.0032485e-05 1.8572782e-05 3.5586138e-05 0.0004967132 0.00012892543
0.00050300575 0.001277094 0.00017580393 2.0243948e-05 1.4454571e-05 1.9628213e-05 1.939945e-05 6.666307e-05
2.1781409e-05 5.7169123e-05 7.633128e-05 4.317798e-05 3.8988026e-05 0.00013107837 4.1118652e-05 0.00010009077
0.00021642797 0.00030875747 0.00010178794 0.00017181879 1.9821246e-05 0.00050868955 0.00023574961 0.0010205213

exp_avg f4 [64]
00000000: 02d6 6133 4ed5 d433 5078 a633 06c2 93b3
00000010: 0fbb 4c33 da7d 75b3 b482 d633 04f5 dbb3
00000020: 503c ba33 f6b5 f033 4e07 35b3 11e5 bcb8
00000030: 43bf eb34 f841 feba 0b67 bc33 d239 5b31
00000040: dcae de33 a67c 96b3 d00e 58b3 bee9 b3b1
00000050: 9891 99b2 517a f5b6 a374 85b2 e13b 0e3b
00000060: ef91 dfb3 ef0d b133 4f5d 9f33 05dd 543c
00000070: 6fe8 dd33 ed8a a432 171b d733 d432 1333
00000080: 3e05 8fb3 ac0e 52b3 faaa f6b3 5772 af37
00000090: c31a be33 0edf 5733 92cc 5ebb 1aed a2b3
000000a0: 20a4 84b3 84eb fa3b 68e2 9733 05bf 3438
000000b0: 7360 ddb3 85b6 53b7 8a3a c4b3 64c9 c833
000000c0: 5c09 14b3 e582 82b4 9e34 b433 dfc8 bbb3
000000d0: a90c a832 c965 8233 2d8b 2235 418f 3b33
000000e0: 746b 4232 a2cc 5433 0f58 5537 20ed 2537
000000f0: 44a9 c4b3 9a86 e432 4fbe cbb3 108b 8b3b
5.2581534e-08 9.910819e-08 7.751862e-08 -6.8805136e-08 4.766758e-08 -5.715797e-08 9.988926e-08 -1.024255e-07
8.672271e-08 1.12089694e-07 -4.214899e-08 -9.0072055e-05 4.3911322e-07 -0.0019398322 8.7731756e-08 3.1901561e-09
1.0369487e-07 -7.007593e-08 -5.030489e-08 -5.236159e-09 -1.7877753e-08 -7.3158085e-06 -1.5536278e-08 0.002170317
-1.0410792e-07 8.244739e-08 7.420987e-08 0.012992148 1.0333394e-07 1.9155289e-08 1.0016645e-07 3.4272333e-08
-6.65991e-08 -4.890778e-08 -1.1486368e-07 2.091487e-05 8.8524324e-08 5.0261455e-08 -0.0033996445 -7.5868414e-08
-6.176583e-08 0.00765747 7.0726685e-08 4.3093245e-05 -1.03086585e-07 -1.2619076e-05 -9.1376094e-08 9.3498585e-08
-3.4467448e-08 -2.4309625e-07 8.391474e-08 -8.744404e-08 1.9563531e-08 6.072111e-08 6.055223e-07 4.366962e-08
1.1316718e-08 4.954621e-08 1.2716292e-05 9.889976e-06 -9.1577505e-08 2.6603903e-08 -9.487541e-08 0.004258521

exp_avg_sq f4 [64]
00000000: 2063 0d39 d37b cd38 7a6b 0d39 d9ae e339
00000010: 9940 4539 4847 af38 322d a738 bc9b 2e39
00000020: 15b2 1339 db76 c038 4507 3339 be93 b539
00000030: ad19 8239 71cc d538 9cac cf38 0149 e938
00000040: f4b4 3238 2f32 8838 00f6 2238 4969 cf38
00000050: cfdf 4a3a 68ff 6138 ae00 4839 7568 733a
00000060: 4cb1 3838 dd31 1238 544a 1339 26f7 073b
00000070: 76c0 1539 01c4 0539 f628 ca37 30a2 0138
00000080: f30e 2f39 49fa fa38 b7bf 193a 1dd7 a738
00000090: bfcc 9b37 5342 1538 dc35 023a 2630 0739
000000a0: 24dc 033a 2b64 a73a 0258 3839 8cd1 a937
000000b0: e581 7237 47a7 a437 00bc a237 77cd 8b38
000000c0: 38b7 b637 dfc8 6f38 0b14 a038 041a 3538
000000d0: 1487 2338 1472 0939 cd76 2c38 d3e7 d138
000000e0: edf0 6239 bae0 a139 fc76 d538 412a 3439
000000f0: cc45 a637 9359 053a 8e33 7739 03c3 853a
0.00013483735 9.798226e-05 0.00013486846 0.00043427086 0.00018811449 8.3579274e-05 7.971599e-05 0.00016651949
0.00014085353 9.177412e-05 0.00017073478 0.00034633087 0.00024814662 0.00010194712 9.90268e-05 0.00011123904
4.2607033e-05 6.494333e-05 3.8852915e-05 9.89014e-05 0.00077390386 5.3882046e-05 0.0001907374 0.00092852797
4.403414e-05 3.485555e-05 0.00014046702 0.0020746677 0.00014281445 0.00012756886 2.409935e-05 3.0907046e-05
0.0001669487 0.00011967548 0.00058650546 8.0032485e-05 1.8572782e-05 3.5586138e-05 0.0004967132 0.0001289254
0.0005030057 0.0012770941 0.00017580393 2.0243948e-05 1.44545675e-05 1.9628218e-05 1.939945e-05 6.666307e-05
2.1781409e-05 5.7169116e-05 7.633128e-05 4.317799e-05 3.898803e-05 0.00013107836 4.1118637e-05 0.00010009077
0.00021642791 0.00030875747 0.00010178794 0.00017181879 1.9821244e-05 0.0005086895 0.00023574961 0.0010205213

exp_avg f4 [1, 64]
00000000: 2685 d93a f984 d93a 2685 d93a 4685 d9ba
00000010: 2685 d93a e084 d9ba 2685 d93a 2685 d9ba
00000020: 2685 d93a 2685 d93a 5983 d9ba ec12 a7ba
00000030: b339 d9ba d3b7 30bb fd84 d93a 2685 d93a
00000040: 2685 d93a 2685 d9ba 8385 d9ba 1d85 d93a
00000050: 2685 d93a b0be daba 3985 d9ba 0c1d d1ba
00000060: 2685 d9ba 2685 d93a 2685 d93a 1ba3 bd3b
00000070: 2685 d93a 2685 d93a 2685 d93a 2685 d93a
00000080: 2685 d9ba 2685 d9ba 1685 d93a dd10 de3a
00000090: 2685 d93a 2685 d93a 3754 133c 2685 d9ba
000000a0: 5683 d9ba 27b1 d03b 2685 d93a 2650 dfba
000000b0: 2685 d9ba cd98 c63a 2685 d9ba 2685 d93a
000000c0: 2685 d9ba 6357 d9ba b084 d93a 2685 d9ba
000000d0: 1696 d93a 2685 d93a 73a9 ddba ad83 d93a
000000e0: 2685 d93a 2685 d93a d91c dbba d3ba d03a
000000f0: 2685 d9ba 2685 d9ba cd8f d93a d428 18bc
0.0016595467 0.0016595415 0.0016595467 -0.0016595505 0.0016595467 -0.0016595386 0.0016595467 -0.0016595467
0.0016595467 0.0016595467 -0.0016594931 -0.0012746728 -0.0016572982 -0.0026965037 0.001659542 0.0016595467
0.0016595467 -0.0016595467 -0.0016595576 0.0016595457 0.0016595467 -0.0016688909 -0.001659549 -0.0015954091
-0.0016595467 0.0016595467 0.0016595467 0.005787266 0.0016595467 0.0016595467 0.0016595467 0.0016595467
-0.0016595467 -0.0016595467 0.0016595449 0.0016942282 0.0016595467 0.0016595467 0.008992246 -0.0016595467
-0.0016594927 0.0063687745 0.0016595467 -0.0017037436 -0.0016595467 0.0015151739 -0.0016595467 0.0016595467
-0.0016595467 -0.0016581829 0.001659533 -0.0016595467 0.0016600515 0.0016595467 -0.0016911462 0.0016595029
0.0016595467 0.0016595467 -0.0016716971 0.0015924819 -0.0016595467 -0.0016595467 0.0016598642 -0.009287078

exp_avg_sq f4 [1, 64]
00000000: 39a3 1a3d e531 183d 248f 1b3d 5866 1f3d
00000010: 1af1 143d 3666 193d 329b 1b3d 51fc 123d
00000020: e299 1c3d f145 1c3d 95e2 103d 8076 0b3d
00000030: bb80 153d e327 303c e41b 1a3d 0fd5 113d
00000040: dee3 1b3d a326 183d 7011 0b3d ffa9 1a3d
00000050: 9ee1 103d 76e4 143d 2893 173d 8a66 463c
00000060: ace3 1a3d cad5 183d 6ff7 1a3d 5692 a03c
00000070: 9989 173d fb07 133d 9961 1c3d 191f 153d
00000080: 7841 1b3d 223e 183d 62a6 143d 953d 173d
00000090: d174 0f3d 2b70 123d a384 083d cf7e 193d
000000a0: 4e9f 1d3d 619b 9f3c 2984 193d aa05 0c3d
000000b0: 950e 1c3d 78f9 123d 5455 1c3d 782f 1b3d
000000c0: fb77 153d 3354 0c3d 3d94 153d e7c1 1b3d
000000d0: de7f 173d a002 183d a133 183d 5ea5 0c3d
000000e0: 7f4c 1a3d 53cb 193d 5a1b 0f3d 3ae9 0e3d
000000f0: 6b82 183d e3d7 1a3d c194 163d 34b7 083c
0.037753318 0.037156958 0.037978306 0.038915962 0.036362745 0.03745099 0.037989803 0.03588516
0.03823269 0.03815264 0.035372335 0.034048557 0.03649972 0.010751697 0.037624255 0.03560358
0.038059108 0.03714622 0.033952177 0.037759777 0.035371415 0.03635069 0.037005574 0.012109408
0.03781478 0.03731326 0.037833627 0.019601028 0.036996458 0.035896283 0.038179014 0.03640661
0.037904233 0.03716863 0.036291488 0.036923964 0.035023514 0.035751503 0.033329617 0.03747445
0.038482003 0.01948327 0.037479553 0.03418509 0.038099844 0.035882443 0.038167313 0.037887067
0.036491375 0.034259986 0.036518324 0.038026717 0.036987178 0.03711188 0.037158612 0.034337394
0.03767061 0.03754742 0.034938194 0.03489039 0.03723375 0.037803542 0.036762957 0.00834446
