07_RNN/logs/rnn/version_8/checkpoints/epoch=48-step=11613.ckpt (torch, 216392 bytes, 15 tensors)

rnn.weight_ih_l0 f4 [256, 1]
000000 12 a3 af bc c0 25 92 3e 02 20 4a bf 8e 8c 2b 40
       -0.021440063 0.28544426 -0.7895509 2.6804538
000010 57 8f aa 3c dc 83 c6 3e 6d ae 44 bf 4b 86 2b bf
       0.020820303 0.38772476 -0.7682865 -0.6700179
000020 41 09 a8 3d cb 68 3b bd 51 a5 6c bf 38 ba a9 be
       0.0820489 -0.045754235 -0.9243975 -0.33149886
000030 04 82 16 bf 9c 6a 02 3f cf 4b 85 3f 67 dd e6 bf
       -0.5879214 0.50943923 1.041376 -1.8036317
000040 e2 8e 9f bf 8e c3 c1 3e 30 e9 1f 3e fb ce 60 3f
       -1.2465479 0.3784451 0.15616298 0.8781583
000050 db 34 09 3f 48 cd 12 3f e8 97 05 3f 96 fd 06 40
       0.53596276 0.57344484 0.52184916 2.1092277
000060 43 72 99 3e ca 1e e1 be e4 b1 a7 3d 46 b6 f2 3e
       0.29969987 -0.43968803 0.08188227 0.4740469
000070 96 17 dc 3e e5 06 6b 3e a9 ed 84 3f d3 b3 b3 3c
       0.42986745 0.22951849 1.0385028 0.021936333
000080 df cb 86 3f 39 3f 25 bf 35 d3 ab 3f 3a 31 53 bf
       1.0530967 -0.64549595 1.342383 -0.8249699
000090 41 2c aa be 95 49 ec bf 64 05 a0 bd 13 7e ff be
       -0.33236888 -1.8459955 -0.07813528 -0.49900874
0000a0 0e 2b d4 3d df 04 9d bf 10 31 c5 3e 4b ba 5a 3f
       0.103597745 -1.2267112 0.38513994 0.8544051
0000b0 d7 bb 5d bf 3c 36 93 bf 4f 65 e7 be 92 40 53 be
       -0.86614746 -1.1500926 -0.4519448 -0.206301
0000c0 96 d1 e2 3e a2 0e 2c 3f 39 b7 80 3f 3c 5b 85 bb
       0.44300526 0.6720983 1.0055915 -0.004069714
0000d0 d0 cd 9e bc f4 34 51 3f 24 39 57 be cd 1c 8d 3f
       -0.019385248 0.81721425 -0.21017891 1.1024414
0000e0 f4 93 43 3e a9 da 76 3e 53 68 4a bd 60 1e b2 bd
       0.19099408 0.2410685 -0.049415898 -0.086972
0000f0 3e e4 6d bf b8 db 07 bf ce 00 d1 be 17 d2 05 bd
       -0.92926395 -0.5306964 -0.40820926 -0.03267106
000100 1d 48 99 bc 6f 71 71 bf 6c 34 92 bf 16 14 49 c0
       -0.018711144 -0.9431371 -1.1422248 -3.141851
000110 90 01 9f bd 4e 20 3b 3e ed cd 88 bf 7e a1 2b bf
       -0.0776397 0.18274042 -1.0687844 -0.6704329
000120 d8 44 1e 3d ac e0 bc be 45 0a 05 3f c7 4d c0 be
       0.038639873 -0.3689016 0.51968795 -0.3755934
000130 8e 61 d3 be bf f3 5d 3f cd 2e 55 3f dd e1 b0 bf
       -0.41285366 0.8670005 0.8327454 -1.3818928
000140 5b 84 4b bf 75 9f 2c be 2d 68 75 3f d3 dd a4 3e
       -0.79498833 -0.16857703 0.95862085 0.32200488
000150 f2 f8 42 3f e5 c2 5d 3e 5e ce 34 be 69 1f 2e 3f
       0.7616111 0.21656378 -0.17656848 0.6801668
000160 f3 d8 56 bf 53 fe f0 3e 11 4f da 3d 64 6a 5a 3d
       -0.8392479 0.47069034 0.10659612 0.05332412
000170 15 6f 38 bf 5b 2e 53 3f 09 a2 57 bf 5d fb b3 3f
       -0.720445 0.8249261 -0.8423162 1.4061085
000180 92 47 54 3f fd 18 c5 3d b8 78 4b 3f bc 4e ca 3e
       0.8292171 0.09623907 0.7948108 0.39513195
000190 aa 22 0a bf f0 11 04 40 9d fd 09 be 7a a9 e5 3e
       -0.53959143 2.0635948 -0.13475652 0.44855863
0001a0 f4 fe 02 3f 38 6c 9c be 0b 96 bc 3d 31 f9 d7 bf
       0.5117028 -0.30551314 0.09208306 -1.6872922
0001b0 5f 7d ad bf 44 0a 03 c0 36 6f 82 3d 1d 74 2e 3e
       -1.3553885 -2.0475016 0.06368868 0.17036481
0001c0 9b c5 da be fc c3 0c 3f 6f 3d f2 3e 5f 02 f5 be
       -0.42728886 0.5498655 0.47312495 -0.47853372
0001d0 3d 3a c0 bc 3e a3 b0 3f 02 15 78 3e 6f b8 94 bf
       -0.02346527 1.3799818 0.24226764 -1.1618785
0001e0 58 65 6b be 0f 46 9c bc 07 b9 ff be 97 86 d0 be
       -0.22987878 -0.019076375 -0.49945852 -0.40727684
0001f0 c0 60 ab bf 40 a6 82 bf 0f 68 fd be 68 b8 2d bc
       -1.3388901 -1.0206985 -0.49493453 -0.010603048
000200 4d 8e 48 bf 4a d0 dd 3f 76 a9 ab 3f 78 86 07 c0
       -0.78342134 1.732919 1.341109 -2.1175823
000210 77 7f 14 bf 7b 82 e8 3e d1 0e bc bf e7 25 39 3f
       -0.58006996 0.4541205 -1.4692022 0.7232346
000220 d0 83 e9 3d 6e 4f be 3e b4 c9 7f bf 5a 86 24 3f
       0.11402094 0.37169975 -0.9991715 0.64267504
000230 81 b3 a7 3f 87 76 7a 3f d3 40 8d bf d1 f1 a5 bf
       1.3101655 0.9783711 -1.1035408 -1.2964422
000240 73 60 a0 3f 78 3a 72 bf 33 00 f8 3f 43 26 a2 3f
       1.2529434 -0.94620466 1.9375061 1.2667927
000250 f7 42 90 3f 1a 28 c3 3f 20 18 32 bf a8 85 55 bf
       1.1270436 1.5246613 -0.6956806 -0.8340707
000260 c1 e4 df 3e 41 46 14 3e 38 77 2a 3f 2f b5 65 3f
       0.43729213 0.14479925 0.66588163 0.8972959
000270 e5 32 77 3f 6c d3 62 bf 1b 2c 93 bf 4f 92 30 3d
       0.96562034 -0.88603854 -1.1497835 0.04310828
000280 0a 64 be 3f 5b 87 a3 bf e3 79 d3 bf ec f6 53 3f
       1.487428 -1.2775682 -1.6521572 0.8279865
000290 b5 b1 50 3e 55 fb c8 3f e4 73 22 bf ea f5 d4 3d
       0.2038029 1.57017 -0.63458085 0.10398467
0002a0 64 34 0e bf ae c1 8c 3f 7e 48 e5 3d 08 21 d7 bf
       -0.5554869 1.0996606 0.111954674 -1.6806955
0002b0 e3 af ec bf b5 e7 6c 3f ad 44 7e 3f b8 64 8b bf
       -1.8491176 0.92541057 0.9932354 -1.0890112
0002c0 64 73 2a 3f 71 82 72 bf 8b b2 95 3f c3 95 92 3e
       0.6658232 -0.9473029 1.1695112 0.28629884
0002d0 da 05 6f 3d 65 8d 73 3f 0d 6f 9f 3b 4e 70 cb 3f
       0.05835519 0.95137626 0.004865533 1.5893648
0002e0 09 05 f8 bd 4f e0 59 3f 91 4c 4e 3f 15 e4 7d be
       -0.121103354 0.8510789 0.8058558 -0.24794038
0002f0 60 42 76 3f c8 d9 72 3f d0 50 92 bf 64 e8 54 3c
       0.9619503 0.9486356 -1.1430912 0.012994859
000300 90 8b 62 3e bd a9 ab 3d 59 e9 4e bf 8f 20 8e 3f
       0.22123551 0.083819844 -0.8082481 1.1103686
000310 4f b5 0c 3e ec 5c 03 3f 97 f1 06 bf cc 5b 92 bb
       0.13741039 0.5131366 -0.52712387 -0.0044665094
000320 b1 6e 9a bd c1 9a 7e be 63 8a 59 bf 67 98 bb be
       -0.07540644 -0.24863721 -0.84976786 -0.3663971
000330 b4 22 24 be f2 9c 28 3f 1e 33 4d 3f 83 d0 86 bf
       -0.16028863 0.6586448 0.80156124 -1.0532383
000340 83 0e 6f be 8a b1 dc 3e 46 51 14 3f 08 b5 47 3f
       -0.2334538 0.43104202 0.57936513 0.78010607
000350 79 97 47 3f 24 37 52 3f 04 bc 13 3f 1f 64 b6 bf
       0.77965504 0.8211539 0.57708764 -1.4249305
000360 8f 43 95 be 06 90 15 bf 28 19 a1 3e b5 cb 00 3f
       -0.29153106 -0.5842289 0.31464505 0.5031083
000370 f8 43 eb 3e 0e 03 6b 3f 41 0d 5d 3f 16 93 6f 3f
       0.45950294 0.91801536 0.8634835 0.9358381
000380 74 88 86 3f 02 d6 ad bd 0a bf da 3f cb 24 c0 be
       1.0510392 -0.084880844 1.708955 -0.3752807
000390 f6 ed 1f be a4 80 39 bf e2 1f 45 3d c4 2f 1e bf
       -0.15618119 -0.72461915 0.04812611 -0.61791635
0003a0 57 d4 ef 3e a8 9d d4 bf 71 fd 62 3e a4 5c e7 3e
       0.4684169 -1.6610613 0.22166993 0.45187867
0003b0 d0 12 8f bf 5f d2 80 be 4c ca ff bc d2 8b 08 3f
       -1.1177616 -0.251605 -0.031224392 0.5333835
0003c0 50 13 e7 3e 8e 13 46 3f b7 98 7e 3f 33 d8 f0 3b
       0.45131922 0.7737359 0.99451774 0.0073499917
0003d0 7d 1f 97 bd f2 ac 64 3f 37 18 94 be 39 4c 3c 3f
       -0.07379053 0.89326394 -0.28924724 0.73553807
0003e0 68 e9 9b 3e bc 4b f4 3e e8 0a 1e 3e 35 87 5b be
       0.30451512 0.4771403 0.15433848 -0.21438296
0003f0 39 29 88 3e 7c d3 7e be 78 e5 f9 be 81 f1 2d 3e
       0.2659395 -0.24885362 -0.48807883 0.16986658

rnn.weight_hh_l0 f4 [256, 64]
000000 42 e4 8b 3d 13 65 01 bf 03 cf 2e 3f 87 f6 44 3f
       0.06830646 -0.5054485 0.68284625 0.7693867
000010 66 0d a3 be ef da 08 be 09 d3 17 bf 59 d3 f3 3e
       -0.3184616 -0.13364767 -0.5930639 0.47622183
000020 bd da 3a 3d 68 21 a5 bc 20 03 49 bf 9f 57 9d 3d
       0.04561876 -0.02015753 -0.78520393 0.07682728
000030 cd 0d c6 3e 70 04 53 bf 49 0b 4e 3e 29 fe 6d bf
       0.38682404 -0.82428646 0.20121492 -0.9296594
000040 7d 87 d3 3f 55 95 39 3e 51 fb 1b bf 46 20 28 bf
       1.6525723 0.18123372 -0.60930353 -0.65674245
000050 7d ae 8b be 29 e6 8a be 15 7d 45 3e 51 ac 5e bf
       -0.27281561 -0.27128723 0.19285996 -0.86981684
000060 12 e6 c6 3c 4c 03 7e 3e 40 00 4f 3e f7 83 8d bd
       0.024279628 0.24805945 0.20214939 -0.06909936
000070 23 90 06 3e 6a a9 b6 3d fe fd b2 3d ad 4e a0 bf
       0.13140921 0.08919032 0.087398514 -1.252401
000080 e7 f0 1d bf dd 04 a3 bd b6 7b 90 3f 7c e1 10 3e
       -0.6169571 -0.07959912 1.1287754 0.14148515
000090 c8 7e 24 bd ef 52 92 3f 4a 03 54 be 71 45 c5 3d
       -0.04015997 1.1431559 -0.2070438 0.096323855
0000a0 a6 a6 05 3d ec 47 59 3f c9 43 58 be f4 64 d1 be
       0.03262963 0.8487537 -0.21119608 -0.40897334
0000b0 a0 90 b2 be e1 ce ff be 64 56 70 3e a8 96 26 3e
       -0.34875965 -0.49962524 0.23470455 0.16268408
0000c0 1c b0 dd 3d a0 5e 99 3e 79 1a 52 be 72 81 2d be
       0.10824606 0.29955006 -0.20517911 -0.1694391
0000d0 24 24 7a 3d 2d 7f d9 be 6b 0c 5e 3e c0 1c dd 3f
       0.061069623 -0.4247984 0.21684425 1.7274399
0000e0 20 b2 1f bd fe 0f ae be 9c 26 be 3e c8 01 03 bd
       -0.038988233 -0.33996576 0.37138832 -0.03198412
0000f0 c8 7e 06 bf cc 4b 88 3f 56 25 5e bb 57 c0 2f bd
       -0.525372 1.0648131 -0.0033896766 -0.04290804
000100 3c 79 66 bf 67 c3 25 bf 0e 7d cc 3d 54 ff 3f bd
       -0.9002874 -0.64751285 0.0998479 -0.04687436
000110 c0 2f 2c bf f1 13 a2 3e 64 2d 12 bf 8c 6b be 3f
       -0.6726036 0.3165584 -0.5710051 1.4876571
000120 45 62 88 be 9c 49 03 3f fb f9 81 c0 88 b0 2e 3f
       -0.26637474 0.51284194 -4.061765 0.68238115
000130 a4 f8 d1 3e c0 21 48 c0 d5 1e 9d 40 77 d3 0c c0
       0.4101001 -3.12706 4.9100137 -2.2004068
000140 f5 bc 66 40 e6 00 27 bf 52 c1 ef 3a 74 1a 35 bf
       3.605283 -0.65235746 0.0018291867 -0.7074349
000150 86 f6 46 bc bc 35 1d bf 52 1e 88 3f 87 a1 85 be
       -0.012143737 -0.6141012 1.0634253 -0.26099798
000160 ab d2 11 3e 57 95 70 bd 36 c3 ba be 06 08 92 3e
       0.1424052 -0.05873617 -0.3647706 0.28521746
000170 68 e3 c7 3e 00 48 11 40 ac e0 10 3f fd f2 17 c0
       0.39040685 2.2700195 0.5659282 -2.3742058
000180 0c eb 35 bf d1 91 ba be 28 da 73 40 e8 5e 51 c0
       -0.7106178 -0.36439374 3.8101902 -3.2714176
000190 b0 82 56 bf 78 94 92 bd 6e 04 76 bf 5c ca e6 3d
       -0.83793163 -0.071572244 -0.9610051 0.11269066
0001a0 92 07 cd be 5d 90 b4 3f 76 b1 23 3e 29 2d 8b bf
       -0.40044838 1.4106556 0.15985665 -1.0873157
0001b0 db e2 22 c0 cf b5 7c 3f 92 a9 68 3d c8 b5 69 be
       -2.5450962 0.9871492 0.05680234 -0.2282325
0001c0 ae f0 b6 3f 49 b0 54 3f aa 36 ff bf f3 a2 83 bf
       1.42922 0.8308149 -1.9938557 -1.0284103
0001d0 06 da 4c bf f2 87 2f c0 11 bd a8 be dc c1 45 3f
       -0.8002018 -2.7426724 -0.32956746 0.7724893
0001e0 34 0e 12 3f 4b 21 a9 3d 48 9d ea 3e f2 b9 3a bf
       0.5705292 0.08258303 0.4582312 -0.7293998
0001f0 ce 6b a7 3f cf 3e af 3f e7 0b 2e 3f 37 33 aa be
       1.3079774 1.3691043 0.6798691 -0.332422
000200 36 d1 c5 3f 0a 41 04 c0 ea 32 1d bf f3 bd bb 3f
       1.5454471 -2.0664697 -0.61405814 1.4667343
000210 a8 07 50 3f fe ee 93 bf e9 c8 af bf db 30 ad bc
       0.8126168 -1.155731 -1.3733188 -0.02114146
000220 42 86 bf be 88 19 57 bf 32 b5 84 3f 76 6e 9b bf
       -0.37407118 -0.8402333 1.0367796 -1.2143085
000230 ab 99 87 bf 0f cf c0 3f 0f 7c bc bf 55 7b 0a bf
       -1.0593771 1.5063189 -1.472536 -0.5409444
000240 48 8d 55 bf 17 ee 17 40 42 70 67 be 5f 64 59 c0
       -0.83418703 2.3739069 -0.22601417 -3.3967512
000250 2d 29 44 c0 87 87 42 bf 2f a0 ec 3f 6a 05 3e c0
       -3.0650132 -0.7598805 1.8486384 -2.9690804
000260 6c bd 2c bf b6 c3 c1 3e bc 69 37 bf 29 aa ea bf
       -0.67476535 0.37844628 -0.7164571 -1.8333179
000270 61 e6 34 bf a0 87 8f bf 14 54 6b 3d e4 fb 12 c0
       -0.7066403 -1.1213264 0.05745323 -2.2966242
000280 81 b9 0a c0 fd 98 c9 3f 30 ab 65 40 1c ee dc 3e
       -2.1675723 1.5749813 3.5885735 0.43150413
000290 2d b1 85 be e5 74 ee 3d 5a 3b a0 3f 4d 5d c6 3e
       -0.26111737 0.116433896 1.2518113 0.38743058
0002a0 67 a2 c6 3f dc 89 2c bf 8e 2c c1 be ae b1 d1 3f
       1.5518311 -0.67397857 -0.37729305 1.6382349
0002b0 0f 5e 56 bf d3 cf 1d 3e f5 43 03 3f 05 6c c2 3e
       -0.8373727 0.1541131 0.5127557 0.37973037
0002c0 0b 04 23 bf cd 18 26 40 5a fc 4d bf a8 7b 2e bf
       -0.63678044 2.5952637 -0.8046318 -0.68157434
0002d0 0a b9 9f ba f6 25 ee 3e 58 76 95 3e 99 2f e1 bf
       -0.0012185883 0.46513337 0.29191852 -1.7592651
0002e0 06 eb d7 3e 31 8b b5 bf 22 b5 47 bf be 80 0c 3f
       0.42171496 -1.4183103 -0.7801076 0.54883945
0002f0 dc 07 33 bf 58 e0 36 bf c0 f3 b8 3d 82 51 2a 3e
       -0.6993387 -0.7143607 0.090308666 0.16632655
000300 62 8b 10 3f fc 34 6b bf bc 02 34 40 69 a5 2b 3f
       0.5646268 -0.9187772 2.812667 0.6704927
000310 2b 03 c9 bd 39 b9 a0 bf 12 7e 8d 3f b6 62 ff be
       -0.09815057 -1.2556525 1.1054099 -0.49879998
000320 e7 80 59 3e f4 f3 72 be e9 a8 89 bf 64 18 10 3f
       0.21240579 -0.23725873 -1.0754672 0.5628722
000330 66 24 5a be b1 07 b4 bf 27 7d 9b 3e 38 93 96 3e
       -0.21302947 -1.4064847 0.3036892 0.29409194
000340 bc d8 e0 be 88 4e 89 3f e4 82 c1 bf 1d 09 74 bf
       -0.43915355 1.0727091 -1.511807 -0.95326406
000350 33 d5 12 bf a9 88 db bf e2 90 97 3e 52 de 93 3f
       -0.57356566 -1.715108 0.29602724 1.1552222
000360 2e 30 d5 bc 33 70 45 3f 3a e8 7c 3e 88 a0 9e bf
       -0.02602395 0.7712433 0.24697962 -1.239274
000370 05 3a 6b bf 1a 6f a4 3f a0 db 64 3f f6 27 9e 3e
       -0.91885406 1.2846406 0.8939762 0.30889863
000380 b3 47 61 bf 37 c1 14 3c 7b 26 da 3f 47 08 e1 3f
       -0.8800003 0.009079269 1.7042993 1.7580651
000390 a7 c4 bb 3e fb 3f d9 be a9 6a 25 3e ec 42 62 3f
       0.3667347 -0.42431626 0.16153969 0.88383365
0003a0 92 20 3f 3f e1 6a 85 40 77 1e 32 bf c4 ad b1 3f
       0.74659073 4.1692967 -0.69577736 1.3881154
0003b0 87 60 12 3f 25 f0 ba 3d 66 fe 6c bf 4b 69 c2 3f
       0.5717854 0.09127835 -0.9257568 1.5188383
0003c0 40 05 c8 be cc b2 84 3e b7 00 0b bf 77 bc 85 3d
       -0.39066505 0.2591766 -0.54297966 0.065300874
0003d0 1b 69 8b 3e 5f fd b2 bf 46 74 22 3f f2 95 43 bf
       0.27228627 -1.3983573 0.6345867 -0.76400673
0003e0 b4 c7 23 3e 98 fb bc bf b9 8e 68 3d 09 08 e1 3e
       0.1599415 -1.476428 0.056776736 0.43951443
0003f0 80 a0 8f bf f0 f9 87 3f f7 66 3b bf ab f8 22 bf
       -1.1220856 1.062315 -0.73203987 -0.6366069

rnn.bias_ih_l0 f4 [256]
000000 8b 3b 8c bf 4b 4d ac bf 06 2a a7 be 3e 0a fd be
       -1.0955671 -1.3461088 -0.3264925 -0.49421877
000010 44 b1 9a bf 33 1e c0 bf 34 d4 c3 bf 54 08 7d bf
       -1.2085347 -1.5009216 -1.5299134 -0.9884083
000020 3f 3a 00 c0 af 9f da bf 98 b3 85 bf b9 43 9d bf
       -2.003555 -1.7079982 -1.0445433 -1.2286292
000030 a4 72 8e bf f8 dc c9 bf a4 d0 a3 bf ca 90 89 bf
       -1.1128736 -1.5770559 -1.2798047 -1.0747311
000040 2a c6 c8 be 5a 29 92 bf 74 f5 9e bf 40 bd 43 bf
       -0.39213687 -1.141887 -1.2418656 -0.7646065
000050 e8 ea 50 bf ee 7f 9e bf 5b 85 c6 bf 15 6d 90 bf
       -0.8160844 -1.2382791 -1.5509447 -1.1283289
000060 0b f4 d6 bf 50 a9 d5 bf c9 52 98 bf b0 c3 a7 bf
       -1.6793226 -1.6692295 -1.1900264 -1.3106594
000070 6f dc a3 bf f4 5b b6 bf 23 74 ac bf 20 79 64 bf
       -1.2801646 -1.4246812 -1.3472942 -0.8924732
000080 a9 6b 57 bf a4 44 89 bf e9 18 11 bf 33 eb a4 bf
       -0.8414865 -1.0724072 -0.56678635 -1.2884277
000090 ce b4 d2 bf 79 8a 96 bf 3b f0 8c bf 39 76 ea bf
       -1.6461427 -1.1761009 -1.1010813 -1.8317329
0000a0 b1 b5 cd bf fc e1 57 bf b6 8b db bf b4 3f 4a bf
       -1.6071073 -0.843292 -1.7152011 -0.79003453
0000b0 36 ad 96 bf f5 02 b7 be a1 6b 6c bf 5d ae 5a bf
       -1.177161 -0.35744444 -0.9235173 -0.8542231
0000c0 d9 62 b4 bf fd 57 94 bf bd 52 9e bf 2a ba d8 bf
       -1.4092666 -1.1589352 -1.2369 -1.6931813
0000d0 0b c9 e3 bf a4 f4 d5 bf c6 b9 ce bf 11 31 da be
       -1.7795728 -1.6715283 -1.6150444 -0.4261556
0000e0 d0 7f d7 bf ef bc b9 bf f8 74 69 bf cc ae e4 bf
       -1.683588 -1.4510783 -0.91194105 -1.7865844
0000f0 6b bd a7 bf 1c 22 50 bf ee b0 a1 bf 02 ea d7 bf
       -1.3104681 -0.81302047 -1.263212 -1.6868289
000100 7b db 25 be 75 2d bf bf 52 f9 f4 bf 33 c8 ad 3f
       -0.16197006 -1.4935747 -1.9138587 1.3576721
000110 4e ff 0a bf e8 d9 1e bf ab 8d a5 3f 40 f6 44 be
       -0.54295814 -0.6205125 1.2933859 -0.19234562
000120 cb 21 24 bf 5a 49 44 bf 4f 38 4f bf 63 9a 17 bf
       -0.64114064 -0.76674426 -0.80945295 -0.5921995
000130 7d fd c3 3d 81 da 3f 3f bc 2c 9a 3e 5a e8 c4 bd
       0.095698334 0.74942786 0.30112255 -0.0961463
000140 88 e4 5b be 1e 0e a1 be 9b c9 8b 3f ae 1b 80 bf
       -0.21473897 -0.31456083 1.09209 -1.0008447
000150 3a 47 0d bf eb d1 3f bf 71 b8 72 bf 1b 43 4a 3f
       -0.5518681 -0.74929684 -0.94812685 0.79008645
000160 2e 7f 60 bf c4 f4 23 bf ef ce c1 be ef df f3 be
       -0.8769406 -0.6404536 -0.3785319 -0.47631785
000170 b3 d0 15 bf 1c 28 71 be 3a 01 99 bf d5 b8 97 bf
       -0.58521575 -0.23550457 -1.1953499 -1.1853281
000180 3c bf 99 be e1 a4 2a 3e 36 af f8 be c5 1e 5e bf
       -0.30028713 0.16664459 -0.48571175 -0.867657
000190 1f 09 60 bf 41 d9 d4 bd 17 21 9a be f5 cb 3b bf
       -0.8751392 -0.103930004 -0.3010337 -0.7335809
0001a0 a3 47 04 bf 08 73 06 c0 4c d8 2b bf 3f bd 7e bf
       -0.5167181 -2.100771 -0.6712692 -0.99507517
0001b0 d9 58 8b 3f 51 bd 92 3f 3d e9 39 be a8 16 d8 bd
       1.0886489 1.1464025 -0.1815538 -0.10551196
0001c0 d0 5b 8b bf 1d 76 17 bf 3c f2 b4 3c 2b af 82 bf
       -1.0887394 -0.591646 0.022088163 -1.0209707
0001d0 27 4a 35 bf 2c e6 ae 3e 01 54 ea be 6a 38 ee bf
       -0.7081627 0.34159982 -0.45767215 -1.8610966
0001e0 70 59 4b bf e4 b9 c4 be e3 28 c2 be 3f 23 6c bf
       -0.79433346 -0.38423073 -0.3792182 -0.9224128
0001f0 08 c5 9a 3f 1c 27 78 bf 72 3b b0 bf c9 96 53 bf
       1.2091379 -0.96934676 -1.3768141 -0.82651955
000200 2e 07 cb 3b 1c c7 a6 be 0b bf 46 3e 99 23 ea 3d
       0.0061959242 -0.32573783 0.19408815 0.11432571
000210 68 69 b1 bc 08 d3 69 3d c7 74 f3 be 77 23 85 bd
       -0.021656707 0.05708602 -0.47550032 -0.06500905
000220 2e 1f 02 3e dc e3 eb bb de ab 1c bc 0a f2 c0 3d
       0.12707207 -0.007198794 -0.009562461 0.09421165
000230 42 ad 43 3e 2a 6f 2d be 24 f4 12 3d ec c6 ed be
       0.19109061 -0.16936937 0.035877362 -0.46440828
000240 55 79 0a 3d 48 0a cf bd 2b fd 78 be ef 17 df bc
       0.033807117 -0.10109383 -0.24315326 -0.027233092
000250 7c 6e d9 ba 9b eb 95 be a0 61 cc bc 70 cd 70 3e
       -0.0016588713 -0.29281315 -0.024948895 0.23515868
000260 69 9b f0 bc 0f 95 8f 3c 79 77 fd bc 7d f2 03 bd
       -0.02937098 0.017527131 -0.030940758 -0.032213677
000270 73 b3 29 3e e8 62 82 3d b2 cc a3 3e 5a d0 ae be
       0.1657236 0.06366521 0.31992108 -0.34143335
000280 65 c0 1b be d1 92 50 bc 2a d5 c6 3d f0 eb 28 3c
       -0.15210111 -0.012730316 0.097086266 0.010310158
000290 f9 76 ee 3c 0e 32 bf 3d 5f fe 01 3c bf 5b d7 bd
       0.029109465 0.09335719 0.007934182 -0.10515546
0002a0 39 c3 a7 bd cf 41 b6 bd b4 58 c1 3c 34 71 05 be
       -0.08191533 -0.08899271 0.023601867 -0.13031465
0002b0 32 f7 11 bd 62 b5 31 3e 38 73 ef 3d 77 63 7e bd
       -0.035636134 0.17354348 0.11691898 -0.062106576
0002c0 73 1c cd 3c 42 98 70 3d 99 3f b4 bc 84 cc 87 3d
       0.02503798 0.058738954 -0.022002982 0.06630805
0002d0 3b f3 aa 3d 18 96 a1 bd ac 8e 13 bc 8c 5b 2b 3e
       0.08347174 -0.07889956 -0.009006184 0.16734141
0002e0 95 30 77 3d 09 87 87 bc 0c 69 8a 3d a3 29 fb bb
       0.060349066 -0.016543882 0.06758317 -0.0076648756
0002f0 44 5e 8a 3e 8d 9e 4c bd e0 df 28 be 1d dc 9e 3d
       0.27025044 -0.049955893 -0.16491652 0.07756827
000300 f5 71 80 bf 53 f5 88 bf 38 ba 84 be 32 53 95 be
       -1.0034777 -1.0699867 -0.25923324 -0.29165035
000310 ab 10 93 bf 76 01 91 bf 5d 5c 38 be 9e 4d 8f bf
       -1.1489462 -1.1328571 -0.18003984 -1.1195562
000320 ae 97 f8 bf 65 4b c0 bf d0 c1 64 bf 43 89 79 bf
       -1.9421289 -1.5023009 -0.89358234 -0.9747507
000330 e4 d9 7c bf 6c 6a 0a bf db d5 30 bf c3 a0 02 be
       -0.98769975 -0.54068637 -0.6907632 -0.12756638
000340 ad c8 bc be 1a 12 74 bf 68 a9 b5 3d 83 f6 66 bf
       -0.36871853 -0.9534012 0.08870202 -0.902199
000350 55 32 3f bf d9 b4 89 bf 22 6c b0 bf c5 77 41 bf
       -0.74686176 -1.0758315 -1.3783 -0.7557338
000360 9e ed c5 bf e2 5f d1 bf 0c be 86 bf ef d8 90 bf
       -1.546314 -1.6357386 -1.0526748 -1.1316203
000370 22 17 82 bf 68 c0 61 bf 19 32 bb bf 88 6e 8a bf
       -1.016331 -0.88184214 -1.4624664 -1.0814981
000380 3a 0f 20 bf f2 04 56 bf 24 22 b4 be dd 17 92 bf
       -0.62523234 -0.83601296 -0.35182297 -1.1413532
000390 fe d0 b8 bf 21 2a 0e bf 53 1f 91 bf 37 96 cb bf
       -1.4438779 -0.55533034 -1.1337684 -1.5905217
0003a0 33 0a b2 bf 2c 49 36 bf 8d aa de bf 02 bf 45 bf
       -1.3909363 -0.712054 -1.7395798 -0.7724458
0003b0 7d 7f 1c be 34 4a e1 be 31 8f 94 bf a0 b5 7e bf
       -0.15283008 -0.44001925 -1.1606199 -0.9949589
0003c0 a7 58 c5 bf 32 db 90 bf d6 5b 74 bf d6 55 c2 bf
       -1.541768 -1.1316893 -0.9545263 -1.5182445
0003d0 7b d5 e6 bf 57 1d 7b bf 93 71 d3 bf fe f9 16 bf
       -1.8033899 -0.98091644 -1.6519035 -0.5897521
0003e0 9b 12 ce bf 07 1c 86 bf 0c af 6f bf 07 0b cb bf
       -1.6099428 -1.0477303 -0.93626475 -1.586274
0003f0 fc 26 f8 be a0 71 0a bf c8 e7 9f bf fe ba d9 bf
       -0.48467243 -0.5407963 -1.2492609 -1.701019

rnn.bias_hh_l0 f4 [256]
000000 d1 5c 97 bf a5 d5 b1 bf ce 12 a3 be 5f a3 06 bf
       -1.18252 -1.3893324 -0.31850284 -0.52593035
000010 3a 8d 9c bf 01 43 c8 bf 28 1a d0 bf f3 c7 8e bf
       -1.2230599 -1.5645448 -1.6257982 -1.115477
000020 20 15 00 c0 d1 1e d3 bf 9b a6 7c bf 24 22 a7 bf
       -2.0012894 -1.649378 -0.9869172 -1.3057294
000030 2e 4f 98 bf d4 67 c6 bf 88 49 98 bf 20 35 96 bf
       -1.1899164 -1.5500436 -1.189744 -1.1734962
000040 86 b8 58 be 02 d2 90 bf d4 5e b1 bf d0 86 4d bf
       -0.2116414 -1.1314089 -1.3857064 -0.8028383
000050 e8 13 85 bf 8a 72 a4 bf 1f be c6 bf c7 ab 6b bf
       -1.03967 -1.2847455 -1.552677 -0.92058986
000060 2c a0 c7 bf c0 ae ed bf 51 41 b4 bf be 6e b4 bf
       -1.5595756 -1.8568954 -1.4082433 -1.4096296
000070 37 06 98 bf e6 bd c9 bf bf 3e b6 bf af 3f 83 bf
       -1.1876897 -1.5761077 -1.4237899 -1.025381
000080 5b c2 61 bf 62 56 6e bf 7d 40 1e bf 47 8a a5 bf
       -0.8818719 -0.9310056 -0.6181715 -1.2932824
000090 38 06 c2 bf 59 ba 9b bf 53 44 a0 bf ed 1f d2 bf
       -1.5158148 -1.2166244 -1.2520851 -1.6415993
0000a0 5f ba c4 bf 36 3b 54 bf 8e 40 e1 bf 16 29 76 bf
       -1.5369376 -0.8290285 -1.7597826 -0.9615644
0000b0 75 87 91 bf b9 a6 aa be 45 fa 6f bf 8d dd 7c bf
       -1.1369463 -0.33330324 -0.93741256 -0.9877556
0000c0 b1 a8 b5 bf 21 12 82 bf 61 c1 a1 bf 8e b1 db bf
       -1.4192106 -1.0161783 -1.263714 -1.716356
0000d0 25 d4 f2 bf 5a d0 c1 bf 56 25 d5 bf b1 97 cb be
       -1.8970991 -1.5141709 -1.6652019 -0.3976417
0000e0 28 27 de bf f5 50 b5 bf 06 42 6b bf b4 cf dc bf
       -1.73557 -1.4165331 -0.9189762 -1.7250886
0000f0 a3 eb 99 bf b2 cd 27 bf 1b 65 ac bf dc a1 e8 bf
       -1.2025036 -0.6554824 -1.3468355 -1.8174396
000100 a9 18 eb bd af 56 bb bf ce 3f dd bf 5f 54 95 3f
       -0.11479313 -1.4635829 -1.7285097 1.1666373
000110 8c 40 22 bf f3 c8 13 bf 9d 58 b7 3f 76 32 66 be
       -0.6337974 -0.577285 1.4323918 -0.22480187
000120 b2 6e 29 bf c8 ef 52 bf b5 f1 6e bf 73 66 1c bf
       -0.6618453 -0.8239713 -0.93337566 -0.61093825
000130 5f ec cb 3d ff 7f 24 3f 34 ed e5 3e 07 ec 66 be
       0.099571936 0.64257807 0.44907534 -0.22550975
000140 89 8d 9b be 01 a9 b9 be 3f fc a5 3f f0 cc 77 bf
       -0.3038142 -0.36261752 1.2967604 -0.96797085
000150 4c 34 fe be 7d b2 16 bf 47 56 6a bf f1 bb 4f 3f
       -0.49649274 -0.588661 -0.915379 0.8114615
000160 f4 db 2b bf 78 91 19 bf c1 17 e4 be dc 36 19 bf
       -0.67132497 -0.5998759 -0.44549373 -0.59849334
000170 00 2f d9 be 9a 0c ed bd b4 60 a1 bf 57 1a 90 bf
       -0.4241867 -0.11574669 -1.2607636 -1.1258038
000180 e8 cd a4 be ee 38 8a bc fe bc e1 be bb 99 88 bf
       -0.32188344 -0.01687285 -0.44089502 -1.0671915
000190 2f 76 5d bf 28 e8 00 be e7 60 d9 be 59 a9 38 bf
       -0.8650846 -0.1258856 -0.42456743 -0.72133404
0001a0 e7 93 e5 be 2d fc 00 c0 30 83 33 bf 5b 0d 7b bf
       -0.44839403 -2.0153916 -0.7012205 -0.98067254
0001b0 8d e3 a2 3f 0b 9b 91 3f 9f 96 56 be 9e 43 6a be
       1.2725693 1.137544 -0.20955895 -0.22877356
0001c0 58 82 61 bf 25 9f 30 bf b7 bb 05 bd e8 f5 6f bf
       -0.88089514 -0.68992835 -0.032649722 -0.937346
0001d0 87 1c 68 bf 17 3d 83 3e 8b ff c9 be 3a d6 d8 bf
       -0.9066853 0.25632545 -0.39452776 -1.6940377
0001e0 a2 b6 6a bf 12 39 f6 be 71 12 0d bf 07 98 67 bf
       -0.91684926 -0.48090416 -0.55106264 -0.9046635
0001f0 96 fc 8b 3f ba f5 70 bf 6b 7e a8 bf 5d 05 3e bf
       1.0936458 -0.9412495 -1.316358 -0.74226934
000200 07 23 1f bd b1 a0 af be 17 89 9b 3d c5 25 75 3d
       -0.038851764 -0.34302285 0.07594507 0.059850473
000210 a0 bc 2d 3d bc 5c a9 bc 51 31 75 be df b2 af 3c
       0.042416215 -0.020674102 -0.23944594 0.021447597
000220 6a 36 b8 bd 6d 30 ef 3c 13 60 40 be 80 60 09 3d
       -0.08994754 0.029197896 -0.1878665 0.033539295
000230 d9 a1 02 3e 47 eb 63 be 04 5e 99 3b e8 a4 8b be
       0.12757052 -0.2225772 0.004680397 -0.2727425
000240 f7 04 25 3c 52 1c a2 bc 01 0a 86 be 8f 48 a1 3d
       0.0100719845 -0.019788895 -0.26179507 0.078751676
000250 67 1a 69 bd c6 9b c4 bd 93 6d d9 3d 25 42 e6 3d
       -0.056909945 -0.09600024 0.10616603 0.11243085
000260 4b e8 9f 3c 7b 3f 0e bd 52 86 76 3d 4c 26 b6 3d
       0.019519946 -0.03472851 0.06018669 0.08894023
000270 98 80 2c 3d ef 21 a8 3c 41 bd 43 3e 9e 95 ae be
       0.042114824 0.020523993 0.19115163 -0.34098524
000280 1a 0b a9 bd 69 87 ba bd 17 46 85 bc 36 d4 fa 3c
       -0.082540706 -0.09107859 -0.016268773 0.030618768
000290 a0 c8 89 3d 8c e1 61 3e d4 4d f9 bc a1 e2 9b 3d
       0.06727719 0.22058696 -0.03043262 0.076115854
0002a0 b2 ed 27 3d f2 25 27 bd ef a4 39 bd 40 51 26 be
       0.04099817 -0.04080767 -0.04532331 -0.16241932
0002b0 7a f5 7c bd 00 9d 79 3e 46 52 32 bd a7 6c b4 3d
       -0.061757542 0.24376297 -0.043535493 0.08809786
0002c0 78 5c ed 3d e1 29 4f bd 2c d8 00 be 4c 23 8e bd
       0.11589903 -0.05057705 -0.12582463 -0.06940326
0002d0 aa 79 9b bd 03 7f 44 be 73 b3 5d bd 0e 11 c3 3d
       -0.07591565 -0.19189076 -0.054126214 0.09524737
0002e0 97 76 5d bd bf 3c ae 3c 3f 60 87 bd 7f 76 ca bc
       -0.054068174 0.0212692 -0.06610154 -0.024714706
0002f0 32 f3 84 3e 26 ba ea 3a 82 0e 8d be 6f 59 0a bd
       0.25966793 0.001790826 -0.2755013 -0.033776697
000300 f6 84 84 bf af 81 9c bf 9a 54 5a be 64 9c 05 be
       -1.0353076 -1.2227076 -0.21321335 -0.1304794
000310 32 98 7e bf 70 0f 8a bf 3c c6 61 bd 75 a9 8a bf
       -0.9945098 -1.0785961 -0.05512069 -1.0832964
000320 6c e5 f2 bf 5b 3b d9 bf 70 7f 72 bf c7 3c 89 bf
       -1.8976264 -1.6971239 -0.94725704 -1.0721673
000330 7b 5b 5a bf 62 e9 eb be 49 7e 3a bf 0c 08 6a be
       -0.8529584 -0.46076494 -0.72848946 -0.22854632
000340 9d 36 b8 be 69 91 8d bf 0b cb 2d 3e db 60 62 bf
       -0.35979167 -1.1060001 0.16971986 -0.8842904
000350 69 9a 53 bf 5d 27 92 bf c8 6b b7 bf b9 e8 61 bf
       -0.82657486 -1.1418263 -1.4329767 -0.8824573
000360 ec eb af bf 6a 68 eb bf da 5e 9b bf 02 12 89 bf
       -1.3743873 -1.839124 -1.2138321 -1.070862
000370 0b 7a 9c bf 1a 56 81 bf 21 c7 be bf 36 b6 87 bf
       -1.2224745 -1.0104401 -1.4904519 -1.0602481
000380 a4 fb 1b bf 75 4e 86 bf 3b e9 42 be 6b 6d 6c bf
       -0.6093085 -1.0492693 -0.19034283 -0.9235446
000390 e2 ef be bf 95 2a 3f bf bb 41 9e bf d1 c1 c7 bf
       -1.4916956 -0.7467435 -1.2363809 -1.5606023
0003a0 9b d1 97 bf 40 85 41 bf 71 e4 d6 bf 64 9e 3c bf
       -1.1860842 -0.7559395 -1.6788465 -0.73679185
0003b0 24 e1 7e be 9f ce 01 bf e3 00 92 bf 0f 80 69 bf
       -0.24890572 -0.50705904 -1.1406521 -0.91211027
0003c0 fb 5c c3 bf 5a d8 91 bf 8a 74 78 bf d2 a9 c6 bf
       -1.526275 -1.139415 -0.97052824 -1.5520575
0003d0 e1 5a e1 bf e7 12 41 bf 4f 44 d2 bf fe d8 18 bf
       -1.7605859 -0.7541947 -1.6427096 -0.59706104
0003e0 5b 8a d5 bf 76 55 82 bf f4 a3 4d bf 93 de ce bf
       -1.6682848 -1.0182331 -0.803283 -1.6161674
0003f0 43 16 06 bf 76 0a 02 bf a8 6a 91 bf f6 03 db bf
       -0.5237772 -0.5079721 -1.1360674 -1.7110584

dense.weight f4 [1, 64]
000000 f9 d8 3d be f0 8d cb 3e d0 ca 96 3e 9b a7 3e bf
       -0.185398 0.39756727 0.2945161 -0.74474496
000010 7e 0a 24 be 8b 78 d8 3d 10 87 2e bf 90 f0 4d 3e
       -0.16019627 0.10569867 -0.6817484 0.20111299
000020 21 c3 15 3d ec f8 04 3e 7e b1 9c be 79 89 43 3e
       0.036563043 0.12985581 -0.30604166 0.1909541
000030 32 cd c5 3e a4 84 ec 3e b8 4a b7 be 85 6c 14 bf
       0.38633114 0.46194947 -0.35799193 -0.5797809
000040 fa ef da 3e 53 ae 58 be 3e e3 41 3f f4 93 5d 3e
       0.42761213 -0.2116025 0.7573737 0.21638471
000050 3c 0f 6f 3e a3 ee 03 3e 98 c2 53 bd 84 39 c7 be
       0.23345655 0.12884001 -0.05169925 -0.38911068
000060 7f 26 03 3e 89 96 af 3d 3a 57 59 3e f5 51 1f 3e
       0.12807654 0.08573634 0.2122468 0.15558608
000070 aa 29 4a 3e 23 8b ce be df ca 20 be fd bc a8 3c
       0.19742456 -0.40340528 -0.15702389 0.02059793
000080 86 aa bc 3e 16 ce be be 0a b8 f3 be cb 5f a7 3e
       0.3684885 -0.37266606 -0.47601348 0.32690272
000090 48 d2 1a 3d 2e ff 90 3e c7 31 3f be 00 35 04 3e
       0.037798196 0.28319687 -0.18671332 0.12910843
0000a0 cd 23 fe bd 75 47 a3 3e a9 58 28 3d 13 e7 5d be
       -0.12409172 0.31890455 0.041100178 -0.21670179
0000b0 48 61 26 bf ca 4a 07 3f 35 f7 ac 3e 8a bb be be
       -0.6499219 0.52848494 0.33782354 -0.37252456
0000c0 02 98 10 3e 49 7a 39 be 24 81 bf 3e c2 e3 9d 3d
       0.14120486 -0.18113054 0.37403214 0.07709457
0000d0 94 cb e3 3c 66 89 f6 3e 6f ab 83 3c 97 11 bf 3d
       0.027807035 0.48151702 0.016072957 0.09329527
0000e0 87 3d 30 bd 16 87 5a 3e ad 1c 81 3e 32 f0 01 be
       -0.043027427 0.21340594 0.2521719 -0.12689283
0000f0 92 f8 a0 3e 61 ef 8b 3e 85 27 9c be 52 4c 20 bd
       0.31439644 0.2733107 -0.304989 -0.039135285

exp_avg f4 [256, 1]
000000 58 17 fe b6 00 ba a1 b8 c5 aa 1f 39 0a 2d f7 b8
       -7.5725075e-06 -7.7117234e-05 0.00015227038 -0.00011786267
000010 9a 8c 5b b6 af 0f 57 35 d4 a8 4e 39 22 34 fd 35
       -3.2715384e-06 8.0116564e-07 0.00019708584 1.8865142e-06
000020 2e a5 60 32 81 e6 21 b5 a9 fa 28 b7 d1 a8 d5 b6
       1.3076074e-08 -6.03126e-07 -1.0071942e-05 -6.3675475e-06
000030 5a 97 aa b7 e5 7f c2 39 b5 b5 9a b8 13 23 f9 36
       -2.0336058e-05 0.00037097852 -7.377138e-05 7.4248615e-06
000040 41 66 68 b8 78 ef 83 b6 32 44 7e 3a 1d 54 7b 37
       -5.540834e-05 -3.931982e-06 0.0009699493 1.498035e-05
000050 94 60 e4 b6 fe f7 33 b8 03 09 10 34 58 c4 d8 b7
       -6.8061727e-06 -4.2907886e-05 1.3414324e-07 -2.5840636e-05
000060 8f e8 1a b5 cc 21 b3 b3 81 3a 20 b6 16 44 af b5
       -5.770789e-07 -8.341485e-08 -2.3875912e-06 -1.3058332e-06
000070 ee 41 31 37 f9 49 f8 38 5d 84 05 b8 18 61 bc b8
       1.0565373e-05 0.0001183934 -3.1832944e-05 -8.982624e-05
000080 5b 55 df 39 45 d4 b7 b7 53 d1 00 3a a5 1b 95 b7
       0.0004259747 -2.1914146e-05 0.0004914004 -1.7775057e-05
000090 a6 44 9a 34 31 16 18 b9 13 ed a4 b6 ec 66 0a 34
       2.8734684e-07 -0.00014504117 -4.91518e-06 1.2889694e-07
0000a0 c6 9a 14 b3 d9 bc a1 b8 36 80 ad b4 6d 61 25 b8
       -3.45997e-08 -7.712254e-05 -3.2317047e-07 -3.94298e-05
0000b0 25 cd 3c 38 9b 3d 1a b8 9e 8a 37 38 a3 6d 26 38
       4.501375e-05 -3.6773836e-05 4.3759697e-05 3.967959e-05
0000c0 e6 21 2c b5 6e 7e 7b 37 1e 5c 1d 38 96 6d 2a b4
       -6.412432e-07 1.49902025e-05 3.7517508e-05 -1.5872351e-07
0000d0 b6 5b 86 b3 9b fd 2d 39 d4 68 f5 b4 6a 7a 6c b7
       -6.2565434e-08 0.00016593041 -4.571108e-07 -1.4095198e-05
0000e0 cd f2 d4 33 75 b2 62 35 f2 52 2c 37 e7 a5 38 b5
       9.9161845e-08 8.445125e-07 1.0271311e-05 -6.878676e-07
0000f0 57 82 1e 3a be 5b a4 b7 85 e8 98 b7 be b1 d5 b3
       0.0006046644 -1.9593044e-05 -1.8228087e-05 -9.9509165e-08
000100 ba 34 b0 b5 54 71 a3 b5 50 a9 e2 37 8f 98 14 b8
       -1.3128367e-06 -1.2177429e-06 2.7020142e-05 -3.542803e-05
000110 e7 b0 a5 b5 23 3e a4 33 28 b1 47 39 22 55 f4 35
       -1.2344943e-06 7.648148e-08 0.00019044115 1.8204194e-06
000120 10 9e cd 30 41 2b ca b3 7e 37 83 36 39 36 91 b5
       1.4960637e-09 -9.414226e-08 3.9105644e-06 -1.0819123e-06
000130 d8 24 b2 37 11 30 36 39 49 45 2c b8 d4 17 d9 b8
       2.123641e-05 0.00017374779 -4.1072522e-05 -0.00010351805
000140 eb 8a 9a b6 b4 07 19 36 c6 e7 20 39 66 3e db b6
       -4.60573e-06 2.280326e-06 0.00015345131 -6.5339727e-06
000150 5e e3 18 36 34 32 cf b5 9e c7 56 b4 ef 2a 01 b9
       2.278211e-06 -1.5437313e-06 -2.0002923e-07 -0.00012318393
000160 92 5c 19 b3 8d c1 2c b3 f0 ee b2 b5 8b e7 20 b5
       -3.570728e-08 -4.0222904e-08 -1.3331573e-06 -5.9941584e-07
000170 7d 2f 19 b4 ac 56 85 38 af 19 85 35 5f dd 42 b8
       -1.4266512e-07 6.358078e-05 9.916747e-07 -4.6459372e-05
000180 64 7d 96 38 c9 a5 bb 36 f2 68 7d b8 eb 53 1c 37
       7.175913e-05 5.592334e-06 -6.041764e-05 9.317863e-06
000190 34 75 36 33 d3 42 3e 38 f3 55 1d b6 a4 29 3f 33
       4.2481773e-08 4.5361765e-05 -2.3444852e-06 4.4508525e-08
0001a0 b9 71 b7 33 2a 26 35 b5 e2 59 73 b3 fc e7 48 b6
       8.5422876e-08 -6.748329e-07 -5.6659594e-08 -2.9937355e-06
0001b0 c5 82 2e 39 96 34 ba b8 a7 76 d2 37 58 32 f3 37
       0.00016642649 -8.878966e-05 2.5089203e-05 2.89913e-05
0001c0 b3 39 93 b3 3f 26 70 34 2c 4b 5b b8 22 6c 82 33
       -6.855716e-08 2.2365656e-07 -5.2283678e-05 6.073266e-08
0001d0 44 37 3e 32 d2 ab f0 37 4a e9 ee 32 9b a0 e7 b6
       1.10720215e-08 2.869024e-05 2.7812934e-08 -6.9030334e-06
0001e0 ce 6d a5 32 23 01 d6 35 5a a4 0f b5 a3 05 3a b3
       1.9258461e-08 1.5944573e-06 -5.3510814e-07 -4.3311626e-08
0001f0 27 e0 de b8 de 7d 19 36 b7 bb 8b 35 67 ca 8a b1
       -0.000106275365 2.287204e-06 1.0410939e-06 -4.039339e-09
000200 e6 01 05 b8 82 1a d4 b8 99 51 8d 39 ff f0 67 3a
       -3.171144e-05 -0.00010113885 0.0002695441 0.0008847862
000210 09 8c 2b b7 4a ec de 36 01 48 8c b8 0f 04 fe 37
       -1.0224999e-05 6.6436232e-06 -6.689132e-05 3.028105e-05
000220 3a d8 f7 33 8d cf 13 36 96 82 f3 b8 77 d9 bb 37
       1.1541165e-07 2.2025517e-06 -0.000116114665 2.2393402e-05
000230 c0 f8 f5 36 dd 9c ad 39 a6 40 2b 39 4f 3e 22 ba
       7.3305273e-06 0.00033114004 0.00016331914 -0.0006189094
000240 e9 54 01 3a bb df 22 b7 a7 cc 26 3a 0b e2 f5 b7
       0.0004933612 -9.708044e-06 0.0006362893 -2.9311535e-05
000250 60 16 8e 38 e6 1b 26 b8 70 8e b7 34 ef 4f 0e 3a
       6.775255e-05 -3.9603467e-05 3.4190043e-07 0.0005428781
000260 8d a7 44 36 3a f3 03 35 54 08 da 37 81 b5 96 34
       2.9303803e-06 4.9155244e-07 2.5991503e-05 2.807174e-07
000270 a4 fb 17 38 68 e0 c6 b8 f4 c1 aa 38 34 46 c4 b9
       3.6235564e-05 -9.483175e-05 8.142358e-05 -0.0003743634
000280 f6 76 00 3a 19 32 d9 b7 e0 5f cb 39 b8 76 c3 35
       0.0004900539 -2.5891744e-05 0.0003879061 1.4563184e-06
000290 70 2b 47 36 35 89 55 38 aa 6a 6c b7 5c 73 8d 35
       2.9678595e-06 5.091094e-05 -1.4091531e-05 1.0538893e-06
0002a0 f0 85 c6 b6 6d 83 24 39 03 9e 1e 35 fb a7 f3 37
       -5.916452e-06 0.00015689219 5.9089524e-07 2.904608e-05
0002b0 c0 cb 2e 38 d2 10 72 39 27 2f 20 38 f4 b6 5d b8
       4.167459e-05 0.00023085185 3.8190887e-05 -5.2860894e-05
0002c0 7a 4b 0c b4 9f 9f 09 b8 28 3d ef 37 c5 b9 e7 35
       -1.3065974e-07 -3.2812004e-05 2.8519498e-05 1.7264907e-06
0002d0 50 13 ea 34 9f 6b 2f 39 29 37 0b b5 cf 1e 94 38
       4.3599948e-07 0.00016729393 -5.1861804e-07 7.0629285e-05
0002e0 21 de 24 b5 c1 ab 55 37 c5 24 dc 38 dc 70 fc b5
       -6.1418e-07 1.2735779e-05 0.00010497266 -1.880831e-06
0002f0 8c 16 39 b9 22 64 7a 39 56 2c 2d 34 bc bf 19 34
       -0.00017651374 0.0002387916 1.612801e-07 1.4318988e-07
000300 30 85 20 b7 4e ab 9f b8 3c 5a 08 39 ca b0 dc 3a
       -9.567753e-06 -7.613619e-05 0.00013003586 0.0016837355
000310 3c 18 5c b6 e1 2b 0c 35 48 35 6b 39 56 dc 4f 36
       -3.279666e-06 5.2217916e-07 0.00022431195 3.0973656e-06
000320 d9 f6 2e 32 c5 c9 2d b5 6c 7c 26 b7 bd 3d ce b6
       1.018426e-08 -6.4741135e-07 -9.92334e-06 -6.1464657e-06
000330 3b 7d 0a b8 0d 48 ae 39 7b 39 54 39 60 80 9c b8
       -3.3018394e-05 0.00033241548 0.00020239309 -7.4625714e-05
000340 f8 cd 72 37 05 e7 e8 b6 ea 3c 90 39 0e 09 3b 37
       1.447228e-05 -6.941033e-06 0.00027511205 1.1148177e-05
000350 55 7c 68 b7 4f 90 31 b8 63 7e 2e 32 c1 e5 65 b9
       -1.3857226e-05 -4.2334486e-05 1.015687e-08 -0.00021924732
000360 63 9f 1b b5 65 e2 d8 b3 a0 be 5f b6 61 63 18 b6
       -5.797394e-07 -1.0099465e-07 -3.3340548e-06 -2.2707611e-06
000370 b2 5d 30 37 d0 1b b1 38 74 85 12 b8 a4 e5 11 b9
       1.0512233e-05 8.445198e-05 -3.49334e-05 -0.00013913825
000380 6e 16 bb 39 36 4e 12 b8 b8 57 6d 39 94 34 57 b6
       0.0003568413 -3.4881952e-05 0.00022634759 -3.20681e-06
000390 cf f4 ac 34 c3 df 87 b7 b9 38 ac b6 49 f3 03 34
       3.2215618e-07 -1.6197451e-05 -5.132603e-06 1.2288832e-07
0003a0 07 e9 b3 b4 ec df 92 b8 ea 4f a4 b4 a3 6a 66 b8
       -3.3510898e-07 -7.003531e-05 -3.0605526e-07 -5.4935586e-05
0003b0 28 2f a1 b8 88 6e 6d 38 aa 20 49 38 17 da 88 37
       -7.685862e-05 5.6608143e-05 4.7952555e-05 1.631402e-05
0003c0 c1 03 38 b5 a9 16 6f 37 d9 a9 ad 37 7f 54 11 b4
       -6.8550804e-07 1.4250786e-05 2.0702299e-05 -1.3534917e-07
0003d0 83 9e 6c b3 9d 27 a5 39 85 f7 c1 b4 e2 f5 40 b8
       -5.5092197e-08 0.00031500767 -3.6129146e-07 -4.6005363e-05
0003e0 48 db c9 33 4e bc dd b5 62 e0 44 37 fa 02 41 b5
       9.399679e-08 -1.6520587e-06 1.1734754e-05 -7.1902434e-07
0003f0 3f a7 b9 b9 62 54 d1 b6 89 ae 9f b7 e5 a5 df b3
       -0.00035410558 -6.238509e-06 -1.9035551e-05 -1.0414423e-07

exp_avg_sq f4 [256, 1]
000000 7b 99 14 32 a4 0a 41 34 0b b2 2d 36 af 03 c3 37
       8.649631e-09 1.7978397e-07 2.5882644e-06 2.3247527e-05
000010 95 ea 9f 30 09 c8 a6 2f bb 1e 02 37 ae 75 98 31
       1.1635445e-09 3.0337358e-10 7.755759e-06 4.437161e-09
000020 3c 62 ca 29 ba ae 26 2e 42 1a f9 33 fa a4 8a 31
       8.987643e-14 3.789922e-11 1.1599742e-07 4.0350843e-09
000030 c9 e5 e0 33 c0 a8 05 36 17 ad 43 35 77 88 02 36
       1.04726105e-07 1.991677e-06 7.289504e-07 1.9450943e-06
000040 14 30 24 35 e5 9b 71 32 cc cf 1c 38 20 29 9e 33
       6.1164724e-07 1.4063493e-08 3.7386824e-05 7.364929e-08
000050 e4 88 7c 33 a3 0a 9a 32 f5 d8 8b 2f 90 4c f3 33
       5.8797823e-08 1.7932797e-08 2.543811e-10 1.1329496e-07
000060 e7 7d a7 2e 3c ac 84 2d 8a 26 04 31 27 8c 6c 31
       7.6166455e-11 1.508315e-11 1.9230435e-09 3.4422187e-09
000070 5d b3 f6 30 6b 13 f0 33 38 e4 5c 32 05 a3 07 35
       1.7949834e-09 1.1179403e-07 1.2857576e-08 5.0528644e-07
000080 e9 a0 17 35 c1 23 c0 33 27 06 c1 36 23 35 8b 33
       5.648604e-07 8.9472e-08 5.7525644e-06 6.4823574e-08
000090 23 bd 61 2e 56 b6 03 35 d5 25 32 31 18 ae fd 2d
       5.1327064e-11 4.9066637e-07 2.5923914e-09 2.8840083e-11
0000a0 51 4b 9e 2f 61 3b 8b 34 70 5d 73 2c d1 64 d3 33
       2.8793548e-10 2.593397e-07 3.4584245e-12 9.8437916e-08
0000b0 5c 5f 6a 37 1a 5f 27 35 22 e6 2b 33 9c 38 56 33
       1.39696895e-05 6.235074e-07 4.0023345e-08 4.9877244e-08
0000c0 e5 c0 96 2f cf 8b ae 31 de 93 8e 34 2c ab 17 2e
       2.74219e-10 5.079961e-09 2.655715e-07 3.4485456e-11
0000d0 6a 4e 5a 2b d0 8b 6b 34 fa 3e 26 2d 7d 6b 18 34
       7.755798e-13 2.1936944e-07 9.449991e-12 1.4195207e-07
0000e0 da e9 de 2b 13 65 b6 31 63 6a 0a 33 1d ef 43 2e
       1.5838956e-12 5.308388e-09 3.2227387e-08 4.4550242e-11
0000f0 4e f4 a2 36 b5 da 2d 34 f1 2d 07 33 b6 47 d7 2b
       4.856417e-06 1.6191446e-07 3.147392e-08 1.5296573e-12
000100 22 dd 4b 30 1a 17 1d 2f ae 7a 0c 33 ce d1 3c 36
       7.416522e-10 1.4287274e-10 3.2707867e-08 2.8136305e-06
000110 b3 fe a3 2e b3 1b 05 2e a7 f4 71 35 47 dc 70 30
       7.4576255e-11 3.02653e-11 9.013551e-07 8.7624524e-10
000120 8a 75 ec 28 52 97 af 2b cb 59 b2 30 df 8c 3c 2f
       2.6252238e-14 1.2476498e-12 1.2976725e-09 1.7148548e-10
000130 9e 5b 2c 32 c9 87 63 35 38 10 8e 35 0b 4d 1c 36
       1.0032549e-08 8.4761683e-07 1.0584545e-06 2.3290656e-06
000140 9d 27 32 34 23 c0 9e 30 ca 4d fc 36 7a d3 76 31
       1.6591953e-07 1.1550622e-09 7.519241e-06 3.5917922e-09
000150 ce 97 ac 31 d7 38 14 30 a4 03 00 2d 40 c6 93 35
       5.023117e-09 5.392286e-10 7.276766e-12 1.1010052e-06
000160 ef e1 47 2c f0 eb 37 2b 0b 08 58 2f b3 27 9b 2f
       2.840502e-12 6.534209e-13 1.9647943e-10 2.8222544e-10
000170 6d 04 f0 2e 4d 3e 80 33 fc dd 8f 2d 67 88 ce 32
       1.09147226e-10 5.971797e-08 1.6355799e-11 2.4043585e-08
000180 e2 40 27 34 72 3a 1b 32 36 82 25 36 1c e9 0f 31
       1.5576691e-07 9.035476e-09 2.4662709e-06 2.0941746e-09
000190 ab 2b 33 2c 04 9e 1e 33 76 1d 6d 2f 63 9f 8c 2b
       2.546167e-12 3.6930956e-08 2.1565491e-10 9.991837e-13
0001a0 6f 52 01 2e 85 ab 0c 2f ac 39 62 2b 44 9c 18 31
       2.940442e-11 1.2793862e-10 8.0371365e-13 2.2207738e-09
0001b0 b6 a7 8d 36 58 43 2e 35 f5 ea 0a 32 f7 09 3d 32
       4.2216516e-06 6.491805e-07 8.08608e-09 1.1003514e-08
0001c0 46 35 5a 2c 1d 79 ce 2f 17 71 a7 33 0f 1f a4 2b
       3.1009236e-12 3.7557238e-10 7.7971144e-08 1.1661521e-12
0001d0 cf f0 ca 2a 4c ba ed 33 70 19 62 2c f4 c0 41 30
       3.6049503e-13 1.107006e-07 3.2130652e-12 7.0487194e-10
0001e0 4d d5 8a 2a e5 89 da 2f 9e 30 47 31 9f a9 e4 2b
       2.4661732e-13 3.975195e-10 2.8985947e-09 1.6247454e-12
0001f0 4b 16 10 36 d4 63 4d 32 e5 98 6c 2f 21 e0 40 2b
       2.1470648e-06 1.1955269e-08 2.1518394e-10 6.8523144e-13
000200 4d 7d 8e 33 c7 53 45 33 e1 6a 24 37 f9 68 15 3a
       6.6351824e-08 4.5943832e-08 9.800046e-06 0.0005699541
000210 24 13 84 32 dd 50 5c 31 8d a8 05 37 19 5b 51 33
       1.5375527e-08 3.206018e-09 7.9666615e-06 4.8744457e-08
000220 56 6a e7 2d ff 08 09 30 7e 74 1f 34 8a 09 fe 32
       2.6308882e-11 4.9853094e-10 1.4850409e-07 2.957383e-08
000230 c5 28 0c 35 f6 8a 22 36 56 c3 8a 36 66 fd a9 37
       5.221339e-07 2.4220767e-06 4.1354606e-06 2.0264368e-05
000240 1a 96 86 36 74 1a 99 33 c3 0c 0f 37 ef 49 00 35
       4.0109853e-06 7.1294295e-08 8.5264355e-06 4.7791303e-07
000250 08 87 d1 34 e5 60 87 32 36 48 1c 31 04 09 b2 36
       3.9027532e-07 1.5760131e-08 2.2742035e-09 5.305863e-06
000260 68 1d 76 30 d3 b7 a2 2f fb 86 16 33 63 e2 71 32
       8.953607e-10 2.9598243e-10 3.504736e-08 1.4079521e-08
000270 63 a7 6d 32 bc 7b 48 34 5e aa b3 32 e6 c8 e7 35
       1.3833275e-08 1.8671466e-07 2.0915817e-08 1.726931e-06
000280 85 27 2f 36 9b 5d ca 34 3c c7 10 38 18 d9 c6 33
       2.6100035e-06 3.769354e-07 3.4517827e-05 9.2595826e-08
000290 75 a7 c1 30 bc 09 36 35 15 71 e8 32 77 34 2e 30
       1.4090192e-09 6.781445e-07 2.7059778e-08 6.337539e-10
0002a0 98 b4 6c 31 e7 00 1a 35 c5 90 bb 2f 0e 33 42 34
       3.4445176e-09 5.7370784e-07 3.4117967e-10 1.8086232e-07
0002b0 bf bc 30 35 5b 4a 82 37 37 c9 9e 33 0c bc da 33
       6.583977e-07 1.5531832e-05 7.394049e-08 1.01856216e-07
0002c0 0a 56 45 31 9a 52 9e 33 49 10 f9 35 bb 30 40 30
       2.871618e-09 7.3724735e-08 1.8556685e-06 6.9918443e-10
0002d0 3f b8 44 2f 59 f2 da 34 87 73 0d 30 37 bf 8a 35
       1.7891554e-10 4.0781995e-07 5.1459675e-10 1.0337452e-06
0002e0 e7 62 82 2f 08 3b 5d 32 8d ba 9d 34 44 ed 4e 30
       2.3717137e-10 1.2877315e-08 2.9379262e-07 7.527954e-10
0002f0 87 3a a6 36 25 cf 80 35 d1 de 48 33 86 52 7a 2f
       4.953999e-06 9.59703e-07 4.676878e-08 2.2766686e-10
000300 d1 1f 1a 32 25 c8 5b 34 15 63 11 36 4d 3b d7 37
       8.971214e-09 2.0468777e-07 2.1664357e-06 2.5657611e-05
000310 80 e2 9b 30 52 83 9c 2f d3 97 83 37 87 8c da 31
       1.134211e-09 2.8469543e-10 1.5687116e-05 6.360611e-09
000320 54 bc d5 29 b8 2c 36 2e db 92 f4 33 53 e9 75 31
       9.49177e-14 4.1421727e-11 1.1388848e-07 3.5784822e-09
000330 f1 79 f6 33 89 bb e4 35 0f b9 da 35 b9 40 46 37
       1.1477449e-07 1.7041904e-06 1.6296125e-06 1.1816789e-05
000340 76 11 07 36 2f 4a 86 32 3a a9 39 38 48 04 bd 33
       2.0126731e-06 1.5633388e-08 4.426504e-05 8.801777e-08
000350 b1 0f 7f 33 5b 59 85 32 1b 08 89 2f 01 94 c4 35
       5.9386085e-08 1.5523872e-08 2.4925914e-10 1.4646213e-06
000360 8b 20 b1 2e 85 89 8a 2d 3d 75 fc 30 61 40 6a 31
       8.054809e-11 1.5749855e-11 1.8368734e-09 3.4088077e-09
000370 65 10 fc 30 7f a2 e0 33 fa 53 96 32 14 b9 f3 34
       1.8340073e-09 1.0460371e-07 1.7500486e-08 4.539694e-07
000380 9f da cf 34 00 7d e8 33 be 0b 61 36 22 ea 65 33
       3.8715822e-07 1.0826079e-07 3.3534448e-06 5.353116e-08
000390 f1 19 55 2e 33 63 29 35 95 a9 3e 31 a1 92 f9 2d
       4.8453633e-11 6.310176e-07 2.7745035e-09 2.8373139e-11
0003a0 3e 42 a4 2f 65 56 35 34 46 7a 80 2c 24 cd 01 34
       2.9878494e-10 1.6888369e-07 3.651554e-12 1.2088691e-07
0003b0 22 2d f6 37 eb e8 1b 37 76 9c a2 33 65 07 a6 33
       2.9346502e-05 9.29295e-06 7.572173e-08 7.7313224e-08
0003c0 8f 6e a9 2f 14 ed b3 31 33 f5 54 34 bb db 14 2e
       3.0819478e-10 5.2365383e-09 1.9833242e-07 3.3846464e-11
0003d0 db f9 6d 2b e7 40 90 35 bd 77 4c 2d b3 2d 70 34
       8.454606e-13 1.0747725e-06 1.1622645e-11 2.2368367e-07
0003e0 9a 6a ea 2b e6 c4 b9 31 7d fd 0a 33 be d3 4e 2e
       1.6656288e-12 5.4065934e-09 3.2361175e-08 4.7027042e-11
0003f0 8c c4 08 37 14 96 19 34 2d a5 08 33 99 be dd 2b
       8.151994e-06 1.4303833e-07 3.1815194e-08 1.5755896e-12
