07_RNN/logs/rnn/version_17/checkpoints/last.ckpt (torch, 164936 bytes, 15 tensors)

rnn.weight_ih_l0 f4 [192, 1]
0	0xbf30c764	-0.69054246
1	0xbeabbf0b	-0.33544192
2	0xbf8b9090	-1.0903492
3	0x3f0319ee	0.5121144
4	0x3e6522c8	0.22376549
5	0xbdbfb035	-0.09359781
6	0xbef89db2	-0.48557812
7	0x3cd6eeb0	0.026236862
8	0xbf4a2cea	-0.78974783
9	0xbe6d0ca5	-0.23149355
10	0xbf369b12	-0.7133037
11	0xbf11108e	-0.56665885
12	0x3f479c9c	0.7797334
13	0xbeb4c076	-0.35303086
14	0xbf3b5ae2	-0.7318555
15	0xbe86639e	-0.26247877
16	0xbec1784b	-0.3778709
17	0xbe03443c	-0.12818998
18	0x3f2c83d2	0.6738864
19	0xbdc890df	-0.09793257
20	0x3d61c1bc	0.0551164
21	0xbe965b7f	-0.2936668
22	0x3f2212f7	0.6331019
23	0xbf13ca7f	-0.5773086
24	0x3ecb6709	0.39727047
25	0x3edff1f2	0.43739277
26	0x3fb68949	1.4260646
27	0xbf198799	-0.5997253
28	0x3e852da9	0.26011398
29	0xbf8b371c	-1.0876193
30	0x3ec6df65	0.38842312
31	0x3ec40dbb	0.38291726
32	0xbfa02f3e	-1.2514417
33	0x3eb59e55	0.3547236
34	0xbfacfbfb	-1.3514398
35	0xbf68a8a6	-0.9088234
36	0xbe18a138	-0.1490525
37	0xbe592675	-0.21206076
38	0x3f090daa	0.53536475
39	0x3e41d0d8	0.18927324
40	0x3db24373	0.08704271
41	0x3e807143	0.25086412
42	0x3e3ede7d	0.1863956
43	0xbe8f6634	-0.28007662
44	0xbe68b6da	-0.22726002
45	0x3ea133ba	0.31484777
46	0xbf886d8f	-1.0658435
47	0x3d82dc65	0.06389693
48	0xbee24ee2	-0.44200808
49	0xbd8901a0	-0.06689763
50	0x3ed35e95	0.41283098
51	0xbf367913	-0.71278495
52	0xbf39eb16	-0.7262434
53	0xbf9a14e8	-1.203763
54	0xbe953c39	-0.2914751
55	0x3f013deb	0.50485104
56	0x3ef38c6e	0.47568077
57	0xbf92ae83	-1.1459507
58	0x3e3dc91e	0.18533751
59	0xbf0fae98	-0.56125784
60	0xbf356b11	-0.70866495
61	0xbfb1557a	-1.385421
62	0x3d816ecb	0.0631996
63	0xbf9972b5	-1.1988131
64	0x403806ed	2.8754227
65	0xc0112759	-2.2680266
66	0xc056a015	-3.3535206
67	0x3e7443c5	0.23853977
68	0xbeab488c	-0.33453786
69	0xbea509dc	-0.32234085
70	0x3ff301e6	1.8984954
71	0xbd8893ca	-0.066688135
72	0xbf47c908	-0.78041124
73	0xc0073585	-2.1126416
74	0xbf4691d0	-0.7756624
75	0xbfb8e328	-1.4444323
76	0x3facd5ef	1.3502787
77	0xbfed91c5	-1.856011
78	0xc001edc5	-2.0301373
79	0xbf87feae	-1.0624597
80	0xbf4b4005	-0.7939456
81	0xbfc82357	-1.5635785
82	0xbf36d5e0	-0.714201
83	0xc009265d	-2.1429665
84	0xc0033062	-2.049828
85	0xbfb48f65	-1.410626
86	0xbfbe5a38	-1.4871283
87	0xc002ee92	-2.0458112
88	0xc0348e87	-2.8211992
89	0x3fdcd536	1.7252567
90	0x3f716406	0.9429325
91	0xbf57196a	-0.84023154
92	0xbfa3ae2b	-1.2787527
93	0xbef82080	-0.48462296
94	0xbfc48a94	-1.5354791
95	0xbf16016a	-0.5859591
96	0xbf938855	-1.152598
97	0xbfbff96d	-1.4997994
98	0xbfd067ad	-1.6281639
99	0xbfe6a208	-1.8018198
100	0xbfd3f7fd	-1.6560055
101	0xbf9093ba	-1.1295083
102	0xbebdaf60	-0.37047863
103	0xbf229103	-0.6350252
104	0xc010dde3	-2.263543
105	0xbfb0bec9	-1.3808223
106	0xbf630cbd	-0.8869131
107	0xbfde56d6	-1.737025
108	0xbfb11d44	-1.3837056
109	0x3d3456c1	0.044028047
110	0xbfce6961	-1.6125909
111	0xc00f42b6	-2.2384467
112	0xbf64bd3e	-0.8935126
113	0xbfecaa55	-1.8489481
114	0xbf0110a9	-0.50416046
115	0xbf92213f	-1.1416396
116	0xbff50a24	-1.914372
117	0xc06ad53d	-3.669265
118	0xbf1b77fb	-0.6072995
119	0x3fb395fb	1.4030145
120	0xbe9f71d4	-0.3114153
121	0xc00a3f68	-2.16012
122	0x3f8d954d	1.1061188
123	0xbfd07a3e	-1.6287305
124	0xbfe275e6	-1.769223
125	0xbfe7fcab	-1.8123983
126	0xbe65e20f	-0.22449516
127	0xc027cd98	-2.6219234
128	0x3f002026	0.50049055
129	0xbeb48c28	-0.3526318
130	0x3eb73fef	0.35790965
131	0xbc913d8d	-0.017729545
132	0x3e45f973	0.19333439
133	0xbed8014f	-0.42188498
134	0x3f186291	0.595254
135	0x3f162965	0.58656913
136	0x3f473531	0.7781554
137	0x3eb372be	0.3504848
138	0xbe0d33fb	-0.1378936
139	0x3ec58731	0.38579705
140	0x3f389748	0.72105837
141	0xbeb164ac	-0.3464712
142	0x3eec8ec8	0.46202683
143	0xbe1e622b	-0.15467136
144	0xbf08b5c0	-0.5340233
145	0xbe5745f7	-0.21022783
146	0x3f363014	0.7116711
147	0xbde9a0e4	-0.114076406
148	0x3e1d275c	0.15347046
149	0x3d3f6aad	0.046732593
150	0xbf0faf1a	-0.5612656
151	0x3d632f64	0.055465117
152	0xbe15dd89	-0.1463529
153	0x3ee0d522	0.43912607
154	0xbf67d34c	-0.9055679
155	0x3f33e16e	0.70265853
156	0xbdc56ecb	-0.09640273
157	0x3d0828e8	0.033242136
158	0xbeec044c	-0.46097028
159	0x3e913376	0.28359574
160	0xbec82f98	-0.3909881
161	0x3dcf1041	0.10110522
162	0xbf3b49b3	-0.7315933
163	0xbdafcf68	-0.085844815
164	0x3ecaa7a7	0.39581034
165	0x3f1ce880	0.61292267
166	0xbe38b725	-0.18038614
167	0x3eda84e3	0.4267951
168	0xbec0dee7	-0.3767006
169	0xbc8cace0	-0.017172277
170	0x3e70d2b3	0.23517875
171	0xbdc4005c	-0.09570381
172	0x3f0d2d2d	0.5514706
173	0x3ef0b142	0.47010237
174	0x3ef8330b	0.48476443
175	0x3ec9ff8b	0.39452776
176	0x3e6bf730	0.23043513
177	0x3f112c32	0.5670806
178	0xbebc7026	-0.36804312
179	0x3f1cf709	0.61314446
180	0xbc484af4	-0.0122249015
181	0xbee79fee	-0.45239204
182	0xbe276a9a	-0.16349259
183	0x3e240e98	0.16021192
184	0x3f08c364	0.5342314
185	0xbeb4632e	-0.35231918
186	0x3f6d200c	0.92627025
187	0x3eee9b67	0.46602938
188	0xbebfd1e6	-0.37464827
189	0xbf3f9d30	-0.74849224
190	0x3ea3c7b3	0.31988296
191	0xbeec36ad	-0.46135464

rnn.weight_hh_l0 f4 [192, 64]
0	0xc083be01	-4.116944
1	0xbf3bcc87	-0.7335896
2	0x3f3e6af0	0.74381924
3	0xbf9635f2	-1.1735213
4	0x3e153fb4	0.14575082
5	0xbe93aaca	-0.2884124
6	0xbe0f43de	-0.13990733
7	0x3dac24b3	0.08405437
8	0xbf8124fd	-1.0089413
9	0xbf2e8528	-0.6817193
10	0x3cc88978	0.024479613
11	0xbe1a176b	-0.15047996
12	0x3e244902	0.16043475
13	0xbe6aa91f	-0.22916077
14	0xbf85fc21	-1.0467569
15	0x3e9a0148	0.30079103
16	0x3f919389	1.1373149
17	0x3de9ce41	0.11416293
18	0xbe428d01	-0.18999101
19	0xbf69242e	-0.9107083
20	0x3f5b3292	0.8562404
21	0xbdc3e17b	-0.09564491
22	0xbebe1c76	-0.3713109
23	0xbd8fc3de	-0.070197806
24	0x3f3f605b	0.747564
25	0xbeac7e06	-0.33689898
26	0x3e94f3b2	0.29092175
27	0xbf86256f	-1.0480174
28	0x3f022ed3	0.508527
29	0x3f39b77b	0.72545594
30	0xbe896d36	-0.26841134
31	0xbd580aa9	-0.05274454
32	0x3d10084d	0.035164166
33	0x3e308232	0.17237166
34	0x3f20f7e5	0.6287826
35	0xbf41c3ac	-0.75689197
36	0x3d415cf3	0.047207784
37	0x3b0d96bd	0.002160474
38	0x3f84911c	1.0356784
39	0x3ebea4a2	0.3723498
40	0x3e3c8267	0.1840912
41	0xbf9c332e	-1.2203119
42	0x3de30b3c	0.11086127
43	0x3d165455	0.03670152
44	0xbf51aa41	-0.8190041
45	0xbf708d09	-0.939652
46	0xbe9add93	-0.30247173
47	0x3f4d6ec8	0.80247164
48	0x3f9b85dd	1.2150227
49	0xbf81eb1b	-1.0149873
50	0xbf2bb8a0	-0.6707859
51	0xbf8550f1	-1.0415326
52	0xbe5350c4	-0.20636278
53	0x3e7f3de1	0.24925949
54	0xbebf6e48	-0.37388825
55	0x3e5db1f7	0.2164992
56	0xbf01f074	-0.5075753
57	0xbf03dc28	-0.51507807
58	0xbf144907	-0.5792393
59	0xbee8b6c1	-0.4545193
60	0x3f92835e	1.144634
61	0x3f454e65	0.77072746
62	0x3f24218f	0.64113706
63	0xbba06fd1	-0.004896142
64	0xbf3dd296	-0.74149454
65	0x3f08974f	0.5335588
66	0xbfc1961c	-1.5123935
67	0x3e637577	0.22212778
68	0xbebba5a7	-0.3664982
69	0xbe01e34f	-0.12684368
70	0x3f17c512	0.5928508
71	0x3e077296	0.13227305
72	0xbf18040a	-0.59381163
73	0xbeace01e	-0.33764738
74	0xbf39493e	-0.72377384
75	0xbea5307f	-0.32263562
76	0x3f427bb3	0.7597
77	0x3ea7c69b	0.3276871
78	0xbead213f	-0.33814427
79	0xbeb7670c	-0.35820806
80	0x3ed91754	0.4240061
81	0xbe8b74b4	-0.27237475
82	0xbef04149	-0.4692481
83	0x3eaa2f38	0.3323915
84	0xbdb6d231	-0.089268096
85	0x3e686400	0.22694397
86	0xbcd00188	-0.025391355
87	0xbf0c3cf1	-0.5478049
88	0x3ddc42be	0.107549176
89	0xbf4802f2	-0.78129494
90	0xbf2f1104	-0.6838534
91	0xbe94eac0	-0.2908535
92	0xbfa00822	-1.2502482
93	0xbf1d106e	-0.61353195
94	0xbe1c7a32	-0.15280989
95	0xbf8d9584	-1.1061254
96	0x3ef2f365	0.4745132
97	0x3d14b647	0.036306646
98	0x3f8f1ef6	1.1181324
99	0xbb3620b7	-0.0027790496
100	0xbe4907d2	-0.1963189
101	0xbe660cf6	-0.22465882
102	0x3f0043a7	0.5010323
103	0x3e2a2fdd	0.16619821
104	0x3f103645	0.5633281
105	0xbf008d9c	-0.5021608
106	0x3d761a6d	0.060083795
107	0x3f30b67f	0.69028467
108	0xbe97af8f	-0.29626128
109	0xbf953883	-1.1657871
110	0xbf2d5849	-0.6771284
111	0x3cdf3693	0.027247703
112	0x3f14176b	0.57848233
113	0xbe6b1408	-0.2295686
114	0x3e13d942	0.14438346
115	0xbeb38334	-0.35061038
116	0x38d1968c	9.993938e-05
117	0x3f2a3fc3	0.6650354
118	0xbe68dca0	-0.22740412
119	0x3f459680	0.7718277
120	0x3e300550	0.17189527
121	0x3e0e6fdf	0.13909863
122	0x3f1fa63c	0.6236303
123	0xbe97242f	-0.29519793
124	0x3eda9710	0.42693377
125	0x3f50104b	0.8127486
126	0x3f4f092a	0.8087336
127	0x3f1fb6d6	0.6238836
128	0x3f028f28	0.5099969
129	0xbe592f41	-0.21209432
130	0x3f0d8f77	0.55297035
131	0xbf20d129	-0.62819153
132	0x3e41fe57	0.18944679
133	0x3f1b569a	0.6067902
134	0xbef6c060	-0.48193645
135	0xbf39fc44	-0.7265055
136	0xbf62c7f7	-0.8858637
137	0xbd9feca9	-0.07808811
138	0xbef9537e	-0.48696512
139	0xbee92836	-0.4553849
140	0xbf9415b3	-1.1569122
141	0x3f0473ff	0.51739496
142	0xbef8043b	-0.48440728
143	0xbe85d340	-0.26137733
144	0x3f74b9db	0.9559609
145	0x3efc5f16	0.49291295
146	0xbf46663c	-0.7749975
147	0xbf4b6e22	-0.79464924
148	0x3f073504	0.5281527
149	0x3f3f9e95	0.7485135
150	0xbea034cd	-0.31290284
151	0xbe5f6a12	-0.21817806
152	0x3cc3f583	0.02392078
153	0xbe8dddd5	-0.27708307
154	0x3f99d069	1.2016727
155	0xbf952e4a	-1.1654751
156	0xbe623bca	-0.2209312
157	0x3eff6b71	0.4988666
158	0x3e5ce546	0.21571836
159	0xbf9786a5	-1.1837965
160	0x3eea8b1f	0.45809266
161	0xbef11280	-0.47084427
162	0x3f5f37b3	0.87194365
163	0xbeaf19b0	-0.34199286
164	0xbee5a632	-0.4485336
165	0xbea04d14	-0.31308806
166	0x3e8b23d3	0.2717577
167	0xbeac7206	-0.33680743
168	0x3d5ce3a0	0.053928018
169	0xbe2e95a7	-0.17049275
170	0x3ed216ef	0.41033122
171	0xbf0dd7cc	-0.55407405
172	0xbf442253	-0.76614875
173	0x3ea360c5	0.31909767
174	0xbf4c3cae	-0.7978009
175	0xbef274d8	-0.4735477
176	0xbee8520e	-0.45375103
177	0xbea9e3ac	-0.33181512
178	0xbc4c8515	-0.012482901
179	0xbf8f24d2	-1.1183112
180	0x3f792829	0.97326905
181	0xbeb4f159	-0.35340384
182	0x3db10e94	0.08645359
183	0x3eb14f69	0.34630898
184	0xbe42bfc2	-0.19018462
185	0x3e1cd319	0.15314902
186	0xbfc59e51	-1.5438939
187	0xbf22ef1b	-0.63646096
188	0x3f0ab7b0	0.54186535
189	0x3f150884	0.5821612
190	0xbd98fbc6	-0.07469897
191	0x3b0d2050	0.0021534152
192	0xbe9a1639	-0.3009508
193	0x3df1096b	0.117693745
194	0xbf249c7b	-0.6430127
195	0x3f1f613a	0.6225773
196	0x3dfa03a6	0.12207727
197	0xbd6076ad	-0.054800678
198	0x3f0295be	0.5100974
199	0xbe9cbc80	-0.30612564
200	0xbdf964ed	-0.12177453
201	0x3d0eb011	0.03483588
202	0x3f39a50f	0.72517484
203	0x3f3b9645	0.7327617
204	0x3e953919	0.29145125
205	0x3e978912	0.29596764
206	0x3f02f7ce	0.5115937
207	0x3d6f9ddc	0.058500156
208	0x3df7eb0b	0.12105378
209	0x3f95355e	1.1656911
210	0x3f76be15	0.9638379
211	0xbe700a48	-0.23441422
212	0xbe75fed0	-0.24022985
213	0xbf1864cb	-0.595288
214	0x3ec84b56	0.39119977
215	0x3f12d629	0.5735803
216	0x3eef5bee	0.46749824
217	0xbf3b4d2e	-0.7316464
218	0xbea1dc9a	-0.31613618
219	0xbe8bbede	-0.27294058
220	0x3e15cb34	0.14628297
221	0xbf2f9ffd	-0.686035
222	0xbf467a59	-0.7753044
223	0xbe05a1f5	-0.13050063
224	0x3f9b3fc7	1.2128838
225	0x3f1bf09a	0.60914004
226	0xbf7f9ee3	-0.99851817
227	0x3edd078c	0.4316982
228	0xbda3b0ac	-0.07992682
229	0x3f470c29	0.7775293
230	0xbf07b2c1	-0.5300713
231	0xbe1c520a	-0.1526567
232	0x3e11132c	0.1416747
233	0x3f6e4e82	0.93088543
234	0xbeea6537	-0.45780346
235	0xbe8b243b	-0.2717608
236	0x3e56922c	0.20954198
237	0x3e222fec	0.15838593
238	0x3f07b597	0.5301146
239	0x3e90c024	0.28271592
240	0x3f03b859	0.5145317
241	0x3f1665e0	0.587492
242	0xbc73b40c	-0.0148744695
243	0xbe6934a1	-0.22773983
244	0x3e8f7a29	0.28022888
245	0x3f1f75d8	0.6228919
246	0xbf2576dd	-0.64634496
247	0xbf095eeb	-0.5366046
248	0xbea0d877	-0.3141515
249	0x3c575656	0.013143143
250	0x3f2753de	0.65362346
251	0x3ee62fba	0.44958287
252	0xbe3dc222	-0.18531087
253	0xbf69777f	-0.9119796
254	0x3bff3db2	0.007789337
255	0x3f267889	0.6502767

rnn.bias_ih_l0 f4 [192]
0	0x3ec8f318	0.39247966
1	0xbf20893f	-0.6270942
2	0xbee9ad43	-0.4564
3	0xbf570ee0	-0.8400707
4	0xbea84b0a	-0.3286975
5	0xbfa8bf73	-1.3183426
6	0xbf030b75	-0.5118936
7	0xbf36445c	-0.7119806
8	0xbf932690	-1.1496143
9	0x3e340b3d	0.17582412
10	0xbec99a84	-0.393757
11	0xbf84d0ee	-1.037626
12	0xbed19372	-0.40932804
13	0xbd7167eb	-0.058936995
14	0xbed66f8c	-0.4188198
15	0x3d87b39c	0.06626055
16	0xbf7dbef0	-0.9911947
17	0xbebb194c	-0.36542737
18	0xbf4112ba	-0.754192
19	0xbec7b468	-0.39004827
20	0x3ee8a889	0.45441082
21	0xbedda6e6	-0.43291396
22	0xbe730f32	-0.23736265
23	0xbdf7cf9c	-0.12100145
24	0xbefa9fed	-0.4895014
25	0xbd237e52	-0.03991539
26	0xbe5e2cf6	-0.21696839
27	0xbf8bf38e	-1.0933702
28	0x3e8ebd0f	0.27878615
29	0x3d514888	0.05109456
30	0x3bdd3545	0.006750735
31	0x3c619c04	0.013770107
32	0xbf052e2e	-0.5202359
33	0xbead7dc7	-0.33885023
34	0xbf555542	-0.8333322
35	0xbedda171	-0.43287233
36	0xbd3831f8	-0.04496953
37	0xbf2a0c47	-0.66424984
38	0xbf1ba6b5	-0.6080125
39	0xbf36d867	-0.71423954
40	0xbe866c48	-0.26254487
41	0xbe4af716	-0.19820818
42	0xbec3d371	-0.38247254
43	0xbefecfc2	-0.49767882
44	0xbfd7027f	-1.6797637
45	0xbf3c981f	-0.7366962
46	0xbee776a0	-0.4520769
47	0x3da3dd95	0.08001248
48	0xbf53d2aa	-0.8274332
49	0xbf78e02a	-0.9721705
50	0x3de134fb	0.10996433
51	0xbfad5a9b	-1.3543276
52	0x3e0136a8	0.12618506
53	0xbd5bd073	-0.05366559
54	0xbf8fc91b	-1.1233248
55	0xbe91c966	-0.28473967
56	0xbf9aca32	-1.2092955
57	0xbf8c2913	-1.0950035
58	0xbfca9c0c	-1.5828872
59	0xbfcde746	-1.6086204
60	0xbf0be1be	-0.5464133
61	0xbf850cdf	-1.0394553
62	0x3e602cc5	0.21892078
63	0xbf8aa180	-1.0830536
64	0x3da7d630	0.0819515
65	0x3fa9980d	1.3249527
66	0x3fd7386a	1.6814091
67	0xbee8a35d	-0.45437136
68	0xbf0ec1af	-0.5576429
69	0x3f87ec92	1.061907
70	0x3e8a58d4	0.27020895
71	0x4013500a	2.3017602
72	0x3f724554	0.94637036
73	0xbc20a00f	-0.009803786
74	0x3e9c948f	0.3058209
75	0x3f0064fa	0.5015408
76	0x3e4ec66c	0.2019288
77	0x3fcfcc09	1.6234142
78	0x3f72a5d8	0.9478431
79	0x3fc37df3	1.5272812
80	0x3f8318bd	1.0241925
81	0x3fd0cca8	1.6312456
82	0x4014d920	2.3257523
83	0x3f1f12a2	0.62137806
84	0x3d220e94	0.039564684
85	0xbe985b41	-0.2975712
86	0xbda3ff36	-0.08007662
87	0x3fb504aa	1.4142048
88	0x3f9f65e6	1.2452972
89	0x3ffdca7d	1.982742
90	0x3f055191	0.52077585
91	0x3f685a63	0.9076292
92	0x3fa45157	1.2837323
93	0xbf0e26bd	-0.5552786
94	0xbed89b7e	-0.4230613
95	0x3fdb04b5	1.7110811
96	0x3fbee059	1.4912215
97	0x3f2f32b0	0.6843672
98	0xbddadb4b	-0.10686358
99	0x3f303c0d	0.6884163
100	0x3fe1444e	1.759897
101	0x3f11067e	0.5665053
102	0x3d922ee0	0.07137847
103	0x40017ed8	2.023367
104	0x3ee6b27b	0.45058045
105	0xbe939d38	-0.28830886
106	0x3fa00b6d	1.2503487
107	0x3ee3089d	0.4434251
108	0xbf759393	-0.95928305
109	0x3f81c835	1.0139223
110	0x3f354d7b	0.7082135
111	0x3fcf30b4	1.6186738
112	0xbf623021	-0.8835469
113	0x3fc3a99d	1.5286137
114	0xbf1eb248	-0.61990786
115	0x3f7a7fc9	0.97851235
116	0xbc351905	-0.011053328
117	0x3f9475ff	1.159851
118	0xbee06c0f	-0.43832442
119	0x3fb185af	1.3868922
120	0x3f5015cd	0.81283265
121	0x3f951e91	1.1649953
122	0x3f23fe8e	0.64060295
123	0xbfd50bcf	-1.6644229
124	0x3f1658e1	0.5872937
125	0x3e809bf0	0.2511897
126	0xbfa9a88d	-1.3254563
127	0x3fcc6518	1.5968351
128	0xbf063fbc	-0.52441
129	0xbe7b79ec	-0.24558228
130	0xbf4d47aa	-0.80187476
131	0x3dda9279	0.10672469
132	0x3eb614e6	0.3556282
133	0xbe9e8ef4	-0.3096844
134	0x3f0b6890	0.54456425
135	0x3e8ac15c	0.27100646
136	0xbe88f907	-0.26752493
137	0x3ca7246d	0.020403111
138	0xbf00b3e1	-0.50274473
139	0x3ef35cce	0.47531742
140	0x3efb67bb	0.49102578
141	0xbf1a05ac	-0.60164905
142	0x3e8ed663	0.2789794
143	0x3eb8523e	0.36000246
144	0x3ea58f88	0.32336068
145	0x3e04366f	0.1291139
146	0xbe6e0b85	-0.23246582
147	0xbda9a381	-0.08283139
148	0x3e78585b	0.24252455
149	0x3e495886	0.19662675
150	0xbeec63db	-0.46169934
151	0xbe75d444	-0.24006754
152	0xbee1dff8	-0.44116187
153	0x3efa4c68	0.48886418
154	0xbe5cc68d	-0.21560116
155	0xbebc4105	-0.36768356
156	0xbf019d0b	-0.50630254
157	0xbea848be	-0.32867998
158	0xbee0fb4d	-0.43941727
159	0xbdba0413	-0.09082808
160	0xbea7cd58	-0.32773852
161	0xbdf256d2	-0.11832966
162	0xbe321240	-0.17389774
163	0xbebba50e	-0.36649364
164	0x3e50e5fe	0.20400235
165	0x3f1263e5	0.57183677
166	0x3ee604ef	0.4492564
167	0x3edadb2a	0.42745334
168	0x3ebdb27f	0.37050244
169	0xbef446b9	-0.47710207
170	0x3ebd5227	0.3697674
171	0xbdeac030	-0.11462438
172	0x3d90bc94	0.070672184
173	0x3e654332	0.22388914
174	0x3f005537	0.5013003
175	0x3e1b163a	0.15145198
176	0x3eed8b71	0.46395448
177	0xbd3394d2	-0.043843098
178	0xbf05471b	-0.52061623
179	0xbead5159	-0.33851126
180	0x3cdf4722	0.027255598
181	0x3edc5edf	0.4304113
182	0xbe18e270	-0.14930129
183	0x3df149cf	0.11781656
184	0x3c9d38c0	0.0191921
185	0xbdf8131b	-0.12113019
186	0x3e0e3e2f	0.13890909
187	0x3decaf08	0.11556822
188	0xbd9dc1a8	-0.077029526
189	0xbf09d11a	-0.5383469
190	0x3f328113	0.697282
191	0x3ed36a92	0.41292244

rnn.bias_hh_l0 f4 [192]
0	0x3eadb06c	0.33923662
1	0xbee3bc8d	-0.4447979
2	0xbf0427fb	-0.51623505
3	0xbf4ac108	-0.7920079
4	0xbe67b9ed	-0.22629519
5	0xbfaf340a	-1.3687756
6	0xbed2f13a	-0.41199666
7	0xbf3f25a0	-0.74666786
8	0xbf9a392f	-1.2048701
9	0x3e7d368a	0.24727836
10	0xbeaf0868	-0.341861
11	0xbf8b19b4	-1.0867219
12	0xbecfe908	-0.40607476
13	0xbdd30ac2	-0.10304786
14	0xbe5dc7d3	-0.21658258
15	0xbd895630	-0.06705892
16	0xbf82b1d1	-1.0210515
17	0xbecd6fb5	-0.40124288
18	0xbf2fdadf	-0.68693346
19	0xbe9d54e4	-0.3072883
20	0x3ed9c002	0.42529303
21	0xbe6a3bce	-0.22874376
22	0xbd824455	-0.063606896
23	0xbe04f825	-0.12985285
24	0xbec9cb95	-0.39413133
25	0x3e12499a	0.1428589
26	0xbeec7fcf	-0.4619126
27	0xbf89b78f	-1.0759143
28	0x3e6ee812	0.23330715
29	0x3d69a1b4	0.057038978
30	0x3c0182b3	0.007904696
31	0x3dd5136a	0.104040936
32	0xbf127888	-0.57215166
33	0xbe8c4c74	-0.2740208
34	0xbf8261ad	-1.0186058
35	0xbe94e32b	-0.29079565
36	0x3dd0f3ba	0.10202737
37	0xbf5c50be	-0.860607
38	0xbf2b8b82	-0.6700975
39	0xbf05a9a3	-0.5221197
40	0xbe5289a3	-0.20560317
41	0xbe993827	-0.29925653
42	0xbf03503e	-0.51294315
43	0xbed56e5d	-0.41685763
44	0xbfe3814d	-1.7773834
45	0xbf70fa9f	-0.9413242
46	0xbeefadac	-0.4681219
47	0xbd50bc52	-0.050960846
48	0xbf5dc60c	-0.8663032
49	0xbf84b067	-1.0366334
50	0xbdba8feb	-0.091094814
51	0xbfa5fd32	-1.2967894
52	0x3e24e9e4	0.16104847
53	0xbcded58d	-0.027201438
54	0xbf993e4b	-1.1972135
55	0xbe44f739	-0.19234933
56	0xbf8921fa	-1.0713494
57	0xbf9301f1	-1.1484967
58	0xbfc96de3	-1.573666
59	0xbfbffb2f	-1.499853
60	0xbf297170	-0.66188717
61	0xbf830d20	-1.023838
62	0x3e1f80b0	0.15576434
63	0xbf59cc6e	-0.8507756
64	0x3e5ce708	0.21572506
65	0x3fb2bb73	1.3963455
66	0x3fd0d76e	1.6315744
67	0xbeddedec	-0.43345582
68	0xbf0cb58b	-0.5496451
69	0x3f84f1a3	1.0386242
70	0x3ed605b5	0.4180123
71	0x40167489	2.3508627
72	0x3f6fb5a9	0.93636566
73	0x3deda963	0.116045736
74	0x3e733c13	0.23753385
75	0x3efa8a6e	0.48933738
76	0x3d23668d	0.039892722
77	0x3fec6908	1.8469553
78	0x3f7cf672	0.98813546
79	0x3fbe9709	1.4889842
80	0x3f81dfe4	1.0146451
81	0x3fe1b241	1.7632524
82	0x40145ee8	2.3182926
83	0x3f1a473d	0.6026495
84	0x3dd4d309	0.10391814
85	0xbef50f4f	-0.47863242
86	0xbd5a3969	-0.053277407
87	0x3fb7d7f1	1.4362775
88	0x3f9d768c	1.2301803
89	0x3ff39270	1.9029064
90	0x3f0e7694	0.55649686
91	0x3f677196	0.90407693
92	0x3fa9e109	1.32718
93	0xbee02676	-0.43779343
94	0xbf16da9c	-0.5892732
95	0x3fdc0823	1.7189983
96	0x3fcd00c7	1.6015862
97	0x3f30c8ab	0.69056195
98	0xbe04153e	-0.12898728
99	0x3f33a558	0.7017417
100	0x3feb8ca3	1.8402294
101	0x3f1c3ba1	0.61028486
102	0x3d8f7d19	0.07006282
103	0x40008aa7	2.0084627
104	0x3f2f574e	0.6849259
105	0xbe1db463	-0.15400843
106	0x3fb1f31d	1.3902317
107	0x3eaf506f	0.34241053
108	0xbf6646c1	-0.8995171
109	0x3f880802	1.0627444
110	0x3f07841f	0.52935976
111	0x3fc97462	1.5738642
112	0xbf81bcfc	-1.0135798
113	0x3fa7daaa	1.3113606
114	0xbf3ca671	-0.7369147
115	0x3f8d9cb1	1.1063443
116	0xbd40b23d	-0.04704498
117	0x3f856e42	1.0424273
118	0xbe7afbf2	-0.24510172
119	0x3f9fc3a5	1.2481581
120	0x3f62f001	0.88647467
121	0x3f9ac65c	1.2091784
122	0x3f06b939	0.5262638
123	0xbfd899aa	-1.6921895
124	0x3f412d68	0.7545991
125	0x3e2bd8aa	0.1678187
126	0xbfaf5bb9	-1.3699867
127	0x3fe00663	1.7501949
128	0x3ec559af	0.38544986
129	0xbe345876	-0.1761187
130	0xbe92f455	-0.28702036
131	0xbe2f4792	-0.17117146
132	0x3ec009f3	0.3750759
133	0xbea72c1b	-0.32650837
134	0xbf1a9886	-0.6038898
135	0x3ee7624f	0.4519219
136	0xbe9a9135	-0.3018891
137	0xbe365b35	-0.1780823
138	0xbeaf290a	-0.34210998
139	0x3e617507	0.22017299
140	0x3f29600c	0.6616218
141	0xbed24eb4	-0.4107567
142	0x3e0b5283	0.13605694
143	0x3eb99286	0.362446
144	0x3eaa4489	0.33255413
145	0xbec70c58	-0.38876605
146	0x3e632c82	0.22184947
147	0x3e136652	0.14394501
148	0x3d7ef16d	0.06224196
149	0x3d4633f8	0.048389405
150	0xbeea9f20	-0.45824528
151	0xbea49d98	-0.32151484
152	0xbe8c590b	-0.27411684
153	0x3f734489	0.9502645
154	0xbe9d0bfb	-0.30673203
155	0xbe89c4a0	-0.26907825
156	0xbe91edf3	-0.28501853
157	0xbf49aef8	-0.78782606
158	0x3ecb0056	0.39648694
159	0xbe87284f	-0.2639794
160	0xbed5905f	-0.4171171
161	0xbe3bb2be	-0.18329903
162	0xbeda7d62	-0.42673784
163	0xbe842223	-0.25807294
164	0x3ec9d9b7	0.39423916
165	0xbbabaabd	-0.0052388594
166	0xbe0a107b	-0.1348285
167	0x3e91a914	0.2844931
168	0x3da6b333	0.08139648
169	0xbe826c72	-0.25473362
170	0xbc1c1f03	-0.009528878
171	0x3e7edc49	0.2488872
172	0x3d73d98b	0.059533637
173	0x3ee231f8	0.44178748
174	0x3f4fc21e	0.81155574
175	0x3e92d51e	0.2867822
176	0x3eba09ca	0.36335593
177	0x3cf14a93	0.029454505
178	0xbf7e6896	-0.99378335
179	0xbec1154a	-0.37711555
180	0xbecfcd4b	-0.40586314
181	0x3ee7ef50	0.45299768
182	0xbbbea10b	-0.0058175377
183	0xbd823ace	-0.06358872
184	0x3f0e2dd2	0.55538666
185	0x3bfa2a2a	0.007634421
186	0x3e5dd631	0.21663739
187	0xbdaf04e5	-0.085458554
188	0xbe466372	-0.19373873
189	0xbeba7b71	-0.36422303
190	0x3f6ceddf	0.9255046
191	0x3eaeec2d	0.34164563

dense.weight f4 [1, 64]
0	0xbc7a2109	-0.015266665
1	0x3d1f0188	0.03881982
2	0x3e3334c7	0.17500602
3	0xbb3431b9	-0.0027495457
4	0x3d91cf57	0.07119625
5	0xbe0ac636	-0.13552174
6	0x3db5b056	0.08871524
7	0x3d2bd74b	0.041953366
8	0x3e8a13ce	0.26968235
9	0x3c9690de	0.018379625
10	0xbdbb4ed3	-0.09145894
11	0x3c6ef86e	0.014585597
12	0x3e20fdb8	0.15721786
13	0xbd64f61b	-0.055898767
14	0x3d58db17	0.052943315
15	0xbb6e117e	-0.0036326344
16	0xbe14fbb1	-0.14549138
17	0x3c9e2e57	0.019309206
18	0x3ca6d3f7	0.020364745
19	0xbdc18926	-0.09449987
20	0x3c5069b2	0.012720512
21	0xbd398be6	-0.045299433
22	0xbe0a5bda	-0.13511601
23	0x3c2e4e7d	0.01063883
24	0x3e0b504f	0.13604854
25	0x3da122c0	0.07867956
26	0x3c85f7f6	0.016353589
27	0x3e2a5137	0.16632544
28	0x3b6f6c4b	0.0036533053
29	0x3b6f7ac2	0.0036541675
30	0xbd0e120a	-0.034685172
31	0x3ce6b74c	0.028163575
32	0xbddd8074	-0.10815516
33	0x3d80c6d7	0.06287926
34	0x3dbe7bf2	0.093009844
35	0xbd80f152	-0.06296028
36	0xbdee9694	-0.11649814
37	0xbbc7900d	-0.0060901702
38	0xbdb5f9e6	-0.08885555
39	0x3d1ce28a	0.038301982
40	0xbd96de3b	-0.07366606
41	0x3d839c5c	0.064263076
42	0x3cf5705e	0.029960807
43	0x3c8cde09	0.017195718
44	0x3ea36ce6	0.3191902
45	0xbd0b3051	-0.033981625
46	0x3cca4b9f	0.024694262
47	0x3c4ba67e	0.012429832
48	0x3bfedb2a	0.0077775912
49	0x3da4fa2d	0.0805553
50	0xbd84baed	-0.06480966
51	0x3e8d739c	0.27627265
52	0x3b51446a	0.0031931647
53	0xbea46efb	-0.3211592
54	0xbd85225d	-0.06500695
55	0x3c2706d2	0.010194497
56	0xbe434b82	-0.19071773
57	0x3d2b5d1b	0.04183684
58	0xbd4d0c5e	-0.050060622
59	0x3e618872	0.22024706
60	0xbd907f08	-0.07055479
61	0xbd921063	-0.07132032
62	0x3e3b2f8f	0.18279861
63	0xbeb35e2f	-0.35032794

exp_avg f4 [192, 1]
0	0x37e95e7d	2.7819764e-05
1	0x392ca34d	0.00016464033
2	0x3820c2d5	3.8328424e-05
3	0x399e90d7	0.00030244022
4	0xb8231698	-3.888327e-05
5	0x37aff140	2.0973966e-05
6	0x3735ab12	1.0828271e-05
7	0xb7d30ab1	-2.5158139e-05
8	0xb849225d	-4.7954138e-05
9	0x3683c4e4	3.9270253e-06
10	0xb7ad1b33	-2.0635873e-05
11	0x3909fce4	0.00013159547
12	0x38627dc9	5.3999745e-05
13	0xb71ae3b5	-9.2321325e-06
14	0xb8c94d91	-9.598875e-05
15	0xb6861378	-3.9957777e-06
16	0x376b6415	1.4030394e-05
17	0xb752f442	-1.2573846e-05
18	0xb5ddf480	-1.6536942e-06
19	0x383c333a	4.48704e-05
20	0xb681cec8	-3.868572e-06
21	0x38687bdc	5.5428463e-05
22	0x3808bfe3	3.2603635e-05
23	0xb86fe55e	-5.7195655e-05
24	0x37f1e642	2.8836661e-05
25	0xb8dfe692	-0.00010676416
26	0xb897ed58	-7.24445e-05
27	0xb931621f	-0.00016916588
28	0x375b8507	1.308439e-05
29	0x38e6632c	0.00010985727
30	0xb8857a8a	-6.364759e-05
31	0x38096e46	3.2766045e-05
32	0x38adc4cb	8.2859384e-05
33	0xb7be96b0	-2.2719934e-05
34	0xb8ac4fdc	-8.216474e-05
35	0x399c7368	0.00029840623
36	0x3727ca47	1.0001072e-05
37	0xb8e4ab49	-0.000109037916
38	0x3949595e	0.00019202146
39	0x3562cfaf	8.449378e-07
40	0xb8ebe40d	-0.00011248151
41	0xb98e7388	-0.00027170428
42	0xb8037b35	-3.134758e-05
43	0x38844e63	6.308851e-05
44	0x38157bc9	3.5639652e-05
45	0x380520da	3.1740266e-05
46	0x39cabfc5	0.00038671322
47	0xb84283d7	-4.637599e-05
48	0x3904cbb8	0.00012664392
49	0x391028ab	0.0001374806
50	0xb82695db	-3.9717048e-05
51	0xb927df3b	-0.00016009521
52	0x39717955	0.00023028751
53	0xb86b2292	-5.6060562e-05
54	0x395d5d5c	0.00021110981
55	0x371ef65e	9.474896e-06
56	0xb79abd79	-1.844646e-05
57	0x39069709	0.00012835501
58	0xb60ee11c	-2.129068e-06
59	0x3779e8e0	1.4895777e-05
60	0x37809bf5	1.5331412e-05
61	0x39bf8c88	0.00036535063
62	0x381bd84f	3.7156333e-05
63	0x366de7bb	3.5450637e-06
64	0x38844980	6.307941e-05
65	0x387c8355	6.0203794e-05
66	0xb9e0df50	-0.0004289099
67	0x3619c7ff	2.291519e-06
68	0xb95df20d	-0.00021166373
69	0x387baca2	6.000384e-05
70	0xb6ad22c1	-5.1598477e-06
71	0x37aaa718	2.0343388e-05
72	0x3a8fa92d	0.0010960452
73	0x386b1277	5.6045563e-05
74	0x390cf8fd	0.00013444196
75	0x3880880c	6.128856e-05
76	0x390cf5fa	0.00013443074
77	0xb7c604c0	-2.3605651e-05
78	0x3960aecc	0.00021427422
79	0xb94e53c5	-0.00019676898
80	0x38916d79	6.93453e-05
81	0x38425489	4.6331934e-05
82	0x38b7710a	8.747175e-05
83	0x39096a84	0.00013105018
84	0x37317db5	1.0579291e-05
85	0x3810b518	3.4500932e-05
86	0xb88b18c1	-6.632647e-05
87	0xb78cd66e	-1.6789152e-05
88	0xb7fdfd36	-3.027786e-05
89	0xb8a3a657	-7.803429e-05
90	0x39625fde	0.00021588753
91	0x395e40a5	0.00021195652
92	0xb9259977	-0.00015792796
93	0x381fb035	3.807266e-05
94	0xb9493bac	-0.00019191083
95	0x38c98be7	9.610486e-05
96	0x39c9a7fa	0.0003846286
97	0xb81ea41e	-3.782298e-05
98	0xb7e88691	-2.7719218e-05
99	0x3965b5f2	0.00021906922
100	0xb814858a	-3.5410318e-05
101	0x39695af2	0.00022254491
102	0xb7dc7aa5	-2.6283155e-05
103	0x3851940d	4.9967366e-05
104	0x38edeb80	0.00011344906
105	0x37b8c8d5	2.2028029e-05
106	0x38c53c36	9.404907e-05
107	0x3718438b	9.075632e-06
108	0x390e337b	0.00013561353
109	0x3893f4fc	7.055138e-05
110	0x38bd4e55	9.026813e-05
111	0x3803d8e3	3.1434825e-05
112	0x381fe9c7	3.8126276e-05
113	0xb856847e	-5.114497e-05
114	0xb8fc5f47	-0.00012034043
115	0x3a46837a	0.0007572692
116	0xb771c582	-1.4410705e-05
117	0x3953633c	0.00020159496
118	0xb9b6d210	-0.00034870254
119	0xb64a03c2	-3.0102533e-06
120	0xb92a492e	-0.00016239725
121	0xb74d5a72	-1.2240011e-05
122	0xb843e379	-4.6703473e-05
123	0xb74dc7db	-1.2265485e-05
124	0xb6a845ad	-5.0149015e-06
125	0x3822fa51	3.8856935e-05
126	0x39347ca3	0.00017212568
127	0xb8297e5f	-4.0410432e-05
128	0xb9171874	-0.00014409592
129	0xba1a9220	-0.0005896408
130	0xbb5be0c6	-0.0033550723
131	0xb9cc5e73	-0.00038980282
132	0xba1ce918	-0.00059856614
133	0x3ac41b7d	0.0014961805
134	0x398b9e90	0.00026630284
135	0x36878786	4.0390905e-06
136	0xbb9aad31	-0.004720353
137	0xb9ab9886	-0.000327293
138	0x3a819825	0.0009887262
139	0xba499554	-0.0007689793
140	0xb9fcb7d6	-0.00048202154
141	0x382d8125	4.136669e-05
142	0xb7047049	-7.8939565e-06
143	0x38d3df8b	0.00010102902
144	0x3b68db96	0.0035531274
145	0xb13500f8	-2.6339517e-09
146	0xb9ab3889	-0.00032657784
147	0x3a142258	0.00056508696
148	0x395c6cf3	0.00021021422
149	0x3aff5c18	0.0019482402
150	0x3a13ab20	0.00056331046
151	0xba52cb61	-0.000804117
152	0xbb17582b	-0.0023093324
153	0x392a9d7a	0.00016271128
154	0xb9282c3d	-0.00016038209
155	0xbac6e700	-0.0015175045
156	0xb84e1d58	-4.9141556e-05
157	0x38b41860	8.587609e-05
158	0xba472727	-0.0007597082
159	0xba7d532c	-0.00096635777
160	0x3a5cb1ff	0.00084188575
161	0x39ea3da1	0.00044677875
162	0x3911385a	0.0001384927
163	0x3af8d195	0.0018983359
164	0xb93d5fe3	-0.00018060165
165	0x3898598a	7.264603e-05
166	0xba1767cc	-0.000577566
167	0x374554ad	1.176183e-05
168	0x3a9a59a1	0.0011775979
169	0x391f1d58	0.00015174353
170	0x3916b458	0.00014372298
171	0xba8f6b30	-0.0010941979
172	0xbb426549	-0.0029662421
173	0xb972c12c	-0.0002315088
174	0xba828363	-0.0009957369
175	0x390d8f46	0.00013500181
176	0xb99a78da	-0.0002946321
177	0x39b6c33d	0.0003485921
178	0xba189ca7	-0.0005821683
179	0xbbac89be	-0.0052654436
180	0x3a90cb8a	0.0011046987
181	0x3c1ca0b3	0.009559798
182	0x3b01eba3	0.0019824288
183	0x3874b7aa	5.8345184e-05
184	0x3b0b4201	0.0021249058
185	0xb95336b5	-0.00020142908
186	0x3a3f3d29	0.00072951854
187	0xbb2d72c6	-0.0026466115
188	0x3aed359c	0.0018097642
189	0x3a781704	0.0009463879
190	0xba87b9fd	-0.0010355111
191	0x3bea1db5	0.0071446546

exp_avg_sq f4 [192, 1]
0	0x37cf2db3	2.4697603e-05
1	0x38cb2a4f	9.687675e-05
2	0x396d48e9	0.00022629242
3	0x380d0b4e	3.3627548e-05
4	0x3a068a02	0.0005132259
5	0x37dbeeba	2.6218e-05
6	0x3a7cc43c	0.00096422783
7	0x34a3033e	3.0363475e-07
8	0x377614ce	1.4667587e-05
9	0x397680f1	0.00023508423
10	0x39402e4c	0.00018327794
11	0x3861d3f8	5.384159e-05
12	0x371f558e	9.497058e-06
13	0x3716cb30	8.988005e-06
14	0x398857cf	0.00026005364
15	0x364100bd	2.875967e-06
16	0x368c3871	4.178896e-06
17	0x37ca5690	2.4120585e-05
18	0x3663c93d	3.3942772e-06
19	0x39076b21	0.00012914512
20	0x3824a850	3.92574e-05
21	0x38af08c4	8.346283e-05
22	0x3976d063	0.00023538018
23	0x3770aaf6	1.434492e-05
24	0x392be086	0.00016391472
25	0x35927aeb	1.0913622e-06
26	0x378570c3	1.5907344e-05
27	0x357aa249	9.3368413e-07
28	0x392872b5	0.0001606446
29	0x39c1136d	0.00036826302
30	0x38275580	3.989553e-05
31	0x3558b2cd	8.072646e-07
32	0x38076761	3.2282787e-05
33	0x388b18b0	6.632635e-05
34	0x390aaf68	0.0001322605
35	0x3902ead1	0.00012485242
36	0x363a7547	2.7784424e-06
37	0x3859016a	5.173815e-05
38	0x37f66762	2.9373627e-05
39	0x3823c263	3.9043265e-05
40	0x375ef874	1.3290079e-05
41	0x381fb173	3.8073817e-05
42	0x38084c40	3.249594e-05
43	0x39437ff0	0.0001864431
44	0x37962078	1.7896513e-05
45	0x37081e6b	8.113314e-06
46	0x3926f01e	0.00015920444
47	0x3898be72	7.283398e-05
48	0x389b56f8	7.407175e-05
49	0x376588b5	1.3681293e-05
50	0x39c5bbba	0.00037714635
51	0x373d12cc	1.1269654e-05
52	0x3a378f20	0.0007002223
53	0x38f2ce32	0.00011577866
54	0x38922dab	6.970329e-05
55	0x36d18bee	6.2449753e-06
56	0x37912246	1.7301307e-05
57	0x37a5dca7	1.9772282e-05
58	0x34aef41c	3.2587639e-07
59	0x3877895e	5.9017322e-05
60	0x39cb8751	0.00038819996
61	0x39111a84	0.00013838155
62	0x3a97c543	0.0011579174
63	0x35d05189	1.5520937e-06
64	0x3a39a42b	0.0007081653
65	0x39562565	0.00020422561
66	0x37ce636c	2.460341e-05
67	0x394613e5	0.00018890163
68	0x3a3deb19	0.000724481
69	0x376f7d56	1.4274692e-05
70	0x389451e1	7.072441e-05
71	0x38ac292d	8.209269e-05
72	0x38bd0bc0	9.014411e-05
73	0x3981ac36	0.00024733105
74	0x39583d07	0.000206221
75	0x37ba4187	2.2203441e-05
76	0x37e7f9ce	2.765367e-05
77	0x37cd95d7	2.4507679e-05
78	0x391f57ac	0.00015196082
79	0x37e131e4	2.6845322e-05
80	0x386c6d7e	5.6368757e-05
81	0x371c763e	9.325855e-06
82	0x379adce0	1.8461084e-05
83	0x39560546	0.00020410595
84	0x3a8c55cf	0.0010706725
85	0x39f661db	0.00046993684
86	0x3a4abd55	0.0007733901
87	0x3ae71365	0.0017629681
88	0x391c3c80	0.00014899857
89	0x3542d231	7.25765e-07
90	0x386fc01f	5.7160967e-05
91	0x3909ddc9	0.0001314796
92	0x38c3c029	9.334117e-05
93	0x39880791	0.0002594558
94	0x385edfe3	5.3137435e-05
95	0x3a2a6779	0.0006500404
96	0x388ca4b9	6.706402e-05
97	0x37e68466	2.747979e-05
98	0x382496be	3.9241037e-05
99	0x380e1336	3.387333e-05
100	0x372a7a9a	1.0161335e-05
101	0x388d1955	6.7281224e-05
102	0x38804180	6.115716e-05
103	0x3697ce66	4.5241786e-06
104	0x37afd5ea	2.0961237e-05
105	0x36e64ea0	6.8636873e-06
106	0x387270f3	5.780249e-05
107	0x3a0c8400	0.00053602457
108	0x38470301	4.7448095e-05
109	0x36e53ffc	6.8321806e-06
110	0x37fddfe6	3.0264211e-05
111	0x374b55a1	1.211968e-05
112	0x37e5db05	2.7400916e-05
113	0x393a630f	0.00017775244
114	0x39d58e8b	0.0004073273
115	0x38ccfcb3	9.774547e-05
116	0x3afd9dfb	0.001934945
117	0x389c8164	7.4627605e-05
118	0x38825e04	6.216395e-05
119	0x36edbf29	7.0854044e-06
120	0x37560068	1.2755489e-05
121	0x380d148c	3.3636155e-05
122	0x37f41871	2.9098448e-05
123	0x37923eb0	1.7433747e-05
124	0x39b2d35c	0.0003410828
125	0x39562770	0.00020423322
126	0x3aece289	0.0018072884
127	0x36bdacb9	5.6527465e-06
128	0x3a864277	0.0010243197
129	0x3a422d22	0.0007407238
130	0x3c534240	0.012894213
131	0x3cfc3fba	0.030792106
132	0x3ce2a793	0.027667796
133	0x3adaf626	0.0016705438
134	0x3c71a8e5	0.01474974
135	0x392269e3	0.0001548897
136	0x3a82e76c	0.0009987182
137	0x3b0b341d	0.0021240779
138	0x3b3af3c3	0.002852664
139	0x3a742361	0.0009313133
140	0x3a904466	0.0011006712
141	0x39a81d85	0.0003206545
142	0x3b8c2ae5	0.0042775744
143	0x3a53cb84	0.00080793374
144	0x3aed9922	0.0018127302
145	0x39b1aa08	0.00033886754
146	0x3a077aba	0.0005168129
147	0x3c48a185	0.0122455405
148	0x3c3972f4	0.011318911
149	0x3caaddaf	0.02085766
150	0x3b8cd859	0.0042982516
151	0x3bad71a4	0.005293088
152	0x3c3b128c	0.011417996
153	0x382164fc	3.847944e-05
154	0x3a967a60	0.0011480562
155	0x3a61207b	0.0008587909
156	0x3a09973f	0.00052486727
157	0x3a7cacfa	0.00096388126
158	0x3af1cb98	0.0018447516
159	0x398eab73	0.0002721209
160	0x3bf78a06	0.0075542955
161	0x3a98efc3	0.0011668134
162	0x3b7de865	0.0038743254
163	0x3b0d1757	0.0021528804
164	0x3a177c80	0.0005778745
165	0x3992d73e	0.00028007658
166	0x3b145720	0.0022634938
167	0x3aa0b9a2	0.0012262354
168	0x3a833dca	0.0010012921
169	0x3ab29bcf	0.0013626757
170	0x3ac06c8e	0.0014680789
171	0x3ca135ad	0.019678915
172	0x3c999c68	0.018751338
173	0x3a6315a3	0.0008662587
174	0x3bb144c5	0.0054098093
175	0x3ad33b8d	0.001611577
176	0x3b881439	0.0041528014
177	0x3b1f2e41	0.0024289044
178	0x3c287b7c	0.010283347
179	0x3b2cd642	0.0026372825
180	0x3d28bdf7	0.04119679
181	0x3d1f7289	0.03892759
182	0x3c1cbc4e	0.00956638
183	0x3a18425c	0.0005808228
184	0x3a2cbd16	0.00065894553
185	0x3a7ae993	0.00095715484
186	0x3ac06a7c	0.0014680172
187	0x3cc20bfb	0.023687353
188	0x3b0bfed9	0.0021361618
189	0x3c160739	0.009156995
190	0x3cc5560d	0.024088884
191	0x3afe6681	0.0019409211

exp_avg f4 [192, 64]
0	0xb987d539	-0.0002590807
1	0xb9156e1e	-0.00014250769
2	0xb8059b3d	-3.1854248e-05
3	0x396679cf	0.00021979887
4	0xb95be054	-0.00020969036
5	0xb88cfe33	-6.7230685e-05
6	0xb8c541ea	-9.4059695e-05
7	0x392b039d	0.00016309177
8	0xb831e32a	-4.241165e-05
9	0x3984f7b8	0.00025361567
10	0xb9315ecc	-0.0001691535
11	0x3939fc69	0.00017737005
12	0x384d512a	4.89514e-05
13	0xb948b12f	-0.00019139492
14	0xb927c3d0	-0.00015999307
15	0x38ac4040	8.2135666e-05
16	0x3894dac5	7.097939e-05
17	0xb936e817	-0.00017443333
18	0xb92a8195	-0.00016260736
19	0x39aa08e1	0.00032431542
20	0xb9978ff6	-0.00028908224
21	0xb72485d1	-9.806318e-06
22	0xb6742b79	-3.6384138e-06
23	0xb844a32f	-4.6882018e-05
24	0x37179dc8	9.037038e-06
25	0x39343020	0.00017184066
26	0xb9607290	-0.00021404983
27	0xb6268994	-2.4816009e-06
28	0xb9c3f84f	-0.00037378303
29	0xb9d3aef5	-0.0004037541
30	0x391dab7d	0.00015036571
31	0xb997fb6c	-0.00028988288
32	0x395c5f4e	0.00021016339
33	0xb88bd978	-6.668543e-05
34	0xb9255409	-0.00015766932
35	0x371f8a40	9.509327e-06
36	0x3978b748	0.000237194
37	0x38149c15	3.5431312e-05
38	0xb9e015e2	-0.00042740913
39	0x3713d484	8.811363e-06
40	0x39a3aec7	0.00031220002
41	0x390684ea	0.0001282875
42	0xb9269dac	-0.00015889731
43	0x39384ad5	0.00017575485
44	0xb8954f38	-7.119629e-05
45	0x38915e7e	6.931739e-05
46	0x395a1452	0.0002079767
47	0xb8cf152e	-9.874474e-05
48	0xb8945f6d	-7.0749644e-05
49	0xb77e7f1c	-1.5169175e-05
50	0xb90e5f99	-0.00013577788
51	0xb8b7a816	-8.7574284e-05
52	0xb711a1f0	-8.6803775e-06
53	0x393010e8	0.00016790966
54	0x38397b7a	4.4222434e-05
55	0x37d1186d	2.4926116e-05
56	0x3896d72a	7.192635e-05
57	0xb8ac5bcf	-8.2187e-05
58	0x3761e4aa	1.3464285e-05
59	0xb89da2b4	-7.516649e-05
60	0xb905b0f9	-0.00012749796
61	0xb8964000	-7.164478e-05
62	0xb7842bd6	-1.5756039e-05
63	0x3794f250	1.775581e-05
64	0x36398c47	2.76488e-06
65	0xb9091220	-0.0001307209
66	0xb80cee38	-3.360046e-05
67	0x3847697b	4.7543534e-05
68	0x38a95f34	8.076281e-05
69	0xb89c415b	-7.450833e-05
70	0xb8df5277	-0.00010648829
71	0x39095828	0.00013098179
72	0x3811376f	3.462232e-05
73	0x391330ae	0.00014037147
74	0xb883823b	-6.270824e-05
75	0x35ac566b	1.284015e-06
76	0x38d57c29	0.00010179758
77	0xb90af19e	-0.00013250715
78	0xb83cb475	-4.4990757e-05
79	0x381bc16f	3.713503e-05
80	0xb7948e5c	-1.7709266e-05
81	0xb914030d	-0.00014115516
82	0xb9089117	-0.00013024021
83	0xb7f740e7	-2.9474917e-05
84	0xb8f62d53	-0.000117386364
85	0x385652e6	5.109878e-05
86	0xb8fc69ec	-0.00012036026
87	0xb792580f	-1.7445562e-05
88	0xb8a07ba6	-7.652426e-05
89	0x38d2d2f7	0.000100528756
90	0xb9094eb3	-0.00013094656
91	0x3780f899	1.5374551e-05
92	0xb8e2d026	-0.000108152904
93	0xb9003dc7	-0.00012230045
94	0x3516f096	5.6229453e-07
95	0xb8a4e0cb	-7.862e-05
96	0xb7f7a84d	-2.9523066e-05
97	0xb7ad0397	-2.0624879e-05
98	0xb8f55bfa	-0.00011699642
99	0xb82056ca	-3.82278e-05
100	0x391b9bbc	0.00014839967
101	0xb83c8c61	-4.495343e-05
102	0xb906940f	-0.00012834392
103	0x3705dcb4	7.978804e-06
104	0x37d55dbd	2.5435229e-05
105	0x390e49e5	0.00013569703
106	0x37d03840	2.4821726e-05
107	0xb84b5e58	-4.8486836e-05
108	0x3880304f	6.112514e-05
109	0x38826e77	6.219459e-05
110	0xb7a4a123	-1.9625359e-05
111	0xb7706641	-1.4328923e-05
112	0xb917f187	-0.00014490458
113	0x37bc31c8	2.2434528e-05
114	0xb9073a7d	-0.00012896392
115	0x36bacb65	5.56691e-06
116	0x382b46fe	4.0835694e-05
117	0x37d440a3	2.5302468e-05
118	0x373de27d	1.1318011e-05
119	0x36fcbf8f	7.5324856e-06
120	0x388411e5	6.2975836e-05
121	0xb832bc01	-4.26136e-05
122	0x38c6ccc6	9.479518e-05
123	0x3869fadf	5.578517e-05
124	0xb87d5629	-6.0400143e-05
125	0xb79099e2	-1.7237795e-05
126	0x3922e015	0.00015533001
127	0xb54039aa	-7.1609486e-07
128	0x37556546	1.2719369e-05
129	0x360dea40	2.1146989e-06
130	0x36987df6	4.544617e-06
131	0xb7119eca	-8.679644e-06
132	0x372dda37	1.0362411e-05
133	0x36152d50	2.2229106e-06
134	0xb53798d0	-6.8395184e-07
135	0x3582b153	9.737363e-07
136	0x35cf14db	1.5428772e-06
137	0x3759a787	1.2973213e-05
138	0xb7890b68	-1.6336984e-05
139	0xb6e20a34	-6.7365127e-06
140	0x3595be2e	1.1156715e-06
141	0x36f0d7bf	7.1776735e-06
142	0x3780571a	1.5299349e-05
143	0xb6a0ad6d	-4.788561e-06
144	0xb6045503	-1.9719016e-06
145	0x3504cdaf	4.947314e-07
146	0x33955c9a	6.955197e-08
147	0xb7858f37	-1.5921525e-05
148	0x35c07397	1.4338756e-06
149	0xb696ab85	-4.490316e-06
150	0x37899427	1.6400661e-05
151	0x366d1392	3.5327143e-06
152	0x36077297	2.0183268e-06
153	0xb5dbc27d	-1.6373375e-06
154	0x343e49a1	1.7721915e-07
155	0x361ced3c	2.33839e-06
156	0x37913a4a	1.731249e-05
157	0x373cf583	1.1262836e-05
158	0x349824fb	2.8339113e-07
159	0x3788ddd1	1.6315755e-05
160	0xb78dcb3b	-1.6903146e-05
161	0x3679ce0d	3.7223829e-06
162	0x36fa1b23	7.4537397e-06
163	0x36ad8e53	5.1723705e-06
164	0xb6c42da6	-5.8465694e-06
165	0xb769c463	-1.3933607e-05
166	0x372dc942	1.03584625e-05
167	0xb4d489e6	-3.9588411e-07
168	0xb78959ac	-1.637343e-05
169	0xb76fe872	-1.42996305e-05
170	0x3757334a	1.282694e-05
171	0x35ee7901	1.7767599e-06
172	0x37a2a4c0	1.9388623e-05
173	0xb6449055	-2.9290288e-06
174	0xb73eca6a	-1.1372011e-05
175	0x34b848fc	3.4325774e-07
176	0x36697dfd	3.479304e-06
177	0xb5e0230d	-1.6699502e-06
178	0x349ab8b2	2.881912e-07
179	0x353d17ad	7.044244e-07
180	0xb59b9bde	-1.1593763e-06
181	0xb60148e7	-1.9264933e-06
182	0xb73bb22d	-1.1187553e-05
183	0xb60c9ba3	-2.0952218e-06
184	0xb6b4184a	-5.3672456e-06
185	0x36f146de	7.1906097e-06
186	0x35463935	7.3843995e-07
187	0x37a16a70	1.924226e-05
188	0x35560599	7.972936e-07
189	0x375f4bbd	1.330947e-05
190	0xb7d20f80	-2.5041169e-05
191	0x3479fc12	2.3281635e-07
192	0xb856940e	-5.1159463e-05
193	0xb9b4c94f	-0.00034482262
194	0xb89da11c	-7.516352e-05
195	0x3922e61f	0.0001553525
196	0x393427e0	0.00017180992
197	0xb964df27	-0.00021826905
198	0xb9a224a7	-0.00030926356
199	0x39ca79c8	0.00038619176
200	0x387f720e	6.090296e-05
201	0x39d4da9c	0.00040598668
202	0xb948b369	-0.00019140322
203	0xb7a8563c	-2.0067317e-05
204	0x39a0a0e6	0.00030637457
205	0xb9a8393c	-0.000320861
206	0x39167bee	0.00014351282
207	0x38f1a61c	0.00011522716
208	0xb79ad3fe	-1.8456947e-05
209	0xb9b00151	-0.00033570317
210	0xb9d24a3a	-0.00040109624
211	0x37a6e8c8	1.989714e-05
212	0xb9d3958a	-0.0004035647
213	0x37b3ba95	2.1425347e-05
214	0xb9150858	-0.00014212856
215	0xb762eb30	-1.3525409e-05
216	0xb94b9e2e	-0.00019418515
217	0x39a929f2	0.00032265444
218	0xb9da11b3	-0.00041593387
219	0x38282fc8	4.009882e-05
220	0xb984d68d	-0.00025336855
221	0xb98376dd	-0.00025074827
222	0x3806ba35	3.212151e-05
223	0xb895b238	-7.1380695e-05
224	0xb8e65a02	-0.0001098402
225	0xb8548e03	-5.0676997e-05
226	0xb954ea85	-0.00020305261
227	0xb8369c4d	-4.3537748e-05
228	0x39d6257e	0.00040845195
229	0xb89dfbcc	-7.533244e-05
230	0xb9e5139d	-0.00043692897
231	0x37a2f733	1.9427016e-05
232	0x3894ec58	7.1012124e-05
233	0x39d5ea79	0.00040801222
234	0xb7599adb	-1.2970263e-05
235	0xb86cde09	-5.647357e-05
236	0x393284ab	0.00017024826
237	0x3949442b	0.00019194248
238	0x38a61c9b	7.920825e-05
239	0xb8bca1af	-8.9946545e-05
240	0xb9c242b0	-0.0003705225
241	0x38049047	3.160562e-05
242	0xb98c14d3	-0.00026718396
243	0x3808526f	3.25017e-05
244	0x3914e69b	0.00014200287
245	0x3811c346	3.4752557e-05
246	0x37b802cb	2.193581e-05
247	0x37894acd	1.6366504e-05
248	0x391098bd	0.0001378981
249	0xb92397bc	-0.00015601417
250	0x3965cd0d	0.00021915529
251	0x3922b4fb	0.00015516944
252	0xb8f962f0	-0.00011891674
253	0x39036502	0.00012530762
254	0x398b3703	0.00026553133
255	0x36c7efd9	5.958584e-06

exp_avg_sq f4 [192, 64]
0	0x3876f5f3	5.888003e-05
1	0x370359b3	7.829093e-06
2	0x35dd21b4	1.6475592e-06
3	0x3652b0d6	3.139537e-06
4	0x370459d7	7.888731e-06
5	0x368736e4	4.0297036e-06
6	0x3732fae2	1.066804e-05
7	0x362535e0	2.4618275e-06
8	0x373cd448	1.1255099e-05
9	0x38a81d94	8.0163736e-05
10	0x3803c38c	3.141495e-05
11	0x37087194	8.132676e-06
12	0x368240a5	3.8818275e-06
13	0x35f4cc38	1.8238852e-06
14	0x3803f870	3.146421e-05
15	0x37609fd2	1.33886515e-05
16	0x3733c441	1.0714925e-05
17	0x37036257	7.831105e-06
18	0x36879451	4.04058e-06
19	0x37fa956b	2.98719e-05
20	0x3858f0f0	5.1722804e-05
21	0x3744c3fd	1.1728142e-05
22	0x37291a06	1.0079244e-05
23	0x370fa7e9	8.562559e-06
24	0x34a6e36f	3.108539e-07
25	0x37998e85	1.8305387e-05
26	0x3794d95f	1.7744196e-05
27	0x371a2830	9.188472e-06
28	0x37a4e08e	1.965489e-05
29	0x3823a894	3.901923e-05
30	0x360dce02	2.113055e-06
31	0x3736702e	1.0874164e-05
32	0x37776ba4	1.4747409e-05
33	0x360579d8	1.9889467e-06
34	0x3854bd6f	5.0721163e-05
35	0x3683f08d	3.932108e-06
36	0x37992cc7	1.8259872e-05
37	0x36388a59	2.7498666e-06
38	0x36a19ec9	4.816659e-06
39	0x36188c51	2.273144e-06
40	0x361e594d	2.3595815e-06
41	0x37989dca	1.8193288e-05
42	0x3721b708	9.638963e-06
43	0x3726f42c	9.951222e-06
44	0x375d096e	1.3174822e-05
45	0x385b4df8	5.2286283e-05
46	0x37875e5d	1.6137195e-05
47	0x36a618db	4.950079e-06
48	0x3732cb4f	1.0656963e-05
49	0x36b18766	5.2907735e-06
50	0x377edfd4	1.5191694e-05
51	0x371abf4c	9.223655e-06
52	0x37b2aba0	2.1299173e-05
53	0x367b6dab	3.746575e-06
54	0x364f1fed	3.0863987e-06
55	0x35c0b92f	1.435901e-06
56	0x370696ca	8.022131e-06
57	0x36ca0927	6.0211346e-06
58	0x37de3385	2.6488453e-05
59	0x377b8480	1.4991616e-05
60	0x37e3c60a	2.7152728e-05
61	0x378456af	1.5775991e-05
62	0x388101ad	6.1515115e-05
63	0x34a4c3dc	3.0689887e-07
64	0x36066a73	2.0029518e-06
65	0x3785a030	1.5929429e-05
66	0x36661f38	3.4290842e-06
67	0x35952fb8	1.1115253e-06
68	0x36ad6580	5.167618e-06
69	0x35d6fc7b	1.6017724e-06
70	0x36d6b2dd	6.3985194e-06
71	0x35718af6	8.998171e-07
72	0x3591601b	1.0831312e-06
73	0x386b32a2	5.607552e-05
74	0x38f2606b	0.000115574185
75	0x36e582f3	6.8399763e-06
76	0x3718b0a4	9.101033e-06
77	0x34f4f76a	4.562856e-07
78	0x371d835e	9.3885155e-06
79	0x387ecbea	6.074823e-05
80	0x3696ebab	4.4977837e-06
81	0x368100c1	3.8445874e-06
82	0x351c799f	5.829151e-07
83	0x37ed2cb6	2.8273422e-05
84	0x3830b0a0	4.2126165e-05
85	0x36639c24	3.3916522e-06
86	0x3874cc75	5.836455e-05
87	0x37f90e6c	2.9689829e-05
88	0x3760f288	1.3407909e-05
89	0x33a43500	7.646486e-08
90	0x373b5a61	1.1167112e-05
91	0x35b8fb97	1.3782291e-06
92	0x367eeac7	3.7985608e-06
93	0x3853ae70	5.0468778e-05
94	0x34f0d8bc	4.486118e-07
95	0x36a00efa	4.770115e-06
96	0x38449b50	4.6874688e-05
97	0x365ce869	3.2917835e-06
98	0x373e7e42	1.1354279e-05
99	0x378d6b42	1.6858456e-05
100	0x36956404	4.4521894e-06
101	0x3760aa65	1.33911135e-05
102	0x3814031e	3.5288853e-05
103	0x3771cb83	1.4412103e-05
104	0x36341458	2.6833932e-06
105	0x36897903	4.097006e-06
106	0x37bc6e7f	2.24628e-05
107	0x37826d17	1.5548007e-05
108	0x37811d9a	1.5391783e-05
109	0x360e2fa5	2.1187382e-06
110	0x36b07be0	5.2596297e-06
111	0x35e6e8ee	1.7204127e-06
112	0x37014d1c	7.706953e-06
113	0x38abcfbc	8.192609e-05
114	0x37c11db8	2.3021232e-05
115	0x3691f88c	4.3502714e-06
116	0x38bf19d1	9.1123984e-05
117	0x379b675c	1.852557e-05
118	0x367f19b2	3.8012918e-06
119	0x35d1c97e	1.5630355e-06
120	0x36bdf9e4	5.66173e-06
121	0x36d861bc	6.4486794e-06
122	0x35d289ff	1.5686381e-06
123	0x3721da34	9.647152e-06
124	0x36d6d72d	6.4027467e-06
125	0x370bcee1	8.333213e-06
126	0x374931e1	1.1992147e-05
127	0x33d80acf	1.006025e-07
128	0x36270769	2.4889252e-06
129	0x36ffbd84	7.6216547e-06
130	0x3648f079	2.9942296e-06
131	0x371ab817	9.221977e-06
132	0x3649b9c0	3.0059455e-06
133	0x36a2d1bb	4.852392e-06
134	0x370d47a5	8.420936e-06
135	0x34ec9b49	4.407141e-07
136	0x3680e264	3.8410526e-06
137	0x37e7bb45	2.762455e-05
138	0x3751f16c	1.2513581e-05
139	0x36bf89e8	5.708298e-06
140	0x36093825	2.0447271e-06
141	0x35742100	9.0945105e-07
142	0x36d8f0d9	6.46534e-06
143	0x3824ab82	3.9260376e-05
144	0x371c00bd	9.2984965e-06
145	0x36c7bcf8	5.952661e-06
146	0x340494cf	1.2347594e-07
147	0x38092da4	3.270585e-05
148	0x381ee4bf	3.7883172e-05
149	0x35e6f83d	1.7208582e-06
150	0x37a9c448	2.023777e-05
151	0x38071235	3.2203465e-05
152	0x379dbde1	1.8804278e-05
153	0x30151136	5.423034e-10
154	0x3628f7af	2.5178122e-06
155	0x3677c9fb	3.6923436e-06
156	0x35de895c	1.6580266e-06
157	0x35dd7b22	1.650162e-06
158	0x34ddf454	4.134223e-07
159	0x36881a78	4.056197e-06
160	0x381b0a46	3.6964448e-05
161	0x335ab46c	5.0921173e-08
162	0x36c60289	5.901155e-06
163	0x35dc3092	1.6405413e-06
164	0x367d6ece	3.7764435e-06
165	0x3781dd99	1.5481188e-05
166	0x36cfc8da	6.192463e-06
167	0x370e68d0	8.488263e-06
168	0x3533ae6b	6.693651e-07
169	0x34b307f8	3.3347146e-07
170	0x3682d294	3.8988164e-06
171	0x378f6f13	1.7098651e-05
172	0x38515685	4.991006e-05
173	0x337bb0bf	5.860124e-08
174	0x36d668a5	6.389879e-06
175	0x35b7c457	1.3691705e-06
176	0x3707a314	8.084597e-06
177	0x380113ba	3.077437e-05
178	0x380fd1b5	3.428916e-05
179	0x3719790e	9.147696e-06
180	0x366f44c9	3.5653813e-06
181	0x37da4571	2.6019961e-05
182	0x372b13ac	1.01969745e-05
183	0x351efa1a	5.922353e-07
184	0x36f61cb8	7.3347146e-06
185	0x37774919	1.4739367e-05
186	0x35943f6e	1.104532e-06
187	0x37bcddb1	2.251458e-05
188	0x35ef0fea	1.7811519e-06
189	0x366a9226	3.4953787e-06
190	0x3819129a	3.6495367e-05
191	0x3446594e	1.8472676e-07
192	0x389deb61	7.530186e-05
193	0x3809067f	3.2669395e-05
194	0x3677d995	3.6932518e-06
195	0x36e358f4	6.7754827e-06
196	0x387f0f2d	6.081087e-05
197	0x36e82b2f	6.919166e-06
198	0x37c0a4c2	2.2964905e-05
199	0x371de704	9.411717e-06
200	0x362cef33	2.576923e-06
201	0x38df37a2	0.00010643831
202	0x38322e57	4.2481664e-05
203	0x369888c8	4.5458764e-06
204	0x3801edfd	3.097764e-05
205	0x36aae17a	5.0926437e-06
206	0x37b8dfc8	2.2038716e-05
207	0x37b9461d	2.2086368e-05
208	0x3626f46e	2.4878204e-06
209	0x371992f4	9.153726e-06
210	0x36e1efdf	6.733447e-06
211	0x3834eff0	4.3138803e-05
212	0x38b12272	8.446434e-05
213	0x38f0c9bd	0.000114816685
214	0x378b41f9	1.6600812e-05
215	0x36b4ff06	5.3941067e-06
216	0x3850e7a0	4.9806782e-05
217	0x36bf9169	5.7091715e-06
218	0x37ee7f46	2.8431077e-05
219	0x36305530	2.627563e-06
220	0x37954906	1.7796188e-05
221	0x38996d89	7.316011e-05
222	0x36d99d22	6.4853966e-06
223	0x37477347	1.1888164e-05
224	0x36bf2cba	5.6974504e-06
225	0x36ff985c	7.617329e-06
226	0x37c6043f	2.3605417e-05
227	0x378f6fee	1.709905e-05
228	0x375f4b24	1.3309331e-05
229	0x37a1a0b1	1.9267523e-05
230	0x37d6f5a6	2.5625177e-05
231	0x36843af5	3.94077e-06
232	0x368155df	3.8544963e-06
233	0x3740cf57	1.1492367e-05
234	0x3792797c	1.7461127e-05
235	0x37676a08	1.379336e-05
236	0x3733d917	1.0719777e-05
237	0x37ab4def	2.042108e-05
238	0x3717df2d	9.0522635e-06
239	0x3776e3be	1.4715768e-05
240	0x3791566d	1.7325592e-05
241	0x378ef2ed	1.704084e-05
242	0x37e9d8c0	2.7876697e-05
243	0x362f56e0	2.61276e-06
244	0x389f26e4	7.588955e-05
245	0x36e4a935	6.814628e-06
246	0x36c7530b	5.9403296e-06
247	0x36037b9b	1.959247e-06
248	0x370778be	8.0747395e-06
249	0x379a2d5b	1.837935e-05
250	0x36ca9772	6.0376997e-06
251	0x3731d921	1.0600576e-05
252	0x37bcd0da	2.25086e-05
253	0x37ec3330	2.8157228e-05
254	0x38aecff4	8.335701e-05
255	0x358806ba	1.0134747e-06
