07_RNN/logs/rnn/version_7/checkpoints/epoch=2-step=711.ckpt (torch, 216392 bytes, 15 tensors)

rnn.weight_ih_l0 f4 [256, 1]
0.3490298 0.12715726 0.08754861 -0.012942455 0.13283122 0.06911917 0.7648377 0.093920246
-0.10454303 0.23547767 0.167724 0.3499882 -0.0022886503 -0.14290132 0.555634 0.1339876
-0.15132505 -0.18405552 0.12412179 0.20504528 0.046892043 0.19000816 -0.12923816 0.13814366
0.18108614 -0.08326566 0.099833034 -0.03212565 0.4730771 0.19977047 -0.09823653 0.19275136
-0.019780537 0.3167267 0.22569057 0.2700614 6.7019544e-05 -0.06638414 0.14970274 0.003937138
0.055313487 0.060934965 0.29523107 0.19199361 0.33984017 0.010401774 -0.07600698 -0.17893668
-0.0019909593 0.13253991 0.34022456 0.21013601 0.15092607 0.11717526 -0.12481924 0.1097866
0.09944859 0.2637509 0.11531483 -0.21320428 0.03560185 0.13476889 -0.12159478 0.04297032
0.045909945 0.016563911 -0.07412746 -0.20573528 0.05121229 0.10570203 -0.25675312 0.33059642
0.031229407 0.20624551 -0.07969261 0.016934589 -0.17089528 -0.12673788 0.06114258 0.075526506
-0.3335607 0.027165426 0.21539026 0.10312177 0.24511509 -0.038304828 -0.062384043 0.002102988
-0.009207091 -0.21820733 0.1627152 -0.009784022 -0.016162813 0.042663198 0.014211718 -0.039192863
-0.18247254 0.09981197 0.07005204 -0.012606868 -0.06773336 -0.011530284 0.29121995 0.06489273
-0.2062177 0.005473215 0.32797164 0.16657713 0.32275128 -0.007315955 -0.053348567 -0.18605502
-0.18574132 0.30505452 -0.09458821 0.27692685 -0.026595568 -0.07801926 -0.39535633 -0.09764885
0.05382537 0.0856892 -0.121755004 -0.5223055 0.07242599 -0.011022952 -0.17593591 0.34795022
0.36432517 0.12548919 0.035178937 0.1972965 -0.14635861 -0.16825728 0.43018088 -0.25379243
0.0033423344 -0.34524497 -0.38980016 -0.29554492 -0.26423097 -0.1252966 0.48145583 0.040413998
0.23647207 -0.018849377 -0.27364063 -0.23954588 -0.15507427 -0.055439666 -0.23696525 -0.19656906
-0.35240513 0.21888758 0.22046846 0.0017532951 0.20564555 -0.022898838 -0.08578547 0.26380336
-0.2858483 0.4194394 -0.30327672 -0.21442501 -0.023276635 -0.056773886 0.33826888 0.14032426
0.33163726 0.042696156 0.36320505 0.23391362 -0.099244535 0.045189526 0.012273119 -0.1756339
-0.16093516 -0.25849363 -0.24345993 0.34622973 -0.22246876 -0.17724617 -0.1974605 0.057558037
-0.2949678 0.22244641 -0.3736678 -0.3032423 -0.0011989188 0.379847 0.31115913 -0.3146836
0.39479235 0.04123838 -0.10721135 -0.06351625 0.20959488 -0.057638373 0.6589779 0.2534974
-0.035217207 0.2945556 -0.052590817 0.195485 -0.05268571 -0.040697925 0.5253105 -0.11404945
-0.3277811 -0.17732583 0.10528573 0.28654325 0.22407447 -0.07604266 -0.12653798 0.025139995
0.19888707 -0.13955286 0.07552792 -0.012179142 0.5280646 0.067015596 -0.024788922 0.044842873
-0.036135186 0.26317057 0.24190316 0.11745806 0.02508025 -0.014933336 0.19349575 0.20366074
-0.12626667 -0.18329333 0.3176259 0.18661514 0.38543174 -0.062846646 -0.059074838 -0.044440854
0.015654324 0.34623033 0.21441707 0.13075486 0.21326298 0.12910035 -0.24658205 0.026616437
0.11481512 0.17906193 -0.025287794 -0.2682916 0.07103685 0.019031111 -0.17131104 0.35990626
00000000: 09b4 b23e 8335 023e b04c b33d 970c 54bc
00000010: e804 083e 5a8e 8d3d 67cc 433f 4259 c03d
00000020: a81a d6bd 0f21 713e d7bf 2b3e a731 b33e
00000030: 2efd 15bb b954 12be 083e 0e3f 0c34 093e
00000040: f4f4 1abe 0d79 3cbe 9133 fe3d 64f7 513e
00000050: df11 403d 8091 423e 0257 04be 8875 0d3e
00000060: a56e 393e 3087 aabd 4375 cc3d 3096 03bd
00000070: 2937 f23e a190 4c3e 3c30 c9bd 9d60 453e
00000080: cb0a a2bc 012a a23e 6e1b 673e 7d45 8a3e
00000090: d88c 8c38 68f4 87bd ad4b 193e 1b03 813b
000000a0: 6590 623d f196 793d 8728 973e f999 443e
000000b0: 88ff ad3e 346c 2a3c 8ca9 9bbd 2d3b 37be
000000c0: c17a 02bb 8bb8 073e ea31 ae3e e52d 573e
000000d0: 5d8c 1a3e 95f9 ef3d 3ba1 ffbd ccd7 e03d
000000e0: b4ab cb3d 5c0a 873e 2e2a ec3d 3952 5abe
000000f0: 3fd3 113d db00 0a3e af06 f9bd a501 303d
00000100: 110c 3c3d 0ab1 873c 23d0 97bd 45ac 52be
00000110: fac3 513d 4e7a d83d 2575 83be ef43 a93e
00000120: d0d4 ff3c 0632 533e e135 a3bd 68ba 8a3c
00000130: 2cff 2ebe 93c7 01be a470 7a3d a4ad 9a3d
00000140: 78c8 aabe 078a de3c 448f 5c3e 8231 d33d
00000150: 73ff 7a3e 86e5 1cbd 6986 7fbd 49d2 093b
00000160: 57d9 16bc be71 5fbe d09e 263e 2a4d 20bc
00000170: e067 84bc 9bbf 2e3d 44d8 683c b288 20bd
00000180: 15da 3abe 386a cc3d 7277 8f3d 098d 4ebc
00000190: cab7 8abd 84e9 3cbc c81a 953e 7be6 843d
000001a0: bc2a 53be a858 b33b e6eb a73e 3293 2a3e
000001b0: a83f a53e aeba efbb 0784 5abd 3585 3ebe
000001c0: f932 3ebe 1b30 9c3e 77b7 c1bd 5bc9 8d3e
000001d0: f3de d9bc 90c8 9fbd 256c cabe 1ffc c7bd
000001e0: fe77 5c3d d27d af3d b05a f9bd d0b5 05bf
000001f0: 1454 943d 9d99 34bc 8b28 34be 8826 b23e
00000200: d488 ba3e 3d80 003e ca17 103d 1808 4a3e
00000210: 08df 15be a34b 2cbe ab40 dc3e 15f1 81be
00000220: 110b 5b3b f3c3 b0be e393 c7be aa51 97be
00000230: 4849 87be c04d 00be 6181 f63e 2689 253d
00000240: bc25 723e 026a 9abc a01a 8cbe 844b 75be
00000250: cacb 1ebe b414 63bd 05a7 72be 6649 49be
00000260: 726e b4be 1124 603e 7cc2 613e d2ce e53a
00000270: bf94 523e 5896 bbbc 4bb0 afbd 3c11 873e
00000280: b55a 92be c3c0 d63e 1647 9bbe 3b92 5bbe
00000290: a4ae bebc bc8b 68bd 9431 ad3e 2ab1 0f3e
000002a0: 5ccc a93e 2ae2 2e3d 03f6 b93e 0d87 6f3e
000002b0: b840 cbbd a718 393d 3115 493c 60d9 33be
000002c0: 30cc 24be 4759 84be 8f4d 79be 0645 b13e
000002d0: dace 63be 0580 35be 1633 4abe fac1 6b3d
000002e0: 0506 97be fec8 633e 6351 bfbe 9342 9bbe
000002f0: 0a25 9dba 4e7b c23e 4050 9f3e 351e a1be
00000300: 3922 ca3e 93e9 283d a091 dbbd cf14 82bd
00000310: 0aa0 563e 3716 6cbd c7b2 283f 69ca 813e
00000320: eb3f 10bd fecf 963e 7869 57bd 382d 483e
00000330: f9cc 57bd deb2 26bd c07a 063f c292 e9bd
00000340: edd2 a7be e794 35be 0ba0 d73d ccb5 923e
00000350: c773 653e 41bc 9bbd 2c93 01be 64f2 cd3c
00000360: 0da9 4b3e f2e6 0ebe 62ae 9a3d 068b 47bc
00000370: 3e2f 073f 793f 893d 2312 cbbc 29ad 373d
00000380: 7d02 14bd 4bbe 863e 76b5 773e da8d f03d
00000390: 1975 cd3c f3aa 74bc c023 463e 718c 503e
000003a0: 0d4c 01be 3fb1 3bbe dd9f a23e 0a18 3f3e
000003b0: 4f57 c53e beb5 80bd 75f8 71bd 9d07 36bd
000003c0: 7f3d 803c 1a45 b13e 2690 5b3e 9ae4 053e
000003d0: 9c61 5a3e e232 043e 0180 7cbe b70a da3c
000003e0: 3124 eb3d 035c 373e 5928 cfbc 845d 89be
000003f0: c57b 913d 22e7 9b3c 296c 2fbe a245 b83e

rnn.weight_hh_l0 f4 [256, 64]
-0.1135669 -0.063169934 -0.055294044 -0.13975672 -0.0050499015 -0.019844128 -0.17158231 -0.061707485
0.013698085 0.14663747 -0.059249952 0.096830584 0.06713936 -0.015141992 0.03240392 0.016954005
-0.3032326 0.07569878 0.037501875 0.13424279 -0.032261077 -0.08496592 -0.07447011 0.04960971
-0.039771635 -0.06951054 -0.15115245 -0.13238002 0.07244254 0.025795272 0.026024558 0.05980328
-0.010063426 -0.059750278 0.10334612 0.05996449 0.13334766 0.03391115 -0.052398156 -0.10910304
0.075496964 -0.044146102 -0.14294684 -0.07339895 0.06439953 -0.13218983 -0.06839499 0.09444373
-0.048064712 0.093343176 0.025469497 -0.06477245 0.01861951 -0.001896309 0.24617773 0.08362884
0.14202227 -0.014699485 0.12690708 0.27618968 -0.008399722 -0.05333065 -0.024237426 0.0040099486
-0.0241189 -0.12409947 0.014089622 0.13873228 -0.033608492 -0.026274338 0.01734877 0.02408254
0.06265799 0.19967611 0.011122648 0.086323224 -0.024482578 -0.02640019 -0.12928891 -0.1862014
0.16848372 0.19634227 0.11262365 0.090973176 0.008088203 -0.16745701 -0.03424986 0.092210375
0.035481747 -0.016237203 0.08426743 -0.10779849 -0.033851888 -0.09376774 0.042423703 0.102922544
0.0060570356 -0.27663574 0.13441877 -0.08369806 -0.17101794 -0.06819786 0.035712276 -0.06397635
0.07813438 -0.21681127 -0.16954112 -0.055178016 -0.007549899 0.18509635 -0.026386812 0.031621672
-0.0048241233 -0.06056809 -0.03780414 -0.06566044 0.024288394 -0.15143651 -0.11694338 0.1398691
-0.077024095 0.0063087707 -0.09916754 0.015180004 -0.11987685 0.1500781 0.15805504 0.22066143
-0.13673562 -0.2377947 -0.20179081 0.1471069 0.028716559 0.18054616 -0.2357672 -0.03161938
0.018411035 0.074992806 0.045703784 -0.024551364 0.058944076 0.0010731159 0.006191618 -0.11114398
0.08038845 0.058675732 0.07931065 -0.062007774 0.023011962 -0.042320725 -0.10604252 0.015380227
-0.11825356 0.07028789 0.10652928 -0.25830334 -0.06737044 -0.11045631 0.006719394 0.10279036
-0.11986118 -0.085538246 0.09278831 -0.019164529 -0.25770402 -0.14185111 -0.03490322 -0.0716924
-0.0072645075 -0.21820886 -0.0036918358 -0.08974414 0.02473077 0.17710358 -0.10296066 0.042729896
-0.14738871 -0.04317244 0.13307111 -0.1538198 0.050833043 -0.20700328 -0.13425274 0.051997893
0.07499376 0.043653946 0.03403187 -0.099009685 -0.006619293 -0.045189857 0.018060388 0.12664437
-0.01741225 0.014331264 0.08016756 -0.043906316 0.07308469 0.024176937 0.05685284 0.041361693
-0.054556753 0.11976306 -0.03549467 0.10072398 -0.11063073 -0.084532075 -0.03480023 -0.067623146
0.014832412 -0.053140316 -0.020904114 0.16681695 -0.072322026 -0.12486954 -0.028166426 -0.0655718
0.11580529 -0.053777467 0.029995281 0.003881103 0.10455411 -0.024883311 -0.05143315 0.089111425
0.00045425646 -0.03626725 0.17045675 0.053141657 0.03455295 0.06065043 0.028358676 -0.027908942
0.0723083 -0.15008578 -0.13506971 -0.06397983 0.15421097 0.016213628 0.07872688 0.069569156
-0.064391695 0.10135617 -0.075988315 -0.022297494 -0.07318993 0.009595294 0.0069016526 -0.11202002
0.1323808 0.111311354 -0.014943294 0.0318084 0.07578737 -0.08271237 0.061342094 -0.021662638
00000000: c395 e8bd 3d5f 81bd 027c 62bd 631c 0fbe
00000010: a579 a5bb 2790 a2bc 46b3 2fbe fdc0 7cbd
00000020: ef6d 603c 2228 163e 14b0 72bd 1d4f c63d
00000030: 5c80 893d 1e16 78bc f9b9 043d 20e3 8a3c
00000040: 4e41 9bbe f607 9b3d 919b 193d f176 093e
00000050: 3124 04bd 9d02 aebd c983 98bd 8d33 4b3d
00000060: 95e7 22bd 8b5b 8ebd b5c7 1abe a18e 07be
00000070: c15c 943d 9b50 d33c 7431 d53c 49f4 743d
00000080: 11e1 24bc b5bc 74bd 21a7 d33d 539d 753d
00000090: 4a8c 083e 6be6 0a3d 739f 56bd 6a71 dfbd
000000a0: 279e 9a3d 8bd2 34bd a860 12be 3052 96bd
000000b0: e7e3 833d c55c 07be ac12 8cbd b76b c13d
000000c0: 81df 44bd b52a bf3d 68a5 d03c 6ba7 84bd
000000d0: f187 983c 928d f8ba 0416 7c3e 9945 ab3d
000000e0: 496e 113e 1cd6 70bc eef3 013e bc68 8d3e
000000f0: fd9e 09bc 3d71 5abd 918d c6bc e365 833b
00000100: 0095 c5bc dd27 febd 28d8 663c d60f 0e3e
00000110: 0fa9 09bd 483d d7bc 021f 8e3c bf48 c53c
00000120: d552 803d e577 4c3e c43b 363c 3bca b03d
00000130: b08f c8bc 3645 d8bc 5064 04be 94ab 3ebe
00000140: ff86 2c3e f30d 493e 3aa7 e63d 2550 ba3d
00000150: 6284 043c da79 2bbe 9549 0cbd cbd8 bc3d
00000160: 4f55 113d e203 85bc 6794 ac3d 74c5 dcbd
00000170: 47a8 0abd 4d09 c0bd 7ac4 2d3d 0ec9 d23d
00000180: 197a c63b 33a3 8dbe 13a5 093e e369 abbd
00000190: 541f 2fbe 52ab 8bbd 0947 123d 0806 83bd
000001a0: eb04 a03d c603 5ebe 309c 2dbe 5802 62bd
000001b0: 2565 f7bb e689 3d3e 2829 d8bc ba85 013d
000001c0: ae13 9ebb 3f16 78bd 84d8 1abd fb78 86bd
000001d0: 74f8 c63c 2c12 1bbe 0380 efbd d839 0f3e
000001e0: cfbe 9dbd ceb9 ce3b 5a18 cbbd 8db5 783c
000001f0: fe81 f5bd 13ae 193e 2ed9 213e 12f5 613e
00000200: 6c04 0cbe 7480 73be 40a2 4ebe 31a3 163e
00000210: fd3e eb3c 18e1 383e f56c 71be 5383 01bd
00000220: bdd2 963c d495 993d e433 3b3d f11f c9bc
00000230: 586f 713d cba7 8c3a 0ee3 ca3b 749f e3bd
00000240: b3a2 a43d f755 703d 9f6d a23d ddfb 7dbd
00000250: 9583 bc3c 7f58 2dbd d22c d9bd 59fd 7b3c
00000260: ec2e f2bd 19f3 8f3d 062c da3d 5640 84be
00000270: 83f9 89bd eb36 e2bd 5d2e dc3b c183 d23d
00000280: c779 f5bd ad2e afbd cc07 be3d eefe 9cbc
00000290: c8f1 83be 6b41 11be aef6 0ebd 77d3 92bd
000002a0: 1b0b eebb 2572 5fbe baf2 71bb c7cb b7bd
000002b0: 2f98 ca3c a45a 353e 0add d2bd 8b05 2f3d
000002c0: 11ed 16be 96d5 30bd cb43 083e f082 1dbe
000002d0: 4f36 503d abf8 53be 8d79 09be befb 543d
000002e0: 5496 993d 7bce 323d 0165 0b3d 97c5 cabd
000002f0: a7e6 d8bb 0019 39bd 61f3 933c 10af 013e
00000300: 23a4 8ebc aecd 6a3c e42e a43d 1cd7 33bd
00000310: 6dad 953d b60e c63c 86de 683d e16a 293d
00000320: e776 5fbd 5646 f53d dc62 11bd 6048 ce3d
00000330: 5d92 e2bd 271f adbd b08a 0ebd 017e 8abd
00000340: a503 733c a9a9 59bd 1b3f abbc 10d2 2a3e
00000350: 921d 94bd 9abb ffbd 47bd e6bc 824a 86bd
00000360: 532b ed3d c345 5cbd aab8 f53c 1a5a 7e3b
00000370: 7720 d63d 16d8 cbbc 91ab 52bd 0d80 b63d
00000380: 4529 ee39 f88c 14bd 378c 2e3e 11ab 593d
00000390: 6587 0d3d 966c 783d 7450 e83c 4ba1 e4bc
000003a0: 6016 943d 16b0 19be b74f 0abe db07 83bd
000003b0: 7be9 1d3e 71d2 843c 8f3b a13d 467a 8e3d
000003c0: cbdf 83bd d393 cf3d c39f 9bbd 3ca9 b6bc
000003d0: 9ae4 95bd 9435 1d3c 4227 e23b c16a e5bd
000003e0: d58e 073e 35f7 e33d b8d4 74bc 8649 023d
000003f0: 6936 9b3d 1a65 a9bd d941 7b3d d875 b1bc

rnn.bias_ih_l0 f4 [256]
-0.054199047 -0.06468184 -0.2940428 -0.03155183 -0.06405791 -0.22537501 0.1961035 -0.049170665
-0.032197002 4.1363295e-05 -0.016625563 -0.19555828 0.089521356 -0.011007639 -0.07122874 -0.063253984
-0.039384305 -0.15539995 -0.0045914007 0.014520858 -0.09890478 -0.05703492 -0.06776235 0.015666803
0.06401274 -0.098632105 -0.19168003 -0.1232989 -0.119991146 -0.28071263 -0.22243357 -0.06352911
0.07720101 0.11696612 -0.12009146 -0.015753832 -0.21645133 -0.062805586 0.039256305 -0.17626086
-0.13218589 -0.11916476 -0.14269221 -0.12631826 -0.3709999 -0.2060132 -0.22252184 0.008478577
-0.117720135 -0.18890019 -0.084592834 -0.024144411 0.069294125 -0.099882595 -0.13978188 -0.00010371987
-0.12250104 -0.068867885 0.03931073 -0.12198736 -0.1749284 -0.105422586 0.05576363 -0.03340833
-0.03476405 -0.027420672 -0.14689466 -0.12615882 -0.088137336 -0.15316397 -0.29094803 0.11490301
-0.011689212 0.11590062 0.080834076 -0.22459765 -0.09576952 -0.059601035 -0.18800949 -0.26466912
0.2242024 -0.11072582 0.069092624 -0.0702587 -0.027263548 -0.18390313 -0.092571475 -0.0031766694
-0.049446855 -0.026108973 -0.02397678 -0.251997 -0.23152858 -0.05182562 -0.115823686 0.16342248
0.21492241 -0.15615444 -0.12101679 -0.01551552 -0.055207647 -0.17873129 -0.060946457 -0.16644563
-0.12604488 -0.09424073 0.109973945 -0.012109354 -0.113744475 -0.1748711 -0.10103263 0.009118605
-0.108640365 0.08194493 -0.27651966 0.06979618 -0.19692741 -0.2102413 0.19868901 -0.019903868
0.021718182 0.059312034 -0.086367786 0.19612963 -0.25838494 0.21239018 0.11410151 0.06392032
-0.024310218 0.07547007 -0.019077111 0.0571922 -0.025503678 0.056727417 0.10032793 0.019064957
0.046376456 -0.017188437 0.03375592 -0.07260488 -0.06882345 -0.03257425 0.01620831 -0.10783247
-0.03140423 -0.03950908 -0.0376132 -0.0567797 0.063121915 0.05283452 0.041371886 -0.074010916
-0.117514744 -0.02690997 0.048714828 0.09552822 0.008165712 -0.032021485 -0.011654909 -0.004085356
0.04896794 0.04464854 -0.024230247 -0.057884905 0.05985611 -0.08036281 -0.022607772 0.094914086
-0.038056623 -0.07505932 0.051717807 0.07039248 -0.0012040085 -0.0696592 0.030707737 -0.023812013
0.07561833 -0.0118439775 0.015032467 -0.010854606 0.08674249 -0.05427583 -0.010675307 -0.056399055
0.029143458 -0.015548751 -0.011409336 -0.1497609 0.043953784 -0.06651862 0.030855188 -0.002199547
-0.113840334 -0.009230892 -0.10170911 -0.15253882 -0.11274321 -0.0688898 0.041710116 -0.013080183
0.04285461 -0.097665794 -0.11163379 -0.029006518 0.06681091 -0.044418097 -0.092494346 -0.23500845
-0.04410011 -0.2503704 0.029599847 -0.09171342 -0.26489797 -0.21179803 -0.043708175 -0.05921648
-0.17409497 -0.07372632 -0.008249703 -0.15178467 -0.25074875 -0.14800024 -0.02579265 -0.0077687413
-0.1736223 0.06844847 -0.007847479 -0.12590006 -0.14685233 -0.035777546 -0.10871348 -0.1788186
-0.08114451 -0.08809108 -0.07125596 -0.09904256 -0.31830603 -0.19587387 -0.25236198 -0.033099152
-0.12269096 -0.16381356 -0.21107365 -0.029915387 0.030137334 -0.21827748 0.038346224 -0.1960722
0.034461543 -0.10904915 0.015132611 0.01227429 -0.032455225 -0.104583666 -0.09764244 0.061652478
00000000: d2ff 5dbd ea77 84bd c78c 96be 7e3c 01bd
00000010: cb30 83bd b5c8 66be 5bcf 483e 2e67 49bd
00000020: 01e1 03bd 807d 2d38 5532 88bc 6e40 48be
00000030: f956 b73d 6259 34bc 60e0 91bd 4e8b 81bd
00000040: 7051 21bd 2a21 1fbe 7673 96bb e5e8 6d3c
00000050: 978e cabd 739d 69bd fdc6 8abd ab57 803c
00000060: 1d19 833d a1ff c9bd c547 44be 2284 fcbd
00000070: ebbd f5bd 91b9 8fbe a0c5 63be 8d1b 82bd
00000080: 901b 9e3d ef8b ef3d 83f2 f5bd 2e0e 81bc
00000090: 6ba5 5dbe 37a0 80bd 38cb 203d ba7d 34be
000000a0: bd5b 07be a70c f4bd e81d 12be 9359 01be
000000b0: b3f3 bdbe 20f5 52be c4dc 63be bbe9 0a3c
000000c0: 4117 f1bd 0d6f 41be 023f adbd 80ca c5bc
000000d0: 14ea 8d3d 3f8f ccbd fb22 0fbe 2e84 d9b8
000000e0: d3e1 fabd 9b0a 8dbd 4a04 213d 82d4 f9bd
000000f0: 6e20 33be cce7 d7bd 6768 643d 2cd7 08bd
00000100: c064 0ebd 51a1 e0bc 8e6b 16be c72f 01be
00000110: 5981 b4bd 04d7 1cbe 24f7 94be 4552 eb3d
00000120: 1c84 3fbc 4e5d ed3d 568c a53d edfc 65be
00000130: cf22 c4bd 3720 74bd 8f85 40be b682 87be
00000140: 5095 653e 38c4 e2bd 6f80 8d3d cbe3 8fbd
00000150: ce57 dfbc 1a51 3cbe 1d96 bdbd ab2f 50bb
00000160: c988 4abd 7ce2 d5bc f46a c4bc c005 81be
00000170: d415 6dbe 1a47 54bd f834 edbd 3958 273e
00000180: 9f14 5c3e f3e6 1fbe a7d7 f7bd cf34 7ebc
00000190: 6a21 62bd 5605 37be fea2 79bd b970 2abe
000001a0: e911 01be 4901 c1bd 053a e13d 5066 46bc
000001b0: ddf2 e8bd 6911 33be 32ea cebd 3466 153c
000001c0: d77e debd bed2 a73d fc93 8dbe 4df1 8e3d
000001d0: 57a7 49be 7f49 57be 2275 4b3e 700d a3bc
000001e0: 54ea b13c 2df1 723d 98e1 b0bd 35d6 483e
000001f0: 084b 84be d07c 593e 0dae e93d a8e8 823d
00000200: 3926 c7bc 0d90 9a3d 9a47 9cbc 5e42 6a3d
00000210: 17ed d0bc 025b 683d bb78 cd3d 1d2e 9c3c
00000220: 3df5 3d3d c4ce 8cbc a643 0a3d deb1 94bd
00000230: 4ff3 8cbd 946c 05bd 4ac7 843c 45d7 dcbd
00000240: b9a1 00bd 46d4 21bd 4c10 1abd d591 68bd
00000250: 1046 813d 0269 583d 9175 293d 0993 97bd
00000260: 92ab f0bd 4c72 dcbc 3389 473d 4da4 c33d
00000270: 7ac9 053c f628 03bd 3bf4 3ebc 73de 85bb
00000280: 9b92 483d 63e1 363d 837e c6bc b918 6dbd
00000290: ae2b 753d 4295 a4bd ef33 b9bc 5162 c23d
000002a0: 43e1 1bbd b3b8 99bd 0dd6 533d ef29 903d
000002b0: d2cf 9dba 7ca9 8ebd cb8e fb3c 6911 c3bc
000002c0: c8dd 9a3d 3e0d 42bc bd4a 763c 84d7 31bc
000002d0: 0ca6 b13d 5550 5ebd 7ce7 2ebc b202 67bd
000002e0: 43be ee3c 30c0 7ebc 39ee 3abc ec5a 19be
000002f0: e208 343d ea3a 88bd 05c4 fc3c 4626 10bb
00000300: 1f25 e9bd 2b3d 17bc de4c d0bd 2333 1cbe
00000310: e9e5 e6bd 1816 8dbd 3ad8 2a3d 444e 56bc
00000320: 5188 2f3d 0105 c8bd 42a0 e4bd 149f edbc
00000330: 29d4 883d c0ef 35bd ad6d bdbd 0ea6 70be
00000340: 51a2 34bd 8d30 80be 617b f23c 3fd4 bbbd
00000350: b5a0 87be 95e1 58be 5807 33bd fb8c 72bd
00000360: f445 32be d3fd 96bd c329 07bc 716d 1bbe
00000370: 2462 80be 608d 17be 1c4b d3bc ed90 febb
00000380: 0bca 31be b62e 8c3d b692 00bc f2eb 00be
00000390: 7560 16be 7a8b 12bd 2ca5 debd 391c 37be
000003a0: 182f a6bd 1969 b4bd a5ee 91bd d3d6 cabd
000003b0: 02f9 a2be 2993 48be 9735 81be fa92 07bd
000003c0: 6645 fbbd bebe 27be b123 58be 1d11 f5bc
000003d0: 92e2 f63c 2284 5fbe ee10 1d3d 27c7 48be
000003e0: 8c27 0d3d 2955 dfbd c5ee 773c 1b1a 493c
000003f0: c5ef 04bd f62f d6bd c2f8 c7bd 4f87 7c3d

rnn.bias_hh_l0 f4 [256]
-0.06795282 -0.04242198 -0.25090414 -0.10922444 -0.14520732 -0.20162497 0.11632518 -0.022046963
-0.18431482 -0.011820219 0.045949534 -0.03819144 0.014584829 -0.05844527 -0.03964702 -0.06722914
-0.07815731 -0.028676443 -0.02686792 -0.05126598 -0.0025547894 -0.23912115 0.015791815 -0.060252424
0.04542812 -0.19612134 -0.023594607 -0.12612718 -0.15857565 -0.11722996 -0.039174337 -0.018206378
0.0820391 0.023314731 -0.15511303 -0.14636269 -0.2670771 -0.03295761 -0.13517301 -0.1278968
-0.12202002 -0.28004935 -0.1837798 -0.024028474 -0.15667033 -0.10557595 -0.14704752 -0.107831396
-0.12689517 -0.17499258 -0.076235995 -0.03132408 -0.061254926 -0.075787276 -0.18044592 -0.11809507
-0.16339618 -0.14876156 0.1276783 0.016258916 -0.14466387 0.00028883776 0.00096625305 -0.035795473
0.09036279 -0.11687044 -0.22085282 0.09564861 -0.07967774 -0.0721158 -0.48849672 0.12946832
-0.09520433 0.0043139546 0.06424704 -0.26732612 -0.03012955 -0.14531516 -0.2520482 -0.13443188
0.2558857 -0.08017173 -0.0052378755 -0.10832142 0.02886961 -0.022871645 0.09421199 0.08963722
-0.0024256234 -0.08410202 0.00609894 -0.21949112 -0.33127525 -0.22326103 -0.026896223 0.14898896
0.28361762 0.060023386 -0.088346094 -0.028914034 -0.28750792 -0.030532109 -0.0321657 -0.12337549
-0.092450105 -0.14131634 0.1487248 0.06484171 -0.15387057 -0.1937926 -0.15266444 -0.15156387
0.076806195 0.16113462 -0.2704554 0.21445508 0.005088497 -0.07731834 0.16802517 -0.009253681
0.056421425 -0.059820745 0.08772609 0.14623041 -0.2747497 0.12683378 0.07873031 0.20785421
0.107282445 -0.021364551 0.07803542 -0.045213975 0.0046734866 -0.055630747 -0.040696412 0.03325412
-0.0349812 -0.063141614 -0.042563904 0.003983372 0.017638594 0.049292885 0.043429147 0.09968171
0.06440069 -0.038023278 0.036565598 -0.04303317 -0.07607849 -0.059434056 0.035949226 0.059307422
0.09536934 -0.056858186 -0.018116724 -0.093148775 0.012388036 0.044536162 -0.070004545 0.052311342
-0.078950375 0.046905216 -0.042657692 0.019761734 -0.048763644 0.11472571 0.034787934 -0.0820057
-0.034195416 0.094650544 -0.054501723 -0.04864064 -0.03593924 0.021307964 -0.030276947 -0.09154069
-0.056089733 -0.060769692 -0.0835744 0.051683348 -0.090847164 0.122169375 -0.004158062 0.0577232
-0.03521631 0.056414906 -0.0011570365 0.03130946 -0.0045532957 0.007914722 0.0129484255 -0.037253827
-0.12457624 -0.009579865 -0.13732408 -0.020455588 -0.02367879 -0.21978392 0.19157033 -0.22836266
-0.06680292 0.011814034 0.01710023 0.01859875 0.0014645641 -0.0050827307 -0.013493297 -0.22222516
-0.007579901 -0.17214893 -0.046749882 0.025526347 -0.23888564 -0.23068225 -0.04448707 0.018451137
-0.10580102 -0.0030288093 -0.107449256 -0.20023239 -0.18338515 -0.16192442 -0.13945003 -0.1121613
0.01904 -0.051049557 -0.10524399 -0.14940526 -0.13892022 -0.021838633 -0.12617417 -0.12653439
-0.13925354 -0.09373919 -0.007764214 -0.19284044 -0.30569673 -0.06801589 -0.06287673 -0.17555653
0.028640384 -0.18142352 -0.06543567 0.07422843 -0.028260238 -0.14658898 -0.06401473 -0.15433775
-0.058272287 -0.09541608 0.12688108 0.052018426 -0.018477943 -0.0012062663 0.006669513 -0.104431525
00000000: d92a 8bbd acc2 2dbd 8276 80be 10b1 dfbd
00000010: 3ab1 14be c776 4ebe e53b ee3d d59b b4bc
00000020: 06bd 3cbe 98a9 41bc 9435 3c3d a16e 1cbd
00000030: 35f5 6e3c 4f64 6fbd ea64 22bd 6eaf 89bd
00000040: f110 a0bd dcea eabc 1d1a dcbc 47fc 51bd
00000050: 416e 27bb 2ddc 74be d65d 813c 3fcb 76bd
00000060: d612 3a3d 08d4 48be 7a49 c1bc 7c27 01be
00000070: a861 22be 4316 f0bd 4575 20bd 8b25 95bc
00000080: 1e04 a83d 89fe be3c f3d5 1ebe 1ae0 15be
00000090: 54be 88be 8ffe 06bd cb6a 0abe 61f7 02be
000000a0: a2e5 f9bd a162 8fbe c630 3cbe 5dd7 c4bc
000000b0: 306e 20be 3438 d8bd a093 16be b5d6 dcbd
000000c0: cff0 01be 4131 33be 9e21 9cbd ae4d 00bd
000000d0: 72e6 7abd 5c36 9bbd d1c6 38be d4db f1bd
000000e0: 5451 27be f354 18be 1abe 023e 6b31 853c
000000f0: c422 14be 266f 9739 254c 7d3a 469e 12bd
00000100: 2010 b93d c559 efbd 3e27 62be 6be3 c33d
00000110: 152e a3bd 73b1 93bd 3e1c fabe 5893 043e
00000120: 7dfa c2bd 135c 8d3b f493 833d f8de 88be
00000130: 3fd2 f6bc 7fcd 14be 760c 81be 83a8 09be
00000140: 7303 833e 1331 a4bd 7ca2 abbb 9fd7 ddbd
00000150: f67f ec3c 515d bbbc 37f2 c03d b893 b73d
00000160: 35f7 1ebb ae3d acbd 9ed9 c73b 48c2 60be
00000170: e99c a9be 8a9e 64be 7855 dcbc 9090 183e
00000180: 5436 913e 15db 753d ccee b4bd 20dd ecbc
00000190: 3d34 93be 791e fabc 2ec0 03bd 4aac fcbd
000001a0: 7b56 bdbd 3bb5 10be 504b 183e bbcb 843d
000001b0: 3f90 1dbe 9171 46be 1154 1cbe 8f33 1bbe
000001c0: 914c 9d3d 7900 253e 2179 8abe 1d9a 5b3e
000001d0: 68bd a63b 1459 9ebd ca0e 2c3e c09c 17bc
000001e0: 271a 673d 9906 75bd bca9 b33d 6dbd 153e
000001f0: feab 8cbe b7e0 013e 5b3d a13d bcd7 543e
00000200: e6b6 db3d b604 afbc 09d1 9f3d 4a32 39bd
00000210: 0c24 993b 11dd 63bd 48b1 26bd 7935 083d
00000220: 7248 0fbd 6450 81bd 7d57 2ebd f286 823b
00000230: d07e 903c 56e7 493d c3e2 313d ed25 cc3d
00000240: 82e4 833d 4cbe 1bbd cfc5 153d 8d43 30bd
00000250: 0acf 9bbd 2071 73bd 7f3f 133d 57ec 723d
00000260: 0051 c33d 21e4 68bd 8669 94bc c9c4 bebd
00000270: 30f7 4a3c 8d6b 363d 8b5e 8fbd 6b44 563d
00000280: bcb0 a1bd af1f 403d d5b9 2ebd 5ce3 a13c
00000290: 63bc 47bd 50f5 ea3d cb7d 0e3d 9bf2 a7bd
000002a0: 7e10 0cbd 25d8 c13d 333d 5fbd 683b 47bd
000002b0: 0635 13bd 0a8e ae3c 5c07 f8bc af79 bbbd
000002c0: 59be 65bd a4e9 78bd 0e29 abbd ebb1 533d
000002d0: 140e babd f033 fa3d 5a40 88bb 2a6f 6c3d
000002e0: fa3e 10bd 5113 673d b4a7 97ba 593e 003d
000002f0: d033 95bb c0ac 013c a225 543c 7897 18bd
00000300: d421 ffbd def4 1cbc af9e 0cbe 7a92 a7bc
00000310: 06fa c1bc 090f 61be 032b 443e e7d7 69be
00000320: f8cf 88bd a68f 413c c815 8c3c 685c 983c
00000330: 9ef6 bf3a 098d a6bb fd12 5dbc fe8e 63be
00000340: d160 f8bb cf47 30be ce7c 3fbd a11c d13c
00000350: 709e 74be f837 6cbe 1338 36bd d726 973c
00000360: 35ae d8bd fd7e 46bb 5b0e dcbd b809 4dbe
00000370: 51c9 3bbe 84cf 25be fdcb 0ebe d3b4 e5bd
00000380: c6f9 9b3c 5719 51bd 298a d7bd b1fd 18be
00000390: 1a41 0ebe efe6 b2bc cd33 01be 3b92 01be
000003a0: 7b98 0ebe 55fa bfbd f36a febb f777 45be
000003b0: 4884 9cbe ea4b 8bbd 84c5 80bd 17c5 33be
000003c0: 3d9f ea3c 16c7 39be 2303 86bd 1305 983d
000003d0: 0482 e7bc 6c1b 16be 281a 83bd b70a 1ebe
000003e0: ecae 6ebd 8169 c3bd 1ded 013e 4611 553d
000003f0: 0e5f 97bc 951b 9eba ee8b da3b 32e0 d5bd

dense.weight f4 [1, 64]
0.19564238 0.029424915 -0.012952438 0.093748055 -0.1449464 -0.011401613 0.37777686 -0.17645492
0.02377659 -0.25961393 -0.23643202 -0.21027398 -0.16279583 -0.08186743 0.26750574 -0.0880169
0.28406253 0.030960117 -0.24236134 -0.25150147 -0.171538 -0.08477111 -0.15581039 -0.17403583
-0.18294844 0.14388208 0.14758399 -0.012991848 0.17921615 -0.086087026 -0.10978133 0.19243953
-0.21019474 0.26452407 -0.12504461 -0.1299304 -0.12077306 0.039283887 0.18767458 0.039376326
0.21687126 -0.026297636 0.24034032 0.19381244 -0.15132254 0.07933405 -0.012182949 -0.14645568
-0.15509099 -0.2292234 -0.19427174 0.23188542 -0.17425534 -0.081524886 -0.22396056 0.012954868
-0.18195327 0.19919688 -0.26732296 -0.29781395 -0.07109723 0.18286401 0.21534447 -0.34131274
00000000: 7a56 483e 850c f13c 7636 54bc fbfe bf3d
00000010: d46c 14be d5cd 3abc f86b c13e 99b0 34be
00000020: 20c7 c23c 1eec 84be 3c1b 72be 1052 57be
00000030: f3b3 26be 1caa a7bd 83f6 883e 3442 b4bd
00000040: a570 913e 12a0 fd3c 922d 78be cdc4 80be
00000050: a8a7 2fbe 7a9c adbd c28c 1fbe 7336 32be
00000060: d656 3bbe d355 133e 4220 173e c3db 54bc
00000070: 7084 373e 654e b0bd 09d5 e0bd de0e 453e
00000080: 4a3d 57be b36f 873e b20b 00be 7a0c 05be
00000090: de57 f7bd 24e8 203d c42d 403e 1249 213d
000000a0: 8013 5e3e 246e d7bc c61b 763e c576 463e
000000b0: 4cf4 1abe e479 a23d fe9a 47bc 7af8 15be
000000c0: 2cd0 1ebe 8ab9 6abe 2cef 46be 5f73 6d3e
000000d0: fe6f 32be 85f6 a6bd eb55 65be a840 543c
000000e0: f551 3abe 44fa 4b3e 8ede 88be 127b 98be
000000f0: 6d9b 91bd b440 3b3e 4383 5c3e 8bc0 aebe

exp_avg f4 [256, 1]
-5.3964388e-05 6.7694864e-06 4.1401466e-07 3.1349748e-06 1.1657418e-05 2.4402725e-06 8.417758e-05 -9.731489e-05
-2.2284626e-06 -0.00047194632 -7.6446806e-05 4.0407824e-05 -3.238905e-05 2.2075046e-05 2.5119973e-05 -1.4552003e-06
1.4616571e-05 6.3112784e-06 -0.00021825192 -0.00014885508 1.2292358e-05 1.2355072e-05 -1.777477e-05 -4.4471675e-05
-3.639422e-05 -0.00010923594 -2.2306683e-06 2.124465e-06 1.3838719e-05 4.484036e-06 1.0996876e-05 -0.0001362815
-0.00018324248 2.0313862e-06 -4.8324877e-05 1.851135e-05 1.2299802e-05 7.7615405e-05 -9.294802e-07 -5.731221e-08
-3.5512894e-05 -2.156058e-06 -0.00018870464 -3.711187e-05 -3.8377017e-05 6.4793035e-06 -2.5262132e-06 1.3476753e-05
-3.2471635e-05 -0.0001339892 2.9614386e-05 -0.0003608684 3.6379028e-05 4.230541e-05 0.00016383293 4.9866003e-06
-6.233095e-05 -3.2568623e-05 -5.5440996e-05 4.3533197e-05 2.741086e-06 -0.00020161369 -0.00010737567 -0.00026407855
-9.2324466e-05 6.771788e-06 4.513508e-06 -9.577705e-06 2.713348e-06 4.5044867e-06 2.09393e-05 -0.0002584998
-1.2397765e-06 -0.00074920367 -0.00015231883 6.788979e-06 -6.1619634e-05 1.3251584e-05 -3.2657576e-05 2.4616277e-06
0.00019714375 1.234928e-05 -0.00035000357 -0.00017420435 7.7199975e-06 9.67749e-06 -4.1217278e-05 -6.447748e-05
-7.0569644e-05 -9.80579e-05 -2.1905647e-05 1.6392675e-06 9.267735e-06 2.8702054e-06 4.9471918e-08 -0.0001655312
-0.00024683797 -9.977626e-05 -4.4777575e-05 -5.174659e-07 8.980529e-06 7.747929e-05 -4.5145076e-05 -5.779936e-07
-5.5562654e-05 7.673218e-07 -0.00032872963 -4.937214e-05 -3.2949207e-05 1.1988951e-05 9.131337e-07 -1.8492558e-05
-4.336908e-05 -0.00019486455 1.30061435e-05 -0.000680897 1.9824869e-05 3.2706732e-05 0.0004112644 5.6858617e-06
-9.2247355e-05 -4.867067e-05 -0.0001497118 0.00028597002 6.7041938e-06 -0.00028607697 -0.0001914007 -0.0004899392
-0.0008021023 -3.7570142e-05 0.0002485149 -0.00041853555 0.00024013585 0.00048263124 -0.00015679628 0.0020123532
-3.203171e-05 0.0038723706 0.001966763 0.0008253276 0.0011384425 0.00033000577 -0.00015925645 0.00021377446
-0.0025888183 -0.0005121318 0.001950228 0.0012373672 0.00016930689 -0.0001193803 0.00016315012 0.0004983258
0.0011234382 -0.0012344 -0.0006910851 0.00016087665 -0.00019925038 1.5270607e-06 0.00030061955 -0.0017672008
0.0021342293 -0.001496975 0.0008747945 0.00038231295 0.00024971415 0.0011821444 -0.0008101071 -0.00018679154
-0.0010242392 0.0003861205 -0.002178598 -0.00022823982 0.0003227532 -0.0005976217 0.00030172657 -0.00019249762
0.0006145802 0.0008373841 -4.061212e-05 -0.0033555778 5.999595e-05 0.00054673647 0.002022155 0.00032586564
0.00080655 -0.00025777094 0.0019767946 0.003354528 0.00028664304 -0.0033976 -0.0012574429 0.0034878373
-1.1811768e-05 5.675243e-06 9.23313e-07 2.1107538e-05 2.5065989e-05 3.5380663e-06 0.0001826397 -0.00019525079
-1.1168718e-06 -0.00047473135 9.344981e-06 4.4255536e-05 -5.2097184e-06 4.5789126e-05 0.00010005986 -1.3097886e-06
-0.00012699563 1.0087738e-05 -0.00017094941 -0.00010333574 4.667161e-05 1.5590786e-05 2.7772683e-05 4.138295e-06
-6.9833404e-06 -6.628664e-05 1.1917465e-05 2.0551872e-06 2.18118e-05 6.532573e-06 1.7843522e-05 -8.2285624e-05
-0.00016731597 5.235647e-05 -3.3102653e-05 2.3373977e-05 1.9930878e-05 6.875622e-05 3.482057e-05 1.113581e-06
8.65502e-06 -1.0533362e-06 -0.00012388191 2.5799031e-06 -2.2101314e-05 6.942063e-06 -2.7675874e-06 4.1592644e-05
9.8801875e-06 -9.807335e-05 3.587709e-05 -0.00042816208 5.1683637e-05 4.8507096e-05 -0.00026727584 4.573175e-06
1.3448794e-06 9.722933e-06 2.9198276e-05 -0.0003926291 4.4485014e-06 -0.00010789926 -6.8028945e-05 -0.00081816484
00000000: d257 62b8 7225 e336 be45 de34 7562 5236
00000010: 3b94 4337 90c3 2336 7f88 b038 8915 ccb8
00000020: b28c 15b6 906f f7b9 1152 a0b8 927b 2938
00000030: 7ad9 07b8 cd2d b937 bbb8 d237 4d50 c3b5
00000040: b239 7537 78c5 d336 8eda 64b9 fb15 1cb9
00000050: 473b 4e37 a148 4f37 071b 95b7 1987 3ab8
00000060: ffa5 18b8 9915 e5b8 97b2 15b6 0892 0e36
00000070: d82c 6837 9375 9636 397f 3837 c9e6 0eb9
00000080: c724 40b9 f352 0836 71b0 4ab8 d248 9b37
00000090: 3f5b 4e37 74c5 a238 6581 79b5 7127 76b3
000000a0: aef3 14b8 cbb0 10b6 04df 45b9 91a8 1bb8
000000b0: 02f7 20b8 cb68 d936 0388 29b6 371a 6237
000000c0: 2732 08b8 747f 0cb9 696c f837 f032 bdb9
000000d0: af95 1838 1771 3138 91ca 2b39 9252 a736
000000e0: adb7 82b8 4b9a 08b8 5189 68b8 6a97 3638
000000f0: 80f3 3736 4368 53b9 e02e e1b8 0674 8ab9
00000100: 529e c1b8 3739 e336 bd72 9736 eeaf 20b7
00000110: f716 3636 3f25 9736 cea6 af37 4187 87b9
00000120: 6566 a6b5 3566 44ba c6b7 1fb9 e3cc e336
00000130: ca39 81b8 1f53 5e37 cef9 08b8 7132 2536
00000140: 5fb8 4e39 c12f 4f37 af80 b7b9 a0aa 36b9
00000150: 2385 0137 815c 2237 b7e0 2cb8 1538 87b8
00000160: cafe 93b8 6fa4 cdb8 05c2 b7b7 cd04 dc35
00000170: 9e7c 1b37 c19d 4036 f37a 5433 7192 2db9
00000180: 086a 81b9 f93e d1b8 8ecf 3bb8 fce7 0ab5
00000190: 14ab 1637 617c a238 285a 3db8 6b27 1bb5
000001a0: f20b 69b8 f4f9 4d35 5859 acb9 ef14 4fb8
000001b0: f132 0ab8 2724 4937 121e 7535 7720 9bb7
000001c0: 32e7 35b8 8e54 4cb9 f634 5a37 397e 32ba
000001d0: 954d a637 962e 0938 f99e d739 2ec9 be36
000001e0: ec74 c1b8 bc23 4cb8 f5fb 1cb9 3fee 9539
000001f0: 96f4 e036 9afc 95b9 bcb2 48b9 436f 00ba
00000200: 2d44 52ba a294 1db8 1b4b 8239 e46e dbb9
00000210: facc 7b39 ab09 fd39 ae69 24b9 afe1 033b
00000220: c959 06b8 99c7 7d3b cfe4 003b cc5a 583a
00000230: cb37 953a a004 ad39 14fe 26b9 a528 6039
00000240: 2aa9 29bb 9540 06ba cb9e ff3a 272f a23a
00000250: f987 3139 cf5b fab8 4713 2b39 14a2 023a
00000260: 5540 933a 97cb a1ba f029 35ba ffb0 2839
00000270: deed 50b9 68f5 cc35 799c 9d39 6ba1 e7ba
00000280: 6dde 0b3b 2536 c4ba 7752 653a 2d71 c839
00000290: 11ec 8239 2ff2 9a3a 5e5d 54ba 79dd 43b9
000002a0: c43f 86ba 3770 ca39 cfc6 0ebb a953 6fb9
000002b0: 3437 a939 b7a9 1cba 0e31 9e39 30d9 49b9
000002c0: c71b 213a e583 5b3a ef56 2ab8 41e9 5bbb
000002d0: 29a4 7b38 dd52 0f3a 2286 043b f2d8 aa39
000002e0: a76e 533a 6e25 87b9 1c8d 013b a4d7 5b3b
000002f0: 9448 9639 45aa 5ebb c8d0 a4ba 3394 643b
00000300: 282b 46b7 f76d be36 96d9 7735 1810 b137
00000310: cd44 d237 846f 6d36 f982 3f39 3cbc 4cb9
00000320: 6ce7 95b5 5de5 f8b9 63c8 1c37 059f 3938
00000330: 24cf aeb6 b30d 4038 3ad7 d138 fecb afb5
00000340: 212a 05b9 813e 2937 e240 33b9 f4b5 d8b8
00000350: 42c1 4338 f5c8 8237 62f9 e837 afdb 8a36
00000360: 7052 eab6 5e03 8bb8 1ff1 4737 d9eb 0936
00000370: 7cf8 b637 6032 db36 acae 9537 c290 acb8
00000380: 8a71 2fb9 5599 5b38 b4d7 0ab8 3c13 c437
00000390: 3c31 a737 3731 9038 4d0c 1238 5a76 9535
000003a0: 0735 1137 5b60 8db5 4ce6 01b9 6622 2d36
000003b0: 3666 b9b7 deef e836 caba 39b6 c373 2e38
000003c0: 15c3 2537 bbac cdb8 bb7a 1638 f17a e0b9
000003d0: e2c6 5838 1974 4b38 2821 8cb9 4673 9936
000003e0: b481 b435 ae1f 2337 d2ee f437 c9d9 cdb9
000003f0: 5644 9536 f947 e2b8 c3aa 8eb8 1d7a 56ba

exp_avg_sq f4 [256, 1]
6.4758837e-07 3.6660545e-08 3.9020453e-08 5.0525244e-07 9.542286e-08 9.8975065e-08 2.704041e-07 1.6263815e-06
2.2022071e-07 6.7090027e-06 1.6055274e-06 1.2988576e-07 7.9079973e-07 3.5308116e-07 2.6643133e-07 6.683563e-08
5.4391767e-06 5.684565e-08 3.549982e-06 2.542108e-06 1.4428889e-07 2.300513e-08 7.9517235e-07 8.101852e-07
6.5086624e-07 3.0141193e-06 2.5969973e-07 7.68524e-09 2.7090564e-08 3.9174065e-08 8.1149444e-08 2.1218725e-06
3.5236394e-06 6.1257566e-07 4.6765606e-07 1.3201661e-07 5.7642517e-08 5.642917e-08 3.8592736e-07 4.13626e-08
1.4184822e-06 2.0259055e-08 1.8424823e-06 4.4822224e-07 2.969621e-07 7.864022e-08 5.5346603e-09 2.0952412e-07
7.3333825e-07 1.8589515e-06 3.688947e-08 5.26092e-06 1.3792832e-07 3.2447776e-08 4.823113e-06 7.0987404e-08
1.3184499e-06 7.280157e-07 1.6758426e-06 7.401017e-06 6.083002e-08 3.4929963e-06 2.5849415e-06 5.98884e-06
6.945409e-07 4.3318668e-08 3.503419e-08 8.0599233e-07 9.903113e-08 8.461569e-08 1.1860682e-07 3.0416447e-06
3.2830147e-07 1.204646e-05 2.3631947e-06 5.5002594e-08 1.2536857e-06 6.6103024e-07 1.5933209e-07 5.3183154e-08
1.0990855e-05 8.669892e-08 4.84131e-06 3.0499598e-06 1.5968567e-07 1.8771878e-08 1.4850214e-06 1.1881074e-06
6.962512e-07 3.3101794e-06 2.712156e-07 7.0284187e-09 1.273864e-08 2.9302475e-08 1.12985205e-07 2.9197752e-06
7.0134547e-06 6.539959e-07 2.9665563e-07 1.3064512e-07 4.196479e-08 4.9864504e-08 4.372488e-07 3.1508606e-08
1.378954e-06 1.552897e-08 2.7000713e-06 5.937553e-07 2.709557e-07 6.775812e-08 3.890383e-09 3.6227138e-07
1.0183891e-06 2.2155618e-06 1.249765e-08 1.08465965e-05 1.2462799e-07 2.6461922e-08 7.875079e-06 8.169281e-08
1.4012277e-06 8.5790936e-07 2.4168003e-06 1.6633583e-05 4.4043166e-08 4.3144682e-06 5.49e-06 1.1678007e-05
3.1430234e-05 2.7524186e-06 7.178948e-06 2.1781823e-05 2.067218e-05 1.7940223e-05 5.1191342e-05 8.5760905e-05
2.3494329e-06 0.00023852366 0.0001220891 7.1147574e-06 9.376484e-05 7.3674314e-06 1.31221195e-05 1.2048403e-05
0.0001421682 6.780714e-06 0.00013336352 9.5159616e-05 1.8900082e-05 2.6802209e-06 3.1099873e-05 6.464172e-05
4.8987225e-05 5.8189078e-05 1.945703e-05 5.6892745e-06 9.110613e-06 1.8750092e-05 1.178737e-05 0.00014575747
0.00011259282 4.77732e-05 3.8016507e-05 1.0277592e-05 1.4379374e-05 9.240503e-06 3.152339e-05 1.8500825e-05
5.7023688e-05 1.5393796e-05 0.00011029372 2.8016146e-05 2.3795628e-05 2.6125681e-05 5.0317826e-06 1.2248718e-05
4.8891532e-05 4.7425427e-05 8.074606e-06 0.00021699922 2.1423732e-05 7.3633437e-06 5.8138252e-05 2.7380577e-06
5.1394207e-05 4.0432595e-05 0.0001793836 0.00022989388 8.243837e-06 0.00016169137 0.0001288633 0.00022245133
9.1419497e-07 4.1887628e-08 3.601871e-08 9.3242994e-07 1.0532094e-07 9.719469e-08 3.4540656e-07 4.7573253e-06
5.0202516e-07 1.2983739e-05 2.7067695e-06 1.2131734e-07 9.4566354e-07 1.2659006e-06 3.7419989e-07 1.123429e-07
1.6214999e-05 1.1951352e-07 5.6944664e-06 3.4676766e-06 3.4984276e-07 2.7623319e-08 2.5495858e-06 1.3351362e-06
1.0821309e-06 3.7429277e-06 2.934789e-07 9.112792e-09 3.6084636e-08 3.1693958e-08 1.426275e-07 2.855009e-06
8.738971e-06 8.6773673e-07 4.851933e-07 2.2809695e-07 6.595833e-08 6.7817034e-08 6.1562736e-07 3.833335e-08
1.7722958e-06 1.9550196e-08 2.5863515e-06 8.3540453e-07 3.4771514e-07 9.448445e-08 6.095645e-09 7.9724913e-07
1.1573898e-06 3.331836e-06 4.5725553e-08 1.1596735e-05 1.7807797e-07 3.572264e-08 2.025518e-05 9.437021e-08
1.3547954e-06 1.2763102e-06 2.2180973e-06 2.2842423e-05 4.0383334e-08 4.284215e-06 5.7399425e-06 2.9519151e-05
00000000: efd5 2d35 b274 1d33 7197 2733 afa0 0735
00000010: 46eb cc33 1e8c d433 0e2c 9134 0b4a da35
00000020: cf75 6c34 e51d e136 807d d735 ba76 0b34
00000030: 5847 5435 1b8f bd34 0b0a 8f34 4787 8f33
00000040: 2c82 b636 7426 7433 3a3c 6e36 1599 2a36
00000050: d4ed 1a34 d19c c532 d473 5535 817b 5935
00000060: 30b7 2e35 2d46 4a36 dc6c 8b34 0b08 0432
00000070: c8b4 e832 5740 2833 6144 ae33 7e65 0e36
00000080: aa77 6c36 e16f 2435 2912 fb34 73c0 0d34
00000090: 9e92 7733 875c 7233 7431 cf34 a9a6 3133
000000a0: ad62 be35 2206 ae32 364b f735 32a3 f034
000000b0: 296e 9f34 ebe0 a833 632b be31 8df9 6034
000000c0: 9fda 4435 1681 f935 6770 1e33 f586 b036
000000d0: 7319 1434 b55c 0b33 3ad6 a136 bd71 9833
000000e0: 98f5 b035 dc6c 4335 83ed e035 4056 f836
000000f0: a8a1 8233 3869 6a36 f578 2d36 bef3 c836
00000100: 7d70 3a35 610d 3a33 8078 1633 5f5b 5835
00000110: f1aa d433 f8b5 b533 cab4 fe33 0f1f 4c36
00000120: 6941 b034 271b 4a37 6097 1e36 fe3b 6c33
00000130: 5044 a835 a771 3135 df14 2b34 7f6b 6433
00000140: 5d65 3837 3c2f ba33 8972 a236 e9ad 4c36
00000150: 1076 2b34 cc3f a132 f250 c735 0f77 9f35
00000160: 05e6 3a35 7324 5e36 979b 9134 a07e f131
00000170: 22d9 5a32 d3b4 fb32 46a2 f233 5bf1 4336
00000180: 1e55 eb36 428e 2f35 0a44 9f34 7547 0c34
00000190: c63c 3433 9a2a 5633 04bf ea34 1454 0733
000001a0: 8014 b935 9164 8532 df32 3536 8e62 1f35
000001b0: de77 9134 6c82 9133 2cac 8531 337e c234
000001c0: 95af 8835 10af 1436 3fb5 5632 c7f9 3537
000001d0: 7bd1 0534 624e e332 351f 0437 196f af33
000001e0: d111 bc35 154b 6635 5030 2236 5988 8b37
000001f0: f929 3d33 00c5 9036 be36 b836 a8ec 4337
00000200: f5d3 0338 31b6 3836 b2e2 f036 1cb8 b637
00000210: 2b69 ad37 567e 9637 49b6 5638 89da b338
00000220: f3aa 1d36 351c 7a39 0b05 0039 4dbb ee36
00000230: 9da3 c438 c135 f736 1327 5c37 7f23 4a37
00000240: fc12 1539 e485 e336 7fd7 0b39 6e90 c738
00000250: 9e8b 9e37 d8dd 3336 3c71 0238 4290 8738
00000260: a277 4d38 0c10 7438 a737 a337 7fe6 be36
00000270: c9d9 1837 8449 9d37 5ec2 4537 79d6 1839
00000280: cf1f ec38 1560 4838 ea73 1f38 ec6d 2c37
00000290: f13e 7137 a807 1b37 fb37 0438 3832 9b37
000002a0: b82c 6f38 ed21 8137 7d4d e738 3704 eb37
000002b0: b99c c737 7928 db37 afd6 a836 d87f 4d37
000002c0: e210 4d38 aaea 4638 2b78 0737 498a 6339
000002d0: 1db7 b337 a412 f736 79d9 7338 79bf 3736
000002e0: 1c90 5738 2b96 2938 eb18 3c39 ab0f 7139
000002f0: 034f 0a37 b28b 2939 7b1f 0739 d341 6939
00000300: 0067 7535 efe7 3333 feb2 1a33 194c 7a35
00000310: cd2c e233 59b9 d033 5170 b934 1da1 9f36
00000320: e8c2 0635 bcd4 5937 f2a5 3536 7543 0234
00000330: 81d9 7d35 03e8 a935 a4e5 c834 2a41 f133
00000340: 7205 8837 a053 0034 1813 bf36 3bb6 6836
00000350: 06d2 bb34 5248 ed32 8d19 2b36 ee32 b335
00000360: bc3d 9135 022f 7b36 6f8f 9d34 7c8e 1c32
00000370: 7afb 1a33 e01f 0833 2625 1934 ae98 3f36
00000380: 989d 1237 6aee 6835 3b3e 0235 d0ea 7434
00000390: faa4 8d33 cfa2 9133 9741 2535 f7a3 2433
000003a0: 9fdf ed35 56ef a732 2e91 2d36 9040 6035
000003b0: 9bad ba34 60e7 ca33 dc71 d131 8b02 5635
000003c0: 9c57 9b35 8298 5f36 c763 4433 998f 4237
000003d0: b335 3f34 756d 1933 abe9 a937 92a8 ca33
000003e0: 6ad6 b535 af4d ab35 9fda 1436 bb9d bf37
000003f0: f271 2d33 20c1 8f36 bb99 c036 e59f f737

exp_avg f4 [256, 64]
-3.110264e-06 -5.3103304e-07 -4.082656e-07 -1.9659542e-06 -7.5954154e-07 -1.1015152e-06 6.1117987e-07 4.299229e-06
-2.0182642e-07 9.300426e-06 -6.3816e-07 4.4019367e-07 1.8778771e-06 1.3828601e-06 -5.3474196e-07 1.4659475e-06
-3.0612657e-06 1.7071857e-06 5.978818e-06 7.211176e-06 1.3031632e-06 5.416334e-07 -2.6351354e-06 2.7416536e-06
3.3680558e-07 8.1170225e-07 -1.4527334e-06 -4.6564193e-07 6.32612e-07 -6.2782453e-07 4.386683e-06 -4.8162087e-06
8.309951e-06 -1.2926414e-06 8.94667e-07 1.115845e-06 7.088228e-07 -2.6942441e-06 6.283713e-08 7.269086e-07
1.9451197e-06 1.0534231e-07 -1.8427361e-06 -2.7341848e-06 2.4642632e-06 8.754584e-07 1.6164354e-07 5.3097656e-06
3.7913276e-07 6.5487807e-06 3.4224385e-07 -8.339964e-06 -2.1718157e-07 -3.547905e-06 3.6130937e-06 -4.140688e-07
2.1869698e-06 -3.2574242e-06 -3.2802683e-07 8.793222e-06 -8.75094e-08 1.7934307e-06 -5.8768437e-06 1.1572067e-05
4.223312e-07 2.2054106e-08 4.6617807e-08 2.33405e-07 -1.09427354e-07 -2.7100311e-08 3.2490408e-07 -9.649341e-07
7.633589e-08 -1.2160302e-06 -4.0584092e-07 -1.1355219e-07 -3.3822505e-07 -3.5364042e-07 3.417431e-07 -6.898223e-08
1.4382334e-06 -3.3892714e-08 -8.84452e-07 -7.3157213e-07 -2.5625533e-07 -6.9346804e-08 -3.027672e-07 -6.087741e-07
-2.8252973e-07 3.634893e-07 2.1286189e-07 -8.920558e-09 1.597297e-07 -4.3033936e-08 -1.0929507e-07 6.6556305e-07
-1.2277144e-06 5.754592e-07 -2.0874755e-07 -1.2450016e-07 -1.7008722e-07 4.95964e-08 4.1894128e-07 2.6404683e-08
2.1255615e-07 4.0796298e-08 5.7607e-07 4.639819e-07 -2.8536923e-07 -9.018468e-09 3.3569066e-08 -6.122738e-07
-2.9030943e-07 -6.157742e-07 -1.3036033e-07 1.2957213e-06 -1.7672217e-07 -1.174315e-07 -1.349876e-06 -2.7891401e-08
-4.982384e-07 4.522096e-07 -3.6709423e-07 -1.4035579e-06 -5.829849e-08 3.5934926e-07 8.468422e-07 -1.7118391e-06
8.151928e-08 7.2159705e-09 4.1368295e-08 -5.9903185e-09 6.227575e-08 1.8675713e-08 -1.4616036e-08 2.1610873e-07
6.334996e-08 -6.212241e-08 1.3042177e-07 -5.9925455e-08 -6.181688e-08 -6.708936e-09 -3.0558205e-08 -7.102603e-08
1.9070424e-07 -6.535508e-08 2.1494958e-07 -1.2899861e-07 1.5802834e-07 3.2727964e-08 2.5653273e-07 5.0022535e-08
6.803153e-08 -1.6294916e-07 1.5225297e-08 -7.046395e-09 -5.578126e-09 6.7435565e-08 -1.3143836e-07 6.468226e-08
1.1623868e-08 1.4812636e-07 -2.7815842e-08 -1.5958115e-08 -9.018285e-09 -9.130156e-08 -7.877904e-08 -6.380253e-09
-1.7840404e-07 1.6485282e-08 -1.8606208e-07 -5.587829e-08 -3.732159e-09 -2.166407e-08 -2.096552e-09 -2.2716884e-07
9.7476516e-08 1.6850324e-08 -3.2180306e-08 -1.8102324e-07 1.4801493e-07 -1.8748054e-08 -1.8758999e-07 -8.380932e-08
8.112117e-08 -3.9062062e-08 1.5782115e-07 -4.6007668e-07 3.1203597e-09 -3.2149268e-07 1.5386912e-07 1.6547868e-07
-1.3832586e-06 -2.8561377e-07 -1.2170908e-07 -1.3499655e-06 -5.0035544e-07 -5.7571945e-08 -9.323348e-07 -1.4245895e-06
-4.4739448e-07 9.540343e-08 5.7062255e-07 1.312405e-06 1.7756698e-06 8.499564e-07 -6.0516703e-07 5.279479e-07
-2.6681712e-06 5.0374484e-07 -2.4140326e-07 1.352452e-06 -8.368545e-07 -2.3322183e-07 -1.1165591e-06 -3.3020743e-08
3.2582076e-07 -5.4847914e-07 -9.2656467e-07 8.361566e-09 4.5005686e-07 -4.990865e-07 2.4288447e-06 -1.3241092e-06
2.132491e-06 -2.3163975e-06 8.9167185e-07 8.505576e-07 -1.5352794e-07 5.865225e-07 4.2103107e-07 -4.3112802e-08
2.1953287e-08 1.1524716e-07 6.798412e-07 3.4930738e-07 -9.566403e-08 8.9233176e-08 2.0406841e-07 2.113931e-06
1.6994063e-07 5.861076e-07 1.6632944e-07 7.1305413e-07 -7.971132e-07 -4.5772492e-07 2.3231278e-06 4.4597647e-07
3.1291268e-07 -1.2754133e-07 6.794251e-07 6.1949827e-06 -1.15121324e-07 9.910557e-07 -3.3846404e-06 -1.7120457e-06
00000000: eeb9 50b6 508c 0eb5 992f dbb4 d6ee 03b6
00000010: 4ce3 4bb5 c6d7 93b5 f60f 2435 1942 9036
00000020: a0b5 58b4 0709 1c37 054e 2bb5 c253 ec34
00000030: 5e0b fc35 b69a b935 308b 0fb5 93c1 c435
00000040: 2570 4db6 7422 e535 a89d c836 88f7 f136
00000050: 59e8 ae35 c464 1135 48d7 30b6 40fd 3736
00000060: 35d2 b434 c1e3 5935 8afb c2b5 57fd f9b4
00000070: c4d0 2935 c687 28b5 5231 9336 eb9a a1b6
00000080: f86a 0b37 d27e adb5 0c29 7035 24c4 9535
00000090: ef45 3e35 c3ce 34b6 14f1 8633 c720 4335
000000a0: e788 0236 8c38 e233 ee53 f7b5 f07c 37b6
000000b0: b85f 2536 0b01 6b35 3d90 2d34 8a2a b236
000000c0: 9c8b cb34 99bd db36 a3bd b734 dfeb 0bb7
000000d0: 6a32 69b4 8b18 6eb6 7a78 7236 2f4d deb4
000000e0: dbc3 1236 1f9a 5ab6 aa1b b0b4 9a86 1337
000000f0: cdec bbb3 cfb5 f035 b431 c5b6 a625 4237
00000100: c2bc e234 7e71 bd32 d238 4833 e19d 7a34
00000110: 53fe eab3 37ca e8b2 7a6e ae34 e282 81b5
00000120: 19ee a333 7b36 a3b5 5ae2 d9b4 fad9 f3b3
00000130: 4c95 b5b4 f8db bdb4 d078 b734 6223 94b3
00000140: 5309 c135 6f91 11b3 146b 6db5 4161 44b5
00000150: 7793 89b4 cfeb 94b3 028c a2b4 a36a 23b5
00000160: 97ae 97b4 9725 c334 088f 6434 0741 19b2
00000170: 2a82 2b34 50d4 38b3 9ab5 eab3 25a9 3235
00000180: f2c7 a4b5 4179 1a35 1724 60b4 58ae 05b4
00000190: 38a1 36b4 d203 5533 daea e034 83d0 e232
000001a0: fd3a 6434 0138 2f33 3ba3 1a35 3019 f934
000001b0: d934 99b4 a4ef 1ab2 942d 1033 235b 24b5
000001c0: d3db 9bb4 ae4b 25b5 2df9 0bb4 a5e8 ad35
000001d0: 05c1 3db4 a62e fcb3 632d b5b5 d795 efb2
000001e0: afbe 05b5 37c7 f234 0c15 c5b4 e261 bcb5
000001f0: de63 7ab3 96ec c034 8e52 6335 58c2 e5b5
00000200: b30f af33 59f0 f731 ecac 3133 66d3 cdb1
00000210: 75bc 8533 546c a032 021a 7bb2 840b 6834
00000220: 020b 8833 2868 85b3 100a 0c34 5eb0 80b3
00000230: 30c0 84b3 6d84 e6b1 1a3f 03b3 f986 98b3
00000240: 62c4 4c34 5659 8cb3 e4cc 6634 de82 0ab4
00000250: 80ae 2934 c790 0c33 97b9 8934 5cd8 5633
00000260: bb18 9233 20f7 2eb4 c8c8 8232 bf1c f2b1
00000270: b7a9 bfb1 18d1 9033 8021 0db4 73e7 8a33
00000280: 50b2 4732 aa0c 1f34 afef eeb2 4414 89b2
00000290: d6ee 1ab2 9011 c4b3 3c2d a9b3 4d39 dbb1
000002a0: 548f 3fb4 859b 8d32 5bc8 47b4 d4fe 6fb3
000002b0: 6b3c 80b1 cb17 bab2 ef12 10b1 b2eb 73b4
000002c0: 4854 d133 41be 9032 9f36 0ab3 4a5f 42b4
000002d0: 09ee 1e34 680b a1b2 586c 49b4 a9fa b3b3
000002e0: d634 ae33 31c5 27b3 8c75 2934 7500 f7b4
000002f0: f36d 5631 9e99 acb4 3937 2534 6fae 3134
00000300: 67a8 b9b5 7556 99b4 23af 02b4 7630 b5b5
00000310: 2a50 06b5 0645 77b3 8f45 7ab5 8634 bfb5
00000320: 6e31 f0b4 97e0 cc33 e22c 1935 e425 b035
00000330: 8d53 ee35 8f28 6435 c372 22b5 4eb8 0d35
00000340: d50e 33b6 1539 0735 369a 81b4 e685 b535
00000350: 34a4 60b5 876b 7ab4 aedc 95b5 b1d2 0db3
00000360: 77ec ae34 333b 13b5 0ab9 78b5 8ea6 0f32
00000370: 589f f134 f7f8 05b5 3cff 2236 0cb8 b1b5
00000380: eb1b 0f36 6873 1bb6 395b 6f35 e051 6435
00000390: 70d9 24b4 8571 1d35 120a e234 072b 39b3
000003a0: ca93 bc32 cc7d f733 557e 3635 7188 bb34
000003b0: db6f cdb3 75a0 bf33 e61d 5b34 0fdd 0d36
000003c0: ed78 3634 0255 1d35 4a98 3234 b568 3f35
000003d0: 34f9 55b5 3cbd f5b4 08e7 1b36 8a6e ef34
000003e0: 64fe a734 4bf2 08b4 bd61 3635 7fde cf36
000003f0: 9e38 f7b3 6a04 8535 ae23 63b6 71c9 e5b5
