06_CNN/logs/cnn/version_1/checkpoints/last.ckpt (torch, 298995 bytes, 24 tensors)

model.0.weight f4 [16, 1, 3, 3]
-0.22105302 0.20849867 0.61608183 0.44024214 0.56204706 -0.107651375 -0.0728473 -0.78925973
-0.6036546 0.32576102 0.37585595 -0.7075347 0.2692738 0.111827135 -0.07139963 -0.39548448
0.46905062 0.51495314 0.20487799 0.005705077 0.4222215 -0.106188916 0.122542515 0.37861198
0.21330966 -0.014753806 0.3606685 -0.28577495 0.0030288398 -0.057573885 -0.18632719 0.17681387
0.039147943 -0.17051026 -0.19942224 0.09161487 0.16809423 0.265906 0.3132887 0.17381942
0.050918255 0.24830377 -0.58017397 -0.4715336 -0.11058439 -0.28027698 -0.109665275 -0.0971843
-0.104417294 -0.18793976 -0.28374872 -0.09084694 -0.28828198 -0.029380947 0.051220264 0.03357174
-0.48584536 -0.10515653 0.20594396 0.40616888 -0.5783541 0.07298831 0.6642194 0.6408452
0.59726906 0.4928532 -0.021322152 0.076192364 0.012307227 -0.80394006 -0.8371814 -0.290645
-0.5100609 0.4327863 0.39483687 0.2189991 0.18101427 0.19185567 0.18251689 0.071874686
0.44473374 -0.95055455 -0.3970568 0.33279818 -0.39221603 -0.20236045 0.5254886 -0.5331648
-0.045679905 0.6132579 0.24093705 -0.009339585 0.48357317 0.3850068 -0.2852223 0.33463767
0.39004856 -0.3580955 -0.2526775 -0.48965427 -0.26478514 0.27347907 0.12594295 0.55259013
0.5775932 0.41739014 0.37946987 -0.11169907 -0.0014912038 -0.8400851 -1.0468453 0.39126843
0.26493555 -0.24908237 0.67742026 0.57418346 0.61072105 0.2586062 0.2543904 0.54381657
-0.40076736 0.049642716 -0.14438546 -1.0697579 -0.89925426 -0.95891887 0.17112717 0.47493434
0.35431558 -0.052634865 -0.026437923 0.6265383 -0.5491974 -0.3610598 0.4621267 0.3237074
0.2782434 -0.7791025 0.26998225 -0.15371713 -0.8647018 0.4946692 0.57218426 0.16722222
00000000: b95b 62be ad80 553e 8ab7 1d3f 6b67 e13e
00000010: 51e2 0f3f 5378 dcbd f730 95bd ed0c 4abf
00000020: 1c89 1abf 26ca a63e 3170 c03e fe20 35bf
00000030: 41de 893e a005 e53d f839 92bd f17c cabe
00000040: 6727 f03e f8d3 033f 89cb 513e a8f1 ba3b
00000050: 6b2d d83e 9379 d9bd 92f7 fa3d 6ed9 c13e
00000060: d96d 5a3e f3b9 71bc 8ba9 b83e 1851 92be
00000070: 807f 463b 98d2 6bbd 8ecc 3ebe b20e 353e
00000080: 9859 203d 3e9a 2ebe 5835 4cbe 94a0 bb3d
00000090: e520 2c3e d524 883e 6067 a03e b8fd 313e
000000a0: a98f 503d 5843 7e3e 4886 14bf da6c f1be
000000b0: 127a e2bd 7780 8fbe 3098 e0bd 9008 c7bd
000000c0: bcd8 d5bd 4873 40be 8347 91be f60d babd
000000d0: b299 93be 50b0 f0bc 57cc 513d 8582 093d
000000e0: b9c0 f8be 4f5c d7bd f9e2 523e 5ef5 cf3e
000000f0: 040f 14bf e57a 953d 480a 2a3f 6e0e 243f
00000100: a0e6 183f 4157 fc3e cbab aebc be0a 9c3d
00000110: 40a4 493c 04cf 4dbf 8551 56bf 6ccf 94be
00000120: 5a93 02bf 2a96 dd3e 0f28 ca3e 4d41 603e
00000130: ce5b 393e d075 443e b5e5 3a3e 0933 933d
00000140: 24b4 e33e 8b57 73bf 074b cbbe 8664 aa3e
00000150: 8ad0 c8be 9437 4fbe 6c86 063f 7d7d 08bf
00000160: da1a 3bbd 78fe 1c3f 34b8 763e 0f05 19bc
00000170: e796 f73e 9c1f c53e a808 92be a155 ab3e
00000180: 72b4 c73e 4b58 b7be f25e 81be f7b3 fabe
00000190: eb91 87be 7305 8c3e 30f7 003e 8c76 0d3f
000001a0: 26dd 133f 29b4 d53e e049 c23e 7bc2 e4bd
000001b0: 7f74 c3ba d10f 57bf 07ff 85bf 5654 c83e
000001c0: a2a5 873e 730f 7fbe 6a6b 2d3f b0fd 123f
000001d0: 3758 1c3f 0868 843e 753f 823e 9037 0b3f
000001e0: 6131 cdbe 2956 4b3d c8d9 13be d4ed 88bf
000001f0: 8735 66bf b57b 75bf f63b 2f3e 982a f33e
00000200: da68 b53e a897 57bd 5894 d8bc d064 203f
00000210: 3398 0cbf d5dc b8be df9b ec3e fabc a53e
00000220: eb75 8e3e 4373 47bf 1d3b 8a3e 0668 1dbe
00000230: 195d 5dbf 4845 fd3e ab7a 123f 4d3c 2b3e

model.0.bias f4 [16]
-0.11782665 -0.37364435 -0.12750925 -0.28717494 -0.07293318 -0.05679813 -0.038032483 0.08890386
-0.05886814 0.21290903 -0.19341502 -0.160306 0.005218625 0.5009214 -0.13049506 -0.014532431
00000000: 194f f1bd 504e bfbe c991 02be 9808 93be
00000010: fe5d 95bd 28a5 68bd f3c7 1bbd 3a13 b63d
00000020: b81f 71bd d304 5a3e 960e 46be 4227 24be
00000030: 0001 ab3b 633c 003f 7fa0 05be 6f19 6ebc

model.3.weight f4 [32, 16, 3, 3]
-0.61402744 -0.7571462 -0.69561225 -0.1785891 -0.41449973 -1.06745 -0.019992629 -0.08501774
-1.2723377 0.23379003 -0.09399984 -0.32973024 0.27775776 0.03287432 -0.24820615 0.20727418
-0.10324066 -0.25532275 0.102454394 -0.085108966 -0.44287726 0.25657672 0.23717438 -0.55989325
0.41798344 -0.12236588 -0.40054855 0.07657603 0.0541429 -0.021856736 0.062548675 0.07013
-0.08216109 -0.045115285 0.08010445 -0.033028614 0.045266412 -0.2235868 -0.31545946 0.07797237
-0.06253642 -0.2481153 0.29420707 -0.025144368 -0.32654864 0.06595219 0.042946257 -0.035205513
-0.067679726 -0.0013810024 0.025679827 0.01803425 0.021586597 0.03371448 -0.00552174 -0.081157215
-0.59734994 0.33673844 0.18630382 -0.30650422 0.3004254 -0.29520133 -0.24542512 -0.11973307
-0.5894298 -0.40557134 -0.09001784 -0.2344043 -0.3528415 0.25088152 0.012107547 -0.5080374
0.030317204 -0.039736357 -0.5445041 0.23535241 0.1525011 -0.5291309 0.34572884 -0.04332147
-0.51826924 -0.25433525 -0.0030398308 0.18445687 0.09376954 -0.022442989 0.35597306 0.20668696
-0.071109645 0.2875766 0.04073468 -0.12050048 -0.26916668 0.1319672 0.088503055 -0.14416844
0.25547877 0.17317824 -0.3681353 0.04023592 -0.13631934 -0.28683594 0.23813665 0.29038662
-0.3777132 0.311623 0.14097652 -0.37864646 0.23119895 0.120429784 0.23140068 0.31137997
0.25226784 -0.098625764 -0.042392828 -0.15723935 -0.39058784 0.3162387 0.17057893 0.08339434
0.007225162 -0.001789283 0.10433974 -0.016059622 0.042159356 0.106472954 -0.050836984 0.0050974735
-0.4921172 0.19815539 0.18364207 -0.5512398 0.29023618 -0.25313106 -0.31980586 0.0030271164
-0.10830618 0.086884156 0.13139193 0.21351562 0.090399034 0.024891552 0.23370248 -0.13592179
0.13812901 -0.09879818 0.5055235 -0.38662797 -0.13248815 0.2686851 -0.25381795 -0.1110557
0.1440164 -0.030231005 0.10764101 0.087519966 -0.014397582 -0.017332673 0.11412823 -0.16454962
0.27670497 -0.12575062 -0.005462521 0.034085635 0.18832819 -0.0213677 -0.02759974 0.05369801
0.09056704 -0.079160735 0.06160661 -0.00899329 0.030870117 -0.061624944 0.07606109 -0.0301333
-0.03709086 -0.017510124 0.030002505 -0.020000458 0.1372862 -0.2260913 0.08594794 -0.05331782
-0.15873337 0.31397018 0.06203539 0.20789197 0.15808171 0.04894448 -0.055627763 0.045512117
-0.010502674 -0.05221499 0.057801656 -0.057616465 -0.022273522 0.081859596 0.04188383 -0.0073463535
0.24992745 -0.08987327 0.12170979 0.085561655 0.044404455 0.08697564 0.010291157 -0.0060612885
-0.3612684 0.07656375 -0.06735439 -0.454659 0.10742011 -0.1327263 -0.30627564 -0.0072049317
0.157536 -0.044837017 0.046054356 -0.009961006 0.07289309 0.07661978 0.0673094 0.005503645
-0.073412925 -0.071921155 -0.20317142 -0.01678358 -0.12684223 -0.10787031 -0.33384132 0.12636441
-0.005167786 -0.35047853 0.13866629 0.03782149 0.24138935 -0.0101584485 -0.08238953 0.25364172
-0.104835056 0.08017664 0.23705967 0.1517691 0.0076083713 0.28078806 -0.09156869 0.10853445
-0.014469507 -0.04675712 -0.06596516 -0.08889409 0.21297242 0.022702487 0.20878294 -0.5444569
00000000: e730 1dbf 55d4 41bf a513 32bf 10e0 36be
00000010: 4f39 d4be 34a2 88bf 95c7 a3bc c81d aebd
00000020: f6db a2bf a766 6f3e fd82 c0bd 67d2 a8be
00000030: 4436 8e3e 39a7 063d c129 7ebe af3f 543e
00000040: d76f d3bd aab9 82be 9cd3 d13d 9c4d aebd
00000050: cfc0 e2be 065e 833e d7dd 723e 2a55 0fbf
00000060: ed01 d63e f69a fabd b314 cdbe e5d3 9c3d
00000070: f2c4 5d3d e60c b3bc 8519 803d 51a0 8f3d
00000080: 1344 a8bd ceca 38bd cd0d a43d 0349 07bd
00000090: 4669 393d f0f3 64be e783 a1be faaf 9f3d
000000a0: 1813 80bd f011 7ebe 4fa2 963e 90fb cdbc
000000b0: 6231 a7be f111 873d 6ae8 2f3d a833 10bd
000000c0: ab9b 8abd c002 b5ba 805e d23c 90bc 933c
000000d0: 60d6 b03c 3218 0a3d b6ef b4bb c135 a6bd
000000e0: edeb 18bf fb68 ac3e 6ec6 3e3e 1fee 9cbe
000000f0: 5cd1 993e a124 97be b950 7bbe 9d36 f5bd
00000100: dfe4 16bf 0ca7 cfbe 465b b8bd ae07 70be
00000110: a4a7 b4be 8b73 803e bc5e 463c bd0e 02bf
00000120: c95b f83c 97c2 22bd 9f64 0bbf 3900 713e
00000130: 4029 1c3e 1f75 07bf 5f03 b13e db71 31bd
00000140: 4bad 04bf 3b38 82be e637 47bb 43e2 3c3e
00000150: 3f0a c03d 5cda b7bc 1a42 b63e bfa5 533e
00000160: efa1 91bd 3d3d 933e 68d9 263d f5c8 f6bd
00000170: 37d0 89be 6922 073e 1741 b53d e4a0 13be
00000180: 1dce 823e a355 313e 3b7c bcbe 6cce 243d
00000190: 4c97 0bbe 29dc 92be 18da 733e 8ead 943e
000001a0: a063 c1be 0d8d 9f3e 265c 103e f3dd c1be
000001b0: 6bbf 6c3e e4a3 f63d 4df4 6c3e 326d 9f3e
000001c0: 4029 813e 4efc c9bd 1aa4 2dbd 5a03 21be
000001d0: 21fb c7be 0aea a13e 3eac 2e3e a7ca aa3d
000001e0: 0dc1 ec3b 6086 eaba 13b0 d53d 788f 83bc
000001f0: 4aaf 2c3d 7e0e da3d 713a 50bd b508 a73b
00000200: c9f6 fbbe 3fe9 4a3e ab0c 3c3e 0d1e 0dbf
00000210: d699 943e 659a 81be 98bd a3be 9662 463b
00000220: a1cf ddbd 52f0 b13d 9b8b 063e d7a3 5a3e
00000230: 2123 b93d 5ee9 cb3c b44f 6f3e 152f 0bbe
00000240: b171 0d3e b356 cabd fd69 013f 1af4 c5be
00000250: f9aa 07be 1891 893e 6df4 81be 2c71 e3bd
00000260: 0979 133e 03a7 f7bc e472 dc3d ab3d b33d
00000270: d6e3 6bbc 40fd 8dbc 10bc e93d b27f 28be
00000280: 46ac 8d3e c5c4 00be f3fe b2bb 619d 0b3d
00000290: 1bd9 403e 510b afbc da18 e2bc 72f2 5b3d
000002a0: 367b b93d 061f a2bd 3657 7c3d 9858 13bc
000002b0: 54e3 fc3c 706a 7cbd ebc5 9b3d 1cda f6bc
000002c0: 96ec 17bd 6471 8fbc d0c7 f53c 00d8 a3bc
000002d0: c194 0c3e 7a84 67be 7905 b03d c963 5abd
000002e0: 008b 22be b3c0 a03e d218 7e3d a2e1 543e
000002f0: 2ce0 213e 027a 483d f0d9 63bd ea6a 3a3d
00000300: 6813 2cbc 63df 55bd 6ec1 6c3d 3eff 6bbd
00000310: f676 b6bc 01a6 a73d 618e 2b3d aeb9 f0bb
00000320: fbec 7f3e 7a0f b8bd fb42 f93d f33a af3d
00000330: 72e1 353d 4920 b23d 3e9c 283c c69d c6bb
00000340: 2cf8 b8be 75cd 9c3d 19f1 89bd 10c9 e8be
00000350: 13ff db3d 67e9 07be 29d0 9cbe 5917 ecbb
00000360: 1e51 213e 05a7 37bd 7ea3 3c3d 7d33 23bc
00000370: f948 953d d5ea 9c3d 83d9 893d ec57 b43b
00000380: 8459 96bd 664b 93bd 2b0c 50be b87d 89bc
00000390: eee2 01be 1ceb dcbd 40ed aabe ac65 013e
000003a0: 8856 a9bb ec71 b3be 89fe 0d3e b5ea 1a3d
000003b0: c52e 773e 9f6f 26bc d8bb a8bd 54dd 813e
000003c0: c3b3 d6bd a633 a43d c5bf 723e 5c69 1b3e
000003d0: a54f f93b 74c3 8f3e 5e88 bbbd 4f47 de3d
000003e0: 8311 6dbc 6584 3fbd be18 87bd 1b0e b6bd
000003f0: 7115 5a3e 91fa b93c 32cb 553e 8761 0bbf

model.3.bias f4 [32]
0.3009203 -0.22062087 -0.09110637 -0.35120335 -0.039432276 -0.07078241 -0.08938994 -0.18751618
-0.01175536 -0.18577369 -0.14840715 -0.24293078 -0.28888473 -0.24305448 -0.1775976 0.11315125
-0.17349215 -0.22346874 0.040062796 -0.20487286 -0.3749317 -0.070657164 -0.10085463 -0.19740094
0.006923292 -0.08585486 -0.050154794 -0.040827133 -0.0580139 -0.08490844 -0.13810398 -0.014162842
00000000: 3a12 9a3e 70ea 61be fa95 babd edd0 b3be
00000010: bd83 21bd 5ef6 90bd 1312 b7bd 3e04 40be
00000020: 8e99 40bc 753b 3ebe 0bf8 17be d9c2 78be
00000030: b3e8 93be 46e3 78be 25dc 35be d8bb e73d
00000040: eda7 31be fdd4 64be e318 243d 31ca 51be
00000050: 0cf7 bfbe b4b4 90bd df8c cebd 7923 4abe
00000060: c8dc e23b acd4 afbd 1d6f 4dbd 5a3a 27bd
00000070: fc9f 6dbd 7ae4 adbd 216b 0dbe 440b 68bc

model.6.weight f4 [64, 32, 3, 3]
0.27195093 0.35852292 0.10565843 0.23499121 0.11080324 0.16952507 0.1077596 0.3168771
-0.018327588 0.09083277 -0.010574 0.06786677 -0.15552837 0.01872025 -0.0126588745 0.05617781
0.09820617 0.24065152 0.08279902 0.12644026 -0.042629205 0.10656353 0.015887879 -0.086400434
0.057881802 0.031207133 0.012635698 0.075201385 0.03940236 0.10145017 -0.22075285 -0.023084752
-0.09255869 -0.10767322 0.16384338 -0.1204372 0.32902926 0.04871118 -0.0008025804 0.00047359068
-0.07997469 -0.078623965 0.09777888 0.12129906 0.013485875 -0.059346505 -0.13387455 -0.18109865
-0.012065354 -0.07155543 0.14161193 -0.11948406 0.042144805 0.10356024 -0.13157263 -0.14120957
-0.069536835 -0.23781687 -0.37284255 -0.51434755 0.0056168204 -0.46664515 -0.064960785 0.061562035
-0.11068218 -0.092087336 0.2575475 -0.29337016 0.15529294 0.0015663202 0.085291944 -0.1530751
0.37757814 0.33853093 0.22677162 0.14201377 0.11333817 0.052178696 -0.016836865 0.06527089
-0.027390538 0.06567306 0.08199266 -0.35223666 -0.038282234 -0.19660799 -0.48206005 0.015306302
-0.26381335 -0.3196421 -0.036631323 -0.18703392 -0.039043024 0.1850955 -0.20559195 -0.11077222
-0.0074997623 0.12062928 -0.20639308 -0.117328 -0.07561507 -0.04394228 -0.21861443 0.1008314
-0.20831138 0.14338227 -0.10814834 0.051376905 0.08019423 -0.20818254 0.07980822 -0.39108893
0.21062401 -0.098751105 0.2285784 0.09881602 0.18109459 -0.19522057 -0.14405097 -0.23301882
-0.08720825 0.08802308 -0.16061032 -0.094172046 -0.08007256 -0.04445369 -0.028815318 -0.17665307
-0.10686679 -0.4598804 0.08529598 -0.22706588 -0.012612328 -0.02048187 0.032643992 0.07331629
0.31641197 0.29742917 0.111477435 -0.10717212 -0.089294545 -0.36475992 0.50046283 0.12672311
0.07018001 0.20166425 0.050120186 0.18051441 -0.0074447147 0.09276488 0.31208766 0.12394431
0.19645585 -0.07043162 0.043386877 -0.16114405 -0.067159034 0.08577958 0.016341468 0.20561838
0.22497392 0.20431228 -0.069482744 -0.026251564 -0.015277802 0.044363577 -0.0005870897 -0.022202488
0.054286882 -0.0020655252 -0.010196766 -0.1754796 -0.13374786 -0.3155337 -0.015276515 0.0669647
-0.09747626 0.18925458 0.22522242 0.33770502 0.15036082 0.13345194 -0.38130283 0.2112388
-0.07353714 -0.10347307 0.12464274 0.08489232 0.04363114 0.034063805 0.026733007 -0.20130968
0.08610847 -0.010959955 -0.08034954 0.07327505 0.18256372 0.06377305 0.14036605 0.17900115
-0.45502 0.1563102 -0.0110507365 -0.23876278 -0.050522868 0.012932505 -0.18531895 -0.109666675
-0.2615837 -0.26573876 0.035451185 -0.030675838 -0.09112247 -0.3479659 -0.089173235 -0.009270963
0.033990674 0.0023649125 0.015294389 0.04623074 -0.109324515 -0.043667503 0.022217661 0.073590256
0.05227387 0.10553449 0.12367639 -0.04348489 0.22992225 -0.091510914 0.102541625 0.034722205
0.09713533 -0.028180955 0.0015721619 -0.0037759505 0.027976613 -0.0004340927 0.012093078 -0.032381527
-0.002359458 0.030586727 -0.014873616 0.063337915 0.1657846 -0.046249587 0.08966291 0.0913271
-0.026921613 0.088727824 0.0085171135 -0.07831023 -0.021483887 -0.030026693 -0.042256027 0.0029015243
00000000: 273d 8b3e 5190 b73e 7263 d83d 89a1 703e
00000010: cfec e23d fb97 2d3e 11b1 dc3d b73d a23e
00000020: bd23 96bc 8806 ba3d 923e 2dbc bcfd 8a3d
00000030: d442 1fbe 365b 993c 2b67 4fbc b41a 663d
00000040: 5120 c93d 5a6d 763e 8892 a93d 8e79 013e
00000050: f69b 2ebd fb3d da3d 4c27 823c b6f2 b0bd
00000060: 7815 6d3d 1aa6 ff3c f505 4f3c 2f03 9a3d
00000070: 5e64 213d 1bc5 cf3d 090d 62be 3c1c bdbc
00000080: 698f bdbd c783 dcbd 8fc6 273e c7a7 f6bd
00000090: 8676 a83e 6085 473d 4264 52ba 444c f839
000000a0: c5c9 a3bd 9a05 a1bd 4b40 c83d a46b f83d
000000b0: dcf3 5c3c 5215 73bd 6916 09be ed71 39be
000000c0: c3ad 45bc a78b 92bd b802 113e 0fb4 f4bd
000000d0: 08a0 2c3d 6417 d43d faba 06be 3e99 10be
000000e0: 5469 8ebd 4486 73be 38e5 bebe 48ac 03bf
000000f0: 4e0d b83b 1dec eebe 290a 85bd 7928 7c3d
00000100: 57ad e2bd 4998 bcbd 44dd 833e 9d34 96be
00000110: 1d05 1f3e fc4c cd3a 8bad ae3d b8bf 1cbe
00000120: ec51 c13e ed53 ad3e d236 683e 0f6c 113e
00000130: d81d e83d 54b9 553d 77ed 89bc bfac 853d
00000140: 1f62 e0bc 997f 863d c5eb a73d 5d58 b4be
00000150: d5cd 1cbd 9b53 49be 93d0 f6be 49c7 7a3c
00000160: 8b12 87be 21a8 a3be ba0a 16bd d285 3fbe
00000170: 94eb 1fbd ad89 3d3e b286 52be 8cdc e2bd
00000180: 91c0 f5bb 7c0c f73d b558 53be aa49 f0bd
00000190: 13dc 9abd d2fc 33bd 76dc 5fbe b180 ce3d
000001a0: 944f 55be cdd2 123e e07c ddbd 9770 523d
000001b0: df3c a43d ce2d 55be 7e72 a33d cf3c c8be
000001c0: d2ad 573e 053e cabd 7510 6a3e 0e60 ca3d
000001d0: dc70 393e e7e7 47be 1982 13be 7c9c 6ebe
000001e0: 3d9a b2bd 7245 b43d 0877 24be 46dd c0bd
000001f0: 15fd a3bd 1315 36bd 1a0e ecbc 8be4 34be
00000200: fadc dabd 7275 ebbe a9af ae3d f583 68be
00000210: f0a3 4ebc 98c9 a7bc b5b5 053d da26 963d
00000220: c000 a23e a348 983e 484e e43d 0e7d dbbd
00000230: 0fe0 b6bd d0c1 babe 551e 003f b4c3 013e
00000240: 89ba 8f3d 1381 4e3e d34a 4d3d c5d8 383e
00000250: cbf2 f3bb 83fb bd3d f4c9 9f3e 84d6 fd3d
00000260: b92b 493e 743e 90bd 70b6 313d f202 25be
00000270: ad8a 89bd 34ad af3d 8bde 853c a08d 523e
00000280: 905f 663e 3d37 513e f84c 8ebd 850d d7bc
00000290: bf4f 7abc 95b6 353d ece6 19ba fee1 b5bc
000002a0: ec5b 5e3d c35d 07bb 5610 27bc edb0 33be
000002b0: 33f5 08be a28d a1be 594a 7abc ca24 893d
000002c0: a2a1 c7bd f4cb 413e b5a0 663e ace7 ac3e
000002d0: 30f8 193e a0a7 083e 203a c3be fc4e 583e
000002e0: a49a 96bd b0e9 d3bd b144 ff3d 06dc ad3d
000002f0: 91b6 323d 7d86 0b3d 2eff da3c 2024 4ebe
00000300: a359 b03d 6291 33bc 4d8e a4bd 3b11 963d
00000310: fcf1 3a3e 729b 823d 1ebc 0f3e 144c 373e
00000320: 62f8 e8be c80f 203e 260e 35bc 3b7e 74be
00000330: 11f1 4ebd dce2 533c 40c4 3dbe ec98 e0bd
00000340: 4cee 85be e90e 88be 4335 113d e54b fbbc
00000350: 6b9e babd 9628 b2be 75a0 b6bd 3de5 17bc
00000360: ce39 0b3d a6fc 1a3b 5195 7a3c 725c 3d3d
00000370: 88e5 dfbd b2dc 32bd d001 b63c 7db6 963d
00000380: 201d 563d 7722 d83d 0c4a fd3d 361d 32bd
00000390: bd70 6b3e 136a bbbd 5801 d23d df38 0e3d
000003a0: e3ee c63d bfdb e6bc 0011 ce3a f075 77bb
000003b0: 362f e53c f096 e3b9 0c22 463c 7ea2 04bd
000003c0: 23a1 1abb 0491 fa3c 78b0 73bc 4fb7 813d
000003d0: 70c3 293e 3570 3dbd 30a1 b73d b409 bb3d
000003e0: b78a dcbc efb6 b53d 5d8b 0b3c 1d61 a0bd
000003f0: fafe afbc 8afa f5bc a814 2dbd 8027 3e3b

model.6.bias f4 [64]
-0.044746626 -0.058551867 -0.1344047 0.004269041 0.14342253 0.03343421 -0.1721891 -0.030446751
0.08491854 0.0069423714 -0.18903854 0.17352813 -0.07185434 -0.0062435474 -0.19541688 -0.077284865
-0.21519554 -0.013983922 -0.032754626 -0.07041578 0.09281355 0.09840479 -0.060513176 -0.1833716
0.055299964 0.04631763 -0.0066378927 0.0034083915 -0.0626102 -0.043617375 0.15267116 -0.17444442
0.008641406 0.0620792 -0.16856208 -0.10809908 0.078140885 -0.017216751 -0.002408738 -0.04954088
-0.018861985 0.04278275 -0.03671027 0.0037118876 -0.040570393 -0.05391508 0.08281378 -0.06411375
-0.122501954 -0.14280209 -0.06394421 0.007962503 -0.13734853 -0.055552885 -0.050600436 -0.26256028
0.0720346 0.047967754 0.0033411304 0.04717335 -0.055754934 -0.020295806 0.0009877421 -0.10875336
00000000: 3d48 37bd 15d4 6fbd 63a1 09be 50e3 8b3b
00000010: 5bdd 123e 4ff2 083d 5752 30be 776b f9bc
00000020: c6e9 ad3d d57c e33b 5293 41be 5cb1 313e
00000030: 5e28 93bd ac96 ccbb 5d1b 48be 8747 9ebd
00000040: 385c 5cbe d21c 65bc b729 06bd 2636 90bd
00000050: 0815 be3d 7388 c93d aadc 77bd c4c5 3bbe
00000060: 3782 623d 8eb7 3d3d ae82 d9bb 525f 5f3b
00000070: c739 80bd 22a8 32bd d455 1c3e 8fa1 32be
00000080: af94 0d3c c246 7e3d 8a9b 2cbe 0d63 ddbd
00000090: 5408 a03d 250a 8dbc ebdb 1dbb 61eb 4abd
000000a0: 7384 9abc f73c 2f3d 825d 16bd 2443 733b
000000b0: 242d 26bd 0fd6 5cbd 459a a93d 124e 83bd
000000c0: 4ee2 fabd b63a 12be 2ff5 82bd 2875 023c
000000d0: 18a5 0cbe 6c8b 63bd 6742 4fbd 4d6e 86be
000000e0: e086 933d d679 443d def6 5a3b d838 413d
000000f0: 495f 64bd 6443 a6bc 2077 813a 15ba debd

model.10.weight f4 [10, 64]
-0.087321326 0.09717205 -0.18846422 -0.005645621 0.13480017 -0.03162487 0.29755586 0.11537425
-0.18157057 -0.14047241 -0.35431677 -0.18898492 -0.056381702 -0.06104639 0.048179723 -0.080064915
-0.4115487 -0.071663074 -0.3269087 0.06265457 0.19979362 -0.24428505 0.20873512 -0.42927173
-0.15275505 0.08754915 -0.012643037 0.0864217 0.014296119 0.35208786 0.09397511 -0.12714665
-0.16304652 -0.09230346 -0.18780984 0.024472123 0.09277572 -0.021988532 0.04607892 0.077162996
-0.12851197 0.11343072 0.25683203 -0.1352852 0.14851344 -0.11720112 0.111182466 0.19416419
-0.35565978 -0.10170199 -0.19513535 0.027778422 0.16004515 0.3899 -0.01784148 -0.1835867
0.14887342 0.12482169 -0.112820506 -0.102945514 0.03370778 -0.06652811 -0.07773801 -0.005326602
0.14363377 -0.12507378 -0.3272932 -0.0031282748 0.35358113 0.03986396 -0.40005004 -0.4203486
-0.01854416 0.17210107 -0.07927244 0.11808144 -0.19972938 -0.09923239 0.037308645 -0.05087151
0.14857279 -0.039893884 -0.062068645 -0.087742895 -0.019147618 0.20223941 -0.17823772 0.03562586
-0.05099758 -0.08681858 -0.4085736 -0.083236486 0.021726524 -0.19841686 -0.00038441428 0.29086384
0.26649928 -0.39111486 0.39745447 -0.32661042 0.023083871 -0.11837351 -0.23300298 0.035023507
0.18620114 -0.11846145 0.045385092 -0.029264906 -0.020301383 0.097530104 -0.23100294 -0.33660188
0.050134055 0.08049314 -0.27352116 0.04771354 0.110468246 -0.21875438 -8.7183726e-05 -0.18656872
0.038560085 0.23885176 -0.21403019 -0.4269739 0.35465395 0.06326416 -0.20725457 -0.108095504
0.06740371 0.049153656 -0.1569731 0.0018396727 -0.09825646 0.0062010754 -0.3263984 0.14809747
0.2582314 -0.007652127 -0.1493694 0.14646985 0.09476699 0.06901633 -0.08078508 -0.11733173
-0.15255444 0.021446347 0.24981211 -0.08319386 0.13321966 -0.313728 0.11485895 0.011483911
-0.3126217 -0.056659415 0.042481802 -0.38389885 -0.03626728 0.31862396 0.030834125 -0.05038234
-0.17021939 -0.039781664 -0.14039294 -0.08859001 -0.038223706 -0.056591477 0.281107 0.2049371
-0.24159846 0.01853469 -0.20375858 0.3503009 0.029370261 0.004630542 -0.2117296 -0.05500513
-0.20062043 -0.09295889 -0.30941167 0.2439163 0.2152538 -0.36141166 -0.11525297 0.16703764
-0.04669374 -0.18474652 -0.11073755 -0.33570436 -0.329185 0.08376285 0.0683658 0.26067543
-0.122227274 -0.04974888 0.21473593 -0.05288592 -0.5507581 0.09563945 -0.19311084 -0.060240675
-0.013950942 -0.17435534 0.089055456 -0.08869945 0.15033588 0.04174737 -0.08074284 -0.08060319
0.055565346 0.10932485 -0.13872007 -0.046937823 -0.38114646 0.06875989 0.025961911 0.29711577
-0.22666799 -0.06544641 -0.33228993 0.019099977 -0.09578438 -0.16667652 0.055821147 -0.18916772
-0.3471664 -0.15022999 -0.16731805 0.36930123 0.3442273 -0.093432136 0.076172315 -0.20705815
0.0029516364 0.025493383 -0.77099264 -0.04688985 -0.2095293 0.03208827 -0.4224319 0.049431212
0.04685159 0.36370844 -0.30493036 -0.11849666 -0.102595255 -0.028149735 -0.061827604 -0.0422278
-0.44594687 0.35420772 -0.20229101 -0.10519239 -0.39101923 -0.06849983 0.139303 -0.15114774
00000000: 86d5 b2bd 2402 c73d c4fc 40be e7fe b8bb
00000010: 0e09 0a3e 1489 01bd 3e59 983e 5649 ec3d
00000020: a3ed 39be 00d8 0fbe 0269 b5be 4385 41be
00000030: 80f0 66bd c80b 7abd 1a58 453d 13f9 a3bd
00000040: 83b6 d2be 17c4 92bd 9460 a7be 0a51 803d
00000050: b396 4c3e dc25 7abe a9be 553e 81c9 dbbe
00000060: d26b 1cbe f84c b33d be24 4fbc dcfd b03d
00000070: 453a 6a3c dc44 b43e 0676 c03d bb32 02be
00000080: abf5 26be 9909 bdbd 3951 40be c379 c83c
00000090: 3201 be3d 4b21 b4bc 40bd 3c3d a207 9e3d
000000a0: a498 03be 5e4e e83d 7d7f 833e 3488 0abe
000000b0: e813 183e 2407 f0bd a2b3 e33d fad2 463e
000000c0: 0a19 b6be 2249 d0bd 90d1 47be 938f e33c
000000d0: e0e2 233e f9a0 c73e 4c28 92bc 27fe 3bbe
000000e0: 4672 183e 84a2 ff3d 700e e7bd 19d5 d2bd
000000f0: 2b11 0a3d e43f 88bd 1b35 9fbd c78a aebb
00000100: bb14 133e 5713 00be f992 a7be be03 4dbb
00000110: 9608 b53e 6448 233d 5cd3 ccbe ef37 d7be
00000120: ece9 97bc 433b 303e 9759 a2bd afd4 f13d
00000130: dc85 4cbe 5a3a cbbd f3d0 183d a55e 50bd
00000140: 7723 183e c567 23bd b13b 7ebd 8cb2 b3bd
00000150: 77db 9cbc d917 4f3e f383 36be 6cec 113d
00000160: d7e2 50bd f1cd b1bd 8f30 d1be e477 aabd
00000170: d3fb b13c ca2d 4bbe 368b c9b9 1bec 943e
00000180: 9872 883e 3540 c8be 277f cb3e 7b39 a7be
00000190: 631a bd3c d06d f2bd 5598 6ebe cf74 0f3d
000001a0: 83ab 3e3e eb9b f2bd b8e5 393d f5bc efbc
000001b0: 164f a6bc ddbd c73d 098c 6cbe 1557 acbe
000001c0: 5e59 4d3d 96d9 a43d f70a 8cbe 466f 433d
000001d0: 2d3d e23d 2601 60be 68d6 b6b8 df0b 3fbe
000001e0: 2ef1 1d3d 8e95 743e bb2a 5bbe 539c dabe
000001f0: 3495 b53e a490 813d 8b3a 54be 2d61 ddbd
00000200: f50a 8a3d 5855 493d 8ebd 20be 2c21 f13a
00000210: af3a c9bd 6432 cb3b b11d a7be dda6 173e
00000220: e836 843e b2be fabb 4bf4 18be 31fc 153e
00000230: 3215 c23d 6f58 8d3d a672 a5bd 9e4b f0bd
00000240: 3b37 1cbe 40b0 af3c bfce 7f3e 8b61 aabd
00000250: bc6a 083e f5a0 a0be 2b3b eb3d 0427 3c3c
00000260: f40f a0be b413 68bd 6601 2e3d 648e c4be
00000270: 008d 14bd ae22 a33e d997 fc3c b65d 4ebd
00000280: fe4d 2ebe 19f2 22bd 2bc3 0fbe ae6e b5bd
00000290: 7690 1cbd 77cc 67bd 42ed 8f3e 08db 513e
000002a0: 9665 77be 10d6 973c 17a6 50be a45a b33e
000002b0: e799 f03c cdbb 973b a5cf 58be 0f4d 61bd
000002c0: 716f 4dbe 3b61 bebd 356b 9ebe 32c5 793e
000002d0: 7e6b 5c3e f30a b9be c009 ecbd ea0b 2b3e
000002e0: ef41 3fbd 312e 3dbe 5eca e2bd 71e1 abbe
000002f0: f08a a8be db8b ab3d 5e03 8c3d 4077 853e
00000300: 4b52 fabd 7bc5 4bbd bce3 5b3e e89e 58bd
00000310: 7cfe 0cbf 9ede c33d d9be 45be edbe 76bd
00000320: 7e92 64bc 358a 32be b562 b63d 0fa8 b5bd
00000330: a6f1 193e 4aff 2a3d 815c a5bd 4913 a5bd
00000340: 7d98 633d b5e5 df3d a20c 0ebe e041 40bd
00000350: a125 c3be fcd1 8c3d 13ae d43c 8f1f 983e
00000360: a71b 68be c408 86bd e821 aabe 8e77 9c3c
00000370: 9a2a c4bd 40ad 2abe b7a4 643d 2fb5 41be
00000380: cbbf b1be e4d5 19be 6c55 2bbe 0d15 bd3e
00000390: 903e b03e 5959 bfbd 3b00 9c3d 0d07 54be
000003a0: 3e70 413b 80d7 d03c c65f 45bf 920f 40bd
000003b0: d98e 56be fd6e 033d fe48 d8be 6278 4a3d
000003c0: 74e7 3f3d fe37 ba3e d51f 9cbe 60ae f2bd
000003d0: 761d d2bd 469a e6bc f13e 7dbd 0ff7 2cbd
000003e0: 2653 e4be b75a b53e 6025 4fbe 1c6f d7bd
000003f0: ac33 c8be a449 8cbd 72a5 0e3e 79c6 1abe

model.10.bias f4 [10]
0.15475409 0.07645534 0.025983557 0.096890144 0.03635888 -0.05282016 -0.04205204 -0.0308174
0.1399818 -0.09704448
00000000: db77 1e3e 9e94 9c3d 78db d43c 576e c63d
00000010: 0ded 143d f459 58bd c33e 2cbd c674 fcbc
00000020: 6457 0f3e 42bf c6bd

exp_avg f4 [16, 1, 3, 3]
0.01006523 0.009772441 0.010865495 0.014136849 0.011299164 0.011110447 0.012287933 0.008599746
0.008292299 -0.007879634 -0.0077290526 -0.0062989835 -0.006832587 -0.006499403 -0.0030798193 -0.0014702175
-0.0019393169 -0.000744056 0.00028132607 -0.0024734403 -0.00520783 0.0006804479 -0.0027175937 -0.002986815
0.0013095315 -0.0024052283 -0.004131442 0.0 0.0 0.0 0.0 0.0
0.0 0.0 0.0 0.0 0.0050652004 0.00638837 0.00789791 0.0056899856
0.0066033527 0.006264971 0.0033011907 0.00395997 0.0041976976 0.0 0.0 0.0
0.0 0.0 0.0 0.0 0.0 0.0 -0.0027841309 -0.0050418526
-0.006253732 -0.00203838 -0.0051742806 -0.00542178 -0.0011705766 -0.0033474881 -0.0067611546 0.01986363
0.019013027 0.022604309 0.014174291 0.014477565 0.01694966 0.01023677 0.012347294 0.015447524
-0.00044311018 -0.0035049575 -0.0063767363 0.001999647 -0.002916812 -0.0053311824 0.0017352328 -0.0027018355
-0.0054947548 -0.00027027776 -0.0029102534 -0.0065934164 -0.0018073824 -0.005356067 -0.0075569847 -0.0031981643
-0.005684642 -0.0090070525 0.0017367579 0.0020066965 0.0030776067 0.0014474308 0.002884328 0.0035369305
-0.00029019607 0.002162444 0.0032064437 -0.0015366907 -0.004317298 -0.00441444 4.0160103e-05 -0.0028091571
-0.003516595 -0.00016262206 -0.0033105426 -0.0044730073 -0.0046562552 -0.001365682 -0.002376965 -0.0075741136
-0.0011562747 0.0023385938 -0.0010341922 0.0027392094 0.00447378 0.010048038 0.009688978 0.011021094
0.005584001 0.004276497 0.0053194896 0.0010545291 -0.0004157376 0.0033356105 0.0035758829 -0.00014821759
-0.00081372657 0.005428124 0.0015796664 -0.0012487329 0.0042687417 0.0006991795 -0.0009743248 -0.008931614
-0.0052270815 -0.002050114 -0.0054948754 -0.00084633223 0.0014655255 -0.002276881 0.0022106308 0.006322549
00000000: a2e8 243c 971c 203c 3005 323c 3e9e 673c
00000010: 2120 393c 9808 363c 5453 493c f3e5 0c3c
00000020: 6cdc 073c 9519 01bc fe43 fdbb b467 cebb
00000030: e5e3 dfbb f2f8 d4bb cbd6 49bb 50b4 c0ba
00000040: ad30 feba c10c 43ba f27e 9339 7119 22bb
00000050: 72a6 aabb 1660 323a a819 32bb 71be 43bb
00000060: 96a4 ab3a 09a1 1dbb 0c61 87bb 0000 0000
00000070: 0000 0000 0000 0000 0000 0000 0000 0000
00000080: 0000 0000 0000 0000 0000 0000 0000 0000
00000090: fbf9 a53b 8855 d13b 3c66 013c 0f73 ba3b
000000a0: f060 d83b 634a cd3b ca58 583b a3c2 813b
000000b0: d78c 893b 0000 0000 0000 0000 0000 0000
000000c0: 0000 0000 0000 0000 0000 0000 0000 0000
000000d0: 0000 0000 0000 0000 f775 36bb 2036 a5bb
000000e0: 1bec ccbb 5796 05bb 038d a9bb 30a9 b1bb
000000f0: 086e 99ba 8861 5bbb ad8c ddbb 0db9 a23c
00000100: 35c1 9b3c ac2c b93c 493b 683c 4f33 6d3c
00000110: 03da 8a3c 20b8 273c 4e4c 4a3c 9d17 7d3c
00000120: 3e51 e8b9 6eb3 65bb f1f3 d0bb 820c 033b
00000130: fc27 3fbb 33b1 aebb c070 e33a 4711 31bb
00000140: 580d b4bb 11b4 8db9 f3b9 3ebb 960d d8bb
00000150: b1e5 ecba f281 afbb 95a0 f7bb 4b98 51bb
00000160: 3c46 babb 5192 13bc eda3 e33a c882 033b
00000170: acb1 493b b8b7 bd3a fe06 3d3b d9cb 673b
00000180: 7525 98b9 cab7 0d3b 3323 523b c96a c9ba
00000190: 1f78 8dbb 02a7 90bb 9571 2838 d619 38bb
000001a0: ad76 66bb 8785 2ab9 b0f5 58bb 4e92 92bb
000001b0: 8093 98bb af00 b3ba dbc6 1bbb 4530 f8bb
000001c0: 248e 97ba 1843 193b bb8d 87ba 4f84 333b
000001d0: c998 923b 87a0 243c 85be 1e3c d291 343c
000001e0: fff9 b63b db21 8c3b 1d4f ae3b 2038 8a3a
000001f0: 5bf7 d9b9 429a 5a3b 5c59 6a3b db6a 1bb9
00000200: 4450 55ba 68de b13b cf0c cf3a 86ac a3ba
00000210: cde0 8b3b 2449 373a d569 7fba e855 12bc
00000220: f047 abbb 355b 06bb 5b0e b4bb 65dc 5dba
00000230: e016 c03a b937 15bb 3be0 103b 632d cf3b

exp_avg_sq f4 [16, 1, 3, 3]
0.0013417227 0.0017698194 0.0015882063 0.0018822006 0.0014395643 0.00091195374 0.0015390741 0.00063187437
0.0003818077 0.0001889404 0.00016084428 0.0001025852 0.00017291971 0.00018446406 0.00015894305 0.00012475351
0.00020576987 0.00024024968 0.00015659275 0.00019443507 0.00023538402 0.00016158381 0.00018411445 0.00019389439
0.00017106939 0.00017779943 0.00018833674 0.0 0.0 0.0 0.0 0.0
0.0 0.0 0.0 0.0 0.00019331269 0.00021648248 0.00022439116 0.00015854604
0.00015048533 0.00017597832 7.567884e-05 7.7524914e-05 0.00012549825 0.0 0.0 0.0
0.0 0.0 0.0 0.0 0.0 0.0 0.000108335924 9.6976575e-05
0.00010404241 6.7736124e-05 0.000106575404 0.0001633997 5.5761753e-05 0.000119924276 0.00019316669 0.00084416254
0.0010777634 0.001276243 0.0005814478 0.00063066697 0.00087686116 0.0003249116 0.00030632623 0.0006037368
0.0001271077 0.00024130255 0.00031219856 0.0001690483 0.00021838688 0.00023285976 0.00018204015 0.00020137083
0.00021105529 1.6959513e-05 9.892331e-05 0.00046153332 2.8438284e-05 0.00017575617 0.0006880004 0.000102824815
0.00044706336 0.0009255095 0.00017092108 0.00017106441 0.00019956868 0.00019820484 0.00014966723 0.00015196296
0.00021251295 0.00012405898 0.00011117298 9.506811e-05 0.00015408812 0.00022631843 0.00012888997 0.00018365638
0.00022187477 0.00015035419 0.00017163616 0.00018176007 0.0008880234 0.00055916235 0.00045003227 0.0011190205
0.0009543612 0.0008799037 0.0013380027 0.0014768922 0.0013790232 0.00069666456 0.00079675374 0.0010959369
0.00017088787 0.00015294066 0.0003731994 2.5305295e-05 8.15653e-06 9.772872e-05 0.00020495073 0.00020405646
0.00020391015 0.0001356245 0.00014009213 0.0002099656 9.466792e-05 0.00015750556 0.00023786679 0.00043487712
0.00035155963 0.00018255114 0.0004534225 0.00033401285 0.00022541225 0.00048734059 0.0005058559 0.0004559756
00000000: bedc af3a 49f9 e73a 5c2b d03a 2cb4 f63a
00000010: c3af bc3a 2e10 6f3a c2ba c93a 5fa4 253a
00000020: 5d2d c839 4d1e 4639 4fa8 2839 0323 d738
00000030: c851 3539 b26c 4139 f3a9 2639 44d0 0239
00000040: eec3 5739 88eb 7b39 0c33 2439 44e1 4b39
00000050: 6bd1 7639 d36e 2939 d90e 4139 2150 4b39
00000060: 1761 3339 ac6f 3a39 427c 4539 0000 0000
00000070: 0000 0000 0000 0000 0000 0000 0000 0000
00000080: 0000 0000 0000 0000 0000 0000 0000 0000
00000090: fbb3 4a39 93ff 6239 8b4a 6b39 613f 2639
000000a0: 99cb 1d39 d286 3839 c5b5 9e38 df94 a238
000000b0: 2e98 0339 0000 0000 0000 0000 0000 0000
000000c0: 0000 0000 0000 0000 0000 0000 0000 0000
000000d0: 0000 0000 0000 0000 6832 e338 e75f cb38
000000e0: 5831 da38 8e0d 8e38 3c81 df38 4656 2b39
000000f0: bae1 6938 db7f fb38 ca8c 4a39 ca4a 5d3a
00000100: bd43 8d3a 9c47 a73a 4d6c 183a 5853 253a
00000110: 28dd 653a e658 aa39 699a a039 1744 1e3a
00000120: 3748 0539 2906 7d39 95ae a339 8f42 3139
00000130: c8fe 6439 d12b 7439 08e2 3e39 1227 5339
00000140: b94e 5d39 4744 8e37 0c75 cf38 f4f9 f139
00000150: c08e ee37 304b 3839 ed5a 343a a7a3 d738
00000160: d463 ea39 e49d 723a 4739 3339 c15f 3339
00000170: 4f43 5139 35d5 4f39 feef 1c39 3f58 1f39
00000180: 03d6 5e39 d415 0239 8a25 e938 4e5f c738
00000190: b792 2139 e44f 6d39 a326 0739 e293 4039
000001a0: 0ea7 6839 65a8 1d39 3bf9 3339 d996 3e39
000001b0: 3eca 683a c094 123a 4ff2 eb39 19ac 923a
000001c0: 192e 7a3a 56a9 663a ec5f af3a 4794 c13a
000001d0: 57c0 b43a 5ea0 363a 3ddd 503a 8aa5 8f3a
000001e0: 5d30 3339 b25e 2039 faa9 c339 b546 d437
000001f0: 08d8 0837 b5f3 cc38 0be8 5639 fdf7 5539
00000200: b7d0 5539 6d36 0e39 b2e5 1239 362a 5c39
00000210: 7488 c638 1428 2539 e16b 7939 3800 e439
00000220: 8951 b839 336b 3f39 56b9 ed39 721e af39
00000230: a45c 6c39 bf81 ff39 6a9b 043a 0210 ef39

exp_avg f4 [16]
0.019163769 -0.0046258178 -0.0054388237 0.0 0.006180039 0.0 -0.008859941 0.031175157
-0.005999146 -0.018360166 -0.0004635242 -0.0017334345 0.008004489 0.021801997 -0.0050621973 -7.0990325e-05
00000000: 56fd 9c3c 2c94 97bb 2938 b2bb 0000 0000
00000010: ed81 ca3b 0000 0000 4929 11bc 0b63 ff3c
00000020: 7c94 c4bb 0f68 96bc 2a05 f3b9 6934 e3ba
00000030: 4325 033c 1a9a b23c cae0 a5bb a4e0 94b8

exp_avg_sq f4 [16]
0.0029533322 0.00032528554 0.00028703938 0.0 0.00032946735 0.0 0.0003330819 0.0025454087
0.00035363904 0.0028969685 0.0003411077 0.00027752033 0.0034478786 0.005761885 0.0003897043 0.00082982157
00000000: b18c 413b 168b aa39 c67d 9639 0000 0000
00000010: 5cbc ac39 0000 0000 7fa1 ae39 dfd0 263b
00000020: a168 b939 11db 3d3b b3d6 b239 2680 9139
00000030: cef5 613b 32ce bc3b 3a51 cc39 6288 593a

exp_avg f4 [32, 16, 3, 3]
-6.743679e-05 0.00054415443 0.00024462034 0.0007433252 -0.00017820612 -0.00077109196 -0.0006188331 -0.001690317
-0.0010122058 6.3486965e-05 -0.00067647593 -1.0222063e-05 3.2656757e-05 -0.0007921225 -0.00042702156 -0.00032668203
0.00055570557 -4.7520138e-05 0.00020808558 -0.00010501074 -0.00015994073 -0.0009534305 -0.0017461223 -0.0009940643
-0.0018220309 -0.0016836947 -0.00022124521 0.0 0.0 0.0 0.0 0.0
0.0 0.0 0.0 0.0 0.00017281991 -6.113142e-05 0.00010155522 0.0007855022
1.6571123e-05 -0.00011605547 -0.00047740166 -0.00021555983 -0.0008097157 0.0 0.0 0.0
0.0 0.0 0.0 0.0 0.0 0.0 -6.8402594e-05 -0.0005078651
-3.139115e-05 0.0001611034 -0.000735891 -0.00014215455 -0.00021174591 0.0010289649 -2.2815684e-05 -0.00016257609
-8.0193524e-05 0.00029133656 0.0013762731 0.00012583118 -0.00041404407 -0.0007896086 -0.0010809366 -0.0021272032
0.00035865212 -0.00037501828 -0.0005295373 -0.0013435022 -0.0020254904 -0.0013803468 -0.0019855963 -0.0019154636
0.00014622504 -0.00031187758 -0.000370897 -0.00029573578 -0.00025317378 -0.00081407395 -7.945859e-05 6.115285e-05
0.00022869415 -2.5487177e-05 0.00024234664 0.00050324877 0.00015081995 -0.00035366009 -0.0006159068 -0.000989447
-0.0012444649 -0.0018205001 -0.0012905394 -0.00029893834 -0.0006498528 -0.0010893277 -0.0015153101 -0.0023071088
-0.0019496382 -0.0017663881 -0.0022722394 0.00038819807 -0.0011886604 -0.00233768 -0.0023727661 -0.0010908702
-0.002234548 -0.0027202696 0.00010348878 -0.00040236875 0.0007507967 -0.0015127719 -0.0011176595 -0.0008189672
-0.000180781 -0.0007185864 -0.0008633266 -0.0014237482 -0.0017821607 -0.002620966 0.000877289 0.00022544712
3.8543036e-05 0.0004069335 -0.00067252736 -0.00043544426 -0.0010865914 -0.0005427536 -0.0006545338 -0.00012592653
-6.223728e-05 -0.0010609401 -0.0004178209 -0.00044323658 -0.0022148618 0.0005888248 -0.00034948825 0.00012249908
-0.00042798056 -0.0011099293 -0.0030215976 -0.0008270219 -0.00028141754 -0.0008797081 -0.00055784115 -0.00061058823
-0.00071362156 -0.0014861721 -0.0013560876 -0.0012979835 -0.00063080265 -0.0016645716 -0.00072868 -2.3296578e-05
-0.0007423637 0.00034167114 -0.0034772004 -0.0038318448 -0.0028002404 -0.0025193673 -0.0030318757 -0.0011901112
-0.0015573523 -0.0019081511 0.00029015954 0.0 0.0 0.0 0.0 0.0
0.0 0.0 0.0 0.0 -0.0007989644 -0.0003549531 -0.0013377698 -0.0014654023
-0.0004167857 -0.00014032275 -0.0011334614 -0.00090785435 -0.00036322916 0.0 0.0 0.0
0.0 0.0 0.0 0.0 0.0 0.0 -0.0022938377 -0.0011258253
-0.00045976875 -0.00062834146 -0.0007615417 5.9949096e-05 -0.0010866594 -0.001018316 0.00095175713 -0.0010511689
-0.00077665126 -0.0029681583 -0.0022084014 -0.0012670257 -0.0013829407 -0.001729564 -0.0015895889 -0.0018562321
-0.0042483867 -0.004630177 -0.0035888287 -0.002891748 -0.0032670016 -0.0008744533 -0.0018034454 -0.0024949387
0.00025524673 -0.0034741587 -0.0012461068 -0.00016705945 -0.0018352823 -0.00096524495 -0.0012160512 -0.0024158694
-0.0021028619 0.00016144743 -0.0010693625 -0.00219282 -0.003056713 -0.001524101 -0.0010271088 -0.0018613167
-0.00041310926 -0.0008690019 -0.00087056134 -0.003909399 -0.0045261052 -0.0030558037 -0.0013297206 -0.0023863963
-0.0004117936 -0.0007878292 -0.001748634 0.0008398611 -0.0020877523 -0.001143153 -0.0010273757 0.0012115033
00000000: da6c 8db8 96a5 0e3a 6340 8039 b6db 423a
00000010: d7dc 3ab9 1b23 4aba 3039 22ba a08d ddba
00000020: feab 84ba 4e24 8538 8855 31ba 6d7f 2bb7
00000030: edf8 0838 71a6 4fba dde1 dfb9 8546 abb9
00000040: c5ac 113a 5c50 47b8 8c31 5a39 3639 dcb8
00000050: c3b5 27b9 a3ef 79ba 24de e4ba 434b 82ba
00000060: 36d1 eeba 6baf dcba 0ffe 67b9 0000 0000
00000070: 0000 0000 0000 0000 0000 0000 0000 0000
00000080: 0000 0000 0000 0000 0000 0000 0000 0000
00000090: fe36 3539 ae33 80b8 0bfa d438 29ea 4d3a
000000a0: 3702 8b37 ce62 f3b8 c44b fab9 e707 62b9
000000b0: 1a43 54ba 0000 0000 0000 0000 0000 0000
000000c0: 0000 0000 0000 0000 0000 0000 0000 0000
000000d0: 0000 0000 0000 0000 5d73 8fb8 4022 05ba
000000e0: fea9 03b8 dded 2839 cfe8 40ba 520f 15b9
000000f0: 1c08 5eb9 55de 863a 4f64 bfb7 3079 2ab9
00000100: 922d a8b8 88be 9839 1064 b43a 8df1 0339
00000110: 0e14 d9b9 bcfd 4eba 37ae 8dba 8c68 0bbb
00000120: 7909 bc39 1a9e c4b9 a6d0 0aba 7418 b0ba
00000130: 17be 04bb c1ec b4ba c720 02bb 4b10 fbba
00000140: fc53 1939 8083 a3b9 f474 c2b9 fc0c 9bb9
00000150: 69bc 84b9 9467 55ba 01a3 a6b8 303f 8038
00000160: 9ecd 6f39 4ccd d5b7 6e1e 7e39 74ec 033a
00000170: 6c25 1e39 746b b9b9 ce74 21ba 55b0 81ba
00000180: 501d a3ba d99d eeba 5127 a9ba d3ba 9cb9
00000190: e25a 2aba c6c7 8eba 5f9d c6ba dd32 17bb
000001a0: 018b ffba 2686 e7ba dae9 14bb 1087 cb39
000001b0: d3cc 9bba c333 19bb 6980 1bbb 88fb 8eba
000001c0: 7f71 12bb 8d46 32bb 1e08 d938 05f5 d2b9
000001d0: 1dd1 443a 3448 c6ba 6e7e 92ba f5af 56ba
000001e0: 0890 3db9 845f 3cba de50 62ba 109d baba
000001f0: 6497 e9ba 83c4 2bbb def9 653a 0066 6c39
00000200: 45a9 2138 b159 d539 8c4c 30ba 574c e4b9
00000210: f56b 8eba 9447 0eba 0595 2bba 250b 04b9
00000220: 6385 82b8 3e0f 8bba f90e dbb9 3562 e8b9
00000230: 3727 11bb 5d5b 1a3a 853b b7b9 1973 0039
00000240: 9462 e0b9 0c7b 91ba ff05 46bb 80cc 58ba
00000250: 398b 93b9 369c 66ba 163c 12ba e20f 20ba
00000260: 5512 3bba a9cb c2ba c0be b1ba 1921 aaba
00000270: 735c 25ba c12d daba e304 3fba 056d c3b7
00000280: 2f9b 42ba 5322 b339 bee1 63bb b01f 7bbb
00000290: 3d84 37bb f81b 25bb 6fb2 46bb 81fd 9bba
000002a0: 1220 ccba ed1a faba 8e20 9839 0000 0000
000002b0: 0000 0000 0000 0000 0000 0000 0000 0000
000002c0: 0000 0000 0000 0000 0000 0000 0000 0000
000002d0: 9871 51ba 0019 bab9 1b58 afba be12 c0ba
000002e0: 0884 dab9 9a23 13b9 a790 94ba 13fd 6dba
000002f0: cb6f beb9 0000 0000 0000 0000 0000 0000
00000300: 0000 0000 0000 0000 0000 0000 0000 0000
00000310: 0000 0000 0000 0000 3654 16bb 6e90 93ba
00000320: 1e0d f1b9 48b7 24ba 33a2 47ba da71 7b38
00000330: 3d6e 8eba 0479 85ba 577f 793a 60c7 89ba
00000340: 2f98 4bba 6f85 42bb d4ba 10bb 5412 a6ba
00000350: ca43 b5ba 8ab2 e2ba c159 d0ba d04c f3ba
00000360: 0d36 8bbb bdb8 97bb 8e32 6bbb 7b83 3dbb
00000370: 311b 56bb 913b 65ba 9661 ecba 2082 23bb
00000380: a3d2 8539 b6ae 63bb 6854 a3ba ae2c 2fb9
00000390: db8d f0ba 7e08 7dba e863 9fba 9053 1ebb
000003a0: 2bd0 09bb 374a 2939 da29 8cba 6ab5 0fbb
000003b0: 2253 48bb 58c4 c7ba 0da0 86ba 6df7 f3ba
000003c0: 9696 d8b9 bbcd 63ba 6236 64ba 6a1a 80bb
000003d0: b94f 94bb e143 48bb 054a aeba 1665 1cbb
000003e0: 00e6 d7b9 5386 4eba 6c32 e5ba 202a 5c3a
000003f0: acd2 08bb d9d5 95ba 02a9 86ba 4ecb 9e3a

exp_avg_sq f4 [32, 16, 3, 3]
4.9129067e-06 6.697058e-06 3.9232177e-06 8.647858e-06 8.506308e-06 2.4933245e-06 1.8498482e-05 1.1620177e-05
3.2166452e-06 1.4586031e-05 9.723464e-06 1.3090817e-06 2.6049342e-05 1.8474486e-05 3.3668e-06 2.066233e-05
2.6060987e-05 1.1115686e-05 4.0073952e-05 2.331437e-05 3.341464e-06 5.6277226e-05 3.1135565e-05 5.103574e-06
6.273966e-05 3.893617e-05 1.6187321e-05 0.0 0.0 0.0 0.0 0.0
0.0 0.0 0.0 0.0 4.047651e-06 1.575147e-06 1.6491638e-06 8.271966e-06
3.0987246e-06 1.2113455e-06 1.5158685e-05 9.243355e-06 3.157655e-06 0.0 0.0 0.0
0.0 0.0 0.0 0.0 0.0 0.0 1.51872455e-05 5.478968e-06
2.941728e-07 2.1422851e-05 6.816873e-06 1.6145758e-06 1.832253e-05 1.1286849e-05 7.8182275e-06 1.12007265e-05
1.0055966e-05 1.1032001e-05 1.9267667e-05 1.4108641e-05 7.999249e-06 4.4474767e-05 3.15073e-05 1.4060958e-05
6.3663094e-05 3.8100654e-05 5.990824e-06 8.7406035e-05 5.157559e-05 9.54772e-06 9.402825e-05 5.5558474e-05
2.387602e-05 3.668489e-05 1.5101451e-05 7.804294e-06 3.919793e-05 1.0132894e-05 8.330894e-06 3.6069716e-05
8.548226e-06 1.790507e-05 1.0815355e-05 1.11020645e-05 6.8667923e-06 1.30440185e-05 1.2599808e-05 6.285767e-06
2.0319041e-05 1.8208784e-05 7.3741235e-06 5.6933393e-05 3.9048562e-05 7.5785283e-06 8.3937135e-05 5.8452304e-05
1.4807285e-05 7.911064e-05 4.7335638e-05 2.7411666e-05 6.3782085e-05 4.66899e-05 1.7789047e-05 9.8374156e-05
9.632034e-05 4.376935e-05 4.3867665e-05 7.695318e-05 6.8230125e-05 3.3938475e-05 3.3794684e-05 3.5592042e-05
2.953122e-05 3.3750024e-05 3.2403706e-05 3.957618e-05 3.8634098e-05 3.4049674e-05 3.3285574e-05 1.0934042e-05
1.9692516e-06 4.690475e-05 1.3455499e-05 1.6882541e-06 6.261511e-05 3.2568532e-05 9.625556e-06 3.7707927e-05
4.3975557e-05 1.8203498e-05 4.830305e-05 6.5467575e-05 2.7909246e-05 3.3049397e-05 5.9036127e-05 3.7060494e-05
4.3638247e-06 2.4712133e-06 1.2446609e-05 3.8387784e-06 9.267988e-06 2.0931673e-05 6.4816945e-06 1.2467021e-05
1.2009439e-05 7.1803006e-06 9.616771e-06 9.576954e-06 5.159836e-06 9.322585e-06 1.0005959e-05 3.975817e-06
1.3377816e-05 1.1260517e-05 2.534262e-05 3.3675035e-05 4.1651387e-05 2.728268e-05 3.9290167e-05 3.948565e-05
2.7654452e-05 3.4329965e-05 2.6608579e-05 0.0 0.0 0.0 0.0 0.0
0.0 0.0 0.0 0.0 4.9093987e-06 2.8207035e-06 3.2484043e-06 6.1408e-06
4.145848e-06 1.0092784e-05 6.529544e-06 7.789584e-06 7.662097e-06 0.0 0.0 0.0
0.0 0.0 0.0 0.0 0.0 0.0 1.0680912e-05 1.5727406e-05
1.473627e-05 1.2664733e-05 1.1742629e-05 6.1802903e-06 1.1225073e-05 1.16024985e-05 6.1754477e-06 1.247683e-05
6.5125255e-06 9.669143e-06 1.4990316e-05 1.0846718e-05 3.3669494e-05 1.5993408e-05 2.1698072e-05 2.7752987e-05
3.7268568e-05 5.1469175e-05 7.1635586e-05 3.9799754e-05 6.259695e-05 6.305972e-05 4.373729e-05 5.4678854e-05
3.7377387e-05 2.3413155e-05 3.3956927e-05 2.59858e-05 3.458135e-05 3.39078e-05 8.2119e-06 3.528901e-05
2.13557e-05 4.9918303e-06 7.0272054e-06 8.819279e-06 1.4598998e-05 6.5426075e-06 1.3260584e-05 2.0341373e-05
6.937162e-06 1.2679282e-05 1.3531e-05 3.43214e-05 5.3644464e-05 7.977293e-05 3.4101697e-05 6.0185936e-05
5.559652e-05 3.734558e-05 4.6227506e-05 3.19903e-05 2.6340495e-05 4.0311163e-05 5.0108836e-05 1.25622055e-05
00000000: 8cd9 a436 4ab7 e036 2fa4 8336 4416 1137
00000010: 51b6 0e37 fd52 2736 302d 9b37 48f4 4237
00000020: 8bdd 5736 87b6 7437 f621 2337 b4b3 af35
00000030: 8984 da37 a8f9 9a37 2ff1 6136 0454 ad37
00000040: 8b9d da37 827d 3a37 1415 2838 3a93 c337
00000050: ea3d 6036 360b 6c38 8f97 0238 5e3f ab36
00000060: 1993 8338 654f 2338 02ca 8737 0000 0000
00000070: 0000 0000 0000 0000 0000 0000 0000 0000
00000080: 0000 0000 0000 0000 0000 0000 0000 0000
00000090: 0fd1 8736 a469 d335 d658 dd35 d3c7 0a37
000000a0: aff3 4f36 8495 a235 0e52 7e37 e813 1b37
000000b0: 1ae8 5336 0000 0000 0000 0000 0000 0000
000000c0: 0000 0000 0000 0000 0000 0000 0000 0000
000000d0: 0000 0000 0000 0000 b9cc 7e37 fad7 b736
000000e0: cdee 9d34 39b5 b337 7ebc e436 67b4 d835
000000f0: 55b3 9937 a65c 3d37 082b 0337 c1ea 3b37
00000100: 0cb6 2837 1516 3937 00a1 a137 27b4 6c37
00000110: 8334 0637 6b8a 3a38 b526 0438 5be7 6b37
00000120: dd82 8538 44ce 1f38 c904 c936 c24d b738
00000130: de52 5838 252f 2037 0831 c538 7507 6938
00000140: 5d49 c837 1ade 1938 3d5c 7d37 30ef 0237
00000150: 7568 2438 7300 2a37 ebc4 0b37 9049 1738
00000160: 5a6a 0f37 d832 9637 9973 3537 0143 3a37
00000170: 4c69 e636 a2d7 5a37 c363 5337 54ea d236
00000180: cf72 aa37 11bf 9837 3d6f f736 c4cb 6e38
00000190: 13c8 2338 104b fe36 6807 b038 af2a 7538
000001a0: ce6c 7837 34e8 a538 418a 4638 1bf2 e537
000001b0: bfc2 8538 e6d4 4338 b039 9537 394e ce38
000001c0: 97ff c938 fb94 3738 8cfe 3738 ed61 a138
000001d0: c516 8f38 2959 0e38 c4be 0d38 aa48 1538
000001e0: d0b9 f737 d08e 0d38 37e9 0738 9afe 2538
000001f0: 0c0b 2238 8fd0 0e38 1d9c 0b38 5a71 3737
00000200: 7c27 0436 98bb 4438 eebe 6137 f897 e235
00000210: 3b50 8338 329a 0838 737d 2137 9428 1e38
00000220: 6572 3838 b7b3 9837 0199 4a38 a34b 8938
00000230: a61e ea37 859e 0a38 8f9d 7738 6771 1b38
00000240: f86c 9236 1fd7 2536 c7d1 5037 dbce 8036
00000250: b57d 1b37 6d96 af37 557d d936 7329 5137
00000260: 267c 4937 50ee f036 b857 2137 b4ac 2037
00000270: a722 ad36 3368 1c37 44df 2737 0268 8536
00000280: 4871 6037 8deb 3c37 dd96 d437 4b3e 0d38
00000290: d6b2 2e38 1cdd e437 7fcb 2438 659d 2538
000002a0: 7cfb e737 85fd 0f38 7d35 df37 0000 0000
000002b0: 0000 0000 0000 0000 0000 0000 0000 0000
000002c0: 0000 0000 0000 0000 0000 0000 0000 0000
000002d0: 6abb a436 514b 3d36 29ff 5936 120d ce36
000002e0: 901c 8b36 2d54 2937 5b18 db36 02b0 0237
000002f0: 758c 0037 0000 0000 0000 0000 0000 0000
00000300: 0000 0000 0000 0000 0000 0000 0000 0000
00000310: 0000 0000 0000 0000 2b32 3337 59ee 8337
00000320: cc3b 7737 9d7a 5437 3502 4537 4a60 cf36
00000330: 5253 3c37 5aa8 4237 b136 cf36 9453 5137
00000340: 2b86 da36 a738 2237 eb7e 7b37 4dfa 3537
00000350: 5838 0d38 9529 8637 4104 b637 16cf e837
00000360: d250 1c38 9be0 5738 103b 9638 a9ee 2638
00000370: 7b46 8338 ee3e 8438 8f72 3738 f956 6538
00000380: aac5 1c38 5e67 c437 f96c 0e38 15fc d937
00000390: 710b 1138 3938 0e38 d8c5 0937 4903 1438
000003a0: 0425 b337 7f7f a736 3ccb eb36 84f6 1337
000003b0: 38ee 7437 9288 db36 c679 5e37 c4a2 aa37
000003c0: c5c5 e836 1ab9 5437 3403 6337 53f4 0f38
000003d0: 4e00 6138 c44b a738 6b08 0f38 2870 7c38
000003e0: 4f30 6938 83a3 1c38 68e4 4138 532d 0638
000003f0: c8f5 dc37 c813 2938 f42b 5238 43c2 5237

exp_avg f4 [32]
-0.0026206358 -0.0028104854 -0.001813974 -0.0007768192 -0.00029133502 0.0031570247 0.0037033213 0.0009866715
-0.001397163 0.0025639257 -0.00019334469 -0.002116132 -0.0010189742 0.0013950327 -0.00052313367 0.0012047822
-0.0009718399 -0.0007969994 0.0 0.0018666908 -0.0016136991 -0.0022364112 -0.0018679431 0.0011933277
-1.46862285e-05 0.00050552824 6e-45 -0.002872826 0.0 0.0050104586 0.0017057012 0.000831707
00000000: f9be 2bbb 1f30 38bb dec2 edba 74a3 4bba
00000010: 53be 98b9 16e6 4e3b 6cb3 723b 3453 813a
00000020: 0321 b7ba 8907 283b 92bc 4ab9 ceae 0abb
00000030: 1a8f 85ba 88d9 b63a e822 09ba c8e9 9d3a
00000040: 12c3 7eba b9ed 50ba 0000 0000 c0ab f43a
00000050: c282 d3ba c190 12bb c5d5 f4ba 6f69 9c3a
00000060: df64 76b7 6d85 043a 0400 0000 0646 3cbb
00000070: 0000 0000 c62e a43b d691 df3a e906 5a3a

exp_avg_sq f4 [32]
0.00013369958 2.9768784e-05 3.563036e-05 3.5044694e-05 8.321404e-05 6.271928e-05 7.338435e-05 3.3795848e-05
6.52668e-05 8.62907e-05 3.1618732e-05 3.1278913e-05 2.6380565e-05 3.4571833e-05 8.0268444e-05 0.00010783406
3.685327e-05 5.8106565e-05 0.0 5.3018503e-05 3.4782086e-05 2.9479794e-05 6.4036074e-05 7.8035795e-05
8.158849e-05 4.7953643e-05 7.221651e-11 0.000100865196 0.0 8.560769e-05 4.817616e-05 0.00012316051
00000000: b531 0c39 fab7 f937 cf71 1538 f4fc 1238
00000010: 3383 ae38 2888 8338 ece5 9938 04c0 0d38
00000020: d9df 8838 f8f6 b438 5b9e 0438 7a31 0338
00000030: d54b dd37 3901 1138 cb55 a838 f824 e238
00000040: e692 1a38 73b7 7338 0000 0000 2f60 5e38
00000050: fbe2 1138 604b f737 1b4b 8638 26a7 a338
00000060: 7d1a ab38 d521 4938 48ce 9e2e 9787 d338
00000070: 0000 0000 4788 b338 c210 4a38 a624 0139
