07_RNN/logs/rnn/version_5/checkpoints/epoch=20-step=4977.ckpt (torch, 62024 bytes, 15 tensors)

rnn.weight_ih_l0 f4 [64, 1]
-0.25683838 0.10896435 -0.21988726 0.17332448 0.51705587 0.25442275 -1.883973 -0.20298916
-0.030330392 0.042080536 -0.37921733 -0.030256653 0.7161088 0.08243135 0.38853654 1.6932691
0.045943417 -0.33654815 0.26892895 -0.07592893 2.171207 -1.9892588 -0.1648189 0.6489698
0.3213755 0.4980769 -0.15320693 0.37036112 -0.22636563 -0.25736824 0.07635497 0.16525277
0.41878906 -0.15927163 -0.24560353 -0.27154455 0.04401256 0.34724766 0.20175129 -0.1523808
0.05386827 0.027393835 -0.21860783 0.37336424 -0.107747026 -0.13714 0.22918579 -0.3040404
0.25039878 -0.19255231 -1.5355836 0.986405 0.092635095 0.06328392 0.21909863 0.16239795
-1.0082073 -0.50120914 -0.16312024 -0.24383973 -0.76041746 0.48916677 -0.29788062 0.7511891
00000000: 5280 83be b328 df3d 202a 61be f97b 313e
00000010: c65d 043f b343 823e 0726 f1bf 64dc 4fbe
00000020: 7177 f8bc a45c 2c3d c628 c2be cddc f7bc
00000030: e852 373f c5d1 a83d 43ee c63e 0bbd d83f
00000040: 2a2f 3c3d 0a50 acbe 0eb1 893e a080 9bbd
00000050: 0ef5 0a40 08a0 febf 49c6 28be e322 263f
00000060: 548b a43e ef03 ff3e 47e2 1cbe f99f bd3e
00000070: 64cc 67be c5c5 83be ff5f 9c3d 0638 293e
00000080: 856b d63e 1a18 23be 7e7f 7bbe e307 8bbe
00000090: 8446 343d 72ca b13e e497 4e3e b609 1cbe
000000a0: faa4 5c3d 0969 e03c bbda 5fbe 9929 bf3e
000000b0: 79aa dcbd 6e6e 0cbe aeaf 6a3e 2fab 9bbe
000000c0: 4534 803e 6f2c 45be 018e c4bf 0a85 7c3f
000000d0: 78b7 bd3d 009b 813d 645b 603e a64b 263e
000000e0: f00c 81bf 3e4f 00bf fe08 27be 1fb1 79be
000000f0: b8aa 42bf 1174 fa3e cf83 98be ee4d 403f

rnn.weight_hh_l0 f4 [64, 64]
-0.23468427 -0.51090676 0.42750293 -0.46181992 -0.13850787 -0.19464593 0.31118032 0.47033468
-0.1431775 -0.07503138 -0.18968952 0.070105836 -0.1469635 -0.26468503 -0.0734471 0.02626475
0.38924944 -0.17049521 -0.015710762 -0.37809202 -0.62773746 0.19759244 -0.13268678 -0.08738839
0.07500147 -0.5952117 0.23268193 -0.033171494 -0.1981662 -0.13385183 0.17605725 -0.3807078
-0.3475299 0.68603134 0.18363011 0.11889273 -0.5799366 -0.4840678 -0.46358088 -0.19318423
0.40157023 -0.540514 0.46886772 0.05450998 0.25845328 0.62128377 -0.51329935 -0.20025535
-0.019767726 0.6465035 0.3139462 -0.18329991 -0.76593083 0.201326 -0.039519154 0.40183648
0.20372178 -0.12190666 -0.26148352 0.6283002 -0.037367713 0.040095463 -0.07658095 -0.040214293
0.09108739 -0.72862524 0.629018 -0.5052312 0.38919112 -0.09371289 0.5673934 0.6617904
-0.52194977 -0.54629993 0.037776925 -0.2280121 0.18767841 -0.020443862 -0.18389243 0.09749592
0.13748507 0.39379436 -0.8330208 -0.2296206 -0.32008687 0.44247997 0.40252155 0.1958103
0.50461847 -0.503022 -0.0019998043 -0.53746045 0.1702602 0.078916155 -0.05000052 -0.26828885
-0.810492 0.25962543 0.6084123 0.43423843 -0.2157368 -0.19706656 -0.36926463 0.0035860008
-0.046932742 -0.21703967 0.21914661 -0.29190424 -0.20376867 0.45180136 -0.46157777 -0.09513675
-0.12724966 0.18313965 0.5336581 0.22131607 -0.26803547 0.30411035 0.06986803 0.18950957
0.16333635 0.2585282 0.005346194 0.23982114 -0.7735248 -0.17486356 0.79601353 0.13613774
-0.28841507 0.09742593 -0.72487706 0.052358866 -0.80132127 -0.23757249 -0.20417511 -0.28107148
0.32108226 0.32753485 -0.6387846 0.29952192 -0.4666088 -0.06823077 0.052207172 -0.6685454
0.071655184 -0.5041478 0.45842975 -0.6192981 0.06060496 -0.29254076 -0.43063527 -0.7104709
-0.5333567 0.17646639 0.16154839 0.47749802 -0.16105394 -0.54358983 0.1851737 0.004106192
0.4603927 0.021780914 -0.40441966 -0.588152 0.023100369 -0.079171374 0.108134046 -0.2260438
0.11889525 0.076743856 -0.16510409 0.507157 0.2791346 -0.05070981 0.28760585 -0.18707345
0.20402454 -0.060081027 -0.21224682 -0.44431606 0.0010480481 0.109005235 0.53902185 0.032146107
-0.009021768 -0.4200402 -0.015531925 -0.06812389 0.6912809 0.72627544 -0.47636464 -0.781899
0.05777647 -0.1588656 0.81646866 -0.3758586 0.31316003 -0.11104007 0.70965344 0.76083064
-0.6296124 -0.57297194 0.18108359 -0.105152555 0.26672065 -0.0412507 -0.27302033 -0.017675359
-0.018277276 0.3088255 -0.6781289 -0.09481163 -0.45150778 0.57939374 0.28615832 0.19625333
0.638786 -0.37368438 -0.07370449 -0.36513993 0.12248704 0.08026907 -0.07336127 -0.401649
-0.64984214 0.121786386 0.79870653 0.42540655 -0.20389967 -0.09675297 -0.46578526 -0.011884046
-0.1276305 -0.31324726 0.49570897 -0.23923036 -0.019618154 0.5309241 -0.58879834 0.082020424
-0.16365264 0.48421988 0.5038885 0.28335005 -0.42654857 -0.06357084 -0.10135424 0.0251109
0.19588205 0.35313937 0.010566726 0.19625767 -0.4781022 0.15319976 0.49979666 0.18706723
00000000: 1351 70be c9ca 02bf aae1 da3e a973 ecbe
00000010: 02d5 0dbe 4351 47be 0753 9f3e b5cf f03e
00000020: 1f9d 12be 0daa 99bd f83d 42be a693 8f3d
00000030: 9a7d 16be cc84 87be 6f6b 96bd 2c29 d73c
00000040: b44b c73e 4c96 2ebe dbb3 80bc 4795 c1be
00000050: 67b3 20bf ac55 4a3e 0bdf 07be aff8 b2bd
00000060: 5f9a 993d cb5f 18bf 2c44 6e3e d5de 07bd
00000070: 15ec 4abe 7410 09be 5a48 343e 22ec c2be
00000080: 70ef b1be c09f 2f3f 8809 3c3e 087e f33d
00000090: ba76 14bf bcd7 f7be 795a edbe 16d2 45be
000000a0: 9d9a cd3e 205f 0abf 6e0f f03e db45 5f3d
000000b0: fd53 843e 740c 1f3f 9667 03bf bd0f 4dbe
000000c0: edef a1bc 4181 253f 8ebd a03e f9b2 3bbe
000000d0: 0b14 44bf 6728 4e3e d6de 21bd 83bd cd3e
000000e0: 719c 503e 33aa f9bd 2be1 85be 48d8 203f
000000f0: e30e 19bd 243b 243d 79d6 9cbd beb7 24bd
00000100: 078c ba3d 2f87 3abf 5307 213f d556 01bf
00000110: 0f44 c73e 8bec bfbd b240 113f 186b 293f
00000120: 809e 05bf 50da 0bbf fabb 1a3d 017c 69be
00000130: c52e 403e e379 a7bc 4c4e 3cbe f1ab c73d
00000140: e3c8 0c3e 6a9f c93e da40 55bf aa21 6bbe
00000150: 6de2 a3be bc8c e23e 4e17 ce3e 7f82 483e
00000160: ad2e 013f 0dc6 00bf 260f 03bb 0297 09bf
00000170: b158 2e3e cb9e a13d 58cd 4cbd 285d 89be
00000180: 677c 4fbf a0ed 843e e9c0 1b3f 8054 de3e
00000190: 1cea 5cbe d1cb 49be 4110 bdbe 1c03 6b3b
000001a0: 8c3c 40bd a63f 5ebe f867 603e 7974 95be
000001b0: bca8 50be 8252 e73e ec53 ecbe 0ed7 c2bd
000001c0: bc4d 02be f688 3b3e d19d 083f aea0 623e
000001d0: f23b 89be 5ab4 9b3e f816 8f3d cc0e 423e
000001e0: a541 273e cf5d 843e 202f af3b ac93 753e
000001f0: b905 46bf 6f0f 33be 8bc7 4b3f b167 0b3e
00000200: 24ab 93be 3f87 c73d 8b91 39bf 4076 563d
00000210: 6423 4dbf 3446 73be 4813 51be 9ae8 8fbe
00000220: e564 a43e a6b2 a73e 6387 23bf f05a 993e
00000230: 59e7 eebe 93bc 8bbd 30d7 553d cb25 2bbf
00000240: f4bf 923d d50f 01bf 4eb7 ea3e 528a 1ebf
00000250: e83c 783d e7c7 95be 3a7c dcbe 6ce1 35bf
00000260: 118a 08bf 9bb3 343e f16c 253e 9f7a f43e
00000270: 53eb 24be b428 0bbf 2d9e 3d3e 3c8d 863b
00000280: 98b8 eb3e e36d b23c 1810 cfbe 2191 16bf
00000290: fc3c bd3c 9a24 a2bd 6275 dd3d 0778 67be
000002a0: 5a7f f33d e22b 9d3d 0c11 29be 0bd5 013f
000002b0: bbea 8e3e 17b5 4fbd 1341 933e 2f90 3fbe
000002c0: cfeb 503e 8617 76bd 3b57 59be 657d e3be
000002d0: a95e 893a 233e df3d 56fd 093f a3ab 033d
000002e0: 0ad0 13bc 820f d7be 9d79 7ebc 8a84 8bbd
000002f0: c9f7 303f 30ed 393f 11e6 f3be 882a 48bf
00000300: 05a7 6c3d aaad 22be 1704 513f 8a70 c0be
00000310: 8356 a03e fa68 e3bd d9ab 353f ccc5 423f
00000320: 472e 21bf 4aae 12bf fa6d 393e 395a d7bd
00000330: 9c8f 883e 7ef6 28bd 52c9 8bbe eacb 90bc
00000340: 3aba 95bc 601e 9e3e db99 2dbf 9a2c c2bd
00000350: 072c e7be 2653 143f 5883 923e a2f6 483e
00000360: 7b87 233f 8f53 bfbe 61f2 96bd 9ff3 babe
00000370: 7cda fa3d 1c64 a43d 6f3e 96bd f0a4 cdbe
00000380: 0e5c 26bf 246b f93d 0878 4c3f e3ce d93e
00000390: 13cb 50be 6c26 c6bd 687b eebe 4db5 42bc
000003a0: 92b1 02be f261 a0be 91cd fd3e cef8 74be
000003b0: 40b6 a0bc a4ea 073f 7dbb 16bf 53fa a73d
000003c0: 8f94 27be abeb f73e d6fe 003f 4213 913e
000003d0: 9364 dabe 6e31 82bd d092 cfbd 60b5 cd3c
000003e0: 4e95 483e afce b43e 1020 2d3c c5f7 483e
000003f0: d0c9 f4be 66e0 1c3e 59e5 ff3e 8d8e 3f3e

rnn.bias_ih_l0 f4 [64]
-0.06178025 0.5438888 -0.6235217 0.24814615 -0.22503962 0.0003917264 -0.29186064 -0.48828486
0.31546944 0.40553987 0.09170706 -0.20236038 -0.15710382 0.599147 0.2358556 -0.035040397
-0.48581567 0.10433789 0.3706874 0.07241188 0.12245089 -0.061491083 -0.112529054 -0.1320958
-0.21255417 0.49635613 -0.6860512 0.2252464 -0.015461948 0.09366886 -0.097890444 0.59611917
0.21916154 -0.4192137 -0.4228272 -0.3837419 0.63752013 0.42723286 0.63136053 0.10358099
-0.49039605 0.37301925 -0.56012326 0.21309628 -0.5795493 -0.5531977 0.38649675 0.011036592
-0.03979927 -0.6741383 -0.2350937 -0.111099385 0.7015912 -0.5800979 -0.2625895 -0.11046917
0.10032312 -0.20706357 -0.01639569 0.04756437 0.16353019 0.05153859 -0.22279465 -0.12049043
00000000: 4a0d 7dbd 4c3c 0b3f 1e9f 1fbf 061a 7e3e
00000010: c970 66be a160 cd39 c26e 95be 7900 fabe
00000020: 3685 a13e eca2 cf3e e9d0 bb3d 8f37 4fbe
00000030: d3df 20be b361 193f 2184 713e 8586 0fbd
00000040: d5bc f8be 1baf d53d bdca bd3e ae4c 943d
00000050: 88c7 fa3d 13de 7bbd a275 e6bd 1f44 07be
00000060: cda7 59be 6422 fe3e 0da1 2fbf fea6 663e
00000070: 1c54 7dbc 76d5 bf3d c97a c8bd 449b 183f
00000080: e26b 603e 2ea3 d6be cf7c d8be d179 c4be
00000090: 8534 233f 44be da3e d8a0 213f 4522 d43d
000000a0: 3115 fbbe 61fc be3e 3d64 0fbf e935 5a3e
000000b0: 585d 14bf 5d9e 0dbf e7e2 c53e d2d2 343c
000000c0: 8f04 23bd 5494 2cbf 67bc 70be 1388 e3bd
000000d0: 7b9b 333f 4c81 14bf 2272 86be a93d e2bd
000000e0: 3576 cd3d 7908 54be 4150 86bc dbd2 423d
000000f0: 7574 273e 211a 533d 4824 64be b0c3 f6bd

rnn.bias_hh_l0 f4 [64]
0.05180551 0.47820008 -0.51767266 0.3807634 -0.092122145 -0.060054593 -0.42257074 -0.5050264
0.4728631 0.42553294 0.0672874 -0.1783153 -0.21344587 0.7113501 0.45184672 -0.052232854
-0.52681834 0.108031385 0.22853774 0.06583346 0.31078154 -0.04756606 -0.1601907 -0.028704775
-0.09525763 0.54515374 -0.6138067 0.27084967 0.17173225 0.111816935 -0.27993366 0.6219987
0.43190014 -0.470347 -0.37396047 -0.3274358 0.58679044 0.3621722 0.63090026 -0.021184104
-0.57569814 0.4731478 -0.524393 0.23064095 -0.5593126 -0.52765316 0.42059705 0.088246845
0.115907855 -0.6873723 -0.27380896 -0.010944244 0.572612 -0.5868969 -0.096095 -0.25858763
0.009475411 -0.074555516 -0.01892731 0.018532133 0.16033716 0.09597024 -0.31648827 0.019965775
00000000: 0432 543d a4d6 f43e 3286 04bf 6cf3 c23e
00000010: 89aa bcbd cefb 75bd 315b d8be 6949 01bf
00000020: 1d1b f23e 74df d93e facd 893d 4998 36be
00000030: 8e91 5abe 0a1b 363f 7458 e73e 1ef2 55bd
00000040: 91dd 06bf 8f3f dd3d cc05 6a3e b1d3 863d
00000050: c21e 9f3e a1d4 42bd 0809 24be 4726 ebbc
00000060: 6f16 c3bd 328f 0b3f 7022 1dbf cfac 8a3e
00000070: 94da 2f3e 4700 e53d 7753 8fbe 4f3b 1f3f
00000080: 0422 dd3e 52d1 f0be bf77 bfbe aaa5 a7be
00000090: e637 163f a26e b93e ae82 213f 498a adbc
000000a0: f460 13bf 6e40 f23e 9f3e 06bf 242d 6c3e
000000b0: 1c2f 0fbf 4714 07bf 7f58 d73e c3ba b43d
000000c0: 1961 ed3d a2f7 2fbf b030 8cbe 7d4f 33bc
000000d0: b396 123f e03e 16bf 75cd c4bd 9965 84be
000000e0: c13e 1b3c 90b0 98bd 720d 9bbc b3d0 973c
000000f0: 6d2f 243e 0c8c c43d c00a a2be 448f a33c

dense.weight f4 [1, 64]
0.05316636 -0.13029358 -0.03552409 -0.13223992 0.32059804 0.15379259 -0.3828299 0.057384968
-0.054372717 -0.028594717 -0.14827663 -0.050608218 0.32191435 0.09223341 -0.002694483 0.18241692
0.03951004 -0.16819465 -0.07185053 0.044210583 0.5151307 -0.49817616 0.055990078 -0.007397174
0.5168004 0.2042414 -0.06586795 0.12343133 0.08187875 -0.10099868 0.0057941237 0.042553443
-0.089994736 -0.05366252 -0.0048422487 -0.26142982 -0.019274205 -0.018341662 -0.0044478495 0.14807534
-0.010277761 0.1740145 -0.381922 -0.059785362 0.036046103 0.0065941685 0.06148081 -0.10515764
0.06316777 0.054368436 -0.14233789 0.15781239 -0.025861856 -0.026874587 0.07705965 -0.06211328
-0.12508562 -0.15996 0.1465722 -0.14599071 -0.29954237 0.12648253 0.09092735 0.26306012
00000000: f8c4 593d ae6b 05be b581 11bd e769 07be
00000010: 6d25 a43e ce7b 1d3e 4802 c4be 800c 6b3d
00000020: edb5 5ebd 783f eabc d4d5 17be 904a 4fbd
00000030: f5d1 a43e dfe4 bc3d ec95 30bb 80cb 3a3e
00000040: 48d5 213d 383b 2cbe 5f26 93bd 2816 353d
00000050: 9bdf 033f f210 ffbe da55 653d fe63 f2bb
00000060: 084d 043f a824 513e c7e5 86bd 91c9 fc3d
00000070: 0cb0 a73d 65d8 cebd a2dc bd3b 854c 2e3d
00000080: 294f b8bd 3bcd 5bbd baab 9ebb 21da 85be
00000090: f0e4 9dbc 4141 96bc 44bf 91bb 10a1 173e
000000a0: 0e64 28bc db30 323e 488b c3be 7fe1 74bd
000000b0: 14a5 133d e513 d83b 4dd3 7b3d e45c d7bd
000000c0: 1b5e 813d 70b1 5e3d 06c1 11be 9299 213e
000000d0: 3edc d3bc 1828 dcbc 73d1 9d3d 7f6a 7ebd
000000e0: 7216 00be 8ecc 23be 0617 163e 977e 15be
000000f0: 9e5d 99be a384 013e 1e38 ba3d d1af 863e

exp_avg f4 [64, 1]
8.927407e-08 -1.5438956e-11 -4.1225292e-07 1.1310312e-11 0.0005709999 -7.590403e-08 0.0030875008 1.1362687e-07
2.3284294e-07 -2.5341936e-07 -1.0015398e-06 -2.707555e-07 -0.00016902715 2.379821e-08 -8.4568586e-07 -0.00038372696
3.495597e-11 -1.5659002e-07 -1.3186166e-06 5.898125e-11 -0.0068184244 -0.007893653 2.538446e-06 1.5316149e-06
1.4034642e-10 6.5169574e-05 -1.3399449e-12 1.3272585e-06 3.2545555e-07 5.32223e-10 -1.3606558e-09 -2.1928319e-12
1.0049838e-05 2.3537607e-06 -1.2387832e-07 3.0684937e-08 9.1436844e-11 -1.2788887e-08 5.8568355e-09 2.494725e-08
3.4077054e-11 9.9605366e-08 -5.0196576e-09 -3.0559808e-09 1.3323632e-10 -3.7861741e-06 -7.813022e-07 1.2550093e-09
-2.502456e-09 -2.1019782e-06 0.0002481971 1.1296183e-05 -7.0510836e-08 8.631511e-11 -1.7041393e-10 -3.9884145e-09
-0.00075664226 -9.3737987e-07 1.3504045e-08 -2.146398e-07 -0.00028050898 -6.1911316e-09 -6.131269e-08 -0.0006988923
00000000: f0b6 bf33 70cd 87ad 9c53 ddb4 1ef9 462d
00000010: 28af 153a af00 a3b3 ab57 4a3b 0803 f433
00000020: 6103 7a34 b10d 88b4 a56c 86b5 5a5c 91b4
00000030: e13c 31b9 d16c cc32 1703 63b5 f62e c9b9
00000040: ecbc 192e 2323 28b4 52fb b0b5 7eb3 812e
00000050: 176d dfbb 6154 01bc 2c5a 2a36 e391 cd35
00000060: 0150 1a2f a6ab 8838 9a94 bcab 4124 b235
00000070: 45ba ae34 dd4b 1230 d201 bbb0 8c4e 1aac
00000080: ba9b 2837 4df5 1d36 6a03 05b4 72ca 0333
00000090: 5e12 c92e 1fb6 5bb2 453d c931 954b d632
000000a0: 5adf 152e a1e6 d533 6079 acb1 6201 52b1
000000b0: b17e 122f fa15 7eb6 aeba 51b5 b77c ac30
000000c0: acf7 2bb1 b60f 0db6 7320 8239 bd84 3d37
000000d0: be6b 97b3 16cf bd2e 425f 3baf 770a 89b1
000000e0: 6759 46ba 41a0 7bb5 6bff 6732 bd77 66b4
000000f0: 4711 93b9 c5b9 d4b1 02ab 83b3 de35 37ba

exp_avg_sq f4 [64, 1]
1.8995024e-05 3.712405e-05 0.00011849462 2.4784717e-05 0.00017420239 3.4985384e-05 0.00025940672 0.000113352915
8.054385e-05 8.81836e-05 9.22945e-06 2.028413e-05 8.0666156e-05 1.150084e-05 3.7693328e-05 0.00018044049
1.3900458e-05 9.829928e-06 4.3547872e-05 1.6030866e-05 0.0023454847 0.0017400476 2.1909616e-05 5.9425012e-05
0.0002161666 0.00014353631 5.274106e-06 3.666507e-05 1.00436955e-05 1.36583485e-05 2.6586647e-06 2.4264511e-05
3.9964365e-05 6.071074e-05 7.350812e-05 6.846488e-06 3.0751547e-05 1.06184e-05 4.7242018e-05 2.8432323e-06
1.4962584e-05 1.5365076e-05 3.91813e-05 2.874618e-05 8.9149835e-06 0.00015508107 0.000100288715 1.1545263e-05
1.5180902e-05 7.56725e-05 8.892275e-05 8.365224e-05 3.612783e-05 7.917525e-06 1.0074867e-05 6.7116475e-06
7.618917e-05 1.6096545e-05 4.735599e-06 7.3942238e-06 9.960247e-05 9.8083865e-06 4.8324546e-05 0.00013341538
00000000: 8157 9f37 a5b5 1b38 5180 f838 c6e8 cf37
00000010: 19aa 3639 45bd 1238 fb00 8839 e2b7 ed38
00000020: a6e9 a838 36ef b838 30d8 1a37 d627 aa37
00000030: 502b a938 bbf3 4037 e718 1e38 a034 3d39
00000040: 0336 6937 38eb 2437 2ca7 3638 067a 8637
00000050: b4b6 193b 4f12 e43a 8bca b737 1f3f 7938
00000060: c8aa 6239 3c82 1639 3af8 b036 d2c8 1938
00000070: 5881 2837 2926 6537 836b 3236 a48b cb37
00000080: 699f 2738 a9a3 7e38 5f28 9a38 e2ba e536
00000090: 39fb 0038 ae25 3237 bb25 4638 5cce 3e36
000000a0: cf07 7b37 40e4 8037 9a56 2438 f423 f137
000000b0: 9091 1537 429d 2239 1852 d238 87b2 4137
000000c0: 7ab1 7e37 5db2 9e38 0a7c ba38 746e af38
000000d0: f687 1738 83d5 0437 3907 2937 9d34 e136
000000e0: c0c7 9f38 1107 8737 7ce6 9e36 e61b f836
000000f0: abe1 d038 b38e 2437 16b0 4a38 6be5 0b39

exp_avg f4 [64, 64]
5.6002705e-08 5.6001152e-08 5.600326e-08 5.6001863e-08 5.6002705e-08 5.6002705e-08 5.60027e-08 -2.3351253e-08
-5.600888e-08 -5.600367e-08 5.6002705e-08 -5.6002705e-08 6.996855e-08 5.6002712e-08 -5.6002946e-08 5.6002705e-08
-5.5994615e-08 5.6002705e-08 -5.6002854e-08 5.6002705e-08 -5.6002705e-08 5.596976e-08 5.600462e-08 5.6002705e-08
-5.5976386e-08 -5.6002698e-08 -5.6000907e-08 -5.6002705e-08 5.6002705e-08 5.6002705e-08 -5.6001284e-08 5.6002428e-08
-5.610348e-08 2.9575068e-08 5.6002737e-08 5.60027e-08 5.6001284e-08 5.3018006e-08 -5.6004012e-08 5.6002705e-08
-5.5989837e-08 5.6002705e-08 -5.6002705e-08 -5.6002705e-08 -5.5969238e-08 5.672627e-08 -5.6012347e-08 5.6002705e-08
-5.6002705e-08 3.2647414e-08 5.6002705e-08 5.6002705e-08 -2.9582154e-08 -5.5977317e-08 -5.6002705e-08 -5.6002683e-08
5.6002683e-08 5.6002705e-08 5.6002698e-08 -5.6002705e-08 -5.6002705e-08 -5.6002705e-08 5.600401e-08 5.6002705e-08
1.3258541e-11 1.3258541e-11 -1.02233595e-11 1.3258541e-11 1.3258541e-11 1.3258541e-11 1.3239284e-11 -1.3191712e-11
1.0235074e-11 1.0229024e-11 1.3258507e-11 -1.3258541e-11 -1.26632186e-11 1.3258541e-11 1.0200838e-11 1.3258488e-11
-1.3258535e-11 1.3258541e-11 1.0226995e-11 1.3258541e-11 -1.3258317e-11 3.9508774e-12 -1.0222301e-11 1.3258428e-11
-1.325853e-11 1.011089e-11 -1.3258541e-11 -1.3258541e-11 1.3258541e-11 1.3258541e-11 -1.3258541e-11 1.3258541e-11
1.03223576e-11 -1.2885635e-11 -1.0203244e-11 1.3258541e-11 1.3258541e-11 1.3250677e-11 1.0233651e-11 1.3258541e-11
-1.3258535e-11 1.3258541e-11 -1.3258541e-11 -1.3258541e-11 -1.3258492e-11 -1.0558104e-11 1.0239452e-11 1.3258541e-11
-1.3258541e-11 -1.277088e-11 1.0375868e-11 1.3258541e-11 1.2835286e-11 -1.3258527e-11 -1.3258541e-11 -1.3258541e-11
1.3258541e-11 1.3258541e-11 1.3258541e-11 -1.3258541e-11 -1.3204841e-11 -1.3258541e-11 -1.0232985e-11 1.3258541e-11
-3.9290205e-07 -3.9290205e-07 3.9290143e-07 -3.9290205e-07 3.7290133e-07 -3.9289853e-07 3.9353597e-07 3.9290205e-07
-3.9290205e-07 -3.9290185e-07 4.1163162e-07 3.9290205e-07 3.9290293e-07 -3.9290205e-07 -3.9290242e-07 -3.3028678e-07
3.9290205e-07 4.116512e-07 -3.9290188e-07 -3.9290202e-07 -4.032555e-07 3.92876e-07 3.929022e-07 4.1153086e-07
3.9290205e-07 -3.9290208e-07 3.9290205e-07 -4.116296e-07 -3.9290205e-07 -3.9290202e-07 3.9290205e-07 -3.9290205e-07
-3.9290205e-07 3.9290205e-07 3.9290046e-07 -3.928265e-07 -3.9290205e-07 -3.9290205e-07 -3.9290208e-07 -3.9290205e-07
3.9290205e-07 -3.9290205e-07 3.9290205e-07 3.9290117e-07 3.9290205e-07 3.9290208e-07 -3.9290205e-07 -3.9289802e-07
3.9290063e-07 3.9290205e-07 3.928103e-07 4.1026337e-07 -3.9290205e-07 3.9290205e-07 3.9290202e-07 3.9290205e-07
-2.091049e-08 4.1163594e-07 -3.9290205e-07 3.9290205e-07 -4.1165723e-07 3.928999e-07 3.9290208e-07 -3.801237e-07
-3.0050554e-12 -3.0050554e-12 -1.3327392e-11 -3.0050554e-12 -3.0050554e-12 -3.0050554e-12 -3.0100779e-12 2.9952022e-12
1.3351143e-11 1.33378525e-11 -3.0050728e-12 3.0050554e-12 7.316332e-13 -3.0050554e-12 1.3311888e-11 -3.0050888e-12
3.0050554e-12 -3.0050554e-12 1.3337355e-11 -3.0050554e-12 3.0052193e-12 -7.0087317e-12 -1.3336643e-11 -3.005107e-12
3.0050554e-12 1.3174898e-11 3.0050554e-12 3.0050554e-12 -3.0050554e-12 -3.0050554e-12 3.0050554e-12 -3.0050554e-12
1.35491965e-11 2.7861767e-12 -1.3311166e-11 -3.0050554e-12 -3.0050554e-12 -3.0012947e-12 1.33443595e-11 -3.0050554e-12
3.0050554e-12 -3.0050554e-12 3.0050554e-12 3.0050554e-12 3.0050545e-12 -1.3743507e-11 1.3350492e-11 -3.0050554e-12
3.0050554e-12 2.8774964e-12 -4.1790594e-12 -3.0050554e-12 -2.9686817e-12 3.0050554e-12 3.0050554e-12 3.0050554e-12
-3.0050554e-12 -3.0050554e-12 -3.0050554e-12 3.0050554e-12 3.0270435e-12 3.0050554e-12 -1.3342096e-11 -3.0050554e-12
00000000: a087 7033 eb85 7033 3c88 7033 b386 7033
00000010: a087 7033 a087 7033 9f87 7033 f395 c8b2
00000020: 6a8e 70b3 b088 70b3 a087 7033 a087 70b3
00000030: 9e41 9633 a287 7033 e487 70b3 a087 7033
00000040: bb7e 70b3 a087 7033 ca87 70b3 a087 7033
00000050: a087 70b3 6763 7033 bb89 7033 a087 7033
00000060: b06a 70b3 9e87 70b3 a685 70b3 a087 70b3
00000070: a087 7033 a087 7033 1086 70b3 5287 7033
00000080: 6ef6 70b3 430c fe32 a987 7033 9f87 7033
00000090: 1086 7033 eab5 6333 1089 70b3 a087 7033
000000a0: 7a79 70b3 a087 7033 a087 70b3 a087 70b3
000000b0: d462 70b3 32a3 7333 3a92 70b3 a087 7033
000000c0: a087 70b3 3638 0c33 a087 7033 a087 7033
000000d0: d81b feb2 b66b 70b3 a087 70b3 9a87 70b3
000000e0: 9a87 7033 a087 7033 9e87 7033 a087 70b3
000000f0: a087 70b3 a087 70b3 0f89 7033 a087 7033
00000100: 293f 692d 293f 692d ebd9 33ad 293f 692d
00000110: 293f 692d 293f 692d 6fe8 682d 3012 68ad
00000120: ad0e 342d 6ef3 332d 023f 692d 293f 69ad
00000130: 11c6 5ead 293f 692d 7d74 332d ec3e 692d
00000140: 223f 69ad 293f 692d 4aea 332d 293f 692d
00000150: 273e 69ad 5702 8b2c 27d5 33ad a73e 692d
00000160: 1c3f 69ad 67df 312d 293f 69ad 293f 69ad
00000170: 293f 692d 293f 692d 293f 69ad 293f 692d
00000180: c497 352d beaf 62ad 537f 33ad 293f 692d
00000190: 293f 692d be1b 692d 4408 342d 293f 692d
000001a0: 223f 69ad 293f 692d 293f 69ad 293f 69ad
000001b0: f13e 69ad 79bd 39ad 6422 342d 293f 692d
000001c0: 293f 69ad eeaa 60ad c188 362d 293f 692d
000001d0: fdcc 612d 193f 69ad 293f 69ad 293f 69ad
000001e0: 293f 692d 293f 692d 293f 692d 293f 69ad
000001f0: 514d 68ad 293f 69ad 4405 34ad 293f 692d
00000200: 0cf0 d2b4 0cf0 d2b4 f6ef d234 0cf0 d2b4
00000210: 2b33 c834 90ef d2b4 2c47 d334 0cf0 d234
00000220: 0cf0 d2b4 05f0 d2b4 38fe dc34 0cf0 d234
00000230: 2bf0 d234 0cf0 d2b4 19f0 d2b4 4552 b1b4
00000240: 0cf0 d234 e900 dd34 06f0 d2b4 0bf0 d2b4
00000250: 047f d8b4 77ec d234 11f0 d234 5ff0 dc34
00000260: 0cf0 d234 0df0 d2b4 0cf0 d234 f1fd dcb4
00000270: 0cf0 d2b4 0bf0 d2b4 0cf0 d234 0cf0 d2b4
00000280: 0cf0 d2b4 0cf0 d234 d4ef d234 aae5 d2b4
00000290: 0cf0 d2b4 0cf0 d2b4 0df0 d2b4 0cf0 d2b4
000002a0: 0cf0 d234 0cf0 d2b4 0cf0 d234 edef d234
000002b0: 0cf0 d234 0df0 d234 0cf0 d2b4 7eef d2b4
000002c0: daef d234 0cf0 d234 70e3 d234 2b42 dc34
000002d0: 0cf0 d2b4 0cf0 d234 0bf0 d234 0cf0 d234
000002e0: a79e b3b2 d0fe dc34 0cf0 d2b4 0cf0 d234
000002f0: bd01 ddb4 c0ef d234 0df0 d234 ce13 ccb4
00000300: 4476 53ac 4476 53ac 3d75 6aad 4476 53ac
00000310: 4476 53ac 4476 53ac bed0 53ac c4c4 522c
00000320: 34e0 6a2d 59a4 6a2d 9476 53ac 4476 532c
00000330: baef 4d2b 4476 53ac 6a2f 6a2d de76 53ac
00000340: 4476 532c 4476 53ac 1ba2 6a2d 4476 53ac
00000350: 3879 532c 0b99 f6ac e79e 6aad 3277 53ac
00000360: 4476 532c 77c6 672d 4476 532c 4476 532c
00000370: 4476 53ac 4476 53ac 4476 532c 4476 53ac
00000380: 285c 6e2d 4c0f 442c 2a2c 6aad 4476 53ac
00000390: 4476 53ac 8532 53ac a7c1 6a2d 4476 53ac
000003a0: 4476 532c 4476 53ac 4476 532c 4476 532c
000003b0: 4076 532c 41c7 71ad 45dd 6a2d 4476 53ac
000003c0: 4476 532c 5e7c 4a2c 9f09 93ac 4476 53ac
000003d0: 04e7 50ac 4476 532c 4476 532c 4476 532c
000003e0: 4476 53ac 4476 53ac 4476 53ac 4476 532c
000003f0: 5e02 552c 4476 532c 75b7 6aad 4476 53ac

exp_avg_sq f4 [64, 64]
2.1908625e-05 1.2789488e-05 9.393063e-06 1.0827086e-05 2.104511e-05 2.2150121e-05 1.2194757e-05 1.2864031e-05
2.3928376e-05 1.8432938e-05 2.3781377e-05 2.317056e-05 1.4066475e-05 2.1170625e-05 6.619881e-06 2.3429122e-05
1.4793968e-05 2.7005912e-05 1.6477108e-05 1.5462794e-05 9.294911e-06 1.468901e-06 1.3495651e-05 2.9558109e-05
2.028125e-05 1.7115639e-05 2.2312544e-05 2.2632876e-05 2.4735511e-05 2.5466552e-05 1.8712242e-05 1.84054e-05
8.116836e-06 1.11393465e-05 1.7472714e-05 8.7595245e-06 1.8344166e-05 1.5488058e-05 6.841689e-06 1.4406303e-05
1.9268136e-05 1.240229e-05 2.537677e-05 1.7808763e-05 1.8755043e-05 1.4654669e-05 9.16169e-06 2.4024117e-05
2.17942e-05 1.4966224e-05 5.766172e-06 2.661302e-05 1.0086923e-05 2.3284236e-05 2.643094e-05 1.1806202e-05
3.4819136e-06 1.9124447e-05 1.4589416e-05 1.25355555e-05 2.4870797e-05 2.103506e-05 1.1058088e-05 1.978853e-05
8.998887e-06 4.237408e-06 4.568392e-06 4.1748485e-06 3.6522024e-06 6.1100122e-06 5.126017e-06 6.1985766e-06
6.544667e-06 3.3897466e-06 3.217817e-06 9.097893e-06 2.854859e-06 8.77378e-06 3.6254637e-06 3.7118716e-06
6.92758e-06 4.908933e-06 3.0551828e-06 2.9205487e-06 4.6493483e-06 2.990632e-06 2.4964302e-06 6.1787655e-06
3.7709415e-06 4.785815e-06 1.0305089e-05 3.3563708e-06 1.10510255e-05 6.645378e-06 8.915141e-06 4.9549644e-06
3.154825e-06 4.9584764e-06 5.5010737e-06 2.5951028e-06 5.386963e-06 5.2735318e-06 4.36186e-06 6.6421712e-06
7.3157125e-06 3.850769e-06 4.093159e-06 7.7678815e-06 9.8815e-06 5.8121773e-06 5.2851215e-06 7.896492e-06
9.8310675e-06 4.8838415e-06 5.2457544e-06 1.8735225e-06 4.345019e-06 8.676134e-06 6.9877005e-06 4.388713e-06
4.0702694e-06 2.7684937e-06 8.863908e-06 3.9756856e-06 2.22919e-06 1.3179815e-06 2.957e-06 3.9851434e-06
2.2961949e-05 2.7003727e-05 2.7711729e-05 2.5447383e-05 1.9493502e-05 1.4540497e-05 2.7720054e-05 3.1638232e-05
2.971477e-05 2.1958474e-05 1.5524012e-05 2.458687e-05 1.6544185e-05 3.4320914e-05 2.2973141e-05 1.3334581e-05
3.1410567e-05 2.5568535e-05 1.6704067e-05 1.0423293e-05 2.8598743e-05 1.9021565e-05 1.8959661e-05 2.6664791e-05
1.9986517e-05 2.8758997e-05 3.8661783e-05 2.1245974e-05 3.4613233e-05 2.2475922e-05 3.257869e-05 2.766732e-05
1.606599e-05 3.012347e-05 2.6177899e-05 1.1768377e-05 2.7855956e-05 2.8801627e-05 2.7869977e-05 2.8505521e-05
2.9518673e-05 2.1000636e-05 2.3965913e-05 1.8706542e-05 3.8356335e-05 3.2660493e-05 3.041248e-05 1.9755287e-05
2.775534e-05 2.731484e-05 2.859441e-05 1.66263e-05 2.3494813e-05 2.946737e-05 2.0329582e-05 2.6317206e-05
2.2395123e-05 2.2437282e-05 3.2467586e-05 2.346649e-05 1.5341624e-05 1.3633374e-05 1.5423298e-05 1.5179437e-05
1.7595725e-05 6.848148e-06 7.626271e-06 8.25174e-06 7.5486046e-06 1.1512709e-05 6.8316413e-06 8.467679e-06
1.2152646e-05 5.43908e-06 8.703878e-06 1.760103e-05 4.0515934e-06 1.6396969e-05 5.352419e-06 8.8236775e-06
1.3868517e-05 9.7800485e-06 6.352299e-06 5.9753047e-06 7.0720853e-06 4.9543664e-06 4.3624254e-06 1.503542e-05
5.527354e-06 6.8711824e-06 1.8903087e-05 6.420469e-06 2.1029577e-05 1.5244132e-05 1.644975e-05 8.527284e-06
5.933075e-06 9.3279095e-06 1.1960218e-05 5.9600643e-06 8.956182e-06 9.521661e-06 6.5926793e-06 1.2827808e-05
1.43346015e-05 7.4780937e-06 6.275415e-06 1.8129165e-05 1.7811693e-05 9.767041e-06 7.150791e-06 1.5759208e-05
1.933566e-05 8.202123e-06 9.29149e-06 4.9662303e-06 7.170126e-06 1.6866754e-05 1.4914147e-05 8.731903e-06
7.716674e-06 3.310943e-06 1.7551127e-05 6.8783565e-06 5.954463e-06 5.7544617e-06 6.2241197e-06 9.0151925e-06
00000000: 6ac8 b737 6f92 5637 e696 1d37 fba5 3537
00000010: 088a b037 06cf b937 1598 4c37 98d2 5737
00000020: ccb9 c837 6fa0 9a37 1e7e c737 665e c237
00000030: 0dff 6b37 9297 b137 5820 de36 a889 c437
00000040: 9c33 7837 c18a e237 5238 8a37 19b6 8137
00000050: 57f1 1b37 0e27 c535 616b 6237 8ef3 f737
00000060: a721 aa37 8e93 8f37 d32b bb37 bbdb bd37
00000070: 1b7f cf37 01a1 d537 3cf8 9c37 4c65 9a37
00000080: 8c2d 0837 21e3 3a37 5e92 9237 dff5 1237
00000090: cce1 9937 5aec 8137 a991 e536 9ab2 7137
000000a0: 02a2 a137 6e13 5037 33e0 d437 0764 9537
000000b0: 2654 9d37 53dd 7537 29b5 1937 6687 c937
000000c0: b0d2 b637 7117 7b37 0a7b c136 063f df37
000000d0: 013b 2937 8452 c337 03b8 dd37 4013 4637
000000e0: d2aa 6936 706d a037 11c5 7437 cd4f 5237
000000f0: a1a1 d037 7374 b037 2086 3937 8bff a537
00000100: edf9 1637 0f2f 8e36 304a 9936 ad15 8c36
00000110: 5c18 7536 9b04 cd36 2700 ac36 5efd cf36
00000120: 439a db36 677b 6336 adf1 5736 27a3 1837
00000130: 1b96 3f36 1933 1337 fe4c 7336 7819 7936
00000140: 7673 e836 6ab7 a436 a407 4d36 a5fe 4336
00000150: 9901 9c36 abb2 4836 5888 2736 3153 cf36
00000160: 4810 7d36 d695 a036 05e4 2c37 033e 6136
00000170: cb67 3937 5dfb de36 3d92 1537 d242 a636
00000180: 7bb7 5336 fd60 a636 dd95 b836 8727 2e36
00000190: a9c1 b436 4bf3 b036 185c 9236 d1df de36
000001a0: 7e79 f536 db35 8136 f857 8936 cc52 0237
000001b0: b8c8 2537 3906 c336 d956 b136 2d7b 0437
000001c0: 1df0 2437 e1df a336 b004 b036 be75 fb35
000001d0: 6ecb 9136 b68f 1137 e477 ea36 c242 9336
000001e0: 5993 8836 5cca 3936 32b6 1437 e166 8536
000001f0: 3199 1536 80e5 b035 e070 4636 1fb8 8536
00000200: 699e c037 1086 e237 7c76 e837 d777 d537
00000210: fa85 a337 f6f2 7337 5d88 e837 4bb3 0438
00000220: fc43 f937 7733 b837 9039 8237 e73f ce37
00000230: 5ec8 8a37 cdf3 0f38 72b6 c037 97b7 5f37
00000240: d7be 0338 037c d637 b61f 8c37 b4df 2e37
00000250: 55e7 ef37 8090 9f37 900b 9f37 34ae df37
00000260: b8a8 a737 7a3f f137 c628 2238 6239 b237
00000270: ad2d 1138 ad8a bc37 1aa5 0838 1e17 e837
00000280: 73c5 8637 a9b1 fc37 9c98 db37 cb70 4537
00000290: 36ac e937 069b f137 52ca e937 241f ef37
000002a0: de9e f737 862a b037 680a c937 feeb 9c37
000002b0: cde0 2038 f0fc 0838 4e1e ff37 28b8 a537
000002c0: 24d4 e837 2c22 e537 07de ef37 b578 8b37
000002d0: ba16 c537 b230 f737 7289 aa37 c5c3 dc37
000002e0: 29dd bb37 b237 bc37 ce2d 0838 e7d9 c437
000002f0: e3b1 8037 e5ba 6437 4861 8137 2fab 7e37
00000300: 889a 9337 25c9 e536 2be5 ff36 f470 0a37
00000310: 054a fd36 b526 4137 5a3b e536 6810 0e37
00000320: 38e3 4b37 5781 b636 df06 1237 eda5 9337
00000330: ecf2 8736 398c 8937 ee98 b336 6809 1437
00000340: d4ac 6837 fd14 2437 d525 d536 7a7f c836
00000350: c04c ed36 af3d a636 f360 9236 a340 7c37
00000360: 9c77 b936 028f e636 1292 9e37 696f d736
00000370: ac68 b037 0cc1 7f37 92fd 8937 6810 0f37
00000380: ba14 c736 117f 1c37 bfa8 4837 90fc c736
00000390: 8242 1637 39bf 1f37 af36 dd36 0437 5737
000003a0: a57e 7037 56ec fa36 6891 d236 1614 9837
000003b0: 526a 9537 1fdd 2337 d4f0 ef36 a432 8437
000003c0: 0433 a237 da9b 0937 a5e2 1b37 98a3 a636
000003d0: ea96 f036 147d 8d37 c637 7a37 3d7f 1237
000003e0: dd76 0137 9131 5e36 c23a 9337 a2cc e636
000003f0: 73cc c736 7316 c136 c8d8 d036 f53f 1737

exp_avg f4 [64]
-4.3339885e-08 1.1488457e-11 3.5285024e-07 -5.001705e-12 -0.00077850965 -1.6133541e-07 0.00552701 -8.622988e-08
2.4746888e-07 3.9222348e-07 -1.6972593e-06 8.5090534e-08 0.00013154314 -5.7270894e-10 7.995943e-07 -0.003226011
-2.7156215e-11 -3.718239e-07 1.3633132e-06 -1.4067939e-09 -0.0067123594 0.005174666 -3.4271663e-06 -2.3554135e-06
5.5341082e-11 -4.7927857e-05 -9.7448525e-14 2.7172769e-06 1.1040237e-07 -2.4144446e-09 -1.4460473e-09 2.005089e-12
-5.0667995e-06 -1.0006943e-06 4.9808087e-08 -7.674655e-07 -1.8616467e-10 9.363384e-09 -2.533969e-09 1.2534421e-08
-2.6732947e-11 1.13766426e-07 -4.347084e-09 1.2362026e-08 -1.09991946e-10 1.8887288e-06 4.0054127e-07 -6.353183e-08
2.323081e-08 1.1326875e-06 0.00023001985 -1.3028609e-05 -3.1810064e-08 -7.045376e-11 1.3729328e-09 -8.5653956e-10
0.0008532953 -1.3620612e-06 1.5366753e-08 2.9530958e-07 0.00018118763 3.9256438e-08 1.1956936e-08 7.734806e-05
00000000: b524 3ab3 691b 4a2d 5e6f bd34 5bfb afac
00000010: e614 4cba 8a3b 2db4 ec1b b53b 612d b9b3
00000020: dddb 8434 c992 d234 63cd e3b5 04bb b633
00000030: d8ee 0939 cf6c 1db0 b4a3 5635 7c6b 53bb
00000040: 5cde eead 169f c7b4 16fb b635 2959 c1b0
00000050: 5af3 dbbb 3f90 a93b 45fe 65b6 b211 1eb6
00000060: 8564 732e 2506 49b8 406f dba9 765a 3636
00000070: 5816 ed33 5ceb 25b1 44be c6b0 7918 0d2c
00000080: 7a03 aab6 984f 86b5 92ec 5533 d403 4eb5
00000090: b2b0 4caf 99dc 2032 0e22 2eb1 f756 5732
000000a0: 3f25 ebad c14f f433 5b5d 95b1 c460 5432
000000b0: f6df f1ae 3a80 fd35 f909 d734 fe6e 88b3
000000c0: 178d c732 d906 9835 7c31 7139 7395 5ab7
000000d0: 899f 08b3 f1ed 9aae c7b1 bc30 9d71 6bb0
000000e0: aeaf 5f3a 11d0 b6b5 d9ff 8332 0a8b 9e34
000000f0: 2ffd 3d39 e99a 2833 296b 4d32 ec35 a238

exp_avg_sq f4 [64]
2.6001455e-05 4.457263e-05 0.00010245697 4.4154105e-05 0.00021107988 6.187128e-05 0.001261708 9.3272036e-05
8.645128e-05 7.8626545e-05 1.8621873e-05 2.9367067e-05 0.00012665722 1.2522592e-05 2.7203649e-05 0.0008884651
1.876702e-05 1.7537335e-05 4.8994872e-05 1.7208575e-05 0.0019892885 0.0019917279 2.9004785e-05 4.3645003e-05
0.00036890176 0.00010142307 8.423358e-06 3.5875295e-05 1.5273054e-05 2.2851566e-05 7.358083e-06 2.0235391e-05
3.700513e-05 6.0677445e-05 7.2245915e-05 5.0198405e-06 2.196104e-05 1.3087766e-05 3.2943513e-05 9.696659e-06
2.2131646e-05 1.7850909e-05 2.5371353e-05 3.233789e-05 8.683428e-06 0.00012097893 9.011804e-05 1.6388934e-05
2.2317978e-05 4.9673574e-05 0.00021314393 0.00010926318 2.1959333e-05 8.234328e-06 1.7142656e-05 1.0502778e-05
0.00013962731 2.022206e-05 6.519913e-06 1.3939178e-05 0.00011501783 2.1355205e-05 4.6177855e-05 0.00020786184
00000000: b31d da37 7ff3 3a38 2bde d638 1c32 3938
00000010: 5355 5d39 e4c0 8138 e55f a53a 0b9b c338
00000020: 2d4d b538 4ee4 a438 2b36 9c37 4c59 f637
00000030: 4acf 0439 2018 5237 6433 e437 e2e7 683a
00000040: de6d 9d37 241d 9337 d87f 4d38 225b 9037
00000050: b95e 023b a687 023b 4d4f f337 770f 3738
00000060: 2869 c139 19b3 d438 0c52 0d37 ce78 1638
00000070: a21e 8037 5db1 bf37 74e5 f636 2cbf a937
00000080: f535 1b38 e97f 7e38 bb82 9738 1a70 a836
00000090: f938 b837 8793 5b37 d42c 0a38 d5ae 2237
000000a0: 59a7 b937 89be 9537 91d4 d437 8ca2 0738
000000b0: 0aaf 1137 12b6 fd38 c1fd bc38 f87a 8937
000000c0: 7e37 bb37 9858 5038 637f 5f39 3924 e538
000000d0: 4f35 b837 2b26 0a37 93cd 8f37 1735 3037
000000e0: ec68 1239 8ba2 a937 a0c5 da36 50dc 6937
000000f0: ba35 f138 f423 b337 18af 4138 7df5 5939

exp_avg f4 [64]
-4.3339885e-08 1.1488455e-11 3.528503e-07 -5.0017104e-12 -0.00077850965 -1.613354e-07 0.0055270097 -8.622988e-08
2.474689e-07 3.9222348e-07 -1.6972594e-06 8.5090534e-08 0.00013154314 -5.7271177e-10 7.9959426e-07 -0.0032260115
-2.7156215e-11 -3.7182386e-07 1.3633132e-06 -1.4067942e-09 -0.0067123584 0.0051746666 -3.4271668e-06 -2.3554146e-06
5.5341082e-11 -4.7927857e-05 -9.744744e-14 2.7172773e-06 1.1040243e-07 -2.4144449e-09 -1.4460474e-09 2.005089e-12
-5.0667977e-06 -1.0006943e-06 4.9808058e-08 -7.6746545e-07 -1.8616467e-10 9.363379e-09 -2.533969e-09 1.2534429e-08
-2.6732947e-11 1.13766426e-07 -4.3470836e-09 1.2362027e-08 -1.0999196e-10 1.8887288e-06 4.0054127e-07 -6.353183e-08
2.3230806e-08 1.1326875e-06 0.00023002 -1.3028609e-05 -3.1810064e-08 -7.045376e-11 1.3729328e-09 -8.5653956e-10
0.0008532954 -1.3620612e-06 1.5366755e-08 2.9530958e-07 0.00018118763 3.9256435e-08 1.1956933e-08 7.734813e-05
00000000: b524 3ab3 671b 4a2d 606f bd34 67fb afac
00000010: e614 4cba 893b 2db4 eb1b b53b 612d b9b3
00000020: dedb 8434 c992 d234 64cd e3b5 04bb b633
00000030: d8ee 0939 026d 1db0 b3a3 5635 7e6b 53bb
00000040: 5cde eead 159f c7b4 16fb b635 2c59 c1b0
00000050: 58f3 dbbb 4090 a93b 47fe 65b6 b711 1eb6
00000060: 8564 732e 2506 49b8 a06e dba9 785a 3636
00000070: 6116 ed33 5deb 25b1 45be c6b0 7918 0d2c
00000080: 7603 aab6 984f 86b5 8aec 5533 d303 4eb5
00000090: b2b0 4caf 94dc 2032 0e22 2eb1 0057 5732
000000a0: 3f25 ebad c14f f433 5a5d 95b1 c560 5432
000000b0: f8df f1ae 3a80 fd35 f909 d734 fe6e 88b3
000000c0: 158d c732 d906 9835 8631 7139 7395 5ab7
000000d0: 899f 08b3 f1ed 9aae c7b1 bc30 9d71 6bb0
000000e0: afaf 5f3a 11d0 b6b5 daff 8332 0a8b 9e34
000000f0: 2ffd 3d39 e89a 2833 266b 4d32 f635 a238

exp_avg_sq f4 [64]
2.6001462e-05 4.457263e-05 0.00010245692 4.4154098e-05 0.00021107988 6.187128e-05 0.001261708 9.327199e-05
8.645128e-05 7.8626486e-05 1.8621873e-05 2.9367067e-05 0.00012665722 1.2522596e-05 2.7203649e-05 0.0008884651
1.876702e-05 1.753734e-05 4.8994872e-05 1.7208575e-05 0.0019892883 0.0019917279 2.9004785e-05 4.3645003e-05
0.00036890182 0.00010142312 8.423358e-06 3.5875313e-05 1.5273054e-05 2.2851566e-05 7.358084e-06 2.0235391e-05
3.700513e-05 6.0677452e-05 7.224593e-05 5.0198405e-06 2.196104e-05 1.3087766e-05 3.2943513e-05 9.696659e-06
2.2131646e-05 1.7850909e-05 2.5371353e-05 3.233789e-05 8.683428e-06 0.00012097893 9.011804e-05 1.6388934e-05
2.231797e-05 4.9673574e-05 0.00021314397 0.00010926318 2.1959333e-05 8.234328e-06 1.7142656e-05 1.0502778e-05
0.00013962736 2.022206e-05 6.519913e-06 1.3939178e-05 0.00011501783 2.1355205e-05 4.6177855e-05 0.00020786184
00000000: b71d da37 7ff3 3a38 24de d638 1a32 3938
00000010: 5355 5d39 e4c0 8138 e55f a53a 059b c338
00000020: 2d4d b538 46e4 a438 2b36 9c37 4c59 f637
00000030: 4acf 0439 2418 5237 6433 e437 e2e7 683a
00000040: de6d 9d37 271d 9337 d87f 4d38 225b 9037
00000050: b85e 023b a687 023b 4d4f f337 770f 3738
00000060: 2a69 c139 1fb3 d438 0c52 0d37 d378 1638
00000070: a21e 8037 5db1 bf37 76e5 f636 2cbf a937
00000080: f535 1b38 eb7f 7e38 bd82 9738 1a70 a836
00000090: f938 b837 8793 5b37 d42c 0a38 d5ae 2237
000000a0: 59a7 b937 89be 9537 91d4 d437 8ca2 0738
000000b0: 0aaf 1137 12b6 fd38 c1fd bc38 f87a 8937
000000c0: 7a37 bb37 9858 5038 667f 5f39 3924 e538
000000d0: 4f35 b837 2b26 0a37 93cd 8f37 1735 3037
000000e0: ef68 1239 8ba2 a937 a0c5 da36 50dc 6937
000000f0: ba35 f138 f423 b337 18af 4138 7df5 5939

exp_avg f4 [1, 64]
-0.04510457 -0.04510457 0.047474872 -0.04510457 -0.045104574 -0.04510457 -0.031028297 0.04510511
-0.047473453 -0.047474682 -0.045104243 0.04510457 0.045398146 -0.04510457 -0.047423817 -0.0451031
0.04510457 -0.04510457 -0.047471996 -0.04510457 0.042125978 -0.008522934 0.047451057 -0.04510404
0.04510457 -0.047361214 0.04510457 0.04510458 -0.04510457 -0.04510457 0.04510457 -0.04510457
-0.047452133 0.045114014 0.047439925 -0.045104582 -0.04510457 -0.045104716 -0.04748045 -0.04510457
0.04510457 -0.04510457 0.04510457 0.04510457 0.04510457 0.047294118 -0.047477767 -0.04510457
0.04510457 0.045115627 -0.011622694 -0.04510457 -0.045105614 0.04510457 0.04510457 0.04510457
-0.045104545 -0.04510457 -0.04510457 0.04510457 0.044796478 0.04510457 0.047480527 -0.045104567
00000000: 92bf 38bd 92bf 38bd 0375 423d 92bf 38bd
00000010: 93bf 38bd 92bf 38bd 0e2f febc 23c0 383d
00000020: 8673 42bd d074 42bd 3abf 38bd 92bf 383d
00000030: 68f3 393d 92bf 38bd 7a3f 42bd 07be 38bd
00000040: 92bf 383d 92bf 38bd ff71 42bd 92bf 38bd
00000050: 4a8c 2c3d c7a3 0bbc 0a5c 423d 04bf 38bd
00000060: 92bf 383d d5fd 41bd 92bf 383d 94bf 383d
00000070: 92bf 38bd 92bf 38bd 92bf 383d 92bf 38bd
00000080: 2b5d 42bd 79c9 383d 5e50 423d 95bf 38bd
00000090: 92bf 38bd b9bf 38bd dc7a 42bd 92bf 38bd
000000a0: 92bf 383d 92bf 38bd 92bf 383d 92bf 383d
000000b0: 92bf 383d 7ab7 413d 0c78 42bd 92bf 38bd
000000c0: 92bf 383d 2acb 383d 1d6d 3ebc 92bf 38bd
000000d0: aac0 38bd 92bf 383d 92bf 383d 92bf 383d
000000e0: 8bbf 38bd 92bf 38bd 92bf 38bd 92bf 383d
000000f0: 837c 373d 92bf 383d f17a 423d 91bf 38bd

exp_avg_sq f4 [1, 64]
0.06767489 0.066808276 0.066799074 0.06691528 0.06780291 0.06763655 0.020265544 0.066632845
0.0670797 0.06699817 0.06774187 0.067679 0.0673746 0.06749294 0.06657032 0.06781213
0.06724238 0.067631796 0.06703487 0.06760879 0.038564734 0.03242441 0.06721654 0.06795775
0.06712448 0.06451568 0.06735294 0.06758647 0.06765542 0.067808256 0.0673437 0.06699951
0.066557914 0.066764034 0.0670323 0.067175604 0.06685016 0.066828236 0.06646328 0.06705679
0.06730784 0.06729261 0.066672094 0.06776151 0.06734867 0.06632844 0.06652581 0.06769874
0.067723006 0.06663348 0.021202216 0.067676395 0.06655907 0.067413114 0.06780578 0.06710735
0.06674421 0.06747909 0.06733164 0.06683172 0.06653714 0.067755505 0.066685654 0.06780245
00000000: 2299 8a3d c7d2 883d f4cd 883d e10a 893d
00000010: 41dc 8a3d 0885 8a3d ed03 a63c cd76 883d
00000020: 1561 893d 5636 893d 40bc 8a3d 4a9b 8a3d
00000030: b2fb 893d bd39 8a3d 0556 883d 16e1 8a3d
00000040: 5fb6 893d 8a82 8a3d 9449 893d 7a76 8a3d
00000050: 0ef6 1d3d 75cf 043d d3a8 893d 6f2d 8b3d
00000060: 8f78 893d cc20 843d 57f0 893d c66a 8a3d
00000070: ed8e 8a3d 0edf 8a3d 7eeb 893d 0a37 893d
00000080: 844f 883d 95bb 883d 3b48 893d 5d93 893d
00000090: bde8 883d 3edd 883d e61d 883d 1255 893d
000000a0: b1d8 893d b5d0 893d 618b 883d 8cc6 8a3d
000000b0: 19ee 893d 35d7 873d af3e 883d a3a5 8a3d
000000c0: 5cb2 8a3d 2277 883d 45b0 ad3c ec99 8a3d
000000d0: 1f50 883d e30f 8a3d c2dd 8a3d 946f 893d
000000e0: 30b1 883d 7a32 8a3d 2ce5 893d 12df 883d
000000f0: a044 883d 66c3 8a3d 7d92 883d 03dc 8a3d
