07_RNN/logs/rnn/version_9/checkpoints/epoch=67-step=16116.ckpt (torch, 164936 bytes, 15 tensors)

rnn.weight_ih_l0 f4 [192, 1]
-0.81871736 0.04339856 0.6459487 -0.43461657 -0.16217977 -0.9460334 -0.406932 0.7334659
-0.21742049 -0.18709669 -0.3904475 -0.5023468 0.27613807 -1.2727882 0.45102677 -0.08887892
1.6228027 0.96999013 -0.6316081 -1.4373622 0.85612196 -0.8162425 1.6306348 0.68258095
-1.9481828 0.11783059 -0.53091675 -0.4514448 0.033777114 0.5762841 -0.22102967 -0.06394945
0.096242264 -0.05846848 -0.565318 0.24074854 -0.9862602 -0.47667205 -0.12686716 0.88855124
-0.4127321 -0.5202061 -0.94508827 -0.47927943 -0.7159971 -1.1641583 -0.1333205 0.12562011
-1.9151757 -0.47189808 -0.14499567 -0.82106507 0.014544119 -0.19106813 -0.57493216 0.107173
-0.0152203925 -1.7277215 0.09632352 0.2896278 -0.016638257 -0.55063486 1.4993113 0.23143737
-0.4975607 -0.9696677 2.096711 -2.332682 -1.5313729 5.5603623 0.8988576 -3.690223
-0.92036223 -0.39681083 -1.1134819 -0.8336932 0.30110642 -1.1317207 1.3326057 0.78766793
-0.8862959 1.7512797 -4.8756604 -2.391618 1.0064464 -1.5000066 -3.3545933 -0.10073876
0.39016542 1.2919606 -0.7137022 -2.2764297 -0.67081875 2.6698623 1.2011772 -1.3369206
-3.170181 -0.7561093 -1.7931883 -1.2286749 -0.48098025 -0.11268652 0.71361285 -3.4648566
0.3859921 0.17661864 -0.39085895 0.33271578 -1.5931946 0.75244296 -1.2862056 0.52191633
-0.74262625 0.89957446 2.7286615 -0.74979997 -2.0766234 0.016707186 1.163716 0.2394101
-0.5343836 -0.9075262 -2.7959263 -1.7729554 -2.5705674 -1.3155553 -0.14255594 -2.1845393
-0.26154178 0.14195105 -0.0964553 0.075193755 -0.55215365 0.047293466 -0.60892016 0.20928228
0.8499462 -0.22961946 0.31597233 0.21490192 -0.47401538 -0.13295715 0.12981889 -0.45592394
1.4702277 -0.44886678 -0.8742559 0.7569269 -0.20052013 1.0349162 -0.43541512 0.40118614
-0.09061972 -0.24213685 -0.23359007 0.8546206 0.16541345 -0.07114888 -0.7924374 -0.011888455
0.7318974 -0.0140264295 -0.21935783 -0.059682027 -0.49289164 -0.22933653 0.38712478 -0.14852405
0.39324757 0.6217387 0.17906635 -0.2622171 -0.058976553 0.17943478 -0.7810521 -0.3432239
-0.485575 0.2554051 -0.048018493 0.41058436 0.080386415 0.3716147 1.0542536 0.8609113
0.97535086 0.5560466 0.49115714 -0.10630636 0.520829 -0.0045348806 -0.40649518 -0.28868532
00000000: 7697 51bf b0c2 313d e55c 253f 1086 debe
00000010: 7412 26be 3f2f 72bf 6459 d0be 6cc4 3b3f
00000020: 7aa3 5ebe 4696 3fbe bce8 c7be cd99 00bf
00000030: f861 8d3e b9ea a2bf fbec e63e 2706 b6bd
00000040: 00b8 cf3f 4651 783f 12b1 21bf 7cfb b7bf
00000050: cf2a 5b3f 45f5 50bf a4b8 d03f a0bd 2e3f
00000060: 0e5e f9bf 2a51 f13d 29ea 07bf c623 e7be
00000070: df59 0a3d 5b87 133f 9a55 62be eef7 82bd
00000080: aa1a c53d a57c 6fbd aeb8 10bf c986 763e
00000090: 8c7b 7cbf 5c0e f4be 77e9 01be 1878 633f
000000a0: 9f51 d3be 3a2c 05bf 4ef1 71bf 1d64 f5be
000000b0: 964b 37bf 2403 95bf 2b85 08be 8fa2 003e
000000c0: 7a24 f5bf a09c f1be bf79 14be 5231 52bf
000000d0: 754a 6e3c 5da7 43be c12e 13bf 857d db3d
000000e0: f45e 79bc fa25 ddbf 4445 c53d 184a 943e
000000f0: f44c 88bc 68f6 0cbf 6fe9 bf3f ebfd 6c3e
00000100: 47c0 febe 243c 78bf 8330 0640 a94a 15c0
00000110: 0704 c4bf 7dee b140 881b 663f 9d2c 6cc0
00000120: dc9c 6bbf ca2a cbbe 9386 8ebf eb6c 55bf
00000130: 9f2a 9a3e 39dc 90bf d392 aa3f 9ba4 493f
00000140: 4ae4 62bf ef29 e03f 6905 9cc0 4510 19c0
00000150: 3cd3 803f 3700 c0bf a8b1 56c0 1f50 cebd
00000160: c3c3 c73e f75e a53f 30b5 36bf 06b1 11c0
00000170: c7ba 2bbf 06df 2a40 2dc0 993f 3720 abbf
00000180: 3fe4 4ac0 6190 41bf 3287 e5bf 3845 9dbf
00000190: 0b43 f6be 31c8 e6bd 55af 363f 36c0 5dc0
000001a0: c2a0 c53e 84db 343e aa1e c8be b959 aa3e
000001b0: cded cbbf 1aa0 403f 63a2 a4bf 4f9c 053f
000001c0: c11c 3ebf 834a 663f 64a2 2e40 e4f2 3fbf
000001d0: 66e7 04c0 82dd 883c a5f4 943f ec27 753e
000001e0: 5dcd 08bf a353 68bf 75f0 32c0 34f0 e2bf
000001f0: 2d84 24c0 1e64 a8bf 2ffa 11be 7ecf 0bc0
00000200: cee8 85be 9e5b 113e 5b8a c5bd 2fff 993d
00000210: f159 0dbf cbb6 413d 31e2 1bbf 184e 563e
00000220: 1396 593f 5d21 6bbe 20c7 a13e 400f 5c3e
00000230: 25b2 f2be eb25 08be 3eef 043e dd6e e9be
00000240: 6c30 bc3f ded1 e5be 3ccf 5fbf f6c5 413f
00000250: 2655 4dbe 2278 843f bbee debe 4568 cd3e
00000260: d596 b9bd b9f2 77be 3c32 6fbe 6ac8 5a3f
00000270: 2562 293e 81b6 91bd 2ddd 4abf cbc7 42bc
00000280: a15d 3b3f 1ccf 65bc 579f 60be 2475 74bd
00000290: 4b5c fcbe 32d7 6abe 3835 c63e b016 18be
000002a0: bf57 c93e 442a 1f3f 2b5d 373e 5241 86be
000002b0: 6691 71bd c0bd 373e 08f3 47bf 0bbb afbe
000002c0: 499d f8be 75c4 823e 0aaf 44bd 1d38 d23e
000002d0: a2a1 a43d 4844 be3e c8f1 863f af64 5c3f
000002e0: 98b0 793f 1259 0e3f f378 fb3e 26b7 d9bd
000002f0: 0d55 053f 5699 94bb 2320 d0be 90ce 93be

rnn.weight_hh_l0 f4 [192, 64]
1.483129 1.1472791 1.1704868 1.2680483 -1.1000136 0.09737655 1.5366054 -0.29833102
0.3664511 -0.1539911 0.21777484 1.2528625 0.9583746 0.85885614 -0.114903085 0.2487641
0.21300028 0.43681622 0.69921315 -0.32703528 0.08028415 -0.9412531 -0.32843447 0.41758874
-0.9299714 -0.39949447 0.08809732 -1.0237206 0.09333076 0.6019352 1.013849 0.6803637
0.25028875 -0.2933708 -0.2779395 1.2581409 0.70161897 -0.17697094 -0.4927416 0.048523933
0.8582008 -0.06793159 0.28215832 0.64337075 0.32102415 -0.4157431 0.12410617 -0.05157639
0.07479469 0.17352337 -1.2280759 -0.42869523 0.14437948 -0.629914 -0.6092666 -0.40342933
0.21594343 0.07183344 -0.3048904 0.37199607 0.49009717 0.17483331 -0.55630153 0.3325582
1.0011376 1.2743802 0.34392762 -0.03223304 -1.107916 1.1295458 -0.71819097 -0.70386714
-0.8417817 0.9804369 -0.47825852 -0.52522177 0.57806504 -0.2866174 1.0365336 0.10635642
0.33134198 -0.18531393 -1.552055 2.599675 1.3676374 -1.0723313 -0.47865704 0.36589003
-2.9243517 0.015824053 -0.86276 -1.2889757 1.0840232 -0.602032 0.6124253 -0.78057086
-1.7112503 0.024643796 -0.09753385 1.0640906 1.5344743 -1.4509736 -0.23237933 0.07622159
1.5407403 -1.5721403 0.5012337 0.71340275 0.114862226 -1.6585642 0.611721 -0.5441143
1.3135918 -0.47334114 0.065362535 -0.67244136 0.4175917 -0.379831 0.01929384 -1.94222
-0.8127902 -2.6079638 0.9202646 2.4075246 0.12711395 0.37426397 -0.6371193 -0.07711174
0.6353604 0.29549545 1.682908 0.586957 0.5143951 2.1051066 1.9677644 1.7725391
0.326391 -0.5980768 -0.006344049 0.47467098 0.92776066 -1.0412495 0.17784819 0.5512254
0.47652888 0.5789334 -2.2186623 -0.53716 -0.9060925 0.06440811 0.020982582 0.28641242
0.76864946 0.64022774 0.38058674 0.33795252 -0.034035865 0.90278834 -0.46700147 0.63527423
0.16085209 0.6764905 0.11260577 -1.0870165 0.45384455 0.23738046 0.15032545 -0.60987186
-0.7971567 0.15141195 -0.08701848 0.36743566 -0.06777787 0.19968915 -0.4434176 -0.011539619
1.9931074 0.19553903 -0.16576236 -0.21719563 0.59643745 -0.79700184 -0.76007956 0.70437974
0.04225589 0.4518507 -0.97918546 -1.7022208 0.32818493 -1.0533018 -0.55629313 0.8798247
0.27025828 0.5837307 0.9545913 0.5094057 -0.34307376 -1.8644218 -0.1445425 0.39993638
0.298036 -0.16761011 -0.35388213 1.0910518 0.28523153 1.4776297 -0.35953766 -1.1937577
0.199381 1.5762728 1.3469406 -0.8259528 -0.08095883 0.06090899 0.9881008 0.77373606
0.5971403 1.2861437 -0.28306726 0.95315427 0.011340728 -0.90337104 0.48277417 0.7205834
0.20455411 -0.55537313 0.3275992 0.6657394 0.23697163 0.26294905 0.09629641 0.61787504
0.85678923 -0.022366544 0.31582117 0.604564 0.32336727 1.0727684 0.49244887 0.28466234
-0.106923506 -0.17550002 -0.91921824 -0.17012201 1.2367301 -0.33277148 -1.5649927 -0.010976581
-0.9098686 0.6439622 -0.33116812 -0.25576848 -0.8715407 0.4428943 0.86464167 0.34017673
00000000: 2cd7 bd3f 0bda 923f 83d2 953f 684f a23f
00000010: 3fcd 8cbf 5b6d c73d 7caf c43f d8be 98be
00000020: 7b9f bb3e d8af 1dbe 5e00 5f3e cc5d a03f
00000030: 0a58 753f ffdd 5b3f 4f52 ebbd 04bc 7e3e
00000040: bf1c 5a3e 60a6 df3e a2ff 323f 2b71 a7be
00000050: 046c a43d f7f5 70bf 9028 a8be 31ce d53e
00000060: 9b12 6ebf 8a8a ccbe 5e6c b43d 4709 83bf
00000070: 3324 bf3d 6d18 1a3f cec5 813f 512c 2e3f
00000080: d925 803e b334 96be 164e 8ebe c30a a13f
00000090: 4d9d 333f df37 35be a148 fcbe 08c1 463d
000000a0: 0cb3 5b3f b81f 8bbd 0e77 903e f2b3 243f
000000b0: 475d a43e 48dc d4be 602b fe3d c441 53bd
000000c0: f52d 993d 1cb0 313e 9731 9dbf f17d dbbe
000000d0: 37d8 133e 0b42 21bf e5f8 1bbf 4a8e cebe
000000e0: 4620 5d3e 691d 933d 981a 9cbe 4576 be3e
000000f0: 04ee fa3e 8107 333e c769 0ebf 1245 aa3e
00000100: 4725 803f e41e a33f 4817 b03e cb06 04bd
00000110: 31d0 8dbf f594 903f 5ddb 37bf a330 34bf
00000120: 017f 57bf eafd 7a3f 4dde f4be ef74 06bf
00000130: 12fc 133f 84bf 92be 22ad 843f 65d1 d93d
00000140: a8a5 a93e efc2 3dbe bda9 c6bf 1361 2640
00000150: be0e af3f 2742 89bf 8912 f5be f055 bb3e
00000160: 9428 3bc0 72a1 813c d7dd 5cbf 28fd a4bf
00000170: 46c1 8a3f c51e 1abf e8c7 1c3f 7ed3 47bf
00000180: 400a dbbf c9e1 c93c d4bf c7bd 1f34 883f
00000190: a769 c43f 81b9 b9bf d9f4 6dbe 111a 9c3d
000001a0: fa36 c53f e53b c9bf da50 003f 90a1 363f
000001b0: e33c eb3d d54b d4bf bf99 1c3f 134b 0bbf
000001c0: c723 a83f c559 f2be cbdc 853d 1e25 2cbf
000001d0: 94ce d53e 3579 c2be 1d0e 9e3c aa9a f8bf
000001e0: 0513 50bf e1e8 26c0 7696 6b3f e214 1a40
000001f0: 292a 023e 879f bf3e 401a 23bf c3ec 9dbd
00000200: fba6 223f 2e4b 973e 8869 d73f d042 163f
00000210: 66af 033f 11ba 0640 b4df fb3f 90e2 e23f
00000220: b91c a73e 901b 19bf bde1 cfbb 1308 f33e
00000230: b981 6d3f aa47 85bf d61d 363e 1c1d 0d3f
00000240: 98fb f33e fb34 143f 90fe 0dc0 5183 09bf
00000250: aef5 67bf 66e8 833d aae3 ab3c a6a4 923e
00000260: 36c6 443f f7e5 233f 44dc c23e 1d08 ad3e
00000270: 3169 0bbd 231d 673f d11a efbe 55a1 223f
00000280: 69b6 243e 7b2e 2d3f db9d e63d 5b23 8bbf
00000290: 505e e83e dd13 733e eaee 193e 9020 1cbf
000002a0: 7612 4cbf bc0b 1b3e bf36 b2bd 8720 bc3e
000002b0: 20cf 8abd 507b 4c3e a207 e3be ac10 3dbc
000002c0: 251e ff3f 623b 483e 9cbd 29be 8868 5ebe
000002d0: 20b0 183f 5008 4cbf 9394 42bf 3b52 343f
000002e0: 8314 2d3d fa58 e73e e6ab 7abf 5fe2 d9bf
000002f0: db07 a83e 98d2 86bf 3a69 0ebf 313c 613f
00000300: 4b5f 8a3e 606f 153f 1860 743f 6968 023f
00000310: 5da7 afbe 60a5 eebf f302 14be 76c4 cc3e
00000320: 2d98 983e fca1 2bbe 0a30 b5be 96a7 8b3f
00000330: de09 923e f822 bd3f 5215 b8be 0dcd 98bf
00000340: 882a 4c3e 4fc3 c93f 8d68 ac3f a571 53bf
00000350: becd a5bd b57b 793d 2df4 7c3f 9113 463f
00000360: 30de 183f 5ba0 a43f 31ee 90be eb01 743f
00000370: 76ce 393c 5343 67bf 2d2e f73e 2778 383f
00000380: a276 513e ef2c 0ebf 15bb a73e e66d 2a3f
00000390: b1a8 723e 42a1 863e 0d37 c53d 0f2d 1e3f
000003a0: 8a56 5b3f 0b3a b7bc 50b3 a13e b5c4 1a3f
000003b0: 6590 a53e 7a50 893f 4222 fc3e 43bf 913e
000003c0: b6fa dabd 47b6 33be e351 6bbf 7734 2ebe
000003d0: 2c4d 9e3f 0661 aabe ae51 c8bf 1ed7 33bc
000003e0: 26ed 68bf b5da 243f de8e a9be 16f4 82be
000003f0: 4b1d 5fbf 0bc3 e23e 2859 5d3f a52b ae3e

rnn.bias_ih_l0 f4 [192]
-1.1659253 0.057040077 0.21763484 -1.0661424 -1.1532313 0.072797514 -2.1118279 -0.6466051
-0.9785364 -1.1058439 -2.2566483 -1.3567389 -1.700937 -0.17465915 -1.3660285 0.023685547
-0.23955405 -1.2569559 -0.43046618 -0.9620536 -0.56763566 -1.5703219 -0.4939691 -0.6764032
-1.1335092 0.56449294 -0.6461451 -0.6303992 -1.3789618 -0.7107019 -0.46475655 -0.6283136
-0.5839096 -1.2988886 -2.126862 -0.98084265 -1.3180505 -0.55001587 -1.3216579 -1.4741133
-0.4636415 0.34522125 -1.6379213 -1.2752017 -1.2316668 -0.3265564 -3.4192839 -0.26273665
-0.7510201 -1.1664408 -0.27148846 -0.5938897 -0.45510197 -0.98349196 -0.67730176 -0.8113844
-3.2548585 -1.2030768 -2.5995584 1.520685 -3.181556 -0.81040186 -0.9684429 -1.0428736
2.928747 1.9455454 0.7771481 2.5201166 2.9743392 0.055937283 0.8547849 1.7290101
-1.0189878 3.162223 2.4740493 2.3931758 3.5082338 0.6633424 2.8513823 4.148164
-0.2542052 1.0357753 1.5302685 0.3914745 1.320417 2.2218022 1.0864494 3.1458051
1.3621681 2.172321 2.5957549 1.3892095 2.8076112 1.0519238 0.2211361 3.4658983
0.65188926 4.660796 1.0175055 2.8003395 1.4350792 2.12502 3.4407208 0.6630034
2.5018432 3.5645185 1.753797 3.747791 2.215348 1.1145079 0.36842406 1.8715785
0.9346165 2.699468 0.796472 3.0138223 2.5055132 3.7771459 1.4188066 0.32382274
0.3235423 2.678732 -0.97234654 -2.1865666 -0.22879313 2.7626216 2.1487675 2.8100193
0.004142289 -0.24855159 -0.38550198 -0.21123995 0.23080045 0.92353237 -0.8709984 0.10451596
-0.50451934 0.08107276 -0.014816275 0.087325595 0.3728424 -0.09559031 -0.43302715 -0.58138615
-0.5284246 -0.2772637 0.8034592 0.06700038 1.0149581 -0.08914172 0.43428972 -0.42766103
0.43579495 0.38099614 0.2071732 -0.43487352 -0.120402515 -1.209944 0.6188502 -0.15994616
0.07735071 0.018507963 0.15464258 -0.1893628 -0.22772059 0.4131363 -0.33977112 0.28466251
0.44049785 -0.48048 0.22897184 0.20271172 0.05421127 -0.96770036 -0.28332534 0.42582774
-0.029844273 0.2090561 0.39762095 -0.3381702 0.24134755 0.27937913 -0.32165608 -0.44815817
-0.10861223 0.11179544 -0.051030014 0.029195188 -0.2627165 -0.091518775 0.47967222 0.3461383
00000000: 0a3d 95bf dba2 693d abdb 5e3e 5b77 88bf
00000010: 159d 93bf dd16 953d 3028 07c0 e987 25bf
00000020: 5d81 7abf 4b8c 8dbf ed6c 10c0 9fa9 adbf
00000030: 4eb8 d9bf d9d9 32be 06da aebf 3108 c23c
00000040: a84d 75be eee3 a0bf 1066 dcbe 2549 76bf
00000050: 9250 11bf 4f00 c9bf 85e9 fcbe c328 2dbf
00000060: d416 91bf 9c82 103f c469 25bf d861 21bf
00000070: d281 b0bf 8ff0 35bf 92f4 edbe 29d9 20bf
00000080: 197b 15bf fb41 a6bf 821e 08c0 8118 7bbf
00000090: e1b5 a8bf d7cd 0cbf 162c a9bf bfaf bcbf
000000a0: 6b62 edbe d7c0 b03e 68a7 d1bf cf39 a3bf
000000b0: 42a7 9dbf 6732 a7be 8cd5 5ac0 6b85 86be
000000c0: da42 40bf ef4d 95bf 8900 8bbe 2809 18bf
000000d0: 2003 e9be 21c6 7bbf a663 2dbf e3b6 4fbf
000000e0: 9a4f 50c0 6cfe 99bf 2a5f 26c0 cea5 c23f
000000f0: 9d9e 4bc0 7f76 4fbf e0eb 77bf e27c 85bf
00000100: 9770 3b40 a207 f93f 2ef3 463f 9749 2140
00000110: 935b 3e40 7e1e 653d 2fd3 5a3f 3450 dd3f
00000120: 316e 82bf dd61 4a40 d356 1e40 cb29 1940
00000130: e786 6040 cfd0 293f 0c7d 3640 c2bd 8440
00000140: 2f27 82be 4994 843f d7df c33f 586f c83e
00000150: 6d03 a93f 0232 0e40 c610 8b3f df54 4940
00000160: 865b ae3f 4f07 0b40 d920 2640 9ed1 b13f
00000170: e7af 3340 70a5 863f 8071 623e 47d1 5d40
00000180: 37e2 263f 3e25 9540 9f3d 823f c338 3340
00000190: adb0 b73f 5400 0840 c534 5c40 97ba 293f
000001a0: 331e 2040 1221 6440 6c7c e03f cfdb 6f40
000001b0: 43c8 0d40 32a8 8e3f 14a2 bc3e e28f ef3f
000001c0: 0743 6f3f 15c4 2c40 97e5 4b3f 77e2 4040
000001d0: 545a 2040 c2bc 7140 749b b53f 18cc a53e
000001e0: 56a7 a53e 5870 2b40 b4eb 78bf b5f0 0bc0
000001f0: bf48 6abe cbce 3040 6885 0940 5bd7 3340
00000200: 0abc 873b 4f84 7ebe 8460 c5be 494f 58be
00000210: f456 6c3e 9e6c 6c3f c0f9 5ebf 770c d63d
00000220: 2e28 01bf 7a09 a63d f6bf 72bc c3d7 b23d
00000230: 33e5 be3e dac4 c3bd bcb5 ddbe b9d5 14bf
00000240: d646 07bf 82f5 8dbe 81af 4d3f 7f37 893d
00000250: 26ea 813f ef8f b6bd 395b de3e 63f6 dabe
00000260: 8420 df3e ed11 c33e 3625 543e bea7 debe
00000270: 9895 f6bd 72df 9abf f76c 1e3f edc8 23be
00000280: 0d6a 9e3d 039e 973c a05a 1e3e 52e8 41be
00000290: 962f 69be 9a86 d33e 7bf6 adbe 49bf 913e
000002a0: ef88 e13e 7901 f6be 9877 6a3e a993 4f3e
000002b0: a30c 5e3d 36bb 77bf 0510 91be 1806 da3e
000002c0: fa7b f4bc cd12 563e f994 cb3e a524 adbe
000002d0: d023 773e c80a 8f3e 1bb0 a4be fd74 e5be
000002e0: 1770 debd 02f5 e43d d904 51bd bf2a ef3c
000002f0: c782 86be 326e bbbd 9997 f53e 0a39 b13e

rnn.bias_hh_l0 f4 [192]
-1.100929 0.1258567 0.022608683 -1.1340141 -1.1565684 0.039957885 -1.9631929 -0.41529292
-0.89471924 -1.1167444 -2.2740874 -1.311297 -1.7424781 -0.3218982 -1.326427 -0.11305997
-0.27602682 -1.4187762 -0.5790826 -0.92420155 -0.537515 -1.4635531 -0.4980669 -0.67306423
-1.0931113 0.4685732 -0.65120465 -0.6558847 -1.3927292 -0.8269144 -0.3906527 -0.649572
-0.7375321 -1.1465975 -2.1638114 -0.97508556 -1.3502126 -0.6042462 -1.2393569 -1.5500277
-0.535792 0.26627156 -1.5954545 -1.4038112 -1.3119327 -0.3362421 -3.5128236 -0.31299323
-0.7319621 -1.1403674 -0.1752392 -0.74428964 -0.38986307 -0.8509588 -0.6869134 -0.6720076
-3.2111998 -1.3124291 -2.4228911 1.5834454 -3.1579065 -0.8493046 -1.0410972 -0.9835829
2.872637 1.7494226 0.84873843 2.564826 3.1046026 0.08134467 0.9127584 1.7300507
-1.0344975 3.160371 2.3604448 2.4472892 3.7041032 0.6485946 2.8951082 4.0841284
-0.38459143 1.1018323 1.5919639 0.45427656 1.3326248 2.3941903 1.1032739 3.2564855
1.3575861 2.252913 2.4553466 1.2977189 2.7244425 0.98701 0.19225177 3.357493
0.72364867 4.7997794 0.8471827 2.7589865 1.2939403 2.1003745 3.4380012 0.6948769
2.6201782 3.500079 1.8163981 3.8723047 2.2846766 0.9634413 0.53496474 1.8906024
1.0133466 2.622935 0.9661278 2.887199 2.362077 3.7354174 1.5341212 0.2677725
0.32140607 2.5738237 -1.0155742 -2.1845906 -0.26743978 2.6134822 2.0269961 2.9193802
0.32336205 -0.69883376 -1.5143293 -1.0559204 0.53129 -0.49540854 -0.415973 -0.63732713
-0.056639977 -0.4414157 0.06983168 -0.025032379 0.5530421 -0.97595483 0.076021045 -0.23296323
-0.46371523 0.48605925 -0.15768358 -0.39206442 0.954578 0.07176294 0.036568265 -0.1636165
0.89739436 1.4235728 0.4591603 -0.29751125 -0.47171453 -0.4759341 -0.5981393 0.55371726
0.4326372 0.043783814 -0.002800628 -0.32530156 -0.024949754 0.51803714 -0.47080475 1.1763805
0.16238335 -0.51668674 -0.6845909 0.6571055 0.11510845 -1.0700972 0.20547901 0.90338296
0.04922944 -0.2522177 -0.7396509 -0.22038887 0.008037262 -0.0064165816 -1.3602381 -0.65409493
-0.22918043 -0.025688024 0.03910283 0.60343546 -0.44163582 0.11033579 -0.22258303 -0.76503307
00000000: 3eeb 8cbf 94e0 003e d835 b93c 6027 91bf
00000010: 6f0a 94bf e1aa 233d e849 fbbf 46a1 d4be
00000020: 520c 65bf 7bf1 8ebf a68a 11c0 95d8 a7bf
00000030: 8609 dfbf d7cf a4be 5cc8 a9bf fc8b e7bd
00000040: 6353 8dbe 759a b5bf c23e 14bf 7998 6cbf
00000050: 959a 09bf b555 bbbf a002 ffbe f04d 2cbf
00000060: 12eb 8bbf d4e8 ef3e 59b5 26bf 0fe8 27bf
00000070: f344 b2bf aab0 53bf a103 c8be 5a4a 26bf
00000080: e7ce 3cbf b5c3 92bf e37b 0ac0 359f 79bf
00000090: c4d3 acbf e1af 1abf 3fa3 9ebf 4f67 c6bf
000000a0: aa29 09bf bf54 883e da37 ccbf 16b0 b3bf
000000b0: 69ed a7bf ed27 acbe 1ad2 60c0 a640 a0be
000000c0: de61 3bbf 8ff7 91bf e871 33be c489 3ebf
000000d0: 229c c7be 70d8 59bf 8ed9 2fbf b108 2cbf
000000e0: 4c84 4dc0 adfd a7bf a610 1bc0 57ae ca3f
000000f0: 241b 4ac0 076c 59bf ac42 85bf 17cc 7bbf
00000100: 49d9 3740 14ed df3f ec46 593f 1c26 2440
00000110: cfb1 4640 0998 a63d 89aa 693f 4d72 dd3f
00000120: 6a6a 84bf 8543 4a40 8711 1740 63a0 1c40
00000130: 0710 6d40 4c0a 263f 7449 3940 2eb1 8240
00000140: 2be9 c4be d708 8d3f 79c5 cb3f f096 e83e
00000150: 7393 aa3f 6a3a 1940 1438 8d3f 426a 5040
00000160: 62c5 ad3f ba2f 1040 6624 1d40 a71b a63f
00000170: 445d 2e40 b0ac 7c3f a6dd 443e 2ae1 5640
00000180: 0a41 393f cb97 9940 f7e0 583f 3c93 3040
00000190: d69f a53f 896c 0640 3608 5c40 74e3 313f
000001a0: 00b1 2740 4b01 6040 bc7f e83f d7d3 7740
000001b0: 2438 1240 17a4 763f 73f3 083f 42ff f13f
000001c0: 57b5 813f 2bde 2740 2754 773f dec7 3840
000001d0: 452c 1740 1411 6f40 155e c43f 7a19 893e
000001e0: 568f a43e 87b9 2440 56fe 81bf 55d0 0bc0
000001f0: deed 88be 4b43 2740 4eba 0140 20d7 3a40
00000200: b68f a53e c5e6 32bf 8bd5 c1bf 6628 87bf
00000210: 9f02 083f 30a6 fdbe 6afa d4be df27 23bf
00000220: 52ff 67bd 3d01 e2be e903 8f3d b410 cdbc
00000230: 2b94 0d3f 2dd8 79bf ecb0 9b3d ea8d 6ebe
00000240: 156c edbe c2dc f83e ce77 21be abbc c8be
00000250: 395f 743f 73f8 923d 9bc8 153d 158b 27be
00000260: a3bb 653f a237 b63f 0f17 eb3e 6553 98be
00000270: 9184 f1be a2ad f3be a81f 19bf 6ac0 0d3f
00000280: a082 dd3e a856 333d be8a 37bb ed8d a6be
00000290: 6d63 ccbc 159e 043f 520d f1be a393 963f
000002a0: d247 263e 9545 04bf 5941 2fbf 1138 283f
000002b0: fbbd eb3d f2f8 88bf 1769 523e 1b44 673f
000002c0: cfa4 493d ae22 81be c359 3dbf 9fad 61be
000002d0: b8ae 033c 3042 d2bb 481c aebf c472 27bf
000002e0: 46ae 6abe b16f d2bc 4a2a 203d bf7a 1a3f
000002f0: 171e e2be bbf7 e13d ceec 63be 35d9 43bf

dense.weight f4 [1, 64]
-0.0014369971 0.012421061 -0.09465179 0.013764664 0.0044860253 -0.07848409 -0.24755748 -0.05490066
0.0054687364 -0.008906036 -0.059904866 -0.05112752 -0.0074328696 -0.005502425 0.005838072 -0.044240423
0.06207877 -0.18988268 -0.62064165 0.11423579 -0.0074308184 -0.049999215 -0.19156751 0.007045657
-0.08514039 -0.012372825 0.016968003 0.0047010197 0.020398248 -0.15043439 -0.04068543 0.009237983
-0.043588888 -0.002904522 -0.08745133 0.008331724 0.008166253 -0.039714016 -0.007840632 0.007652594
-0.21437529 -0.0018254615 0.040929794 0.046804518 0.012494995 0.0134590985 -0.4027559 -0.017284423
-0.0028040218 0.006982906 0.048343986 0.015883993 -0.009110651 -0.019263936 -0.0172042 0.005266588
0.43857157 -0.099019036 0.39826918 -0.010168448 0.461954 -0.013905903 -0.057969812 -0.05612649
00000000: 9f59 bcba b581 4b3c ccd8 c1bd 2f85 613c
00000010: 82ff 923b 44bc a0bd b57f 7dbe 84df 60bd
00000020: 1633 b33b 9fea 11bc ce5e 75bd 176b 51bd
00000030: 6e8f f3bb b04d b4bb 4c4d bf3b 7235 35bd
00000040: 4f46 7e3d 9b70 42be 5fe2 1ebf 74f4 e93d
00000050: 397e f3bb facb 4cbd 462a 44be 41df e63b
00000060: 165e aebd 64b7 4abc 7b00 8b3c 030b 9a3b
00000070: 3a1a a73c 790b 1abe c4a5 26bd e95a 173c
00000080: 438a 32bd cb59 3ebb af19 b3bd c981 083c
00000090: bfcb 053c 2aab 22bd ff75 00bc 9cc2 fa3b
000000a0: 3285 5bbe 5344 efba 00a6 273d 18b6 3f3d
000000b0: cfb7 4c3c 8d83 5c3c 0536 cebe 1098 8dbc
000000c0: aec3 37bb dcd0 e43b 5804 463d 261f 823c
000000d0: d744 15bc 67cf 9dbc d3ef 8cbc 5893 ac3b
000000e0: 748c e03e 7eca cabd f0e9 cb3e 9099 26bc
000000f0: 3c85 ec3e 96d5 63bc c171 6dbd e4e4 65bd

exp_avg f4 [192, 1]
9.6930215e-08 -0.00024356427 -7.6397795e-05 8.503049e-08 1.2815636e-05 4.619624e-05 3.5298617e-05 -4.3598844e-05
7.1679196e-06 -3.658994e-08 -4.169741e-09 -7.7819556e-07 2.3413563e-08 -2.272807e-05 -1.756452e-08 2.640008e-08
0.00014000956 2.7744165e-05 -8.6749336e-05 0.00026529736 -7.194221e-05 4.192713e-07 -5.6473422e-05 -7.5008256e-07
-5.7600814e-06 4.1037533e-06 5.687347e-06 2.587521e-05 3.3841096e-07 1.1797963e-05 -6.683291e-06 1.2071339e-06
7.839545e-07 6.2786256e-09 -2.365608e-06 -1.1019414e-07 -4.2995325e-05 -8.750543e-06 1.9174873e-08 8.899567e-06
-4.09908e-05 1.812999e-08 1.0706539e-06 -6.111669e-08 5.2306456e-07 -2.0447635e-05 -1.2694431e-07 7.0987044e-06
7.208533e-06 -1.7768984e-06 0.00069776474 4.1535264e-07 1.3587901e-06 -3.456675e-08 7.028315e-07 1.1431737e-05
-5.1775416e-08 2.0235968e-06 0.00018827508 0.0004597577 -2.4842123e-07 2.126751e-07 1.1554737e-05 4.4721918e-07
-1.9583167e-06 0.00010337182 8.612616e-05 -2.4983915e-06 -2.1100417e-05 -5.7838937e-05 1.2650678e-05 -1.748334e-05
-1.5740297e-05 -2.0658315e-06 -3.0293954e-06 1.913489e-05 -9.363221e-07 0.00027797907 -2.1534712e-05 -1.7968227e-05
-0.00038882493 9.428947e-06 0.00040541345 -1.8278994e-05 2.4873083e-05 0.00014625468 -6.980397e-06 -1.6574963e-06
-4.289675e-05 -8.949869e-05 1.116914e-05 4.2551397e-05 -3.4425966e-07 2.0284215e-05 0.00019443476 5.8134638e-06
-1.2755629e-05 -5.169176e-09 -2.7418508e-05 -2.8487302e-06 2.6124791e-05 2.9034876e-05 -2.47511e-07 -3.1775995e-05
0.00012750085 7.879001e-09 4.4550984e-06 -9.918477e-06 5.4749235e-06 0.00010035506 0.00014016815 -0.00011576342
-0.00010543263 -1.4201459e-05 8.508444e-05 -5.2468363e-06 -0.00011705484 1.6438048e-06 6.6298e-05 2.7609623e-05
-0.0010902717 1.1858305e-05 -2.1485615e-05 -5.0702956e-06 9.9590834e-05 1.5659723e-06 -4.9650145e-05 3.2431915e-05
-2.9647263e-06 0.0006556804 0.0014555422 0.00021323358 6.147927e-05 -0.00045323512 0.00040915157 -3.1275938e-06
-0.0007166425 -8.9944433e-07 -7.942775e-06 -3.6914716e-05 8.267172e-07 0.0005958154 -8.194831e-05 0.00010424474
0.0008121819 -0.00033117694 -0.0009789293 -0.00042225164 -0.0002443786 -4.4844446e-06 0.00027442016 2.6863761e-05
0.00053983124 0.00010983776 0.00011135442 -0.00041771246 -3.056e-06 -0.0007324243 -0.00014911186 4.5385612e-05
-0.00015899277 -4.0469556e-07 -0.00095007074 1.3373406e-05 0.000571119 -0.00021017724 -2.406075e-06 -8.504764e-05
0.0001799041 -2.1530046e-07 0.0012206293 -7.6822784e-05 0.00013911724 0.00018743964 0.00090591074 3.9119313e-05
4.8405955e-06 -0.0010192295 -0.0013835931 1.3632835e-05 -8.93465e-05 -1.6559678e-06 -5.1452134e-06 8.4147614e-05
-0.0013360798 -1.9920817e-05 0.00021380985 0.002092937 0.0023733731 2.0599779e-05 -0.0009317829 -0.001049962
00000000: f327 d033 4965 7fb9 c137 a0b8 029a b633
00000010: bd02 5737 d6c2 4138 9a0d 1438 e7dd 36b8
00000020: f683 f036 1127 1db3 6e45 8fb1 31e5 50b5
00000030: f81e c932 29a8 beb7 cae0 96b2 64c6 e232
00000040: 88cf 1239 24bc e837 32ed b5b8 9c17 8b39
00000050: aedf 96b8 3518 e134 e0dd 6cb8 4859 49b5
00000060: b946 c1b6 f9b2 8936 f0d5 be36 970e d937
00000070: d9ae b534 deef 4537 0841 e0b6 ce04 a235
00000080: f170 5235 60bb d731 d6c0 1eb6 dea3 ecb3
00000090: e155 34b8 4ccf 12b7 feb5 a432 594f 1537
000000a0: 89ed 2bb8 45bc 9b32 63b3 8f35 413f 83b3
000000b0: b968 0c35 f686 abb7 304e 08b4 6831 ee36
000000c0: d4e0 f136 c47d eeb5 33ea 363a a2fd de34
000000d0: ac5f b635 8b76 14b3 37aa 3c35 f0ca 3f37
000000e0: ac5f 5eb3 21cd 0736 b56b 4539 a20b f139
000000f0: c15e 85b4 b05b 6434 38db 4137 5619 f034
00000100: a06b 03b6 53c9 d838 a19e b438 0aaa 27b6
00000110: cd00 b1b7 1698 72b8 403e 5437 30a9 92b7
00000120: 080a 84b7 b7a2 0ab6 9e4c 4bb6 dd83 a037
00000130: 9157 7bb5 b8bd 9139 71a5 b4b7 79ba 96b7
00000140: 33db cbb9 0531 1e37 ac8d d439 d755 99b7
00000150: 8aa6 d037 f15b 1939 2739 eab6 2477 deb5
00000160: 09ec 33b8 3eb1 bbb8 1763 3b37 3779 3238
00000170: b0d2 b8b4 0528 aa37 2fe1 4b39 4611 c336
00000180: 0201 56b7 8e9c b1b1 cc00 e6b7 d02c 3fb6
00000190: 9026 db37 ec8f f337 a7e1 84b4 3747 05b8
000001a0: c0b1 0539 365c 0732 017d 9536 8967 26b7
000001b0: 3cb5 b736 b675 d238 1afa 1239 03c6 f2b8
000001c0: b61b ddb8 cd42 6eb7 5c6f b238 fb0d b0b6
000001d0: 577b f5b8 b4a0 dc35 7809 8b38 379b e737
000001e0: 73e7 8eba 08f3 4637 023c b4b7 8221 aab6
000001f0: 6cdb d038 662e d235 703f 50b8 8107 0838
00000200: 9cf5 46b6 f7e1 2b3a e4c7 be3a 7497 5f39
00000210: 6fee 8038 30a0 edb9 6583 d639 a7e3 51b6
00000220: 10dd 3bba 5871 71b5 f541 05b7 e0d4 1ab8
00000230: 93eb 5d35 7f30 1c3a aadb abb8 f89d da38
00000240: 9be8 543a d1a1 adb9 6b4f 80ba a861 ddb9
00000250: f11f 80b9 1679 96b6 0de0 8f39 7d59 e137
00000260: 7683 0d3a b358 e638 f386 e938 6b00 dbb9
00000270: ae15 4db6 2a00 40ba e95a 1cb9 6e5c 3e38
00000280: 4cb7 26b9 ef44 d9b4 2b0e 79ba 575e 6037
00000290: 26b7 153a 0663 5cb9 0e78 21b6 9b5b b2b8
000002a0: a4a4 3c39 572d 67b4 86fd 9f3a eb1b a1b8
000002b0: 00e0 1139 728b 4439 a47a 6d3a 0b14 2438
000002c0: 666c a236 ab97 85ba ae59 b5ba 95b8 6437
000002d0: 895f bbb8 9f42 deb5 0ca5 acb6 6878 b038
000002e0: 661f afba a11b a7b7 2532 6039 a829 093b
000002f0: 988a 1b3b b0cd ac37 e442 74ba e19e 89ba

exp_avg_sq f4 [192, 1]
7.5735757e-10 8.2941135e-08 0.00012872912 2.3909392e-08 2.9610618e-09 2.3362392e-05 0.0001066469 1.0999851e-06
3.7963932e-06 1.0431932e-09 3.4155723e-11 8.562821e-09 3.5296796e-12 1.05460124e-07 1.4527372e-10 1.8996948e-08
9.220357e-07 2.4875968e-05 5.5967227e-08 4.910507e-06 5.8334115e-07 1.0116064e-08 4.0308396e-07 1.719604e-11
2.5063213e-07 1.2299994e-07 1.4012487e-09 2.4541073e-06 1.212208e-10 3.3591581e-07 3.138608e-05 6.4696255e-11
6.696218e-08 1.3777418e-13 5.2975024e-09 2.5151006e-10 1.7666214e-07 1.40030725e-08 6.6761405e-12 1.2462386e-08
9.776986e-07 3.1498738e-12 1.7709661e-08 3.1110045e-11 1.157179e-09 6.1126457e-07 1.5908256e-11 2.0221269e-07
1.7211299e-06 4.8097252e-08 0.00055189925 2.8670796e-10 2.5988225e-08 1.2912211e-09 1.6147341e-07 4.69889e-07
1.7527792e-11 8.829384e-09 1.8727823e-06 2.3649956e-05 2.537769e-11 7.377291e-10 2.5503288e-08 6.492647e-10
2.3001098e-08 1.6985986e-06 6.4988e-05 1.3215285e-08 7.726188e-09 2.2511279e-06 2.9813898e-05 6.9562816e-07
4.11168e-05 6.6185453e-09 6.269484e-08 6.0245344e-07 5.3214966e-10 8.380238e-06 4.6929554e-07 1.0139433e-07
0.00010891531 7.246858e-06 3.2790224e-06 2.5546313e-05 1.5356492e-05 5.765023e-07 8.201113e-08 2.5687712e-09
3.731412e-06 1.1451301e-05 3.042108e-08 3.9403635e-06 6.8095507e-10 0.00010008293 0.00019366824 3.3051293e-08
7.9600966e-07 3.6255786e-13 2.0580667e-07 7.441368e-09 6.0613615e-06 2.3234586e-06 1.0950105e-09 5.6038607e-07
2.5413574e-05 4.7366394e-10 2.7052857e-07 1.0105669e-09 1.7657618e-08 5.420886e-05 3.9726467e-05 1.45407275e-05
2.7533708e-06 2.7167798e-07 0.00021379322 4.830839e-09 1.525664e-06 1.8458094e-09 5.235232e-06 3.720282e-05
0.0001000547 4.4149704e-08 2.8266504e-06 0.0010683103 1.2853216e-05 1.7308304e-08 7.683626e-07 1.1097503e-08
4.7590768e-07 8.123914e-06 0.0044895783 6.9616062e-06 9.815547e-08 0.0006098136 0.0033007574 2.3089318e-05
0.0007759608 8.442169e-08 1.4748405e-06 3.6371282e-06 4.0963632e-09 7.47804e-06 2.9133676e-06 7.1715467e-06
3.2718366e-05 0.0008642375 0.0013616877 0.0002633545 0.00021208268 1.2260429e-06 5.264012e-05 1.6647245e-08
6.7171866e-05 1.2699428e-05 1.5969124e-07 6.526028e-05 8.2833054e-08 0.0020395285 0.00014870903 1.961998e-08
1.0080911e-05 8.9773466e-11 7.6945165e-05 4.7366395e-08 2.5106518e-05 9.308348e-06 1.1916887e-08 5.5508746e-05
8.6484915e-06 5.5227817e-10 0.000109581575 2.2280778e-07 8.272327e-07 3.9699324e-05 0.0010495089 3.3606668e-06
8.914547e-05 2.5801271e-05 0.00020371928 3.6644487e-08 6.344211e-06 8.4611635e-08 3.3253536e-06 0.00012730573
0.0006858958 1.3133421e-06 0.002093128 0.013661892 0.0021995413 1.3077488e-07 8.5164775e-06 7.479225e-06
00000000: 4d2e 5030 5f1d b233 76fb 0639 4f61 cd32
00000010: 8d7b 4b31 5bfa c337 9ea7 df38 33a3 9335
00000020: 8ac5 7e36 1960 8f30 ed37 162e af1b 1332
00000030: 0e61 782c 5179 e233 ebba 1f2f bb2e a332
00000040: d081 7735 bcac d037 9e60 7033 efc4 a436
00000050: e696 1c35 ecca 2d32 7067 d834 0a42 972d
00000060: 9e8e 8634 f711 0434 0e96 c030 3eb1 2436
00000070: 9f48 052f eb57 b434 8ca4 0338 c144 8e2e
00000080: d9cc 8f33 b41e 1b2a 5305 b631 e544 8a2f
00000090: 85b0 3d34 2a92 7032 54e5 ea2c 271a 5632
000000a0: 7839 8335 15a7 5d2c f51f 9832 ccd2 082e
000000b0: 9e0a 9f30 c815 2435 35ee 8b2d cd1f 5934
000000c0: 9301 e735 7d93 4e33 55ad 103a 8f9e 9d2f
000000d0: b63c df32 ce76 b130 7961 2d34 0d45 fc34
000000e0: 142d 9a2d 0bb0 1732 4f5c fb35 e563 c637
000000f0: 7a39 df2d 12c9 4a30 5312 db32 f177 3230
00000100: f393 c532 67fb e335 2b4a 8838 7009 6332
00000110: 22bc 0432 1512 1736 dc18 fa37 34bb 3a35
00000120: d474 2c38 5769 e331 daa2 8633 49b8 2135
00000130: b446 1230 d998 0c37 7df3 fb34 1fbe d933
00000140: 7669 e438 092a f336 2d0d 5c36 4a4c d637
00000150: d1d1 8037 f0c0 1a35 181e b033 4d86 3031
00000160: 2c69 7a36 f71e 4037 55a8 0233 7737 8436
00000170: f42d 3b30 9de3 d138 6c13 4b39 48f4 0d33
00000180: 5ead 5535 181a cc2a b5fb 5c34 f7ae ff31
00000190: b362 cb36 b7ec 1b36 427f 9630 706d 1635
000001a0: 3c2f d537 2333 0230 2a3d 9134 29e4 8a30
000001b0: 83ad 9732 525e 6338 f89f 2638 f3f3 7337
000001c0: 8dc6 3836 23db 9134 ae2d 6039 82fc a531
000001d0: 6ac5 cc35 a5af fd30 4daa af36 390a 1c38
000001e0: 75d4 d138 1d9f 3d33 7cb1 3d36 8c06 8c3a
000001f0: 24a4 5737 5dad 9432 7a41 4e35 56a7 3e32
00000200: 4180 ff34 f24b 0837 501d 933b be97 e936
00000210: 8ac9 d233 e6db 1f3a 8551 583b efaf c137
00000220: d969 4b3a 514b b533 22f3 c535 6315 7436
00000230: febf 8c31 e0eb fa36 4683 4336 1ea3 f036
00000240: 143b 0938 ff8d 623a a87a b23a d812 8a39
00000250: 8362 5e39 838e a435 e6c9 5c38 aeff 8e32
00000260: 9fde 8c38 a10f 5537 9877 2b34 59dc 8838
00000270: f4e1 b133 9ca9 053b c7ee 1b39 cb88 a832
00000280: 2f21 2937 f869 c52e 9f5d a138 e76f 4b33
00000290: d69b d237 0d2b 1c37 06bb 4c32 10d2 6838
000002a0: fd18 1137 1fcf 1730 29cf e538 f03c 6f34
000002b0: 000f 5e35 d382 2638 ad8f 893a d187 6136
000002c0: 9cf3 ba38 cf6f d837 7a9d 5539 0a63 1d33
000002d0: 5ce0 d436 bdb3 b533 2429 5f36 5f7d 0539
000002e0: b0cd 333a 1746 b035 dc2c 093b 21d6 5f3c
000002f0: 2e26 103b 206b 0c34 fee1 0e37 0ef6 fa36

exp_avg f4 [192, 64]
-1.5068119e-10 -4.7348814e-09 9.8330455e-09 -3.1353828e-09 -4.968339e-11 4.5375868e-09 2.4554871e-09 -3.250336e-08
4.562798e-08 -4.903245e-11 5.5384e-10 2.3351583e-09 -2.5544612e-11 -3.0928597e-09 -5.7793237e-10 -2.1346048e-11
3.906973e-08 4.796159e-10 -7.4880555e-09 1.3512208e-08 -8.60422e-09 2.474472e-09 -4.5449355e-09 6.1444246e-11
-1.0918432e-09 -1.5802774e-09 -8.596799e-11 1.1356677e-08 2.8190375e-11 1.6557225e-08 -5.2567524e-09 -1.10898644e-10
3.4346616e-08 -9.625863e-13 -3.772096e-09 2.2070738e-11 -3.2816454e-09 2.0454118e-09 3.8095506e-11 1.92447e-09
2.0059175e-10 3.660513e-11 -4.2147258e-10 -4.7935117e-10 -7.852554e-11 1.2816158e-08 -2.7829374e-08 -1.0191066e-09
-6.7183192e-09 -4.5223794e-10 1.6878571e-08 1.6867445e-10 -2.7463394e-09 6.206209e-11 3.984008e-09 2.3958721e-08
3.2119473e-08 5.5409954e-10 2.2132763e-08 -2.3520808e-08 2.356342e-08 -1.1892572e-10 -1.2949435e-09 -1.5589566e-09
8.707585e-07 2.6389023e-05 6.8412173e-06 1.5547712e-05 -2.0070199e-07 2.284759e-05 1.9129326e-05 0.00018489175
-0.00012720496 2.4348103e-07 -3.649793e-06 -1.783078e-05 5.962245e-08 3.890988e-05 3.1423274e-06 2.1089821e-07
-6.531393e-05 1.448785e-06 9.5536714e-05 -0.000116579286 -1.0928128e-05 -1.2008052e-05 5.7388403e-05 -3.048219e-07
-3.470907e-05 2.8361374e-06 7.515941e-07 -6.716944e-05 -5.0438995e-08 1.0316732e-05 1.0862971e-05 7.7006223e-07
-0.00017882035 5.6338987e-09 3.274603e-05 -2.4939365e-07 1.5005864e-05 -1.3210862e-05 -8.0712844e-08 -6.514423e-06
-6.3977234e-07 -2.4233024e-08 -9.926807e-06 4.696582e-06 4.1309468e-07 1.5691065e-05 0.00015761654 -7.8709536e-07
3.9795035e-05 -2.0299663e-06 7.57582e-06 -8.756231e-07 2.2998758e-05 -3.7513843e-07 -4.9414616e-06 -3.718075e-05
-0.00013743232 -2.8225613e-06 -0.0001140934 3.61683e-05 -9.715198e-05 6.949801e-07 2.460693e-05 2.3328701e-05
9.2804946e-08 -3.301281e-07 -6.430676e-05 -1.1977859e-07 1.1021951e-07 -0.00016390538 -7.7294855e-05 -1.7351884e-06
-0.00011352116 6.65167e-08 -1.846947e-07 -2.3756085e-08 8.728326e-08 -4.2768366e-05 -5.151498e-07 1.1606985e-06
-0.00012047074 -6.0021434e-06 -5.692915e-07 -2.737481e-05 0.00013012301 -2.6229152e-06 1.8643947e-06 -1.7541835e-07
7.6049844e-05 1.13797605e-05 3.0577633e-07 -2.0295403e-05 -1.08934664e-07 -0.00012766254 -0.00013497824 -2.1545947e-10
-6.185687e-06 2.5449087e-10 2.2224447e-06 -6.663318e-08 -3.9342076e-06 7.4598697e-06 -1.4223788e-07 3.8911244e-06
-3.3421131e-06 -1.4673635e-07 2.7203196e-05 4.3681272e-08 8.688129e-08 -0.00013491188 1.1141367e-05 8.876733e-06
2.721107e-06 2.2411785e-05 -0.00015870917 -1.6562666e-07 1.4511304e-06 8.712366e-09 -1.3621511e-05 -0.00010859518
-6.4378786e-05 -6.2574156e-07 -5.5162178e-05 -8.456212e-05 -7.7350116e-05 -3.087763e-08 1.6857391e-06 8.182003e-08
3.539011e-09 1.2693025e-07 -1.1680076e-07 1.0507099e-07 5.1909255e-09 -4.9015256e-07 -6.244219e-08 2.9889907e-07
-2.9672833e-09 1.0273511e-09 -1.1707791e-08 -1.3011666e-08 3.0544936e-10 4.2226196e-09 3.392923e-08 1.3328307e-09
-5.283948e-08 -9.399022e-08 -1.2535624e-07 1.7448675e-08 2.3560716e-07 -5.129849e-08 -7.121793e-08 4.4244916e-10
8.376967e-08 3.8216072e-08 -1.7979217e-09 -2.6887628e-07 -1.8835537e-10 -2.9136703e-07 -2.6591738e-07 3.5035843e-09
-5.678223e-07 2.2613213e-11 -3.9014786e-08 9.522646e-10 2.1892777e-08 -7.891291e-08 -1.1454023e-10 -1.03700884e-07
-2.0649409e-09 -4.8323107e-10 1.3514456e-07 -5.689594e-10 1.0381386e-09 -2.8144458e-07 2.8426086e-07 1.3429538e-08
1.4369492e-07 7.488582e-08 -2.8559546e-07 -1.9297508e-09 6.999577e-08 -1.8388979e-09 -6.87118e-08 -4.4928207e-08
-4.2737028e-07 -1.1939321e-08 -3.5700973e-09 3.9007544e-09 -1.0634285e-07 2.8960088e-09 -1.0132324e-07 -4.4138204e-08
00000000: fcac 25af 75b0 a2b1 31ee 2832 3d76 57b1
00000010: 8682 5aae 09e9 9b31 63bd 2831 d299 0bb3
00000020: 7ff8 4333 a2a5 57ae 063d 1830 8a78 2031
00000030: 5ab1 e0ad 2a8a 54b1 60dc 1eb0 07c3 bbad
00000040: 9fcd 2733 f8d5 0330 d1a4 00b2 5223 6832
00000050: c2d1 13b2 5f0b 2a31 ad29 9cb1 091e 872e
00000060: d10f 96b0 1131 d9b0 ad0b bdae 321b 4332
00000070: 15f7 f72d b939 8e32 e29e b4b1 63de f3ae
00000080: 8184 1333 d478 87ab b59b 81b1 e222 c22d
00000090: 5183 61b1 448f 0c31 ba8b 272e a23f 0431
000000a0: 8f8d 5c2f b6fd 202e feb4 e7af 57c3 03b0
000000b0: f3ad acae 0f2e 5c32 710d efb2 a010 8cb0
000000c0: f6d6 e6b1 d59e f8af 5ffc 9032 a375 392f
000000d0: 1dba 3cb1 da79 882e b4e3 8831 c9cd cd32
000000e0: bcf3 0933 4a4f 1830 761e be32 ce0a cab2
000000f0: 8268 ca32 9dc2 02af c6f9 b1b0 e942 d6b0
00000100: 12be 6935 ff5d dd37 9c8d e536 756c 8237
00000110: 8b80 57b4 d3a8 bf37 ea77 a037 80df 4139
00000120: 5262 05b9 c7b7 8234 f7ee 74b6 4f93 95b7
00000130: ca09 8033 2a33 2338 c6e0 5236 4273 6234
00000140: 26f9 88b8 e073 c235 e25a c838 077c f4b8
00000150: f457 37b7 3176 49b7 54b4 7038 67a6 a3b4
00000160: 9594 11b8 7854 3e36 27c1 4935 52dd 8cb8
00000170: 43a2 58b3 0716 2d37 1b40 3637 46b6 4e35
00000180: b981 3bb9 4c94 c131 c858 0938 67e4 85b4
00000190: b2c1 7b37 38a4 5db7 5b54 adb3 7896 dab6
000001a0: d2bc 2bb5 fc28 d0b2 508b 26b7 5597 9d36
000001b0: 4dc7 dd34 4ea0 8337 de45 2539 c848 53b5
000001c0: 98e9 2638 8e3a 08b6 cc33 fe36 5c0c 6bb5
000001d0: 75ed c037 a266 c9b4 d5ce a5b6 87f2 1bb8
000001e0: b51b 10b9 3c6b 3db6 6d45 efb8 6bb3 1738
000001f0: 12be cbb8 ab8e 3a35 fb6a ce37 01b2 c337
00000200: 0f4c c733 763c b1b4 6edc 86b8 7d9c 00b4
00000210: d1b1 ec33 04de 2bb9 5c19 a2b8 9fe4 e8b5
00000220: 3512 eeb8 f1d7 8e33 7e50 46b4 2f10 ccb2
00000230: 7b70 bb33 2f62 33b8 d348 0ab5 4cc9 9b35
00000240: 3ca5 fcb8 0566 c9b6 6ad1 18b5 f5a2 e5b7
00000250: a171 0839 5705 30b6 1d3c fa35 a15a 3cb4
00000260: f37c 9f38 b3eb 3e37 9429 a434 0c40 aab7
00000270: 77ef e9b3 27dd 05b9 f288 0db9 73e6 6caf
00000280: a68e cfb6 68e8 8b2f 4f25 1536 fa17 8fb3
00000290: 9602 84b6 cb4f fa36 0dba 18b4 8190 8236
000002a0: 1149 60b6 958e 1db4 6b32 e437 119c 3b33
000002b0: 7f93 ba33 2277 0db9 cfeb 3a37 47ed 1437
000002c0: 439c 3636 f100 bc37 2b6b 26b9 1cd7 31b4
000002d0: 76c4 c235 64ad 1532 f287 64b7 98bd e3b8
000002e0: 1903 87b8 a2f8 27b5 f05d 67b8 f156 b1b8
000002f0: 0737 a2b8 509e 04b3 8e41 e235 0ab5 af33
00000300: f132 7331 524a 0834 e6d3 fab3 63a3 e133
00000310: dd5b b231 0793 03b5 f517 86b3 6078 a034
00000320: 00e9 4bb1 b432 8d30 6923 49b2 ea89 5fb2
00000330: 2dec a72f 8e16 9131 95b9 1133 d02e b730
00000340: 9ff1 62b3 abd7 c9b3 a999 06b4 0be2 9532
00000350: 34fb 7c34 4953 5cb3 79f0 98b3 2f3d f32f
00000360: dde4 b333 0423 2433 bf1a f7b0 135a 90b4
00000370: 5319 4faf 2e6d 9cb4 68c3 8eb4 b5c3 7031
00000380: 746c 18b5 6ee8 c62d 3691 27b3 d5e0 8230
00000390: ba0e bc32 d576 a9b3 6be0 fbae 2ab2 deb3
000003a0: d3e6 0db1 5dd4 04b0 411c 1134 f564 1cb0
000003b0: 41ae 8e30 7319 97b4 849c 9834 bcb7 6632
000003c0: 8f4a 1a34 ead0 a033 f153 99b4 899c 04b1
000003d0: 9550 9633 78bc fcb0 b68e 93b3 16f7 40b3
000003e0: 5371 e5b4 b01d 4db2 d155 75b1 6607 8631
000003f0: 9a5e e4b3 2003 4731 0a97 d9b3 7892 3db3

exp_avg_sq f4 [192, 64]
4.457493e-11 1.5016345e-10 1.2133049e-11 1.06113555e-10 6.568735e-13 1.6712841e-10 4.064072e-11 7.926367e-11
6.1110984e-11 1.0563229e-11 5.468049e-11 1.03440876e-11 2.9214977e-15 1.1539494e-11 7.021913e-12 6.0402868e-12
2.6822525e-10 1.7267486e-11 6.064211e-12 1.6664733e-10 1.3917434e-11 1.00447956e-10 2.6716687e-10 7.181775e-12
1.2785029e-11 5.3173256e-12 6.4665266e-11 2.6450475e-10 2.5600127e-13 2.2872601e-11 2.2545639e-11 1.4923718e-10
2.7454693e-11 2.742055e-16 1.6697354e-12 1.6621827e-11 4.7899306e-12 3.2475642e-10 7.14686e-14 7.9868655e-12
9.00259e-12 1.1699266e-15 6.0824665e-11 1.6749272e-13 1.545138e-10 3.7829847e-11 1.2123698e-10 6.1423536e-12
2.583583e-11 9.8385276e-12 1.6945265e-10 8.974474e-12 3.200253e-10 2.5812834e-13 9.758935e-12 1.6423518e-10
1.2152154e-10 1.5999084e-12 8.1947664e-11 5.089304e-10 5.5744395e-11 9.82032e-14 3.3802544e-10 1.114594e-11
5.6947835e-11 3.615873e-08 8.5646407e-10 2.732329e-10 1.0063497e-10 1.8379557e-09 1.9312763e-08 6.309861e-08
1.8101622e-08 4.88691e-13 2.9654965e-10 2.5741276e-10 8.835618e-12 3.5152639e-09 3.476359e-11 1.7609619e-12
1.7690887e-08 2.948358e-10 1.0779853e-08 1.811321e-08 3.6165773e-09 3.0486366e-10 4.958341e-09 5.7975754e-13
4.080954e-09 4.2725087e-11 6.54667e-12 4.563139e-09 1.3065207e-13 1.4169059e-09 4.408686e-09 2.383136e-12
6.808613e-08 3.292655e-15 1.4053104e-09 1.7228634e-12 4.723622e-10 6.4754374e-10 2.3253208e-14 3.7085317e-09
6.2361904e-12 1.38934274e-14 3.498519e-10 1.4833551e-11 1.6312693e-11 2.5261546e-09 3.664122e-08 4.485877e-11
1.7595817e-09 1.4993248e-11 2.902779e-09 1.8614487e-12 4.374337e-09 1.1383503e-12 1.9131859e-10 2.1324629e-09
2.3783123e-08 3.262841e-11 1.4266006e-08 7.1846817e-09 9.4810195e-09 2.0319614e-12 3.0825842e-09 2.344293e-10
2.4193064e-10 1.535403e-08 2.445179e-06 1.2581834e-09 4.8373913e-11 1.2469449e-05 5.220017e-07 1.9877808e-08
1.1121887e-06 3.0841364e-11 4.162841e-10 2.2365139e-09 6.4180994e-11 6.257574e-08 7.979534e-09 1.0522846e-09
7.674117e-06 6.1707933e-06 2.5447236e-10 4.1622466e-06 8.944969e-06 9.54981e-10 3.3758243e-09 2.5318058e-11
5.898198e-07 8.132552e-08 2.9181846e-10 1.7300465e-07 4.9714316e-11 1.0582368e-05 4.5734496e-06 1.3351292e-10
2.3114376e-08 1.3703961e-14 8.167809e-09 1.35467245e-11 9.747528e-08 4.3886804e-08 3.1501073e-11 1.9065515e-08
1.142518e-07 2.4638182e-12 2.9926813e-08 2.4273751e-11 2.0673567e-10 1.0766166e-06 8.9622773e-07 2.7569578e-07
6.0171196e-08 6.286756e-07 3.233658e-05 1.5285842e-11 2.6923148e-08 1.7533492e-11 2.9271888e-08 6.835185e-06
2.6711612e-06 2.0363242e-09 3.221418e-06 2.9600544e-06 4.421203e-06 6.1839735e-11 1.4867981e-08 3.1850467e-11
9.644534e-11 2.1775175e-09 2.1187564e-10 7.434866e-09 4.458888e-11 2.1717426e-08 3.7425356e-09 4.8605675e-09
1.2469195e-09 1.1198267e-10 2.1102325e-10 1.9392052e-10 1.234954e-13 2.3322919e-10 1.5471301e-11 2.226996e-10
3.1437148e-09 1.140736e-09 2.9727215e-10 1.8359383e-09 8.6531875e-09 3.9163534e-10 1.4446176e-09 9.873175e-11
5.0408047e-09 4.517997e-09 3.2109398e-10 2.1057704e-09 1.9911588e-12 8.124501e-09 1.3828595e-08 1.0251796e-09
2.6333855e-09 2.7062614e-15 1.5751529e-10 1.3436456e-10 1.6125944e-10 1.9130724e-09 2.30318e-13 1.5044987e-09
6.4084166e-10 1.2465824e-14 4.3446113e-10 4.4033372e-13 1.2165817e-09 1.867305e-09 4.077794e-09 1.4415131e-09
6.0555827e-10 8.8329516e-10 2.8179052e-09 1.1141277e-10 6.2531798e-09 4.8011755e-12 4.1300293e-11 3.0672342e-09
3.5902363e-09 3.6492823e-11 2.114219e-09 8.602739e-09 5.062744e-10 3.394414e-12 1.8972168e-09 6.2966826e-11
00000000: e90a 442e 411b 252f 6572 552d 9f58 e92e
00000010: b9e4 382b 77c2 372f 62bd 322e 7b4d ae2e
00000020: 6d62 862e 8ed4 392d c27c 702e a1f9 352d
00000030: 1f84 5227 4301 4b2d c50f f72c 1186 d42c
00000040: 5975 932f ece2 972d 8f5d d52c 0e3b 372f
00000050: 8dd6 742d 2ce3 dc2e 65e0 922f aeaf fc2c
00000060: a7ea 602d 3616 bb2c 4f33 8e2e bc69 912f
00000070: ac1d 902a 8530 c92d 4450 c62d 8816 242f
00000080: 797e f12d 9711 9e25 8ffe ea2b 0735 922d
00000090: dc87 a82c 6789 b22f d8ee a029 a581 0c2d
000000a0: 1060 1e2d ac9a a826 3ec1 852e 7d94 3c2a
000000b0: c5e3 292f 9f60 262e 2d4d 052f 671d d82c
000000c0: 1e41 e32d ca14 2d2d ae50 3a2f 70e1 1d2d
000000d0: 8fef af2f 3750 912a 56ae 2b2d 1894 342f
000000e0: 469d 052f c62a e12b 6f34 b42e cbe4 0b30
000000f0: 9c2a 752e 4a22 dd29 dad4 b92f da14 442d
00000100: 9075 7a2e f24c 1b33 4d6c 6b30 1d36 962f
00000110: 744c dd2e 519b fc30 37e5 a532 d480 8733
00000120: e37d 9b32 e68d 092b a707 a32f a083 8d2f
00000130: 1670 1b2d 2d91 7131 53e4 182e 57d5 f72b
00000140: acf6 9732 7316 a22f 4b32 3932 5f97 9b32
00000150: 8087 7831 bf99 a72f 075e aa31 ef2f 232b
00000160: 7338 8c31 2ce8 3b2e 2957 e62c ccc9 9c31
00000170: e519 132a f2bc c230 367b 9731 c3b2 272c
00000180: bf36 9233 c442 6d27 f724 c130 b278 f22b
00000190: 89d7 0130 d7fe 3130 3f72 d128 2ed9 7e31
000001a0: 9c6a db2c 2048 7a28 4755 c02f 307a 822d
000001b0: eb7c 8f2d 9598 2d31 735f 1d33 7c4a 452e
000001c0: c7d5 f130 cbe1 832d 3a7a 4731 e1fc 022c
000001d0: 134d 9631 6435 a02b 655b 522f af8a 1231
000001e0: a44b cc32 5380 0f2e 8f16 7532 21dd f631
000001f0: f7e1 2232 90fc 0e2c 65d5 5331 fee0 802f
00000200: b600 852f dee3 8332 db17 2436 65ec ac30
00000210: 2fc0 542e e033 5137 af1f 0c35 c3bf aa32
00000220: 8346 9535 4aa4 072e c7da e42f 2bb1 1931
00000230: b022 8d2e 6061 8633 5d16 0932 f99f 9030
00000240: 15c0 0037 b60e cf36 cde5 8b2f 6da9 8b36
00000250: 5912 1637 6840 8330 21fc 6731 33b3 de2d
00000260: 1c54 1e35 2da5 ae33 cc6d a02f 28c3 3934
00000270: 58a5 5a2e ed8a 3137 a275 9936 8ccc 122f
00000280: 0d8d c632 5ede 7628 6752 0c32 0651 6e2d
00000290: 9a53 d133 0d7e 3c33 0e8b 0a2e 83c5 a332
000002a0: 975a f533 3460 2d2c e188 0033 a183 d52d
000002b0: eb4e 632f 4480 9035 4d94 7035 5703 9434
000002c0: 7737 8133 42c2 2835 23a1 0738 a874 862d
000002d0: a144 e732 ea39 9a2d 9071 fb32 cb59 e536
000002e0: 3342 3336 65ef 0b31 8a2f 5836 59a5 4636
000002f0: d859 9436 adfc 872e 126e 7f32 7014 0c2e
00000300: e615 d42e 4ba3 1531 b1f5 682f c675 ff31
00000310: 9e1a 442e 208d ba32 b197 8031 0102 a731
00000320: 1460 ab30 a440 f62e c405 682f c637 552f
00000330: 200b 0b2a 1738 802f 4616 882d 5ddc 742f
00000340: d108 5831 14c8 9c30 566d a32f 5654 fc30
00000350: 1fa9 1432 c64d d72f f78b c630 091d d92e
00000360: 6333 ad31 b93c 9b31 f685 b02f 1bb5 1031
00000370: 871d 0c2c ef93 0b32 ce92 6d32 4de6 8c30
00000380: 02f7 3431 b601 4327 9d30 2d2f 43bc 132f
00000390: 7f4e 312f 2077 0331 52a8 812a d8c6 ce30
000003a0: 3927 3030 7790 6028 f8d8 ee2f c7e2 f72a
000003b0: aa34 a730 fa51 0031 a81c 8c31 bc1e c630
000003c0: 6074 2630 5fcc 7230 1da5 4131 d0ff f42e
000003d0: 8ddb d631 25ed a82c ffa3 352e 5bc7 5231
000003e0: 1bb8 7631 447f 202e bc49 1131 3fcb 1332
000003f0: e529 0b30 54dc 6e2c 3160 0231 2c77 8a2e

exp_avg f4 [192]
-6.36231e-08 -0.00017133045 0.00017207982 -1.1032463e-06 8.68183e-06 -9.549191e-05 9.728471e-05 4.95561e-05
2.4370469e-05 1.6614649e-07 4.0235534e-08 -2.1320338e-06 -1.6104433e-08 -0.00014501065 -8.654307e-08 -2.0557823e-07
0.00022481034 2.5622005e-05 -6.348819e-05 -9.3787676e-05 -5.8569778e-05 6.9150997e-07 -1.9107283e-05 -3.0176793e-07
-2.1846203e-07 -6.2781646e-06 3.1475115e-06 2.5941628e-05 2.9688422e-07 -2.9338045e-05 -6.0057546e-06 1.0125822e-06
1.3544155e-05 1.1979394e-09 -1.7447206e-06 -4.6807617e-07 0.0001010846 -6.658862e-06 -6.399329e-08 4.9180435e-05
6.6654175e-05 -4.517152e-08 3.2951439e-06 -2.8425221e-08 1.252535e-06 4.1306328e-05 3.4703714e-08 -7.1547e-06
-4.125137e-06 -1.3002772e-05 -0.00035980964 2.0217183e-07 3.693339e-06 -5.7411334e-08 -1.3499087e-05 7.3591305e-05
-5.2705342e-08 -3.3822782e-06 -1.1104914e-05 -0.002355244 -3.1922565e-07 6.2639027e-09 8.469193e-06 -2.1525754e-08
-7.54083e-07 -0.00018365658 0.0001208962 -1.5495064e-06 -1.366342e-06 -0.00015161515 -0.00040771658 -0.0005875755
9.3787974e-05 4.811724e-07 2.6217754e-06 1.9272613e-06 1.4322712e-06 0.00012552172 -3.5439185e-05 9.353861e-06
0.00014035845 2.4059058e-05 0.00033106847 0.0004378759 0.00024161149 7.8243254e-05 0.00011783036 -4.80719e-06
7.850955e-05 0.00019337783 8.3782315e-06 0.00048710775 -2.408188e-07 -0.0001862859 -0.0005836617 2.906674e-06
-2.0127978e-05 -1.0826917e-08 7.565776e-05 -2.452617e-07 -0.00021296335 -6.122717e-06 1.0074334e-06 -0.00027753483
-0.00014629048 1.0039352e-06 -5.7516107e-05 -6.295872e-06 -1.9514866e-06 -0.000109053384 -0.00044040804 0.00018640695
-6.274729e-05 -0.00012731203 0.0005607097 1.2308448e-06 -6.314395e-05 1.576802e-06 4.4052515e-05 -0.00019591217
-0.0001086905 1.5828302e-05 4.8319223e-05 1.5589652e-05 0.00024830757 -1.1298077e-06 8.769996e-05 2.4337276e-05
-5.038015e-06 0.00046636304 -0.003893144 9.92939e-05 -9.951277e-06 0.0008642982 -0.0014680875 -0.00041147848
0.0024861197 -1.1492356e-05 3.9866307e-05 7.381388e-05 -1.788161e-06 -0.0017562513 -0.000100506426 -6.2975545e-05
0.011020704 -0.0011571469 2.9784766e-05 0.007294422 -0.0028998703 7.6163706e-05 -0.0011001747 1.59748e-05
0.006482759 -7.0404894e-05 6.277472e-05 0.0006292155 -3.2435478e-06 0.0008246489 0.00017442356 2.6561513e-05
0.0005811593 1.2961051e-07 -0.0010896979 1.6271779e-05 -0.0017509721 -0.00017733351 -3.4082709e-07 0.0017410744
-0.00024269833 6.866162e-07 0.0046042674 -7.0852504e-05 0.00013809078 -0.0005791224 -0.0040327287 -2.9400855e-05
-0.0006317776 0.004905023 -0.00010722666 2.1918233e-05 -7.018061e-05 -1.8077619e-06 2.1393595e-05 0.0042530415
0.0029720785 5.3219e-05 0.007365076 0.0021865822 0.007009088 -1.0815454e-05 -0.00073417724 -0.0007464286
00000000: 2ba1 88b3 2ba7 33b9 5370 3439 4113 94b5
00000010: 2da8 1137 d442 c8b8 5505 cc38 75da 4f38
00000020: 2f6f cc37 0066 3234 70cf 2c33 1014 0fb6
00000030: 0656 8ab2 000e 18b9 8ed9 b9b3 eabc 5cb4
00000040: 11bb 6b39 d6ee d637 f624 85b8 e0af c4b8
00000050: d2a8 75b8 34a0 3935 9448 a0b7 ab02 a2b4
00000060: 6392 6ab4 06a9 d2b6 d639 5336 399d d937
00000070: 7563 9f34 f91a f6b7 0a85 c9b6 0fe8 8735
00000080: b43b 6337 bfa4 a430 252c eab5 e64b fbb4
00000090: 62fd d338 306f dfb6 af6c 89b3 1747 4e38
000000a0: b0c8 8b38 9d02 42b3 2422 5d36 b92b f4b2
000000b0: c61c a835 5540 2d38 230d 1533 6812 f0b6
000000c0: a86a 8ab6 7b26 5ab7 d5a4 bcb9 9214 5934
000000d0: 15db 7736 6e94 76b3 237a 62b7 0855 9a38
000000e0: 235e 62b3 19fb 62b6 3e4f 3ab7 705a 1abb
000000f0: 0a62 abb4 df39 d731 e816 0e37 a2e7 b8b2
00000100: 306c 4ab5 f093 40b9 a789 fd38 a2f8 cfb5
00000110: 2763 b7b5 e2fa 1eb9 cbc2 d5b9 8607 1aba
00000120: 09b0 c438 ea29 0135 c2f1 2f36 1956 0136
00000130: 773c c035 7b9e 0339 89a4 14b8 87ee 1c37
00000140: 2f2d 1339 6fd2 c937 4293 ad39 b592 e539
00000150: 1759 7d39 8716 a438 b11b f738 734d a1b6
00000160: 7ea5 a438 77c5 4a39 3b90 0c37 7f62 ff39
00000170: e249 81b4 be55 43b9 e000 19ba 4710 4336
00000180: 81d8 a8b7 4901 3ab2 73aa 9e38 83ac 83b4
00000190: ea4e 5fb9 bd71 cdb6 2637 8735 1882 91b9
000001a0: 8d65 19b9 f3be 8635 733d 71b8 2141 d3b6
000001b0: 49f6 02b6 97b3 e4b8 91e6 e6b9 3c76 4339
000001c0: 3297 83b8 107f 05b9 97fc 123a 8133 a535
000001d0: 266c 84b8 81a2 d335 07c5 3838 c66d 4db9
000001e0: c5f0 e3b8 05c7 8437 5faa 4a38 86c6 8237
000001f0: 472f 8239 e6a3 97b5 8feb b738 e727 cc37
00000200: 380c a9b6 3082 f439 1e24 7fbb 023c d038
00000210: 69f4 26b7 1292 623a d86c c0ba b5bb d7b9
00000220: 2bee 223b 4bcf 40b7 1f36 2738 86cc 9a38
00000230: be00 f0b5 0432 e6ba fac6 d2b8 bd11 84b8
00000240: 2f90 343c 68ab 97ba 4cda f937 0c06 ef3b
00000250: c00b 3ebb 14ba 9f38 bd33 90ba 9f01 8637
00000260: 536d d43b 57a6 93b8 eca5 8338 f0f1 243a
00000270: baab 59b6 402d 583a 78e5 3639 6ad0 de37
00000280: f158 183a 112b 0b34 32d4 8eba 617f 8837
00000290: e080 e5ba 9af2 39b9 ebfa b6b4 c334 e43a
000002a0: d67c 7eb9 e84f 3835 65df 963b a696 94b8
000002b0: 76cc 1039 3fd0 17ba fb24 84bb dba1 f6b7
000002c0: e19d 25ba 51ba a03b e0de e0b8 0cdd b737
000002d0: ee2d 93b8 3aa2 f2b5 6576 b337 195d 8b3b
000002e0: 34c7 423b 7737 5f38 bc56 f13b c34c 0f3b
000002f0: 7eac e53b 0574 35b7 cd75 40ba faab 43ba
