07_RNN/logs/rnn/version_19/checkpoints/last.ckpt (torch, 164936 bytes, 15 tensors)

rnn.weight_ih_l0 f4 [192, 1]
0	0xbf61b5be	-0.8816794
1	0xbdf27209	-0.11838157
2	0x3f1866e9	0.5953203
3	0xbf803952	-1.0017493
4	0x3dd4850e	0.10376941
5	0xbd3ddb45	-0.04635169
6	0x3e144df6	0.14482865
7	0x3f228928	0.63490534
8	0xbf35230b	-0.70756596
9	0xbf157536	-0.58381975
10	0x3f5deb9b	0.8668763
11	0xbdde8d23	-0.108667634
12	0x3e9d9433	0.3077713
13	0xbf74d14c	-0.9563186
14	0xbd6ea69d	-0.058264364
15	0xbc8231e6	-0.015892934
16	0xbf4c8f8a	-0.79906523
17	0xbe2a8eeb	-0.16656081
18	0x3e33829b	0.17530291
19	0xbfc7153d	-1.5553356
20	0x3e9794b3	0.29605636
21	0x3f950d96	1.1644771
22	0x3e88f7b5	0.26751485
23	0x3de3d77e	0.11125086
24	0x3e36cb4e	0.17850992
25	0xbf43b9d3	-0.7645542
26	0x3f525b2c	0.8217037
27	0xbdb95295	-0.090489544
28	0x3f186ed2	0.595441
29	0xbc50570c	-0.012716066
30	0xbe6913e6	-0.22761497
31	0xbedf25a7	-0.43583414
32	0xbf64c730	-0.89366436
33	0x3f30616d	0.6889866
34	0xbe1e177c	-0.15438646
35	0xbf5c0121	-0.8593922
36	0xbe3f0879	-0.18655576
37	0xbf780255	-0.9687856
38	0x3e510c1f	0.2041478
39	0xbf347e87	-0.70505565
40	0xbcca0b15	-0.024663487
41	0x3e6e821b	0.23291819
42	0xbd4596d0	-0.04823953
43	0xbed8cd92	-0.42344338
44	0xbeab7d03	-0.33493814
45	0x3f9dfd3e	1.2342908
46	0x3ee00b73	0.43758735
47	0x3e713dc2	0.23558715
48	0xbeade17b	-0.3396109
49	0x3e6dab0f	0.23209785
50	0x3fa469a9	1.2844745
51	0x3f088bd1	0.5333834
52	0xbe91dfea	-0.28491145
53	0xbe774730	-0.2414825
54	0xbf26a12b	-0.6508967
55	0x3df5b22a	0.11996873
56	0x3fa0f7fe	1.2575681
57	0xbe9960c1	-0.2995663
58	0x3f308751	0.68956476
59	0x3ba0ca9a	0.0049069645
60	0xbf11e9b0	-0.56997204
61	0xbe11307f	-0.14178656
62	0x3e78b0d4	0.24286205
63	0xbedd8bdc	-0.43270767
64	0xc004ff3a	-2.0780778
65	0xbfdb1438	-1.7115545
66	0xc05d314b	-3.4561336
67	0x3e59721d	0.21234937
68	0xbfa4a72e	-1.2863519
69	0xbf83ffa1	-1.0312387
70	0xbfd600b3	-1.6718963
71	0xbf7aabb4	-0.9791825
72	0xbf631edd	-0.8871897
73	0xbfd87dda	-1.6913407
74	0xbf6d7f54	-0.9277241
75	0xbfc7fdca	-1.5624325
76	0xbf8a7051	-1.0815526
77	0xbffef469	-1.9918338
78	0xbfcf971f	-1.6217993
79	0xbf99b7d8	-1.200923
80	0x3f86039a	1.0469849
81	0xbff08cf9	-1.8793021
82	0xc016fc56	-2.3591514
83	0xc0593ae4	-3.3942194
84	0xbf827f3a	-1.0195076
85	0x3e8f73ae	0.28017944
86	0xbed9d7f7	-0.4254758
87	0xbfb0ce57	-1.381297
88	0xc01098d2	-2.2593274
89	0xbee0c294	-0.4389845
90	0xc000cd03	-2.012513
91	0xc02fcca8	-2.7468662
92	0x3e3019b9	0.17197312
93	0xbf837b0d	-1.0271927
94	0x3f908f75	1.129378
95	0xbe841fe2	-0.25805575
96	0xc009e0f5	-2.1543553
97	0xbfb9a9ee	-1.4504983
98	0xbf6db05f	-0.92847246
99	0xbf9c584b	-1.2214445
100	0xbfcf3b16	-1.6189907
101	0xbfd19d69	-1.6376163
102	0xc04bb441	-3.1828768
103	0xbfdb013a	-1.7109749
104	0xc032c08e	-2.7930026
105	0x3e6dc908	0.23221219
106	0xbfabf86f	-1.3435191
107	0xbec3332c	-0.3812498
108	0xbfde8a09	-1.7385875
109	0x3ee991a3	0.45618924
110	0x3f6e4c5d	0.9308527
111	0xc00e8083	-2.2265937
112	0x3f1d459b	0.61434335
113	0xc02b352b	-2.67512
114	0xbe07c77a	-0.13259688
115	0x3f1b3666	0.6062988
116	0x3e5521ad	0.20813628
117	0xbfab88b1	-1.340109
118	0x3ea5f444	0.32412922
119	0xc031e444	-2.7795572
120	0x3fe96053	1.8232521
121	0xbf926f9f	-1.1440314
122	0x3ec8e191	0.39234594
123	0xbfb03199	-1.3765136
124	0xbff3fdd0	-1.9061832
125	0x3fb4580b	1.4089369
126	0x3f64d763	0.89391154
127	0xbf473d41	-0.7782784
128	0xbed6dad3	-0.41963825
129	0xbe877c9e	-0.26462263
130	0x3f11c0c5	0.5693477
131	0x3e4831b1	0.19550206
132	0x3f845997	1.0339841
133	0xbe4ab987	-0.19797336
134	0xbc266616	-0.010156175
135	0x3e8baa2a	0.27278262
136	0xbf29c08e	-0.6630944
137	0xbf20ccb0	-0.6281233
138	0xbef57d0a	-0.4794696
139	0x3f6c717a	0.9236065
140	0xbee4d316	-0.44692296
141	0x3f255430	0.64581585
142	0x3f075cee	0.52876174
143	0xbf0fe284	-0.5620501
144	0xbf2e96f7	-0.68199104
145	0xbebc4bb6	-0.36776513
146	0xbd08123f	-0.033220526
147	0x3f7d7923	0.99012965
148	0x3f0cb11c	0.5495775
149	0xbec645b9	-0.3872507
150	0x3d93c785	0.0721579
151	0x3eb13c0e	0.3461613
152	0xbea0466a	-0.31303722
153	0xbecb1405	-0.3966371
154	0x3f0850aa	0.53248084
155	0xbea75c00	-0.32687378
156	0x3e4642ef	0.1936147
157	0xbd5eb0f0	-0.05436796
158	0xbc81b869	-0.015835004
159	0x3ec2ab33	0.3802124
160	0xbee86046	-0.4538595
161	0x3f22853e	0.6348456
162	0x3e51a404	0.20472723
163	0x3eb8c8a9	0.36090592
164	0x3e8508b6	0.25983208
165	0xbe594208	-0.21216595
166	0xbf575aea	-0.841231
167	0x3ecb530c	0.39711797
168	0xbf17850a	-0.59187376
169	0xbed084a9	-0.40726212
170	0xbf4f00a8	-0.80860376
171	0x3ef84e89	0.48497418
172	0x3e15fdf2	0.14647654
173	0xbd6c4a79	-0.05768821
174	0xbf0905fb	-0.5352475
175	0x3e85ed10	0.26157427
176	0xbe92a0f7	-0.2863843
177	0x3f0ca526	0.54939497
178	0x3ee4cc0a	0.4468692
179	0xbf0b6fca	-0.5446745
180	0xbe9aa4c4	-0.3020383
181	0x3e93aa25	0.28840747
182	0x3e76ad17	0.24089466
183	0xbe6088f2	-0.2192724
184	0xbf0f2e96	-0.5593046
185	0x3e8c394a	0.27387458
186	0x3e64f794	0.22360069
187	0xbe8fe879	-0.2810705
188	0xbe5afa7a	-0.21384612
189	0xbf163d32	-0.58687127
190	0x3d11ddd0	0.035611928
191	0xbe666450	-0.22499204

rnn.weight_hh_l0 f4 [192, 64]
0	0xc02c0494	-2.6877794
1	0x3e5c6106	0.21521387
2	0x3e1e3485	0.15449722
3	0x3debec50	0.115196824
4	0xbe50f125	-0.2040449
5	0x3e223758	0.15841424
6	0x3cec71e9	0.02886291
7	0x3f7be6e7	0.98399204
8	0xbe3ad154	-0.18243915
9	0x3d9c8808	0.076431334
10	0xbf7ad563	-0.9798185
11	0xbe877c12	-0.26461846
12	0x3d814700	0.0631237
13	0xbdb92bfc	-0.090415925
14	0x3f470614	0.7774365
15	0xbe1b983e	-0.15194795
16	0xbff5aac2	-1.9192736
17	0xbf988165	-1.1914488
18	0xbf5ea317	-0.86967605
19	0x3f29fd75	0.6640237
20	0xbeadf3f7	-0.33975193
21	0x3fa0a784	1.2551122
22	0x3e6c39cc	0.23068923
23	0x3f1f4519	0.6221481
24	0x3f0a1da6	0.5395149
25	0x3e3d9127	0.18512402
26	0x3ef18ad7	0.4717624
27	0xbf1e027e	-0.6172255
28	0xbf0cbcd2	-0.54975617
29	0xbea0f235	-0.3143479
30	0x3f06ec2d	0.52704126
31	0x3ed442c4	0.41457188
32	0x3e91ffdc	0.28515518
33	0xbd004d88	-0.03132394
34	0x3dd41ca1	0.10357023
35	0x3ebfd3e6	0.37466353
36	0x3f81f229	1.0152026
37	0xbecc93c6	-0.39956492
38	0xbeae435d	-0.3403577
39	0xbc36083a	-0.01111036
40	0x3f14bab9	0.58097416
41	0x3f87a295	1.0596491
42	0xbe84f3db	-0.25967297
43	0xbf2035d4	-0.62582135
44	0x3ea61b00	0.32442474
45	0xbf5c31a9	-0.86013275
46	0xbedd1f26	-0.43187827
47	0x3efdbc7c	0.49557865
48	0xbebbed94	-0.36704695
49	0xbe5b1421	-0.21394397
50	0x3eeb8f51	0.4600778
51	0xbddf720e	-0.10910426
52	0xbdab0aca	-0.08351667
53	0xbf8852e6	-1.0650299
54	0x4001b17b	2.0264575
55	0x3f2a2b7a	0.6647259
56	0x3e3c6bae	0.18400452
57	0x3f311c71	0.69184023
58	0x3f25d1a8	0.64773035
59	0x3f15ad30	0.5846739
60	0xbfa6475d	-1.2990528
61	0xbfce5068	-1.6118288
62	0x3eb4652b	0.35233435
63	0x3dc3966b	0.09550174
64	0x3e386d16	0.18010363
65	0xbd983c28	-0.07433349
66	0x3e047c81	0.1293812
67	0xbf0e483c	-0.5557897
68	0x3f62bf5e	0.88573253
69	0x3e499dc8	0.19689095
70	0x3ea2829c	0.31740272
71	0x3feeddb7	1.8661412
72	0x3eb36026	0.35034293
73	0xbf5edc2a	-0.87054694
74	0xbf723c09	-0.94622856
75	0x3f4c8370	0.7988806
76	0xbe937a73	-0.2880436
77	0xbe821239	-0.25404528
78	0x3f305d8f	0.6889276
79	0xbfaa1029	-1.3286182
80	0xbf2d60bd	-0.67725736
81	0xbf8d5ce6	-1.1043975
82	0x3f4eb5c7	0.8074612
83	0xbf7a287d	-0.9771803
84	0xbf68f9dc	-0.91006255
85	0x3f09c043	0.53808993
86	0x3ea046f9	0.31304148
87	0xbe894985	-0.26813903
88	0xbf4a494d	-0.790181
89	0xbe22d8cc	-0.15903014
90	0x3e9447b2	0.2896095
91	0xbe918b69	-0.28426674
92	0xbde77d8c	-0.11303243
93	0xbe8eafcf	-0.27868506
94	0xbfb13421	-1.3844033
95	0xbc53ee89	-0.012935289
96	0xbf144c28	-0.57928705
97	0x3f373242	0.7156106
98	0xbf7397ed	-0.95153695
99	0xbea2c297	-0.31789085
100	0xbe37232f	-0.17884515
101	0x3f91b8e0	1.1384544
102	0x3e43ff2d	0.1914031
103	0x3f02521a	0.5090653
104	0xbf9e0bb7	-1.2347325
105	0x3f9c1e6e	1.2196786
106	0xbf7c6e9c	-0.98606277
107	0xbe08e9b2	-0.13370398
108	0x3e1b3fc4	0.15161043
109	0xbd22da90	-0.03975922
110	0x3f15563e	0.5833472
111	0xbdc17078	-0.0944528
112	0x3edd1c21	0.43185523
113	0x3f82a932	1.0207884
114	0x3e179d78	0.14806163
115	0xbf0bf40c	-0.5466926
116	0xbed9f8bc	-0.42572582
117	0x3eca84cc	0.3955444
118	0x3f8ada80	1.0847931
119	0xbf7e2638	-0.9927707
120	0xbfbc93c5	-1.4732596
121	0xbe9b72f4	-0.3036114
122	0xbddeeddb	-0.10885211
123	0x3d6548f3	0.055977773
124	0x3eab711d	0.33484736
125	0xbed23167	-0.41053316
126	0xbf8fe6a0	-1.1242256
127	0x3ec5054c	0.38480604
128	0x3e703e9f	0.23461388
129	0x3f84c1e7	1.0371674
130	0xbf62a388	-0.8853078
131	0xbf128bc4	-0.57244515
132	0xbfd04216	-1.6270168
133	0xbd80f7f4	-0.06297293
134	0x3f4ccbda	0.7999855
135	0x3e45961c	0.19295543
136	0x3eeb2a75	0.4593083
137	0x3fac8887	1.3479165
138	0x3fbafdba	1.4608681
139	0xbfc76988	-1.557908
140	0x3e9896aa	0.29802448
141	0xbff5cb5c	-1.9202685
142	0xbfc23ea1	-1.5175363
143	0x3f2c0134	0.67189336
144	0xbea76e77	-0.32701465
145	0xbe27a0f4	-0.16369992
146	0x3dca3ad5	0.098745026
147	0xbf83a2c0	-1.0284042
148	0xbfa91ce5	-1.3211943
149	0xbf133da9	-0.5751596
150	0x3f6d3305	0.92655975
151	0x3ee8212f	0.45337817
152	0x3f20404e	0.6259812
153	0x3e9d41a1	0.30714133
154	0x3d23a3b2	0.039951034
155	0xbf2b83e1	-0.66998106
156	0xbf726dfb	-0.94699067
157	0xbfa23af9	-1.2674247
158	0x3f741ee6	0.9535965
159	0xbf20a696	-0.6275419
160	0xbd0c9ba0	-0.034328103
161	0xbfa896f0	-1.3171062
162	0x3f091920	0.5355396
163	0x3f822286	1.0166786
164	0xbcbb5698	-0.02286844
165	0x3eb95f96	0.3620574
166	0x3f4d1f3c	0.80125785
167	0xbed3b318	-0.41347575
168	0x3e19179b	0.14950411
169	0x3dd84c00	0.10561371
170	0x3f046f08	0.5173192
171	0xbeba1729	-0.36345795
172	0xbf569724	-0.8382437
173	0x3f1d8a15	0.6153882
174	0xbd89ebc9	-0.067344256
175	0xbeb4436c	-0.3520769
176	0xbc173dfa	-0.009231085
177	0xbf3b3348	-0.73125124
178	0xbed98a78	-0.42488456
179	0x3e3ec9ff	0.18631743
180	0xbd5b5e33	-0.053556632
181	0xbf0c23b2	-0.54741967
182	0x3f9316db	1.149135
183	0xbd8d1e8b	-0.06890591
184	0xbdd6aa3d	-0.10481689
185	0x3d7fff48	0.062499315
186	0x3fef8243	1.8711628
187	0xbd6f42e1	-0.05841339
188	0x3dd2474f	0.10267507
189	0xbd30a73b	-0.043128233
190	0x3d60df83	0.054900657
191	0xbd068a0d	-0.0328465
192	0xbf01f187	-0.50759166
193	0x3f060cc4	0.5236323
194	0x3ef9d6dc	0.48796737
195	0xc00cda58	-2.2008266
196	0xbf5693ed	-0.83819467
197	0xbe4ceb38	-0.20011604
198	0xbf33afa5	-0.7018989
199	0xbeb10e80	-0.34581375
200	0xbf11fa34	-0.57022405
201	0x3f4cca9f	0.79996675
202	0x3f08471d	0.5323351
203	0xbf4e6a23	-0.806307
204	0x3ed5578a	0.4166835
205	0xbec9dc14	-0.3942572
206	0xbf7e36aa	-0.9930216
207	0x3dae14d0	0.085000634
208	0x3f3a4810	0.7276621
209	0xbe56328e	-0.20917723
210	0xbf448052	-0.767583
211	0xbf912ec6	-1.1342399
212	0xbfa0d945	-1.2566305
213	0x3eb5bb35	0.3549439
214	0x3ece0b7c	0.40243137
215	0x3e97a1fb	0.2961577
216	0x3e2c54bb	0.16829197
217	0xbdb3debc	-0.087827176
218	0xbf1d0d1e	-0.6134814
219	0x3fa63fac	1.2988181
220	0xbf614ed5	-0.88010913
221	0xbf5686b4	-0.8379929
222	0x3f5ba49a	0.8579804
223	0xbf922002	-1.1416018
224	0x3df23090	0.11825669
225	0xbf7ec211	-0.9951487
226	0x3f5656fc	0.8372648
227	0x404a56a2	3.1615376
228	0x3eb55304	0.35414898
229	0xbf849e52	-1.0360816
230	0xbf40f8b9	-0.7537952
231	0xbf064668	-0.5245118
232	0x3faaab76	1.3333576
233	0xbf314bf8	-0.69256544
234	0x3f4d7f4f	0.8027238
235	0xbd6c9688	-0.057760745
236	0xbf1868ea	-0.59535086
237	0x3e1dc310	0.15406442
238	0xbe779485	-0.2417775
239	0xbfb005a1	-1.3751718
240	0xbf42d8c9	-0.7611204
241	0xbf9f2750	-1.2433872
242	0xbf590b4b	-0.84782857
243	0x3f4e8a4c	0.80679774
244	0x3e0943a0	0.13404703
245	0xbf840d32	-1.0316527
246	0x3ecf0939	0.40436724
247	0x4016571a	2.3490663
248	0xbf2f615f	-0.6850795
249	0x3ea7f4d1	0.32803968
250	0x3dc407cb	0.09571799
251	0xbfb684c7	-1.425927
252	0xbf5ac2a9	-0.8545328
253	0x3f5d9af8	0.8656459
254	0x3ded8c1f	0.115989916
255	0xbeacf84f	-0.33783194

rnn.bias_ih_l0 f4 [192]
0	0xbef0fe20	-0.47068882
1	0x3e0c278b	0.1368696
2	0xbf3d0710	-0.738389
3	0x3ef8b2f5	0.48574033
4	0xbf9f3ab1	-1.2439786
5	0xbf762823	-0.96154994
6	0xbe59b383	-0.21259885
7	0x3d31b036	0.04338094
8	0xbf7609fa	-0.96108973
9	0xc01c6328	-2.443552
10	0xbf39e4f4	-0.7261498
11	0xbfa4b06f	-1.2866343
12	0xbf5e427f	-0.86820215
13	0xbf63ad8c	-0.88936687
14	0xbf1f42aa	-0.62211096
15	0xbeac1f88	-0.33617806
16	0xbf0d183c	-0.55115104
17	0x3e1d04bd	0.15333839
18	0xbe83adb2	-0.25718457
19	0xbf4fa8a4	-0.811167
20	0xbf594238	-0.84866667
21	0xbe13cd15	-0.14433701
22	0xbf108b4f	-0.5646257
23	0xbefc8d5b	-0.49326596
24	0xbe4f1cb2	-0.2022579
25	0xbfa66bb6	-1.3001621
26	0xbf39e9be	-0.7262229
27	0xbf7ceae9	-0.98795944
28	0xbee98ea7	-0.45616648
29	0xbd4647c1	-0.048408274
30	0x3f33c60f	0.7022409
31	0xbf8b9b2a	-1.0906727
32	0xbf8ea645	-1.1144491
33	0xbf2a103e	-0.66431034
34	0x3e19c9cf	0.1501839
35	0xbede2a49	-0.43391636
36	0xbda04aa6	-0.07826738
37	0xbf2a8ba9	-0.66619354
38	0xbdaa2190	-0.08307183
39	0xbf9b3932	-1.212683
40	0xbf47e472	-0.78082955
41	0xbf6a65ab	-0.91561383
42	0xc0194102	-2.3945928
43	0x3d67cc99	0.056591604
44	0xbcc69409	-0.02424051
45	0xbeec9f92	-0.46215492
46	0x3daa4950	0.083147645
47	0xbf810842	-1.0080645
48	0xbf5596b2	-0.8343307
49	0xbf4a8524	-0.79109406
50	0xbfa4d6cf	-1.2878054
51	0xbfe6e087	-1.803727
52	0xbf7e8371	-0.99419314
53	0xbc3f0b0b	-0.011660348
54	0xbf96a1f0	-1.1768169
55	0x3eb7e37e	0.3591575
56	0x3f1b6b5f	0.6071071
57	0xbf1e964c	-0.61948085
58	0x3e32eaa6	0.17472324
59	0xbeeb3470	-0.45938444
60	0xbf7923af	-0.97320074
61	0xbfcdfe99	-1.6093322
62	0xbe9a8dc7	-0.30186293
63	0xbf6ed3ba	-0.9329182
64	0x4013ea6d	2.3111832
65	0x3e928fb7	0.2862527
66	0x3f8dac14	1.1068139
67	0x3ffa6c83	1.9564365
68	0x3f74d7cd	0.95641786
69	0x3fc43cc0	1.533104
70	0x3fd329e9	1.6497165
71	0x4005e27d	2.0919487
72	0x3d10ccb6	0.035351478
73	0x3f1d7e3f	0.6152076
74	0x3f1311ad	0.57448846
75	0x3f75903e	0.9592322
76	0x401e2088	2.4707355
77	0x40051aad	2.0797532
78	0x3f1e66e5	0.61875755
79	0xbf60236c	-0.8755405
80	0x3c82390e	0.015896346
81	0x3f95229f	1.165119
82	0x3f45cf78	0.772697
83	0x3f675866	0.9036926
84	0x400b64d9	2.1780303
85	0x3ec1f891	0.37884954
86	0x4043aaa0	3.0572891
87	0x3f158954	0.5841267
88	0x3f61473d	0.87999326
89	0x402c957f	2.6966245
90	0x3f8d9203	1.1060184
91	0x3fb61210	1.4224262
92	0x3ede70b6	0.43445367
93	0x3ffd4ee7	1.9789704
94	0x3fbe0c5d	1.4847523
95	0x400e86df	2.2269819
96	0x3f8444ea	1.0333531
97	0x3fc20a05	1.5159308
98	0x4007d06e	2.1220965
99	0x40047be2	2.0700612
100	0x3ffb814f	1.9648837
101	0x3f8d6290	1.1045704
102	0x3f83a237	1.0283879
103	0x3fe9ed25	1.8275496
104	0x3f87ef8b	1.0619978
105	0xbec69af7	-0.38790104
106	0xbfaac127	-1.3340195
107	0x403e455b	2.9729831
108	0x3ff63797	1.9235715
109	0x3eb81b63	0.35958394
110	0x3e179ec3	0.14806657
111	0x3f7c6d00	0.9860382
112	0x3f54b5bc	0.83089805
113	0x3f54c058	0.83105993
114	0x3ffc525b	1.9712633
115	0x3fa04dc1	1.2523729
116	0x40822a62	4.0676737
117	0x3f3ddc51	0.741643
118	0x3fa0d7d2	1.2565863
119	0x3f528dd7	0.8224768
120	0x401dce4c	2.4657164
121	0x40161cb7	2.3455026
122	0x40275ee0	2.6151657
123	0x3ffd1ae4	1.9773831
124	0x3faab0b6	1.3335178
125	0x3f710b15	0.94157535
126	0x3f36cef1	0.7140952
127	0x4005be33	2.0897338
128	0xbe3425f6	-0.17592606
129	0xbeba13f3	-0.36343345
130	0xbf2d64e7	-0.6773209
131	0x3ec3d5c6	0.38249034
132	0x3eab67c5	0.33477607
133	0xbe71022e	-0.23535988
134	0x3e9679ec	0.29389894
135	0x3e41d6ee	0.18929645
136	0xbe89500d	-0.26818886
137	0xbe3d9e60	-0.18517447
138	0xbe406af3	-0.18790798
139	0x3e9481eb	0.2900537
140	0x3ea1077a	0.31451017
141	0x3df59c40	0.11992693
142	0x3da7b77f	0.08189296
143	0x3b1a9d49	0.0023592284
144	0xbdc34367	-0.0953434
145	0xbeea3f58	-0.45751452
146	0xbe5acbb8	-0.21366775
147	0xbef760fd	-0.48316184
148	0x3d99de3d	0.07513092
149	0xbde0cf76	-0.1097707
150	0xbec42cb1	-0.38315347
151	0x3ea92046	0.33032435
152	0xbea50a2b	-0.3223432
153	0xbef6028e	-0.48048824
154	0x3e0f60a7	0.14001714
155	0xbe9307e5	-0.2871696
156	0x3eb20bfd	0.3477477
157	0xbdbfccb4	-0.09365216
158	0x3c8ddf73	0.017318463
159	0x3e16ddc2	0.14733031
160	0xbe9e6794	-0.309384
161	0x3dd8f9d1	0.10594524
162	0x3e80c69c	0.25151527
163	0x3e21ce7f	0.15801428
164	0x3e87e31b	0.26540455
165	0xbcfc7b4c	-0.030820511
166	0xbec34a29	-0.38142517
167	0x3d8bf05d	0.06832955
168	0xbebedb3a	-0.37276632
169	0xbe8ef29f	-0.2791948
170	0x3e5c58ea	0.21518293
171	0x3e93ebac	0.2889074
172	0xbde2898e	-0.11061393
173	0xbe51d650	-0.2049191
174	0x3dbc20b7	0.09185927
175	0x3eab7720	0.33489323
176	0xbe62030c	-0.22071475
177	0x3e224d26	0.15849742
178	0x3e34a191	0.17639758
179	0xbe07a68c	-0.13247126
180	0xbe875e60	-0.2643919
181	0x3d356f98	0.044295877
182	0x3e8406fe	0.25786585
183	0xbed8a3d3	-0.42312488
184	0xbf48726a	-0.7829958
185	0x3ea3ab9b	0.31966862
186	0xbea22274	-0.3166691
187	0xbe553073	-0.20819263
188	0xbe30aa63	-0.17252497
189	0xbdf8ff49	-0.12158067
190	0xbe217740	-0.15768147
191	0xbe6dfd15	-0.23241074

rnn.bias_hh_l0 f4 [192]
0	0xbf0217cf	-0.5081758
1	0x3e84e8a1	0.25958732
2	0xbf055eb6	-0.5209764
3	0x3f0cf075	0.5505441
4	0xbfa0f87b	-1.257583
5	0xbf8940c5	-1.0722891
6	0xbe961ee5	-0.29320446
7	0x3dc25e3b	0.09490629
8	0xbf72a4c1	-0.94782645
9	0xc01dc401	-2.4650881
10	0xbf61b895	-0.88172275
11	0xbf9af81e	-1.2106969
12	0xbf8424b4	-1.0323701
13	0xbf41686c	-0.7554996
14	0xbf2f21c2	-0.68410885
15	0xbe553e3d	-0.20824523
16	0xbf42804c	-0.75977015
17	0x3ea0cfd0	0.31408548
18	0xbe8cef51	-0.27526334
19	0xbf4d3e58	-0.80173254
20	0xbf45f5d3	-0.77328223
21	0xbc7b1470	-0.015324697
22	0xbf2c7d3a	-0.6737858
23	0xbf0ab19e	-0.5417727
24	0xbd91bbd1	-0.07115901
25	0xbf885129	-1.0649768
26	0xbf0d36c3	-0.55161685
27	0xbf8aecf5	-1.0853564
28	0xbeb4db4d	-0.35323563
29	0xbd852a7d	-0.065022446
30	0x3f26ffc5	0.65234023
31	0xbf9e9e40	-1.2392044
32	0xbf7f5744	-0.9974253
33	0xbf3c3a4a	-0.7352644
34	0x3e025131	0.12726285
35	0xbefd8616	-0.49516362
36	0xbb9995f3	-0.004687065
37	0xbf1d1f5d	-0.6137598
38	0xbc2bce71	-0.010486231
39	0xbf976e20	-1.1830482
40	0xbf2a1322	-0.66435444
41	0xbf54265e	-0.82871044
42	0xc02563b2	-2.58421
43	0xbc9a3f5c	-0.01882904
44	0xbd7c8518	-0.061650366
45	0xbed79bf2	-0.42111164
46	0x3e08212c	0.13293904
47	0xbf60d00b	-0.8781745
48	0xbf6a8ae3	-0.91618174
49	0xbf3c100b	-0.7346198
50	0xbf9f1875	-1.2429339
51	0xbff1ffe1	-1.8906213
52	0xbf46c9d5	-0.7765172
53	0x3db2a0f4	0.087221056
54	0xbf9bc685	-1.2169958
55	0x3ea7d1f8	0.3277738
56	0x3f2a78ae	0.6659039
57	0xbf43876f	-0.7637853
58	0x3cf20194	0.029541768
59	0xbedaa07d	-0.42700568
60	0xbf4b8b36	-0.79509294
61	0xbfcde3ed	-1.6085182
62	0xbea3bc37	-0.31979534
63	0xbf57982d	-0.84216577
64	0x402078ab	2.507365
65	0x3e5f170c	0.21786135
66	0x3f86421d	1.0488926
67	0x3ff2ea94	1.8977838
68	0x3f76d761	0.9642239
69	0x3fc17fe0	1.5117149
70	0x3fda2e79	1.7045432
71	0x400a4a7e	2.1607966
72	0x3d277061	0.040878657
73	0x3f264943	0.6495554
74	0x3f17fc35	0.5936921
75	0x3f4fdeb6	0.81199205
76	0x40233d45	2.5506146
77	0x3ffce99b	1.9758791
78	0x3f28c907	0.65931743
79	0xbf5b22b7	-0.85599846
80	0x3dd75140	0.10513544
81	0x3f899c9d	1.075092
82	0x3f1b9fd0	0.6079073
83	0x3f844d11	1.0336019
84	0x400267b6	2.03758
85	0x3ede92a8	0.43471265
86	0x40411f28	3.0175266
87	0x3f49728c	0.7869041
88	0x3f57c520	0.84285164
89	0x403a1421	2.9074786
90	0x3f9e8899	1.2385436
91	0x3fa43255	1.282786
92	0x3f087474	0.53302693
93	0x3feb3c74	1.8377824
94	0x3fac100b	1.3442396
95	0x40076b21	2.1159136
96	0x3f8b4821	1.0881387
97	0x3fcee5f9	1.6163932
98	0x40025cd7	2.0369165
99	0x3ffb6287	1.9639443
100	0x4008d249	2.1378348
101	0x3f8017ff	1.0007323
102	0x3f88981f	1.0671424
103	0x3feae253	1.8350319
104	0x3f958628	1.1681566
105	0xbeb2fa65	-0.3495666
106	0xbfbe7e70	-1.4882336
107	0x40403531	3.0032465
108	0x3fe469ad	1.784475
109	0x3eb61c2a	0.35568362
110	0x3e32abad	0.17448302
111	0x3f70bf01	0.9404145
112	0x3f6c70cb	0.9235961
113	0x3f3cd0f2	0.73756325
114	0x3ff74b95	1.9319941
115	0x3f994a13	1.1975731
116	0x407eb3c4	3.979722
117	0x3f324fff	0.69653314
118	0x3f99ef37	1.2026128
119	0x3f484138	0.78224516
120	0x40180e8e	2.3758883
121	0x401f6b62	2.4909291
122	0x40274739	2.613722
123	0x3ff2daf0	1.8973064
124	0x3fc3ab34	1.5286622
125	0x3f733c94	0.9501431
126	0x3f47b0f9	0.78004414
127	0x3ffb90b6	1.9653537
128	0x3c6e3bd2	0.014540629
129	0xbebb8b92	-0.3662992
130	0x3f3e4c6a	0.7433535
131	0x3e312cb6	0.17302212
132	0x3d9bd5a8	0.07609111
133	0xbeb10fc4	-0.3458234
134	0xbe39c90c	-0.181431
135	0x3d96a288	0.07355219
136	0x3d52503e	0.051346056
137	0xbe51e003	-0.2049561
138	0xbe94f5d0	-0.2909379
139	0x3eb4fb03	0.35347757
140	0x3e5a6ae3	0.21329837
141	0x3f11bc2b	0.56927747
142	0x3d9cd325	0.0765746
143	0xbe1b15b0	-0.15144992
144	0x3f86cc7f	1.0531157
145	0xbdeb88b3	-0.11500683
146	0x3c87825b	0.01654165
147	0x3eab2c6b	0.33432326
148	0x3e8d8bda	0.2764576
149	0x3f03fb0b	0.51554936
150	0xbf00555e	-0.5013026
151	0xbf39faa1	-0.72648054
152	0xbeb769fd	-0.3582305
153	0xbec31933	-0.38105163
154	0x3e81f5d8	0.25382876
155	0x3ec1d92a	0.37860996
156	0x3f10a7cf	0.56506056
157	0xbd51df3e	-0.05123829
158	0x3e3ba064	0.18322903
159	0x3f1d9130	0.61549664
160	0x3d3ef284	0.046618
161	0x3d9fe37c	0.07807061
162	0x3ee48072	0.44629246
163	0x3dba101f	0.09085106
164	0x3f25a7c5	0.6470912
165	0xbe5ffc1e	-0.21873519
166	0x3ebad30e	0.36489147
167	0x3e8d4303	0.27590188
168	0xbf250418	-0.6445937
169	0x3f2a0b90	0.6642389
170	0xbe45eb68	-0.19328082
171	0x3e4b9cc0	0.19884014
172	0x3eec9efb	0.46215042
173	0x3e95578e	0.2916836
174	0x3ea4eefa	0.32213575
175	0x3f49a83e	0.7877234
176	0xbf31ff05	-0.69529754
177	0x3b061835	0.0020461206
178	0x3e46b0f2	0.19403437
179	0x3e7ec9d4	0.24881679
180	0xbe846fcc	-0.25866544
181	0x3eab753d	0.33487883
182	0xbdb566fc	-0.08857533
183	0xbe215f5f	-0.15759037
184	0xbf720963	-0.94545573
185	0x3e8b760b	0.27238497
186	0xbd665481	-0.056232933
187	0x3e9eccd9	0.3101566
188	0x3e0c8ba6	0.13725147
189	0xbc9a6782	-0.018848184
190	0xbf4c5a37	-0.79825157
191	0x3e65ff6e	0.2246072

dense.weight f4 [1, 64]
0	0x3d45dbb6	0.048305236
1	0x3e0c9368	0.13728106
2	0x3ed27146	0.41102046
3	0xbd848ffa	-0.06472774
4	0x3ed2e8b0	0.4119315
5	0x3c7a7f95	0.015289207
6	0x3c2fa993	0.010721582
7	0x3cccc01c	0.024993949
8	0xbd95a78f	-0.0730735
9	0xbecebeb0	-0.40379858
10	0xbd9b5a10	-0.075855374
11	0x3e942532	0.28934628
12	0xbe0ac238	-0.13550651
13	0x3e8e3fe6	0.27783126
14	0x3d2c2808	0.042030364
15	0x3d41ebf8	0.047344178
16	0xbe43a5b9	-0.19106187
17	0xba980fa8	-0.0011601346
18	0xbd015f68	-0.031585127
19	0x3ddc1db2	0.107478514
20	0xbbe67fdc	-0.007034285
21	0x3d466f5f	0.048446056
22	0x3d7af6f3	0.061270665
23	0x3ab69ffe	0.001393318
24	0x3db07396	0.08615796
25	0xbd97da15	-0.07414643
26	0xbd82e734	-0.06391755
27	0x3bc14ce7	0.00589906
28	0xbca4b004	-0.020103462
29	0xbbba17aa	-0.0056790905
30	0x3c1a7a37	0.009428552
31	0x3e32937f	0.17439078
32	0x3c0d9612	0.008641737
33	0x3d210ac6	0.039316915
34	0xbd1376a7	-0.036001828
35	0x3b345020	0.0027513579
36	0xbd83cb65	-0.06435279
37	0xbcb8501f	-0.022499142
38	0xbd9fc85d	-0.07801888
39	0x3ef8c51e	0.48587888
40	0x3dd07bf0	0.10179889
41	0x3c4b6cc2	0.012416067
42	0xbef4cafc	-0.47811115
43	0xbda7b83f	-0.08189439
44	0x3d28aed8	0.04118237
45	0xbceefb8f	-0.029172687
46	0x3dec57c1	0.11540175
47	0xbd887e3c	-0.06664702
48	0x3e00ddc6	0.125846
49	0xbd818206	-0.06323628
50	0x3e074000	0.13208008
51	0xbe5da258	-0.2164396
52	0x3c9ed742	0.019389752
53	0xbcb8a24d	-0.022538329
54	0x3d84b4cf	0.06479799
55	0xbd634604	-0.055486694
56	0xbe807f66	-0.25097197
57	0xbb918a7e	-0.0044415584
58	0x3d9da6cb	0.07697829
59	0xbdc3d45a	-0.09561987
60	0xbb7d01c3	-0.0038605786
61	0xbe892473	-0.2678562
62	0xbc7628c3	-0.015024367
63	0xbd4aecb7	-0.049542155

exp_avg f4 [192, 1]
0	0xb6085ac8	-2.031842e-06
1	0x39046f25	0.00012629906
2	0xb6079f1d	-2.0209184e-06
3	0xb6afd897	-5.240621e-06
4	0xb7f8e0ac	-2.9668525e-05
5	0xb6d76d05	-6.420191e-06
6	0xb71787cf	-9.031922e-06
7	0x347a73b0	2.3325151e-07
8	0x38eb4ed0	0.00011220353
9	0x36aa978c	5.084037e-06
10	0x363c3c93	2.8049442e-06
11	0x3840c7dc	4.59625e-05
12	0x3533779f	6.685677e-07
13	0x3730813f	1.052051e-05
14	0x37104209	8.598444e-06
15	0x36e0794a	6.68984e-06
16	0xb8ce1e64	-9.828506e-05
17	0xb4d2431e	-3.9164382e-07
18	0xb6d6cc65	-6.4014916e-06
19	0xb7a7f9d0	-2.002428e-05
20	0x36beca21	5.685972e-06
21	0x362bc1d1	2.5593802e-06
22	0xb4d34751	-3.9353702e-07
23	0x36bce7d3	5.6298245e-06
24	0xb8a83451	-8.020609e-05
25	0x36336dbb	2.673695e-06
26	0x37c34d61	2.3281844e-05
27	0xb5c8c254	-1.4957718e-06
28	0xb6abaf66	-5.116616e-06
29	0x38426521	4.6347388e-05
30	0x37b6a336	2.1772092e-05
31	0x3701a570	7.727518e-06
32	0x353e3769	7.086115e-07
33	0xb8cc8a6b	-9.7532604e-05
34	0xb43d3d8e	-1.762439e-07
35	0x36b3efb2	5.36252e-06
36	0x36bc3b8d	5.6097692e-06
37	0x37ed0e93	2.8259388e-05
38	0xb78b4a3c	-1.660466e-05
39	0x37c6beb2	2.3692239e-05
40	0x374e5fd4	1.2300869e-05
41	0xb8b9dff4	-8.863202e-05
42	0x363683ac	2.7196756e-06
43	0xb42896e4	-1.5701113e-07
44	0x37c0b382	2.2971773e-05
45	0x37b5dda1	2.1680085e-05
46	0x3891eb4a	6.957965e-05
47	0x35d009a7	1.5500017e-06
48	0xb8701a99	-5.724523e-05
49	0x36d50df0	6.349517e-06
50	0x35f4d7cd	1.8242223e-06
51	0x37899021	1.6398788e-05
52	0xb201da0d	-7.558367e-09
53	0x373e42c1	1.1340425e-05
54	0xb65aecdd	-3.2622404e-06
55	0xb7c6d03e	-2.370041e-05
56	0x38bb1b4c	8.921939e-05
57	0x35c368f8	1.4559182e-06
58	0x382817f5	4.0076633e-05
59	0x3686df8e	4.0195364e-06
60	0xb77378b2	-1.451203e-05
61	0x375218ee	1.252278e-05
62	0x37b67174	2.1748921e-05
63	0xb4c03886	-3.5803913e-07
64	0xb819e1e2	-3.6688412e-05
65	0xb99cdf52	-0.00029921025
66	0xb78e7197	-1.6980614e-05
67	0x3896edd3	7.1968556e-05
68	0x3a30f278	0.0006749998
69	0x37f10030	2.8729526e-05
70	0xb8933d7b	-7.020958e-05
71	0xb3ba1727	-8.665511e-08
72	0x38b53b7d	8.641833e-05
73	0x3a0fb2a8	0.0005481639
74	0xb92e751d	-0.00016637561
75	0x3a214499	0.00061518844
76	0x3884c1a6	6.33032e-05
77	0xb9a0749d	-0.00030604462
78	0x38998d3e	7.321917e-05
79	0xb92474c7	-0.00015683762
80	0xb968dcb0	-0.00022207457
81	0x3891ff8e	6.9617396e-05
82	0xb84c4041	-4.869723e-05
83	0x3841e785	4.6230405e-05
84	0xb87b07fe	-5.9850507e-05
85	0xb69ec888	-4.732112e-06
86	0x36ba75b5	5.556935e-06
87	0x380e667d	3.3950888e-05
88	0x39050fd1	0.0001268976
89	0x35ab5c8e	1.276743e-06
90	0xb84b2c69	-4.844033e-05
91	0xb7cdbce0	-2.4525856e-05
92	0x38dfe510	0.00010676135
93	0xb69ac1fa	-4.6121395e-06
94	0xb9ef6074	-0.00045657496
95	0x3727ccbf	1.0001647e-05
96	0x38e026b3	0.000106883606
97	0xb74e01bb	-1.227896e-05
98	0x371118e7	8.6484715e-06
99	0x370326cd	7.8172425e-06
100	0xb7e1c6f8	-2.6914742e-05
101	0xb8c79212	-9.516267e-05
102	0x3988b3b1	0.00026073822
103	0xbaa2319d	-0.0012374405
104	0xb876d336	-5.8847676e-05
105	0x38e8a09b	0.00011092537
106	0x39e30bb5	0.00043305536
107	0x36c5bcb1	5.893024e-06
108	0xb811de50	-3.477774e-05
109	0x372c65aa	1.0275669e-05
110	0xb897ba8c	-7.234988e-05
111	0x379db1de	1.8798684e-05
112	0xb89a8b8f	-7.369287e-05
113	0xb78dbc9e	-1.6896342e-05
114	0xb8754b76	-5.848283e-05
115	0xb5dc8291	-1.6429277e-06
116	0xb3332f07	-4.1719456e-08
117	0x38e72e2a	0.00011023537
118	0xb88eae74	-6.803582e-05
119	0x37a208cf	1.9316007e-05
120	0xb8b5fba2	-8.677623e-05
121	0xb75caba7	-1.3152988e-05
122	0xb8277a88	-3.993002e-05
123	0xb7619948	-1.3446734e-05
124	0xb6104ecd	-2.150354e-06
125	0x3928581d	0.00016054553
126	0xb83fac4f	-4.5698423e-05
127	0xb7d9ca58	-2.596264e-05
128	0x3743403b	1.1637861e-05
129	0x39eaa057	0.0004475142
130	0xbb4b6bf9	-0.0031039699
131	0x38bb3c21	8.928055e-05
132	0x3b59e4ef	0.0033248027
133	0x38b1a5ee	8.4709245e-05
134	0x39dfa94c	0.0004266001
135	0x376e8c1d	1.4218528e-05
136	0xb8cb9d9d	-9.709152e-05
137	0xb9536c8d	-0.00020162966
138	0xb992c956	-0.00027997297
139	0x3a547281	0.00081042206
140	0x3999b42d	0.00029316676
141	0x39015c58	0.000123368
142	0xb9c1ff8e	-0.00037002232
143	0x38829ca5	6.2280604e-05
144	0xb9f326c6	-0.0004637746
145	0x3902397a	0.00012419178
146	0x38decfb8	0.000106244755
147	0x3a3c3287	0.000717916
148	0xb89a2ff0	-7.352221e-05
149	0x3a97d057	0.0011582476
150	0x3715f442	8.937963e-06
151	0x3823c950	3.9049715e-05
152	0x3a7e932c	0.00097112614
153	0xb85fd8f2	-5.336939e-05
154	0xb8a96cb2	-8.078794e-05
155	0x38edfc1a	0.00011347998
156	0xb99aedfe	-0.00029550487
157	0x394ef6c3	0.00019737617
158	0x393cf1a1	0.00018019091
159	0xba5fdc89	-0.0008539637
160	0x39a15852	0.00030774117
161	0xb96fb1ff	-0.00022859125
162	0xb7fbe0b9	-3.0026176e-05
163	0xb782f00c	-1.5608988e-05
164	0xb535d042	-6.773081e-07
165	0xba5aa97c	-0.0008341295
166	0xb908dc39	-0.0001305201
167	0xba5c90e6	-0.00084139255
168	0xb80b4541	-3.320468e-05
169	0x3a86804e	0.0010261626
170	0xba977b02	-0.0011557045
171	0xb775a2e1	-1.4641061e-05
172	0x3aa685b3	0.001270464
173	0x393f3d13	0.00018237931
174	0x3ab617d3	0.0013892598
175	0xb904a1c6	-0.00012648766
176	0x3aaed892	0.001333969
177	0xb6cd0890	-6.110473e-06
178	0x3ae63183	0.0017562363
179	0xbb0f4bcf	-0.0021865254
180	0x34230588	1.518257e-07
181	0xb8b8815e	-8.7979e-05
182	0x3a255a33	0.0006307691
183	0xb86cb7fe	-5.643814e-05
184	0xbb8cd605	-0.004297974
185	0x3791506c	1.7322796e-05
186	0x396d3036	0.00022620041
187	0xb846fa4a	-4.743998e-05
188	0xb94ccbbd	-0.00019530854
189	0xba5254ce	-0.0008023501
190	0x38162915	3.5801047e-05
191	0xb91695e6	-0.00014360956

exp_avg_sq f4 [192, 1]
0	0x379ebdc7	1.892344e-05
1	0x38de636a	0.00010604302
2	0x3a919fd0	0.001111025
3	0x35cc19d8	1.5206706e-06
4	0x380460d2	3.1561423e-05
5	0x37939a55	1.7595632e-05
6	0x357f7b27	9.5174113e-07
7	0x3237b542	1.0693215e-08
8	0x38d3b297	0.00010094529
9	0x32251414	9.608829e-09
10	0x3871295b	5.7497393e-05
11	0x38073921	3.2239714e-05
12	0x32e4b329	2.6624166e-08
13	0x398aa3de	0.00026443502
14	0x3a03d439	0.0005028877
15	0x39429716	0.00018557566
16	0x3975e340	0.00023449678
17	0x3a4b9914	0.0007766646
18	0x38a3e5fc	7.8152836e-05
19	0x38128bf8	3.493947e-05
20	0x37d872d7	2.5802683e-05
21	0x35326dc0	6.6469875e-07
22	0x30c9573d	1.4649469e-09
23	0x37d2543a	2.5073172e-05
24	0x38447f24	4.684845e-05
25	0x348a4088	2.5751456e-07
26	0x3871cb34	5.7648125e-05
27	0x35351e34	6.7471706e-07
28	0x38041ca2	3.149792e-05
29	0x38ac6ef7	8.222268e-05
30	0x35837f71	9.797351e-07
31	0x3787a68f	1.6170814e-05
32	0x38536345	5.0398772e-05
33	0x38d89742	0.000103278566
34	0x35053803	4.962787e-07
35	0x35194774	5.710092e-07
36	0x3a9b8a84	0.0011866842
37	0x38140485	3.529016e-05
38	0x393d0ad2	0.00018028475
39	0x3506e958	5.025845e-07
40	0x37f84d42	2.959988e-05
41	0x3879357f	5.941605e-05
42	0x3563defa	8.4888563e-07
43	0x3238447e	1.0725783e-08
44	0x392c9cf8	0.00016461674
45	0x371cbe5c	9.342646e-06
46	0x37cc4d92	2.4354817e-05
47	0x3a0d4149	0.00053884514
48	0x3608fb95	2.041202e-06
49	0x38e5497e	0.0001093326
50	0x34e7f1bc	4.3202988e-07
51	0x359281bb	1.0915604e-06
52	0x2f45fe12	1.800731e-10
53	0x372fd649	1.0480705e-05
54	0x376889f3	1.3860396e-05
55	0x392c309f	0.00016421311
56	0x3a0afd86	0.000530206
57	0x34999bae	2.8611743e-07
58	0x3565e587	8.5643154e-07
59	0x37fae7d6	2.991028e-05
60	0x34c2b296	3.6265254e-07
61	0x388a5e14	6.597876e-05
62	0x37749c16	1.4579875e-05
63	0x3526fd1d	6.220815e-07
64	0x3846bec4	4.7384543e-05
65	0x38b7a7b1	8.757355e-05
66	0x37a8a96b	2.0106052e-05
67	0x38d57585	0.00010178521
68	0x39c296aa	0.00037114817
69	0x3a0d2dcd	0.0005385548
70	0x3a62ed30	0.00086565595
71	0x36fe1c4d	7.5730845e-06
72	0x38cf4f3d	9.8852885e-05
73	0x39ad3779	0.00033038462
74	0x37bfd1f7	2.2866747e-05
75	0x3a18d2a5	0.00058297283
76	0x35006579	4.783138e-07
77	0x377749f9	1.473957e-05
78	0x3947444e	0.00019003564
79	0x37cbc11b	2.4289408e-05
80	0x3a0a5cc3	0.0005278105
81	0x3a4f2c28	0.0007903003
82	0x3a0c1310	0.00053434167
83	0x36cfb5ac	6.19023e-06
84	0x3a0b4633	0.00053128897
85	0x3901a0a0	0.00012362236
86	0x32d08872	2.4276435e-08
87	0x36408e8e	2.8693207e-06
88	0x38fb8bf9	0.000119946846
89	0x3457f37e	2.0112017e-07
90	0x3856b343	5.1188526e-05
91	0x36494cf3	2.9996124e-06
92	0x38b5d9a1	8.671289e-05
93	0x3b584337	0.0032999048
94	0x3985442e	0.00025418535
95	0x390c8901	0.00013402478
96	0x3765f029	1.370538e-05
97	0x39a05e66	0.0003058791
98	0x36c53df1	5.8782684e-06
99	0x348714ca	2.5160836e-07
100	0x37effa24	2.8607501e-05
101	0x37a21d4e	1.9325551e-05
102	0x3a6cfd35	0.00090404163
103	0x36ec1923	7.0362744e-06
104	0x3a5cb279	0.00084189285
105	0x39ae96f7	0.00033300344
106	0x37981f19	1.8134293e-05
107	0x34690393	2.1701116e-07
108	0x3a7aaf62	0.0009562877
109	0x36b44b96	5.3732174e-06
110	0x3873f9b7	5.816828e-05
111	0x37880a64	1.6217302e-05
112	0x35a78694	1.2481637e-06
113	0x3912c18d	0.00013995748
114	0x3918250f	0.00014509655
115	0x38cc2136	9.733664e-05
116	0x30c8d45d	1.4612273e-09
117	0x3932d349	0.00017054113
118	0x37ea91f6	2.7962942e-05
119	0x3992b122	0.00027979264
120	0x37455f93	1.1764368e-05
121	0x34f0e335	4.4868798e-07
122	0x37300a83	1.0492865e-05
123	0x38695dc5	5.563886e-05
124	0x34e85f72	4.3282813e-07
125	0x37c620b4	2.3618668e-05
126	0x372629c8	9.904099e-06
127	0x36a6f6fc	4.9759383e-06
128	0x3aa80cc7	0.0012821191
129	0x3a9aafb6	0.0011801634
130	0x3b019b7c	0.0019776514
131	0x38a8be09	8.046261e-05
132	0x39d19fa1	0.0003998252
133	0x3b7c2ed7	0.0038480067
134	0x3898e424	7.290419e-05
135	0x36d09f25	6.21741e-06
136	0x3be91755	0.007113377
137	0x3b095dfa	0.0020960555
138	0x3c543199	0.012951278
139	0x3a331a4b	0.0006832226
140	0x38e12d31	0.000107372536
141	0x3c07f7e8	0.008298852
142	0x3d0360d3	0.03207476
143	0x3d06a802	0.03287507
144	0x3ce4465b	0.02786558
145	0x3b108349	0.0022050908
146	0x3aa160b4	0.0012312145
147	0x3ca09878	0.019603953
148	0x39b13053	0.00033796075
149	0x3c97ebfd	0.018545145
150	0x345f337b	2.0787222e-07
151	0x3a5855ea	0.0008252548
152	0x3cdb137a	0.026742686
153	0x36a2e16d	4.8542192e-06
154	0x3a3b8a43	0.00071540865
155	0x39dd36d6	0.0004219326
156	0x3b0ea5dd	0.0021766343
157	0x3ad7da21	0.0016468206
158	0x398e0626	0.00027088932
159	0x3a7d239a	0.0009656489
160	0x3b86207e	0.004093229
161	0x3a871334	0.0010305406
162	0x39fb81b9	0.00047971102
163	0x3ae07390	0.0017124284
164	0x3b42a04e	0.00296976
165	0x3bbec0e0	0.0058213323
166	0x39dbe9e9	0.00041945212
167	0x3b7c0225	0.0038453427
168	0x39ddd5c4	0.00042311673
169	0x3ad2d587	0.0016085365
170	0x3b9c149c	0.004763199
171	0x351e165a	5.889211e-07
172	0x3928d27c	0.0001610014
173	0x3a44fced	0.00075144955
174	0x3b079f45	0.0020694297
175	0x3b9cb921	0.0047828113
176	0x3ba13e34	0.0049207453
177	0x3bfbaa5d	0.007680221
178	0x3a90e8e0	0.001105573
179	0x3ba170d0	0.0049267784
180	0x33f53a24	1.1419277e-07
181	0x3b28b9e4	0.0025745565
182	0x3b8a7495	0.0042253234
183	0x3be30a9e	0.006928756
184	0x3bd32268	0.0064433105
185	0x3921ebcc	0.00015441998
186	0x39bbe837	0.00035840433
187	0x37dede47	2.6567968e-05
188	0x37b4c7cf	2.1550715e-05
189	0x3c322554	0.0108731575
190	0x393c3fff	0.00017952918
191	0x39c48e34	0.00037489983

exp_avg f4 [192, 64]
0	0xb17158a4	-3.5120502e-09
1	0x3582b82b	9.739355e-07
2	0x3480d6c5	2.3998123e-07
3	0xb43d3caf	-1.7624073e-07
4	0xb62429b4	-2.4462179e-06
5	0xb4f1b6d4	-4.5022773e-07
6	0x3417515e	1.4092572e-07
7	0x3582f8cb	9.758163e-07
8	0xb30d3807	-3.2880077e-08
9	0x354d41ff	7.646449e-07
10	0x345d2230	2.0594666e-07
11	0xb5c406d7	-1.4605129e-06
12	0x328a1478	1.6074623e-08
13	0xb4d1863c	-3.9026952e-07
14	0xb57f0331	-9.4999547e-07
15	0x354d0316	7.637294e-07
16	0x359f69b8	1.1877191e-06
17	0xb29ad56a	-1.8025009e-08
18	0xb5418c16	-7.2101955e-07
19	0xb3560789	-4.983261e-08
20	0xb590e675	-1.0795908e-06
21	0x33ce2744	9.599765e-08
22	0xb378573e	-5.7821346e-08
23	0x34aef044	3.2584842e-07
24	0xb4585f3e	-2.0151217e-07
25	0xb2bc3e5c	-2.1914438e-08
26	0xb5443296	-7.30893e-07
27	0x346e3ee2	2.2188354e-07
28	0x34435fa5	1.8195585e-07
29	0x324ec2ec	1.2035098e-08
30	0xb608798c	-2.0336329e-06
31	0xb48d8bfc	-2.636515e-07
32	0xb2109fc1	-8.418227e-09
33	0xb56cd8cd	-8.823234e-07
34	0x319f18d3	4.6303312e-09
35	0x32d084a7	2.427471e-08
36	0xb56d6a86	-8.844439e-07
37	0xb4b2c0b8	-3.3295305e-07
38	0xb507dbaf	-5.06111e-07
39	0xb47409b1	-2.2727797e-07
40	0x35053d2c	4.963538e-07
41	0xb4a7827b	-3.120111e-07
42	0x35cfa7a7	1.5471495e-06
43	0xb11a1fd8	-2.242805e-09
44	0xb3b106ad	-8.243419e-08
45	0xb49a04c2	-2.8688197e-07
46	0x3628d00a	2.5155045e-06
47	0xb50104a5	-4.8063004e-07
48	0x336bf191	5.4934905e-08
49	0xb50b6c9a	-5.193957e-07
50	0xb5294b25	-6.3066756e-07
51	0x34eb2354	4.3797866e-07
52	0x2d8b11bc	1.5810346e-11
53	0xb505055d	-4.9554166e-07
54	0xb4ecd898	-4.4116018e-07
55	0x34a1dcb1	3.014916e-07
56	0xb5edb30d	-1.7709987e-06
57	0x32fff340	2.9796524e-08
58	0xb5130e2c	-5.478239e-07
59	0xb53e12cf	-7.0807886e-07
60	0x33939edd	6.874118e-08
61	0x356774dc	8.622426e-07
62	0xb5ab5038	-1.276384e-06
63	0xb298aab2	-1.7772752e-08
64	0xb5221bfb	-6.039042e-07
65	0xb8228143	-3.8744194e-05
66	0x36926a3b	4.363506e-06
67	0xb6073339	-2.0146383e-06
68	0x38aeaf34	8.329601e-05
69	0x377f9b9c	1.5235415e-05
70	0xb6ccded5	-6.105615e-06
71	0xb4992a42	-2.8529217e-07
72	0xb7159ef3	-8.9181e-06
73	0xb7bb0f11	-2.2299153e-05
74	0xb83a66d7	-4.4441633e-05
75	0x3794ef1a	1.7754315e-05
76	0xb580be33	-9.592098e-07
77	0x348e82f3	2.654484e-07
78	0x37fd29e3	3.0179455e-05
79	0xb8d7fb3e	-0.000102987964
80	0xb8baccfc	-8.9073525e-05
81	0xb56bc1b7	-8.7826214e-07
82	0x371e7ea3	9.447019e-06
83	0x36ca3f90	6.0274688e-06
84	0x379f90eb	1.902176e-05
85	0xb834ff4b	-4.3153104e-05
86	0x361506f0	2.2206768e-06
87	0x35acedf8	1.2884257e-06
88	0x3720e4a4	9.589978e-06
89	0x359a04c2	1.1475279e-06
90	0x36342fb9	2.6849868e-06
91	0x36071274	2.0127309e-06
92	0xb7615396	-1.3430506e-05
93	0xb4dc3a69	-4.1020692e-07
94	0x391af831	0.00014779043
95	0x3659f261	3.2476603e-06
96	0x34d8dc3b	4.0393374e-07
97	0x355f3c2c	8.3161535e-07
98	0xb5a94197	-1.261057e-06
99	0xb568a6e0	-8.666957e-07
100	0xb60cab5d	-2.0961372e-06
101	0x372c3708	1.0264812e-05
102	0xb69b46dc	-4.627609e-06
103	0x359c9c17	1.1668334e-06
104	0x36319c31	2.646597e-06
105	0xb783ee0e	-1.572727e-05
106	0xb8f89435	-0.00011853167
107	0xb3384d0e	-4.291092e-08
108	0x36397ddc	2.7640408e-06
109	0x37a0156b	1.908346e-05
110	0xb8f5dfe6	-0.00011724215
111	0xb683380d	-3.9106294e-06
112	0x346720a7	2.152543e-07
113	0x35f6917d	1.8370771e-06
114	0x3822dd03	3.8829643e-05
115	0xb86b7e29	-5.6145862e-05
116	0xb08e86ca	-1.0370169e-09
117	0x37d595ba	2.54613e-05
118	0x381fb2e7	3.807517e-05
119	0x3686a37b	4.012543e-06
120	0x3824bbd9	3.9275594e-05
121	0xb5e47720	-1.7021994e-06
122	0x37e6662a	2.746571e-05
123	0x3294f6bf	1.7341675e-08
124	0x34f7bc8f	4.614453e-07
125	0xb87fa2de	-6.094842e-05
126	0x3866b825	5.500777e-05
127	0x358e606f	1.060789e-06
128	0xb40b5969	-1.2977911e-07
129	0xb6868ceb	-4.009916e-06
130	0x35cabe80	1.5105616e-06
131	0x34ffc3ff	4.7640057e-07
132	0x378a3908	1.647744e-05
133	0x36aad717	5.0914346e-06
134	0xb6141f56	-2.2071958e-06
135	0x339e48f9	7.370722e-08
136	0x367b5afe	3.745488e-06
137	0xb637f851	-2.7413664e-06
138	0xb5a4f5e9	-1.2290521e-06
139	0x36847bfe	3.948341e-06
140	0xb4ae95cb	-3.2519014e-07
141	0x336d87ad	5.530426e-08
142	0x372c430d	1.026761e-05
143	0xb78c523c	-1.6727594e-05
144	0xb79240a0	-1.743465e-05
145	0xb4a4afa4	-3.0675176e-07
146	0x35fb31f9	1.8715501e-06
147	0x35a4689f	1.2249401e-06
148	0x36c2c5c8	5.8046753e-06
149	0xb5b12c8f	-1.3200496e-06
150	0x3526400e	6.193303e-07
151	0xb67895e8	-3.7042137e-06
152	0x363b9690	2.795281e-06
153	0x348e5a97	2.6515474e-07
154	0x34d0668b	3.881763e-07
155	0x34f1e859	4.5058803e-07
156	0xb73ad3ad	-1.11357485e-05
157	0xb4596c20	-2.0249036e-07
158	0x37882995	1.6231827e-05
159	0x359469c8	1.1057646e-06
160	0xb490f650	-2.7001306e-07
161	0xb5a3a4cf	-1.2192412e-06
162	0xb48cb306	-2.620729e-07
163	0xb3e2050d	-1.0524864e-07
164	0xb506f26a	-5.027165e-07
165	0x3659abfb	3.2435626e-06
166	0xb60fd4fa	-2.143263e-06
167	0x34c162b3	3.6020865e-07
168	0x3526514f	6.195814e-07
169	0x36e629f1	6.8594168e-06
170	0xb7cb105b	-2.4207102e-05
171	0xb2a7a5fd	-1.9516841e-08
172	0x3574a0d5	9.1131125e-07
173	0x36b64faa	5.433297e-06
174	0xb7c473a8	-2.3418877e-05
175	0xb54f98ab	-7.733567e-07
176	0xb5aa6f3a	-1.2698358e-06
177	0x34126344	1.3633422e-07
178	0x371deb4e	9.412715e-06
179	0xb68db71c	-4.223444e-06
180	0xb2310d25	-1.0305745e-08
181	0x35f474ce	1.8213411e-06
182	0x35a64207	1.238718e-06
183	0x36854b4d	3.972475e-06
184	0x376a301e	1.395869e-05
185	0xb4a52a45	-3.07644e-07
186	0x371005be	8.584406e-06
187	0x3129a601	2.46871e-09
188	0x336e24c5	5.5447135e-08
189	0xb70258ff	-7.769325e-06
190	0x3792c8d1	1.7498069e-05
191	0x3468d0d9	2.1682662e-07
192	0xb42596b9	-1.5421655e-07
193	0xb70b11dc	-8.289204e-06
194	0xb61af89c	-2.3092498e-06
195	0x3636f949	2.7265216e-06
196	0x363cfb3c	2.816042e-06
197	0xb6043b4d	-1.970405e-06
198	0x35271131	6.2237365e-07
199	0x3460d81a	2.0940243e-07
200	0xb66e49f9	-3.5507821e-06
201	0xb62ecea9	-2.6048313e-06
202	0xb636141b	-2.7131816e-06
203	0x36ce389a	6.1458677e-06
204	0x34219926	1.5050009e-07
205	0x34136b1b	1.3729407e-07
206	0xb5b79dbf	-1.3680473e-06
207	0x36946f62	4.4237104e-06
208	0x3690971b	4.3091254e-06
209	0xb4c6ee8e	-3.7053945e-07
210	0xb624f298	-2.4579113e-06
211	0xb64d8e6c	-3.063028e-06
212	0xb58df1c2	-1.0575679e-06
213	0xb5304d0f	-6.5677244e-07
214	0xb480621b	-2.391324e-07
215	0x32993162	1.7834001e-08
216	0xb66fffc7	-3.5762657e-06
217	0xb436ffce	-1.7043132e-07
218	0x352cd90f	6.4390855e-07
219	0xb5b1eb02	-1.3255924e-06
220	0x372605fe	9.895766e-06
221	0x3100e687	1.8757491e-09
222	0xb6889a5b	-4.071085e-06
223	0x35161f4b	5.592489e-07
224	0xb52d9703	-6.4667273e-07
225	0x36104ba5	2.1501703e-06
226	0x34fe734e	4.7395082e-07
227	0x34478ff8	1.8585695e-07
228	0x360e2956	2.118371e-06
229	0xb59c6268	-1.1651546e-06
230	0x315fefb3	3.2587024e-09
231	0x33b30d4f	8.337758e-08
232	0xb60a08ec	-2.0568796e-06
233	0xb6a2f726	-4.856748e-06
234	0x36f56ee1	7.314477e-06
235	0x336cb505	5.5112668e-08
236	0xb47334ad	-2.2650302e-07
237	0xb61d76dc	-2.3464008e-06
238	0x36028f77	1.9455017e-06
239	0x3611ccce	2.1725896e-06
240	0xb5daad6e	-1.629274e-06
241	0x354da627	7.6610235e-07
242	0xb5cb7b18	-1.5160504e-06
243	0x34d4db5d	3.9647685e-07
244	0xb1b44b19	-5.247227e-09
245	0xb533ded3	-6.700695e-07
246	0x3656ac1c	3.1988666e-06
247	0xb6b1dce7	-5.3007275e-06
248	0xb70d5ce1	-8.42588e-06
249	0x34ccd453	3.8152447e-07
250	0xb5d12acc	-1.5584169e-06
251	0xb4f1dda4	-4.5051013e-07
252	0xb5138324	-5.49526e-07
253	0x34edbd9e	4.4282655e-07
254	0xb6c3a2f0	-5.8304213e-06
255	0xb49cd2e1	-2.92107e-07

exp_avg_sq f4 [192, 64]
0	0x32baf266	2.176348e-08
1	0x351dc252	5.876983e-07
2	0x356d4046	8.838291e-07
3	0x32641bb4	1.3277646e-08
4	0x34c5ec38	3.686598e-07
5	0x33a49539	7.6639886e-08
6	0x33b6f3c7	8.519378e-08
7	0x31b1606d	5.1623403e-09
8	0x3520e478	5.993711e-07
9	0x35655fba	8.544845e-07
10	0x305d9cff	8.0622437e-10
11	0x3516cac1	5.61744e-07
12	0x2fb954a4	3.3711445e-10
13	0x3496aee2	2.806692e-07
14	0x322c25c9	1.0020309e-08
15	0x319c8cc7	4.556202e-09
16	0x30bc89e9	1.3717997e-09
17	0x30b0fba2	1.2877204e-09
18	0x343af4ff	1.7411729e-07
19	0x353ba770	6.990658e-07
20	0x2f2852f6	1.5308985e-10
21	0x327b8be7	1.4641933e-08
22	0x2e0998e4	3.1285988e-11
23	0x32d324ca	2.4580363e-08
24	0x2f94b0a4	2.7046554e-10
25	0x3148630c	2.9160132e-09
26	0x2fdf88f8	4.0660786e-10
27	0x33bd24c7	8.807688e-08
28	0x32322f52	1.0371723e-08
29	0x34d75900	4.0111627e-07
30	0x3177feb5	3.6088015e-09
31	0x324b0523	1.1817323e-08
32	0x3400c694	1.1993171e-07
33	0x30c6cb84	1.4464239e-09
34	0x32c86c3d	2.3332285e-08
35	0x32e5a5c9	2.6734499e-08
36	0x33181de4	3.5417443e-08
37	0x3550e1d4	7.781466e-07
38	0x359e3ec5	1.1790186e-06
39	0x30e73122	1.6821426e-09
40	0x34a32336	3.0386735e-07
41	0x340446ee	1.2319262e-07
42	0x360b386d	2.0745458e-06
43	0x2fb6c5cd	3.3246153e-10
44	0x326cc611	1.3782043e-08
45	0x317d114d	3.682618e-09
46	0x311dc3fd	2.2957913e-09
47	0x31afe1e2	5.1188502e-09
48	0x3383694b	6.1193155e-08
49	0x339f577e	7.419929e-08
50	0x2f820ada	2.3654573e-10
51	0x33bce30e	8.795733e-08
52	0x2c25969f	2.3531522e-12
53	0x34c6e463	3.7046547e-07
54	0x328e31a7	1.6553555e-08
55	0x333a9f11	4.345117e-08
56	0x30ce7762	1.5022403e-09
57	0x32034a2d	7.642069e-09
58	0x2f3615e0	1.6560575e-10
59	0x31c06495	5.5993703e-09
60	0x3231c081	1.0346526e-08
61	0x3008b0e2	4.972788e-10
62	0x31e7cec0	6.7464896e-09
63	0x3106ddfa	1.9625745e-09
64	0x3484bf83	2.472626e-07
65	0x3531d72a	6.6250743e-07
66	0x381fd1bc	3.8103884e-05
67	0x340c862b	1.3087326e-07
68	0x35a7ff86	1.2516837e-06
69	0x3525f5da	6.182505e-07
70	0x36649f61	3.4067418e-06
71	0x3555078f	7.935968e-07
72	0x3827ef2a	4.003864e-05
73	0x36b78bb0	5.4700868e-06
74	0x360f3a83	2.1342719e-06
75	0x363cc4a8	2.8128652e-06
76	0x311c63c9	2.275771e-09
77	0x37bd4f05	2.2567352e-05
78	0x341d86b4	1.4670769e-07
79	0x3665abc8	3.422365e-06
80	0x36658ad6	3.4204472e-06
81	0x37cea2d5	2.4632938e-05
82	0x36e2d829	6.760489e-06
83	0x372d4f52	1.0330072e-05
84	0x33f66d34	1.14751316e-07
85	0x34dc56d5	4.1041372e-07
86	0x300f6710	5.216956e-10
87	0x34a0c43e	2.9945107e-07
88	0x363ff1ed	2.8602037e-06
89	0x3282fab7	1.5248004e-08
90	0x33f038c3	1.1186196e-07
91	0x34f13138	4.492556e-07
92	0x3688807b	4.068073e-06
93	0x35091942	5.107323e-07
94	0x346513d8	2.1334506e-07
95	0x363807bc	2.7422639e-06
96	0x368dba1d	4.223794e-06
97	0x338b9a00	6.500704e-08
98	0x343b03dd	1.7417138e-07
99	0x333b23bd	4.3571834e-08
100	0x34dc7fd8	4.1071212e-07
101	0x37606d3e	1.3376875e-05
102	0x38187662	3.6349877e-05
103	0x3290d931	1.6862574e-08
104	0x365f5a04	3.3281985e-06
105	0x34163823	1.3990261e-07
106	0x381e346d	3.771896e-05
107	0x3260cd90	1.30852555e-08
108	0x37d840ee	2.5779442e-05
109	0x362156b5	2.404134e-06
110	0x350b35cb	5.1859814e-07
111	0x3636bed1	2.7231183e-06
112	0x35366ed4	6.796156e-07
113	0x3580e6f7	9.603963e-07
114	0x32d97d41	2.5319084e-08
115	0x34f2cf5a	4.522688e-07
116	0x2ddbb1b4	2.4976334e-11
117	0x36c81438	5.9628182e-06
118	0x34566839	1.9968219e-07
119	0x36bce29d	5.629218e-06
120	0x34530667	1.9653235e-07
121	0x32780eca	1.44388626e-08
122	0x32c34f18	2.2736955e-08
123	0x3551c1e6	7.8140727e-07
124	0x331005bc	3.3532828e-08
125	0x339dccfe	7.34817e-08
126	0x3459d5e6	2.0287516e-07
127	0x3454e10f	1.9825914e-07
128	0x382024b4	3.8181155e-05
129	0x3846e629	4.7421232e-05
130	0x35d043e1	1.5516963e-06
131	0x3596eb62	1.1244376e-06
132	0x382d3b34	4.130155e-05
133	0x376b013f	1.4007382e-05
134	0x3716deae	8.992543e-06
135	0x3216329a	8.742655e-09
136	0x37869be8	1.6046644e-05
137	0x390411b0	0.0001259509
138	0x3423e068	1.5262196e-07
139	0x38a0b586	7.663206e-05
140	0x34ca60d9	3.7695898e-07
141	0x374f1100	1.234212e-05
142	0x3457759c	2.0066221e-07
143	0x37afa0c2	2.0936484e-05
144	0x352dc549	6.473461e-07
145	0x3873ae8e	5.809828e-05
146	0x37c6ebd8	2.3713263e-05
147	0x37ac96e2	2.0574258e-05
148	0x3185ab29	3.890268e-09
149	0x33891d3b	6.3848766e-08
150	0x30e50a26	1.6664827e-09
151	0x369036d3	4.297917e-06
152	0x3789c9f5	1.6425716e-05
153	0x34c8185b	3.7270624e-07
154	0x335857e7	5.0371366e-08
155	0x3729e641	1.0126795e-05
156	0x363a7b05	2.7787767e-06
157	0x38e37d2a	0.00010847517
158	0x34bfecce	3.574882e-07
159	0x3706896f	8.019021e-06
160	0x35e8637a	1.7314298e-06
161	0x33bec35b	8.8830994e-08
162	0x36c5710f	5.8842193e-06
163	0x36aedae0	5.2110845e-06
164	0x36ac02ad	5.126311e-06
165	0x38d4804c	0.00010132845
166	0x39cc15a3	0.00038926033
167	0x36145c99	2.2107617e-06
168	0x38238bca	3.8992417e-05
169	0x34615949	2.098724e-07
170	0x3915d8e9	0.00014290553
171	0x32ac5cfc	2.006572e-08
172	0x38f62c1c	0.0001173841
173	0x345708a8	2.0026584e-07
174	0x345b4546	2.0421166e-07
175	0x3787d7eb	1.6193799e-05
176	0x36b0c8e9	5.2685978e-06
177	0x37474674	1.1877728e-05
178	0x32bf95a3	2.2303373e-08
179	0x36cce328	6.1061182e-06
180	0x2e5a154d	4.958638e-11
181	0x383b232b	4.4617027e-05
182	0x36448869	2.9285677e-06
183	0x37df3db8	2.6612412e-05
184	0x33c18314	9.011106e-08
185	0x36f99bd7	7.4389204e-06
186	0x32a9c4a6	1.9763615e-08
187	0x35bcd810	1.4069974e-06
188	0x36adf756	5.1845955e-06
189	0x33201f8a	3.7281588e-08
190	0x36bc6930	5.615082e-06
191	0x361438cf	2.2086786e-06
192	0x331e98ef	3.6926334e-08
193	0x33d55deb	9.935669e-08
194	0x32ebc7a6	2.744839e-08
195	0x30df61fd	1.6253235e-09
196	0x33576c74	5.0157226e-08
197	0x32138dfd	8.5888106e-09
198	0x34196a40	1.4287889e-07
199	0x30cd5bc5	1.4941796e-09
200	0x34031161	1.2206648e-07
201	0x347ced6c	2.3555702e-07
202	0x3315aecb	3.485074e-08
203	0x33d664bd	9.983476e-08
204	0x2fa00ef6	2.911446e-10
205	0x347bb565	2.3442188e-07
206	0x30e97867	1.6987202e-09
207	0x33dd3ee5	1.0302555e-07
208	0x32db9dae	2.556666e-08
209	0x3507ed2d	5.0636555e-07
210	0x3260d28e	1.3086391e-08
211	0x33421238	4.5185715e-08
212	0x322394e2	9.521701e-09
213	0x31847063	3.8544825e-09
214	0x2d1890a8	8.67232e-12
215	0x3037b0f6	6.682649e-10
216	0x326edf32	1.3904172e-08
217	0x2faad02d	3.1070738e-10
218	0x30b1b13c	1.2928818e-09
219	0x30f709c3	1.797439e-09
220	0x3395620f	6.95619e-08
221	0x34148bba	1.3834406e-07
222	0x30bde1cb	1.3815734e-09
223	0x336b09fa	5.4724275e-08
224	0x317b3aaa	3.6558654e-09
225	0x30d729b4	1.5655162e-09
226	0x319eb09f	4.6184847e-09
227	0x322269ca	9.453695e-09
228	0x34970e59	2.813638e-07
229	0x332859ac	3.9197104e-08
230	0x33844d57	6.160797e-08
231	0x2ed8c0b0	9.856771e-11
232	0x3360cd55	5.2340813e-08
233	0x341242b1	1.3621572e-07
234	0x34714ac3	2.2472072e-07
235	0x2e9393f3	6.711067e-11
236	0x34034233	1.2224409e-07
237	0x307e10ef	9.2428726e-10
238	0x31382368	2.679565e-09
239	0x314cd6d9	2.9808034e-09
240	0x32325f31	1.0382608e-08
241	0x32517069	1.219096e-08
242	0x2fa8620d	3.062869e-10
243	0x32cb5c64	2.3674325e-08
244	0x2ab06cce	3.133938e-13
245	0x33fc814e	1.1758185e-07
246	0x326ead5f	1.3892843e-08
247	0x33945898	6.907902e-08
248	0x32068d2b	7.831924e-09
249	0x31f3b8b8	7.093231e-09
250	0x2fc04f55	3.4980965e-10
251	0x32af66ab	2.041937e-08
252	0x322303e2	9.488732e-09
253	0x309dff8a	1.1495882e-09
254	0x31b9b666	5.404945e-09
255	0x3168d458	3.3881147e-09
