06_CNN/logs/cnn/version_0/checkpoints/last.ckpt (torch, 298995 bytes, 24 tensors)

model.0.weight f4 [16, 1, 3, 3]
00000000: 20ea 26be b17a 493e 8604 1a3f 50b3 d13e
00000010: 0c75 f93e d265 d1bd 5740 94bd f859 39bf
00000020: cf70 10bf 5bbe c03e ef7e c73e 4669 27bf
00000030: e747 a33e 6016 083d 055a 86bd a868 99be
00000040: 15ce f93e 1a16 073f bcac 3d3e 1017 bdbb
00000050: 776f f13e 5349 12be 94aa 0d3e ad60 cc3e
00000060: 833f 943e 46b9 983c 8e7f c13e 1851 92be
00000070: 807f 463b 98d2 6bbd 8ecc 3ebe b20e 353e
00000080: 9859 203d 3e9a 2ebe 5835 4cbe 94a0 bb3d
00000090: 7160 813e fc14 963e 6ec2 9e3e f2f2 843e
000000a0: 2541 923d 0c61 7f3e 3ec2 01bf 70a5 d8be
000000b0: e2de e4bd 7780 8fbe 3098 e0bd 9008 c7bd
000000c0: bcd8 d5bd 4873 40be 8347 91be f60d babd
000000d0: b299 93be 50b0 f0bc 9c13 8a3d 8e7b 70bc
000000e0: d0f4 b7be d802 febd f94b 3c3e c405 df3e
000000f0: ce4c f6be 54ce 1d3e cb8e 263f bb34 283f
00000100: cf8e 143f e90e df3e 9b84 9c3b ba84 953d
00000110: 7cfe b33b b1d4 3dbf 1d3d 3dbf c27f 99be
00000120: cb2a febe 4d4b e23e 8b28 e33e 203a 683e
00000130: 5211 3a3e c5cf 513e f5ea 913e 1b88 063e
00000140: 2a77 ea3e f864 69bf 56e1 d3be 960e 9f3e
00000150: 4bb0 9dbe 6b19 48be 75c3 f63e 5ae7 e5be
00000160: c6b8 f6bc c82c 1a3f e731 793e 82aa 003d
00000170: 15ea 063f b34c cf3e 6b7f 7ebe 1609 d13e
00000180: 7f01 c43e 5bcd b1be 0f11 35be 49a5 eabe
00000190: d5d5 84be 6812 ac3e 1328 1c3e 9825 0a3f
000001a0: 111e 163f b211 ec3e f1b3 d33e 9908 55bd
000001b0: b616 b23c 99cb 4bbf 5452 81bf 5fae ae3e
000001c0: d15a 8a3e 12df 4abe e1ea 303f e4ad 003f
000001d0: 96db 0e3f a293 7a3e d849 713e 9ddb f33e
000001e0: d021 ccbe f2d7 9a3d c088 3fbe 41c5 7fbf
000001f0: 03e1 4abf 8d29 67bf 0987 443e 7863 ea3e
00000200: aee8 bf3e 6705 623c 608d 8ebd 331f 183f
00000210: 8002 f1be 56db b7be eb2b db3e 750d a43e
00000220: 13d0 8b3e 9df0 3dbf 9bf1 733e 5e97 26be
00000230: 3968 4bbf 79cc f53e 1d5e 073f c217 543e
-0.16300249 0.1967571 0.6016315 0.40957117 0.48722112 -0.10224499 -0.07238834 -0.72402906
-0.5642213 0.3764523 0.3896403 -0.6539501 0.31890795 0.033224463 -0.065601386 -0.2996266
0.4879004 0.527681 0.18522924 -0.0057705715 0.47155353 -0.14285783 0.13834602 0.39917508
0.28954706 0.018643033 0.3779263 -0.28577495 0.0030288398 -0.057573885 -0.18632719 0.17681387
0.039147943 -0.17051026 -0.19942224 0.09161487 0.2526889 0.29312885 0.31007713 0.25966603
0.071413316 0.24939364 -0.50687015 -0.4231372 -0.11175324 -0.28027698 -0.109665275 -0.0971843
-0.104417294 -0.18793976 -0.28374872 -0.09084694 -0.28828198 -0.029380947 0.067420214 -0.014677895
-0.35928965 -0.12402886 0.18388356 0.43559086 -0.48105472 0.15410739 0.65061635 0.6570546
0.5803041 0.43566063 0.00477655 0.07300706 0.0054929834 -0.74152666 -0.73921376 -0.29980284
-0.49642023 0.44198075 0.4436687 0.22678423 0.1817067 0.20489414 0.2849957 0.13137858
0.4579404 -0.9116969 -0.41382855 0.31065816 -0.30798563 -0.19540946 0.48195997 -0.4490307
-0.030117404 0.6022458 0.24335442 0.03141261 0.5270093 0.40488204 -0.24853294 0.40827245
0.3828239 -0.34726986 -0.17682289 -0.45829228 -0.2594439 0.33607793 0.15249662 0.53963614
0.5863963 0.4610725 0.41348222 -0.052010152 0.021739345 -0.7960754 -1.010325 0.3411741
0.27022412 -0.19811657 0.69108397 0.50265336 0.5580381 0.2447038 0.23563325 0.4762849
-0.39869547 0.075607195 -0.1870451 -0.9991036 -0.7924959 -0.90297776 0.19192137 0.45779014
0.37482208 0.013795233 -0.06960559 0.59422606 -0.4707222 -0.35909528 0.42806944 0.32041517
0.27307186 -0.7419527 0.23822634 -0.1626868 -0.79455906 0.48007563 0.5287798 0.20712188

model.0.bias f4 [16]
00000000: bc08 bcbd 880f 89be 103f 77bd 9808 93be
00000010: b764 bbbc 28a5 68bd c89d 67bc 2b5a f73d
00000020: 0710 bfbc 3378 6f3e acac fcbd 08ec 88bd
00000030: 04d9 8dba d085 ec3e d326 8ebd 276c 963b
-0.091813534 -0.26769662 -0.060362875 -0.28717494 -0.022875173 -0.05679813 -0.014136739 0.12077745
-0.023323072 0.23385696 -0.12337622 -0.066856444 -0.0010822122 0.4619584 -0.06940999 0.0045905295

model.3.weight f4 [32, 16, 3, 3]
00000000: 92a0 23bf d40f 42bf 5d5f 1dbf 1d01 7cbe
00000010: 129d eabe ef69 86bf a4b8 f3ba 92ed 14be
00000020: 0b58 91bf e667 513e e0ac 8ebd 0d63 a1be
00000030: c72a 803e 74fd f438 6540 47be 836c 063e
00000040: b1a1 bdbd 6940 53be 2294 e83d c659 a8bd
00000050: ec60 acbe f4cc 673e 6025 4a3e 946e d7be
00000060: 122e b43e de89 0bbe c5fc 8dbe e5d3 9c3d
00000070: f2c4 5d3d e60c b3bc 8519 803d 51a0 8f3d
00000080: 1344 a8bd ceca 38bd cd0d a43d 0349 07bd
00000090: 107a c23d 2711 5dbe 0b14 5abe 7162 643d
000000a0: dc1f c6bd e736 83be 8ee8 873e e8d3 573d
000000b0: 7c9f 8dbe f111 873d 6ae8 2f3d a833 10bd
000000c0: ab9b 8abd c002 b5ba 805e d23c 90bc 933c
000000d0: 60d6 b03c 3218 0a3d 1f6d 6c3d b3e9 ec3c
000000e0: 309f dabe 3984 9f3e 3e0c 1a3e 3ca7 39be
000000f0: 20e0 713e 40da 4abe 32fb f5bd 6993 e5bd
00000100: 1b8a 15bf b86c bbbe 8fbd ffbd de9b a5be
00000110: 786c cebe b1c9 503e ae14 243d 4409 02bf
00000120: 0f49 333d a60f 15bd 0b61 dbbe dcd1 533e
00000130: d3e5 053e 7934 e4be 68f7 8f3e 50e0 8ebd
00000140: 3a2e bebe 434a 37be 0893 753d 6d45 3a3e
00000150: 3456 fa3d 71b4 5ebc 8e45 aa3e 3398 443e
00000160: d259 313c d764 8a3e f3a2 8a3d 743f efbd
00000170: 0501 80be 5b39 033e 6e81 c63d 11f6 25be
00000180: b717 753e 9f22 de3d 5848 babe 06ac 223d
00000190: 3e8e efbd f48a 4dbe 8cd3 493e 288c 7f3e
000001a0: 0085 95be 9a95 8b3e ca3f a13d f45a 94be
000001b0: ecc6 793e 19eb ed3d d3ae 763e 9c22 753e
000001c0: eb9c 443e ae9a e3bd e964 97bd c6c6 31be
000001d0: c5cd a6be c5ca 8c3e a6cd 083e 18a8 8b3d
000001e0: f821 fe3b 7946 cebc fe63 813d ec62 aa3b
000001f0: bcc8 993d 924a 753d f62c f93c 23e7 103d
00000200: 32b1 b6be d357 553e d208 303e 0547 dfbe
00000210: e201 823e ea62 36be bbd4 8bbe eb55 5d3d
00000220: d5a8 5fbd ae32 943d 2ce7 143e 93da 323e
00000230: 0814 043d bc4e f83c ce5d 3f3e a4eb eebd
00000240: 093f 963d 977b f6bd 6a1c fa3e e276 b2be
00000250: b4ca 31be 3338 673e cc20 37be ab99 c4bd
00000260: 4544 393e 4095 8fbc 4642 663d 10ff 943c
00000270: 4a52 603c efcf 47bc 50fa 7a3d a69e e6bd
00000280: a7e4 5b3e 4579 f9bd 73cb f6bb 3da3 383d
00000290: 5be4 173e ed2d d03b 52c7 b5bc d967 013d
000002a0: 2155 b43d 65e8 b3bd 26dd b03c 9858 13bc
000002b0: 54e3 fc3c 706a 7cbd ebc5 9b3d 1cda f6bc
000002c0: 96ec 17bd 6471 8fbc d0c7 f53c 00d8 a3bc
000002d0: 4289 c93d c304 2cbe c90c bf3d c33d b6bd
000002e0: d813 e9bd 0aba 673e 1cb4 633d 04a3 313e
000002f0: 2d09 ff3d 027a 483d f0d9 63bd ea6a 3a3d
00000300: 6813 2cbc 63df 55bd 6ec1 6c3d 3eff 6bbd
00000310: f676 b6bc 01a6 a73d 29af fd3c b155 1fbd
00000320: 9d64 443e 78fe 8dbd 700b b63d 6b9f 823d
00000330: da50 86bb 0d4d cc3c 41bf 00bd 3d1d 27bd
00000340: 1b18 aebe 7899 a03d 51c4 0bbe cec3 e5be
00000350: 8919 b73c 2cf1 fbbd 388d 99be 207b 4f3b
00000360: 357d 1e3e 6b14 27bd ee78 6f3c f646 fb3c
00000370: 412e a33d 8ac4 4a3d 6203 853d 58cd 20bb
00000380: 1a58 a8bd 64da c3bd 04d0 35be 69f5 60bb
00000390: 3d6d 08be 1a9d febd 023d 76be 657a 373d
000003a0: 6d86 45bd 9374 6fbe 0bc3 b93d e0ab 533d
000003b0: 5ce2 5b3e 9908 4a3c dd16 2abd a968 593e
000003c0: 54df 5abd 9450 dd3d a595 423e b61d 023e
000003d0: 76f2 c23c de56 633e 086a ebbc abf6 ca3d
000003e0: 4d34 61bd 2a4e 99bc 78c4 44bd 6702 d3bd
000003f0: d04a 483e 0a63 7abc ce15 0a3e a2c5 e2be
-0.63916886 -0.758054 -0.6147364 -0.246098 -0.4582296 -1.0501078 -0.0018594456 -0.14543751
-1.1354994 0.2044979 -0.06966567 -0.31520882 0.25032637 0.00011682036 -0.19458158 0.13127331
-0.09259356 -0.2063004 0.11356379 -0.08220248 -0.33667696 0.22636777 0.1974082 -0.42076552
0.351914 -0.13626811 -0.2773191 0.07657603 0.0541429 -0.021856736 0.062548675 0.07013
-0.08216109 -0.045115285 0.08010445 -0.033028614 0.09495938 -0.21588574 -0.21296708 0.055757944
-0.096740454 -0.25627825 0.26544613 0.052692324 -0.2766074 0.06595219 0.042946257 -0.035205513
-0.067679726 -0.0013810024 0.025679827 0.01803425 0.021586597 0.03371448 0.057721253 0.02892003
-0.42699575 0.31155565 0.15043733 -0.18130201 0.23620653 -0.19809818 -0.12010802 -0.11209757
-0.5841386 -0.36606383 -0.12487327 -0.3234548 -0.4031713 0.20389439 0.040058784 -0.5079539
0.043770846 -0.036391877 -0.42847475 0.20685524 0.13075952 -0.44571283 0.28118443 -0.06976378
-0.37144643 -0.17899422 0.059954673 0.18190546 0.12223473 -0.013592825 0.3325619 0.19198684
0.0108246375 0.2703006 0.06769361 -0.116820246 -0.25000778 0.12814848 0.096926555 -0.16207148
0.23934828 0.10846447 -0.3638332 0.039714836 -0.116970524 -0.20072538 0.19709605 0.24955809
-0.29203033 0.27262574 0.07873495 -0.28975642 0.24392289 0.11617107 0.24090128 0.23938984
0.19200484 -0.11113487 -0.07392294 -0.17360982 -0.32578865 0.2749845 0.13359699 0.06819171
0.0077555142 -0.025180088 0.063179 0.0051997807 0.0750899 0.05988557 0.030416947 0.03537668
-0.35682064 0.20834284 0.17190865 -0.4360887 0.2539206 -0.1781117 -0.27310738 0.054037016
-0.05460437 0.07236229 0.1454131 0.17466192 0.032245666 0.030310981 0.18688127 -0.11666039
0.07336242 -0.12035292 0.48849803 -0.34856325 -0.17362481 0.22580032 -0.17883605 -0.09599622
0.18092449 -0.017527223 0.056215547 0.01818803 0.013691494 -0.012195571 0.061273873 -0.112607285
0.21473943 -0.121813335 -0.0075315773 0.04507755 0.14833204 0.006353131 -0.02218977 0.031593177
0.088052996 -0.0878456 0.021589827 -0.00899329 0.030870117 -0.061624944 0.07606109 -0.0301333
-0.03709086 -0.017510124 0.030002505 -0.020000458 0.09840633 -0.16798691 0.093286105 -0.08898499
-0.11380738 0.22629562 0.055591688 0.17347342 0.12452922 0.04894448 -0.055627763 0.045512117
-0.010502674 -0.05221499 0.057801656 -0.057616465 -0.022273522 0.081859596 0.030967312 -0.03890008
0.19179006 -0.06933302 0.088889 0.06378063 -0.0040989937 0.024939084 -0.031432394 -0.04079937
-0.34002766 0.07841772 -0.13649108 -0.4487595 0.022351043 -0.12301859 -0.29990554 0.0031659082
0.1547745 -0.040790956 0.014616234 0.030673485 0.079678066 0.04950384 0.06494786 -0.0024536457
-0.08219929 -0.09563139 -0.17755133 -0.0034325963 -0.13322921 -0.124323085 -0.2404671 0.04479446
-0.0482239 -0.23384313 0.090704046 0.051677585 0.21473068 0.012331151 -0.04152571 0.21231331
-0.05343564 0.10806385 0.19002397 0.12706646 0.023797255 0.22201106 -0.028737083 0.099103294
-0.05498152 -0.01871403 -0.04803893 -0.103031926 0.19559789 -0.015282402 0.1348488 -0.44291407

model.3.bias f4 [32]
00000000: 948a 8a3e 73f8 55be 518a 00be 10a8 92be
00000010: bb3e 9cbc c419 aabd 7fbf 45bd 8ae9 2cbe
00000020: 6ad4 90bc b36f 1cbe 4348 14be 78e5 67be
00000030: ad34 83be fc0b 57be bbbc eabd 5df4 113e
00000040: 84cd 48be 2a2c 52be e318 243d d27d 54be
00000050: 6fca a5be 7158 89bd 28c0 c3bd 27a9 3fbe
00000060: a2f9 8abc d59b bfbd c750 dcbc ba80 b7bb
00000070: fc9f 6dbd b799 64bd ac1d 05be f44e 0f3a
0.27058852 -0.20895557 -0.12552764 -0.28643847 -0.019072881 -0.08305696 -0.048278328 -0.16885963
-0.017679412 -0.15276985 -0.1448069 -0.22646129 -0.25626126 -0.21000665 -0.11461779 0.14253373
-0.19609648 -0.2052466 0.040062796 -0.20751122 -0.32381007 -0.06706322 -0.09558135 -0.1871687
-0.016964737 -0.093558945 -0.026893986 -0.005600062 -0.0580139 -0.055810656 -0.129996 0.0005466782

model.6.weight f4 [64, 32, 3, 3]
00000000: d135 543e 635b c23e cf89 e63d a818 283e
00000010: abd9 4f3e fb70 0c3e 25b5 2d3e 4f1c 9e3e
00000020: 9c68 103b a62c 193d faeb 933c a14b cf3d
00000030: b07d 89bd 66e2 8d3c fea1 5ebd 871d 623d
00000040: 4be2 c33d 70cb 2e3e 53df 9f3c 9825 003e
00000050: 5845 bcbd a8af 2e3e 4e3a ee3b 7f92 3fbd
00000060: 326b 903d 9d9a d43c 7914 933d cab0 873d
00000070: acd4 d5bb b609 9f3d db40 74be 9a2b 153c
00000080: 4594 bfbd d138 67bc e8c1 293e 305b ccbd
00000090: 389b ab3e 58a1 b13d f77a e23c b646 83bb
000000a0: 1d32 2cbd 7ad5 a7bd 483c 833d 0bf9 903d
000000b0: f091 7e3d 7747 01bd 6169 b6bd ff6e 1ebe
000000c0: 51d5 89bd c369 a8bd 1a64 843d 64c2 9abd
000000d0: a785 b63d 305d 003e 44c7 05be 1cce c8bd
000000e0: f560 b43c 463f 27be 0b43 97be 17d0 d7be
000000f0: 0454 2cbb d3e7 b6be 94a3 19be 72a3 9a3d
00000100: e92c 87bd 4c31 4cbd 1def 4d3e 300c 39be
00000110: ca1c e63d dee0 e2ba 829e a53d 7651 cebd
00000120: 51ca a83e 790d b33e 3390 4d3e a02d 173e
00000130: d14c 133e 9380 363d e007 10bc 33fa d83d
00000140: 54f5 f23b 5e5b 1a3a 362d dabc 9c06 7abe
00000150: 4220 59bd 4a86 6ebe a4ff 9dbe 7951 f63c
00000160: 39b4 46be bd87 53be 99f3 5abd 41f0 20be
00000170: 9120 6b3c 8ab6 1b3e 10e6 cdbd 8920 5bbd
00000180: 9e6a 863c a163 c93d 1981 43be 73da 85bd
00000190: da95 77bc 970f b9bc 0522 fabd 97b5 cc3d
000001a0: 8ab6 16be 4e57 193e 7534 e7bd 572d 5a3d
000001b0: 9b02 e53c 147e e1bd ba21 c03d 5eba 95be
000001c0: 1334 4a3e 426a e4bd 27c5 643e 697d a83d
000001d0: 7dd8 083e e5e2 14be 7973 06be c570 36be
000001e0: 780d 13bd 8915 cc3d 26e2 24be 5938 063d
000001f0: af6f afbd 7b73 3cbc 7f36 2ebd a156 b7bd
00000200: ddae 34bd a6ed b1be 71b6 e63d 05d8 20be
00000210: 9bb9 49bd c3b9 ebbc 764d a73c fbf0 193d
00000220: 3a4b 533e 9a33 803e f5f1 b83c dd0b b8bd
00000230: 8334 69bc 7b92 72be 302d e93e fd90 893d
00000240: 2f3c 9b3d dfad 493e 8144 4438 0eec 1a3e
00000250: 09ed 2e3d 96fc 003d c9e7 a13e 6987 0d3e
00000260: 4d11 e03d df9b 93bc 44e4 ec3c 8d81 13be
00000270: e7af aabc 1c98 b43c 0bff 85bb ec57 2d3e
00000280: 35df c73d fd06 323e f84c 8ebd 850d d7bc
00000290: bf4f 7abc 95b6 353d ece6 19ba fee1 b5bc
000002a0: ec5b 5e3d c35d 07bb 5610 27bc c6a3 babd
000002b0: e358 a5bd 283b 6dbe a146 bc3c 5488 223d
000002c0: 9ab2 d4bd 1586 c03d a507 193e 590b 553e
000002d0: b026 863d 5fbe 093e e239 a8be 8258 243e
000002e0: be0b 4fbd a17e bdbd 055c fa3d 7868 ba3b
000002f0: 703b c93c 78af a33d a848 893d b78f 53be
00000300: 9333 e93d 47e6 b4bc 7d23 7dbd 5ca0 593d
00000310: bdd8 1b3e 0630 b83d 48c7 f73d e0d2 083e
00000320: 9267 9ebe 291d da3d 39ff ac3c 5bd1 0ebe
00000330: 1d65 20bd 5681 913b 28cd e8bd 9308 c3bd
00000340: bb7c 62be 8422 8cbe f486 233d 94b9 c1bd
00000350: f7c4 0dbe 3e05 aabe cc7e e4bd ff64 9c3c
00000360: 2942 d83d 9768 843d 8289 353d b175 c13c
00000370: 5b1c 42bd e7d0 06bd 62db 763a 9e76 ff3d
00000380: 82f4 eb3d cd3e 613d 4e06 d83d 7407 3bbd
00000390: 79ed 5e3e e85d 9abd f5ff d63d 4c17 4c3d
000003a0: f59f b33d 9bd6 43bd b72c 853a f075 77bb
000003b0: 362f e53c 1a90 84ba 0c22 463c 7ea2 04bd
000003c0: 993e 35bb 0491 fa3c 78b0 73bc fdfa 963d
000003d0: a2db 213e c0c6 703d 1310 b83d 8e86 883d
000003e0: 241e 9e3d 32ff a73d 776f 113d b9e4 a23b
000003f0: fafe afbc 8afa f5bc a814 2dbd 8027 3e3b
0.20723654 0.37960348 0.11256754 0.16415656 0.20297877 0.13714974 0.16963632 0.30880973
0.0022035008 0.037396096 0.018056858 0.10121847 -0.06713426 0.01731987 -0.054353707 0.05520394
0.09564646 0.17069793 0.019515669 0.12514341 -0.09192914 0.17059195 0.007270134 -0.04677057
0.07051696 0.025952632 0.07181639 0.06625517 -0.0065255966 0.07765524 -0.23852865 0.009104634
-0.09354452 -0.014112667 0.16577876 -0.0997833 0.3351686 0.08673352 0.027646525 -0.004006232
-0.04203998 -0.08195014 0.06407982 0.07078751 0.062150896 -0.031562295 -0.08906818 -0.15472029
-0.0673014 -0.082232974 0.06464405 -0.07556608 0.08912211 0.12535548 -0.13064295 -0.09804937
0.022018889 -0.1633273 -0.29543337 -0.42150947 -0.0026295194 -0.35723743 -0.15003806 0.07550706
-0.06600363 -0.0498517 0.20110746 -0.18071055 0.1123596 -0.0017309447 0.080868736 -0.10074131
0.32966855 0.34971216 0.20074539 0.14763498 0.14384772 0.04455621 -0.00879094 0.10594597
0.0074144993 0.00058882486 -0.026632886 -0.24416584 -0.05300928 -0.23293415 -0.308591 0.030068146
-0.19404687 -0.20657249 -0.05345497 -0.1571665 0.014351026 0.15206352 -0.100536466 -0.053497825
0.01640826 0.09833456 -0.19092216 -0.065358065 -0.015111411 -0.022590442 -0.1221352 0.09995573
-0.1471807 0.1497471 -0.11289302 0.053265896 0.027955344 -0.110103756 0.09381433 -0.2924375
0.19746427 -0.111530796 0.22340833 0.08227045 0.13363834 -0.14539678 -0.13129987 -0.17816456
-0.035901517 0.09965045 -0.16101894 0.03276858 -0.08566224 -0.011502142 -0.04253244 -0.0895207
-0.044112075 -0.34751624 0.11265267 -0.15707405 -0.049249273 -0.028775102 0.020422678 0.037583333
0.20634165 0.2503937 0.022576312 -0.08986638 -0.014233711 -0.2368869 0.45542288 0.067171074
0.075798385 0.19695233 4.679384e-05 0.1512911 0.042706523 0.031490885 0.3162215 0.13821186
0.109408 -0.018018661 0.02891744 -0.14404888 -0.02083583 0.022045188 -0.0040892414 0.16928071
0.0975937 0.17385478 -0.069482744 -0.026251564 -0.015277802 0.044363577 -0.0005870897 -0.022202488
0.054286882 -0.0020655252 -0.010196766 -0.091132686 -0.080735944 -0.23167098 0.022982897 0.039680794
-0.10385628 0.09400574 0.14944322 0.2080511 0.06550348 0.13451527 -0.3285666 0.16049388
-0.050548308 -0.09252668 0.122245826 0.005688723 0.024564475 0.079924524 0.06703311 -0.20660292
0.1138679 -0.022082461 -0.061801422 0.053131446 0.15219398 0.08993535 0.12098557 0.13361692
-0.30938393 0.10650093 0.021117793 -0.1394705 -0.03915893 0.004440467 -0.113672554 -0.0952312
-0.22117893 -0.27370083 0.039923623 -0.09459224 -0.13844667 -0.33207124 -0.11156997 0.019091127
0.10559494 0.064652614 0.04432059 0.02361569 -0.047390323 -0.03291407 0.0009416846 0.12473796
0.115212455 0.054991532 0.105480775 -0.045661405 0.21770276 -0.075374424 0.10498039 0.049826905
0.08770744 -0.047812086 0.0010160421 -0.0037759505 0.027976613 -0.0010113746 0.012093078 -0.032381527
-0.002765572 0.030586727 -0.014873616 0.07372091 0.1580644 0.058783293 0.08987441 0.06666289
0.077205926 0.082029715 0.03550669 0.0049711135 -0.021483887 -0.030026693 -0.042256027 0.0029015243

model.6.bias f4 [64]
00000000: 9ab6 04bd 2f53 a0bc a83c 07be 50e3 8b3b
00000010: 814a f03d 4ff2 083d bf26 17be 1074 0ebc
00000020: 4fbb 423d 02ba 2b3c ce91 18be 58c8 123e
00000030: c639 89bd ac96 ccbb a6b1 18be 8747 9ebd
00000040: e024 44be d21c 65bc ee26 dfbc fbce 68bd
00000050: fa5a ec3d 0ad6 cb3d 23c6 3cbd 18b6 15be
00000060: 8088 5f3d 8eb7 3d3d c62d ee3b 9360 803b
00000070: 1f76 163d 007d a6bc 9785 fa3d 1e0b 19be
00000080: 692a cc3c 1002 803d a1e9 fabd 6ffa c2bd
00000090: fec3 283d 250a 8dbc 80ca 32bb 80cf 53bc
000000a0: e43b 35bc f73c 2f3d b2b5 4dbc 3ff8 aa3c
000000b0: 4579 0dbd 0fd6 5cbd 9364 a13d a9c3 95bd
000000c0: d7c1 c0bd 9ba3 0fbe 5b77 37bd 1ec1 3a3d
000000d0: e351 b9bd 5c73 40bd 6742 4fbd 8434 61be
000000e0: 2c59 593d 389c 863d 9f72 0b3c 5846 693d
000000f0: 600a 4cbd 6443 a6bc d425 463c 12d1 a3bd
-0.032400705 -0.019570915 -0.13206732 0.004269041 0.117329605 0.03343421 -0.14760874 -0.008694664
0.047541913 0.010481359 -0.1489937 0.14334238 -0.067004725 -0.0062435474 -0.14911518 -0.077284865
-0.19154692 -0.013983922 -0.027240243 -0.056838017 0.1154079 0.09952934 -0.046087395 -0.14620245
0.054573536 0.04631763 0.00726864 0.0039177625 0.036733743 -0.020323277 0.122325115 -0.14945647
0.024922566 0.062503934 -0.122515924 -0.09520423 0.041202538 -0.017216751 -0.0027281344 -0.01292789
-0.011061642 0.04278275 -0.012555527 0.020870326 -0.03453948 -0.05391508 0.07880511 -0.0731271
-0.09411972 -0.14027254 -0.04479156 0.045594327 -0.09048822 -0.046985015 -0.050600436 -0.2199269
0.053063557 0.06572765 0.0085112145 0.05695185 -0.049814582 -0.020295806 0.01209398 -0.07998861

model.10.weight f4 [10, 64]
00000000: b86b bebd e1a0 953d 362d 63be e7fe b8bb
00000010: 7dcf 063e 1489 01bd a6a4 803e 359f 003e
00000020: ed3d 2cbe 1dbd 17be 7336 8fbe 3034 39be
00000030: ae81 07bd c80b 7abd 1370 df3d 13f9 a3bd
00000040: bdd7 9dbe 17c4 92bd 3ea1 9abe 81cb a23d
00000050: e667 593e bbb3 72be eb22 553e 23a0 babe
00000060: 2e2b 18be f84c b33d 3629 8a3b 77b5 473d
00000070: 8b71 cb3c 3711 9a3e 121b 4d3d 458d efbd
00000080: 4c92 0fbe e7d6 1abd 93fa 1bbe 6dde b63c
00000090: 1534 b23d 4b21 b4bc 2152 053d dd60 763d
000000a0: 113f ccbd 5e4e e83d 4ec6 843e 4d22 19be
000000b0: fc8c 373e 2407 f0bd 52bd 0d3e 2054 533e
000000c0: b35c 97be 5d03 c1bd 1778 14be f1a0 a23d
000000d0: e856 0f3e 87d4 ad3e 4c28 92bc 78c5 52be
000000e0: a59c f33d fa08 e83d 1bf0 a3bd 5baf 4abd
000000f0: 236e 603d e43f 88bd 1a9e 65bd cbdb ebbc
00000100: 642a 263e e999 b9bd 7c31 8abe be03 4dbb
00000110: ca3b ac3e 6448 233d f0be 5fbe bfd7 9cbe
00000120: bc01 1a3d 8efd 263e 683a 74bd 0527 e93d
00000130: 0a22 10be 5a3a cbbd 5f62 773d a55e 50bd
00000140: d67a d13d c567 23bd 6308 23bc 1816 e9bd
00000150: 7522 c4bc f3f3 4b3e 462e 03be cce9 ec3c
00000160: 85cf b6bc f1cd b1bd dda7 a1be 8b4a fdbd
00000170: 012c fe3c 3569 14be 5d39 5e3d 3697 993e
00000180: ba55 763e 8824 a5be 4e1b bf3e 6200 87be
00000190: d564 5f3d d06d f2bd b6bc 24be fe1d 2a3d
000001a0: ac58 2a3e eb9b f2bd f40f 523d aa53 49bc
000001b0: f34f 4fbd ddbd c73d 34bd 63be 794b 80be
000001c0: 52cb 1e3d 29d3 f63d 38ff 61be cd99 9a3d
000001d0: 3403 e63d 01b0 2ebe 68d6 b6b8 137c cabd
000001e0: 36af 2c3d f810 673e 882c 31be 6681 d4be
000001f0: 32f0 9c3e a490 813d 34f8 1abe ad70 9abd
00000200: 23d5 4a3d 8251 c53c 4aae 02be 2c21 f13a
00000210: 7905 0ebd 6432 cb3b 468a 72be ac83 003e
00000220: bce0 493e b87d 063a 9500 02be f69c 053e
00000230: f384 943d 6f58 8d3d 9455 56bd 9e4b f0bd
00000240: cbd0 d7bd 40b0 af3c 6992 573e 3e45 c7bc
00000250: 83c4 fe3d f10e 98be 8133 d83d 3d09 dd3c
00000260: aa96 7abe b413 68bd dd31 1e3d f3fe 85be
00000270: 30ae 80bc 9b87 903e 9dd0 6f3c 49b7 57bd
00000280: d9e5 abbd c269 01bd c6e6 cfbd fc8c c0bd
00000290: bbb9 34bd 77cc 67bd bde5 683e c0fb 573e
000002a0: 5cef 5ebe 10d6 973c d807 5abe 0f47 a33e
000002b0: a311 ff3c cdbb 973b 6c74 32be a074 c5bc
000002c0: 9e4a 02be dd85 c8bd 6472 4dbe 9ca4 613e
000002d0: c253 4e3e 2f65 97be c009 ecbd 0353 143e
000002e0: da81 93bd b7eb 29be 52c9 e7bd 5a7d 8dbe
000002f0: a922 8cbe db8b ab3d 79bc 8f3d e9c5 863e
00000300: 6f37 debd 9c9d e9bc 8c80 2c3e e89e 58bd
00000310: 86e1 f1be 9ede c33d 1c56 39be 72cc ddbc
00000320: f77a ebbc 4c27 f5bd 8960 963d 660b 82bd
00000330: 59a3 f93d 4aff 2a3d 0b03 51bd 4913 a5bd
00000340: 6042 b73d b5e5 df3d 593d fcbd f64a 5ebc
00000350: ff3c b1be ad63 ce3d a639 b03c f454 883e
00000360: 0091 29be c408 86bd e106 80be 771e 193c
00000370: 3474 66bb 92ac dbbd fd78 183d 9327 21be
00000380: 476a 9fbe 72d1 13be fe3c 29be 5dfa a53e
00000390: f85e 963e 5959 bfbd 8f89 b23d 61ee 09be
000003a0: b559 33ba 80d7 d03c 1b40 1ebf 6097 f9bc
000003b0: 1cd9 3cbe fd6e 033d 443d babe f23b 093d
000003c0: 5988 853d d76e 9f3e 0bc4 32be 162e 95bd
000003d0: a38d aabd b477 84bc f13e 7dbd b131 a2bc
000003e0: 11f0 afbe da97 9d3e 2eca 37be d7ff 91bd
000003f0: fb5a a1be a449 8cbd 193a c73d a9ea f2bd
-0.092978895 0.07306076 -0.22185215 -0.005645621 0.13165088 -0.03162487 0.25125617 0.12560733
-0.16820498 -0.14818235 -0.2797123 -0.18086314 -0.033082657 -0.06104639 0.10910048 -0.080064915
-0.30828658 -0.071663074 -0.30201143 0.079489715 0.2123104 -0.23701374 0.20814101 -0.364503
-0.14860222 0.08754915 0.0042163385 0.048757043 0.024834415 0.3009126 0.050074644 -0.11696867
-0.14020652 -0.037802603 -0.15232305 0.022322858 0.0870134 -0.021988532 0.032549027 0.06015097
-0.099729665 0.11343072 0.25932544 -0.14954491 0.17924875 -0.11720112 0.13841751 0.2063756
-0.2956291 -0.094244696 -0.14498936 0.079408534 0.13997996 0.33951208 -0.01784148 -0.20583141
0.11895112 0.11329837 -0.08004781 -0.04948364 0.054792535 -0.06652811 -0.05605898 -0.028791329
0.16227108 -0.09062559 -0.2699088 -0.0031282748 0.33639365 0.03986396 -0.2185018 -0.3063335
0.03759931 0.16307661 -0.059626013 0.113843955 -0.14075485 -0.09923239 0.06039655 -0.05087151
0.10228507 -0.039893884 -0.00995073 -0.11381167 -0.023942212 0.19917278 -0.1281062 0.028920077
-0.02231575 -0.08681858 -0.31573382 -0.123677336 0.031026842 -0.14493258 0.054253925 0.29998177
0.2405614 -0.32254434 0.3732552 -0.2636748 0.05453952 -0.11837351 -0.16087613 0.04153251
0.16635388 -0.11846145 0.051284745 -0.0122880135 -0.050613355 0.097530104 -0.22240144 -0.2505758
0.03876812 0.12051994 -0.22070014 0.075488664 0.1123108 -0.17059328 -8.7183726e-05 -0.098869465
0.04215928 0.22565067 -0.17302144 -0.41504973 0.30652004 0.06326416 -0.15133744 -0.075410224
0.04951967 0.024086718 -0.12761799 0.0018396727 -0.034673188 0.0062010754 -0.2368556 0.12550229
0.19714636 0.0005130428 -0.12695535 0.13048157 0.072519206 0.06901633 -0.052327707 -0.11733173
-0.10537871 0.021446347 0.21051945 -0.02432501 0.124398254 -0.296989 0.105566986 0.026981944
-0.24471536 -0.056659415 0.038621772 -0.26171073 -0.01570806 0.2822846 0.01463714 -0.05266503
-0.08393449 -0.031595 -0.101514384 -0.09401891 -0.04412244 -0.056591477 0.22743888 0.21092129
-0.21770996 0.01853469 -0.21292055 0.3189015 0.03113634 0.004630542 -0.17427224 -0.024103463
-0.12723777 -0.097911574 -0.20063168 0.2203545 0.20149139 -0.29569384 -0.11525297 0.14484791
-0.072025016 -0.16593824 -0.11317696 -0.27634698 -0.27370194 0.08376285 0.0701837 0.26322868
-0.10850417 -0.028517537 0.16845912 -0.05288592 -0.47242373 0.09563945 -0.18099254 -0.027075026
-0.028745158 -0.11970386 0.07342631 -0.0634983 0.12189359 0.04174737 -0.051028293 -0.08060319
0.08948207 0.10932485 -0.12316389 -0.013567677 -0.3461685 0.100776054 0.021511864 0.26627314
-0.1655922 -0.06544641 -0.25005248 0.009345642 -0.0035164477 -0.107262745 0.03722476 -0.15737753
-0.3113577 -0.14435366 -0.16527173 0.32417575 0.2936933 -0.093432136 0.087176435 -0.1346984
-0.00068416755 0.025493383 -0.6181657 -0.030467689 -0.18442196 0.03208827 -0.36374867 0.033504434
0.06520147 0.31139252 -0.17457597 -0.07284181 -0.08327796 -0.01617036 -0.061827604 -0.019799085
-0.34362844 0.30779916 -0.17948219 -0.07128876 -0.31514725 -0.06849983 0.09727878 -0.11861164

model.10.bias f4 [10]
00000000: e26b f43d 8c0b b63d 13f4 5a3d b773 aa3d
00000010: 3d12 1a3d b931 e5bc 0401 78bd e603 88bc
00000020: 8811 f73d 19b7 a7bd
0.119346395 0.08888921 0.053455424 0.08322852 0.03761505 -0.027977811 -0.060547844 -0.016603421
0.12063891 -0.0818922

exp_avg f4 [16, 1, 3, 3]
00000000: 7840 703b a5be e63b 2efb c43b c795 a03b
00000010: ef02 943b 3d87 1b3b a786 ea3b 6a9d b53b
00000020: 1df6 473b c32f 403b 0b57 8a3b 0ca6 563b
00000030: af3a 753b c538 833b 928c 973b 0b89 cc3b
00000040: 26d3 bf3b c337 c33b 7313 69bb 83db c4bb
00000050: 238c fabb 9f60 97ba 358b 82bb 2eb1 afbb
00000060: c795 2ebb 9f46 b5bb 28e3 abbb 0000 0000
00000070: 0000 0000 0000 0000 0000 0000 0000 0000
00000080: 0000 0000 0000 0000 0000 0000 0000 0000
00000090: 95f7 2eba d25c f0ba e70c 21bb 57b5 eab9
000000a0: 03f8 19ba 1a37 e0ba d6da f439 3ff6 e439
000000b0: 9580 5bba 0000 0000 0000 0000 0000 0000
000000c0: 0000 0000 0000 0000 0000 0000 0000 0000
000000d0: 0000 0000 0000 0000 90e1 b9b8 4d24 2fba
000000e0: 1b96 23b9 5141 023a 1322 4f38 87cd 9839
000000f0: c29b 203b 6da3 ac39 31bb ff36 339c b03b
00000100: 06c9 4f3b aae4 243a 0463 073b 1e69 163b
00000110: a5e1 b73a 4d2c 0f3b a5ef 243b 0b34 423b
00000120: b068 93ba fa3b 67bb 3ffc 81bb 8161 b23a
00000130: 968e 21ba 3f56 a7ba e57b d637 afe4 f6ba
00000140: a4a3 47ba 77cd 02ba d82b a6ba 26a4 aaba
00000150: d79e 413a dbec 6938 1b51 b437 45d9 583a
00000160: 06b6 80ba cdab 9eba 3ccb 70bb f8d7 87bb
00000170: f030 91bb f9da 0ebb 410b faba d7d5 e0ba
00000180: a436 c8ba f900 43b9 5b09 ad3a af67 d4b7
00000190: a6ee 8639 4f6f 0aba 5939 343b 4f90 8d3a
000001a0: 8ac1 893a 7709 423b 99ff bd3a 8010 aa3a
000001b0: ec46 883c c3c8 753c 02fb 5e3c c68a 883c
000001c0: 3a8b 913c d722 8d3c 6cd5 a83c 22ea af3c
000001d0: 63e6 993c 11a6 64bb f09f cdbb 75f5 07bc
000001e0: 0d54 70ba 35ec 1fbb 20ab 34bb 0c81 2c39
000001f0: 5649 0a3a 6ba0 29ba d4a9 9cbb ab03 edbb
00000200: 2e22 f5bb 292d 4ebb 01b4 99bb 17cd e9bb
00000210: 2c9f 13bb 735b bebb b94e 01bc d776 1f3c
00000220: 9b7b 2b3c f2af 193c 2c7d 433c 5a7e 483c
00000230: f409 3a3c c7cf 3e3c 59f5 453c 22f9 483c
0.003665952 0.0070417696 0.0060113883 0.0049006674 0.0045169513 0.0023731731 0.007157165 0.005542447
0.0030511685 0.0029325343 0.004221802 0.003275278 0.0037419011 0.00400457 0.0046249116 0.0062419227
0.0058540283 0.005957575 -0.003556457 -0.006007613 -0.0076461 -0.0011549181 -0.00398388 -0.0053616976
-0.0026639567 -0.0055321003 -0.005245585 0.0 0.0 0.0 0.0 0.0
0.0 0.0 0.0 0.0 -0.0006674466 -0.001833821 -0.002457434 -0.00044767067
-0.00058734434 -0.0017106265 0.00046702352 0.00043671016 -0.0008373347 0.0 0.0 0.0
0.0 0.0 0.0 0.0 0.0 0.0 -8.863502e-05 -0.00066811295
-0.0001560081 0.00049688393 4.938438e-05 0.0002914483 0.0024506901 0.00032928158 7.621384e-06 0.005389714
0.0031705513 0.0006290177 0.0020658383 0.0022950838 0.0014029039 0.0021846474 0.0025167253 0.002963307
-0.0011246409 -0.0035283552 -0.0039668377 0.0013609381 -0.00061629096 -0.0012766792 2.556848e-05 -0.0018836464
-0.0007615632 -0.0004989723 -0.0012677861 -0.0013018891 0.00073860347 5.5772118e-05 2.149544e-05 0.0008272122
-0.0009819872 -0.0012105644 -0.003674223 -0.0041456185 -0.0044308826 -0.0021797998 -0.001907684 -0.0017153573
-0.0015275073 -0.00018597012 0.0013201641 -2.532065e-05 0.0002573628 -0.00052808685 0.0027500002 0.0010800454
0.001050995 0.0029607692 0.001449573 0.0012974888 0.01663538 0.015001479 0.01360965 0.016667735
0.017766584 0.017228527 0.02060958 0.021473948 0.018786615 -0.0034889022 -0.0062751696 -0.008298268
-0.0009167798 -0.0024402265 -0.0027567819 0.00016451272 0.000527521 -0.00064707425 -0.0047809873 -0.0072331033
-0.007480881 -0.0031460023 -0.0046906476 -0.0071350443 -0.0022525294 -0.0058092414 -0.007892304 0.0097329235
0.010466482 0.009380328 0.011931699 0.012237156 0.011354912 0.011646218 0.012082421 0.012266429

exp_avg_sq f4 [16, 1, 3, 3]
00000000: 3e7a 993a 8c78 c73a 6018 b23a 41c0 c73a
00000010: bd04 973a 1d8f 353a d05a 933a f0c1 cc39
00000020: fad4 6739 6b54 3d39 8415 1539 3f9b b338
00000030: 8f66 2239 c9c8 1739 8c04 0b39 0a51 f438
00000040: f259 2b39 d2e7 4739 5c4e e938 4063 1239
00000050: 8fd5 3f39 ea8f fa38 8b0e 1539 ed16 1e39
00000060: 9afd 1739 18fd 2239 a5cd 1739 0000 0000
00000070: 0000 0000 0000 0000 0000 0000 0000 0000
00000080: 0000 0000 0000 0000 0000 0000 0000 0000
00000090: 51f6 2839 7b4e 3b39 0119 4239 174c 2639
000000a0: e4f6 0939 8369 2039 1a22 c438 fa6d a838
000000b0: 1167 ef38 0000 0000 0000 0000 0000 0000
000000c0: 0000 0000 0000 0000 0000 0000 0000 0000
000000d0: 0000 0000 0000 0000 121e 9b38 1511 8a38
000000e0: 9e1a ae38 c38c 3938 34d1 9238 e2d9 ee38
000000f0: 0059 2838 efd7 b838 a50d 0439 3794 563a
00000100: c0e5 8e3a 5888 9f3a 20bb 1b3a b771 243a
00000110: 5859 583a 7c79 b739 59e3 a239 350b 133a
00000120: 4aa6 d538 eb17 4b39 5ab6 8239 c2ca 0e39
00000130: 9897 3839 5108 4139 fd45 1939 990d 2e39
00000140: f9c3 2a39 b54c 7d37 7762 a338 e3b7 bf39
00000150: a91f ca37 87c7 0f39 c5bc 0f3a 6643 ad38
00000160: 3cc3 b439 ab04 373a bfde fc38 e7e2 0539
00000170: b54a 1539 d077 3239 ef36 1439 a2c6 2639
00000180: 1190 4439 5fc1 0639 61df 1139 df35 9f38
00000190: 31ae 0539 f2a0 3539 01cd e138 537b 1c39
000001a0: 8230 2139 0996 0039 ee51 1439 2d74 0139
000001b0: 778f 6b3a dad8 0a3a 5a24 dd39 a680 983a
000001c0: d3a9 663a 571a 543a adc4 b43a aa80 a83a
000001d0: de04 9e3a ed4e 2f3a 3d39 543a 73c7 893a
000001e0: 0856 3739 9466 2439 aa3b 9439 65a8 9e37
000001f0: a409 1937 f58a 8838 9240 1c39 7403 1439
00000200: d856 0e39 5706 f038 576b dd38 11b6 1139
00000210: 67d7 b538 6d28 f138 4b98 2339 0f15 bc39
00000220: cf39 9539 73ed 2339 0480 b739 6bd4 8139
00000230: 2eec 3f39 1eea bf39 8979 c139 e465 ba39
0.0011709405 0.0015218421 0.0013587587 0.0015239791 0.0011521798 0.00069259276 0.0011242274 0.00039054407
0.00022109217 0.00018055893 0.00014217763 8.564302e-05 0.0001548773 0.0001447528 0.00013257767 0.00011649921
0.00016341338 0.00019064479 0.00011124901 0.00013960619 0.00018294736 0.00011947735 0.00014215165 0.00015076595
0.00014494956 0.00015543809 0.00014477091 0.0 0.0 0.0 0.0 0.0
0.0 0.0 0.0 0.0 0.00016113489 0.00017862946 0.00018510596 0.0001585934
0.00013157312 0.00015298095 9.35236e-05 8.031349e-05 0.00011415606 0.0 0.0 0.0
0.0 0.0 0.0 0.0 0.0 0.0 7.396577e-05 6.5835346e-05
8.3019244e-05 4.423853e-05 7.0007896e-05 0.00011389308 4.013721e-05 8.8140245e-05 0.00012593584 0.0008185538
0.0010902211 0.0012171371 0.00059406646 0.00062730483 0.00082530593 0.00034994993 0.00031068435 0.0005609275
0.00010187605 0.00019368499 0.00024931395 0.00013617708 0.0001760408 0.00018409012 0.0001461729 0.00016598999
0.00016285469 1.5097835e-05 7.790786e-05 0.00036567365 2.409502e-05 0.00013711872 0.0005483146 8.261837e-05
0.00034477736 0.00069815916 0.00012057786 0.00012768396 0.00014237578 0.00017020036 0.00014134844 0.0001590499
0.00018745686 0.00012851272 0.00013911493 7.591745e-05 0.0001274876 0.00017321462 0.00010767021 0.00014923261
0.00015372227 0.00012262924 0.00014144901 0.00012345678 0.00089859165 0.00052965956 0.0004217949 0.001163502
0.00087991095 0.0008091083 0.0013791524 0.0012855728 0.0012055894 0.0006687481 0.00080956874 0.0010511711
0.00017484289 0.00015678472 0.00028273213 1.8913483e-05 9.121755e-06 6.510868e-05 0.00014901374 0.00014115666
0.00013574527 0.00011445273 0.00010558095 0.00013896103 8.6708744e-05 0.000114993054 0.00015601625 0.00035873844
0.00028462565 0.00015633348 0.0003499986 0.0002476306 0.00018303163 0.0003660479 0.0003690238 0.000355526

exp_avg f4 [16]
00000000: 01e5 073c e8d2 e63b a2fb f4bb 0000 0000
00000010: 3c0a deba 0000 0000 fd3f f53a b7a0 233c
00000020: f921 4abb b820 f1ba 0acd 35bb 0a3f 823a
00000030: 976c c33c da1f 24bc bc03 2cbc 3f9a 3e3c
0.008294345 0.007044185 -0.007476286 0.0 -0.0016940306 0.0 0.0018711087 0.009987048
-0.0030843003 -0.0018396592 -0.002774062 0.0009937 0.02385549 -0.01001736 -0.010498937 0.011633455

exp_avg_sq f4 [16]
00000000: 3bcd 263b 203c b339 2982 8239 0000 0000
00000010: afe6 9839 0000 0000 c1e7 8939 8215 363b
00000020: c64b 9f39 82ac 1a3b 56a1 a839 e79a 6339
00000030: e1ff 3f3b ca44 b73b f945 a339 6d3c 373a
0.0025451917 0.00034186337 0.0002489251 0.0 0.00029163572 0.0 0.00026303346 0.0027783816
0.000303833 0.0023601358 0.00032163662 0.00021706113 0.0029296803 0.005592917 0.00031141916 0.00069899

exp_avg f4 [32, 16, 3, 3]
00000000: 7ee7 9db7 76d5 9cb9 249c f0b9 a983 f438
00000010: 725e bab9 c4ec 4eb9 3f1e 8cb9 ea1f 67ba
00000020: d700 a137 ab59 8139 8c89 60ba bda0 03ba
00000030: a3d0 84b9 effc b2ba ee7a 34ba d97a 1e39
00000040: 8885 99ba ddeb 5aba 7a58 33b8 d40c d1ba
00000050: eeba f2b9 840b 54ba f308 09bb e873 4fba
00000060: 8106 faba 07f1 02bb a152 9bba 0000 0000
00000070: 0000 0000 0000 0000 0000 0000 0000 0000
00000080: 0000 0000 0000 0000 0000 0000 0000 0000
00000090: d684 ab38 9eb0 78b9 2048 b7b9 c734 4639
000000a0: 7829 94b9 32bd 88b9 0864 7eb9 6986 55ba
000000b0: a85c bdb9 0000 0000 0000 0000 0000 0000
000000c0: 0000 0000 0000 0000 0000 0000 0000 0000
000000d0: 0000 0000 0000 0000 4fc2 72b9 0344 82ba
000000e0: a3e7 c537 75ff 9aba 9b92 94ba d42b d7b9
000000f0: 2b16 bfba eeae ddb9 0a59 1eba f253 88b9
00000100: da8e a7b9 e0a6 5fba 758b 1939 ab04 8bb9
00000110: aadb 1bba 99b6 ea38 78a7 85ba ba76 10ba
00000120: 93d5 77b8 1823 08bb 828f 55ba ccdc 7fba
00000130: 980f 4dbb 735a 7fba bdad 22bb f23b 48bb
00000140: e824 8cba 8820 a5ba 7b7b 9aba ee10 85b9
00000150: edfc 04bb 9c70 8bba 2559 26ba 985c 1fbb
00000160: b4d9 4eb9 3a49 3aba 4d87 cab8 9687 80b9
00000170: 4265 75ba 876d 1cb8 d50d a7b9 09ea 7aba
00000180: 91bd 52ba 98ed d3ba cf5d 9cba b049 8339
00000190: a962 02bb cbf6 46ba 080f 7cba 1a7b 55bb
000001a0: 6c4b 80ba 6970 24bb f435 41bb bc50 72ba
000001b0: 9dcc 123a 1252 e738 1c88 64ba ed1a 27ba
000001c0: 615c edba fd69 13bb d4f5 38ba f51e 90ba
000001d0: e796 70ba 2ce0 9bba 7253 cbb9 7aa2 64ba
000001e0: 5a71 23ba 0cbe 2939 6561 09ba 976f c9b9
000001f0: 13ae 65b9 5f6c 42ba 6a29 e0b9 1d86 a3ba
00000200: c84d 98b8 dd92 8db9 525b 7cba 534d aeb8
00000210: 1e2c beba 20bc b0ba 48af 6fba c559 9f3a
00000220: d147 9db7 63a3 c2ba 6a1e 423a af7c cbba
00000230: b084 09bb adac 923a d794 b6ba bc99 2bba
00000240: 19ab b1b9 61c6 1fb9 5ec9 89b9 015a 30ba
00000250: ed5d 14ba be5e 81ba 388c 0aba 75e7 26ba
00000260: 51b2 4fba dd29 32ba c27e b3ba 9631 b7ba
00000270: 1de8 6eba 5d8b 9cba d9f1 82ba 5068 6cba
00000280: 2d80 0dba 81f6 16ba 7e5c 11bb 3db4 0fbb
00000290: 8d70 e5ba 073b 00bb aaa7 d5ba 5b29 e0ba
000002a0: bc79 9bba f9a9 a0ba 91db 98ba 0000 0000
000002b0: 0000 0000 0000 0000 0000 0000 0000 0000
000002c0: 0000 0000 0000 0000 0000 0000 0000 0000
000002d0: 02df cdb9 9681 1aba 5a13 dab9 0c86 5fba
000002e0: d066 8cba 7aa0 82ba 480f 3fba 467f 53ba
000002f0: 3708 68ba 0000 0000 0000 0000 0000 0000
00000300: 0000 0000 0000 0000 0000 0000 0000 0000
00000310: 0000 0000 0000 0000 1984 9cba 24e2 3cba
00000320: ab36 58ba 098f e1b9 3fef c9b9 8764 28ba
00000330: 5e14 a0b8 9fa5 5db9 326e 04ba e264 bdb9
00000340: 73e5 cbb9 34f8 a5b9 fb04 58ba 7d27 85ba
00000350: 8b5a abba 1a5a 8bba ad7f a9ba 6ae7 c7ba
00000360: aca6 34bb 97cd 36bb b5e4 faba bd9d 20bb
00000370: c859 e8ba 79bc fbba b1ba c3ba 31a4 8cba
00000380: 6414 aaba d365 a6ba 74a8 6eb9 1f20 b1b9
00000390: fb2a 5238 2652 e139 e2bb 2cb9 da94 1c3a
000003a0: e51f 4439 722b 2cba e805 93ba 7cbd c3ba
000003b0: dc97 a4ba e395 ceba a6e5 a8ba 2303 aeba
000003c0: abbb 92ba 47df 89ba b3bb 5fba 0d42 36bb
000003d0: 3428 28bb 0e8a fdba e593 2ebb ffee bfba
000003e0: 09f4 cbba ba4f 99ba 3809 72ba 1831 90ba
000003f0: a02e e0ba aedf ceba 8385 0abb 9306 2cba
-1.8823655e-05 -0.0002991368 -0.000458927 0.0001165935 -0.00035547052 -0.00019733893 -0.00026725416 -0.0008816706
1.9193087e-05 0.00024671605 -0.0008565418 -0.0005021205 -0.00025332448 -0.0013655702 -0.0006884773 0.00015113819
-0.0011712769 -0.00083511864 -4.2759326e-05 -0.0015949258 -0.0004629711 -0.0008088874 -0.0020909875 -0.0007913695
-0.0019075425 -0.001998009 -0.0011850187 0.0 0.0 0.0 0.0 0.0
0.0 0.0 0.0 0.0 8.178658e-05 -0.00023716918 -0.00034958217 0.00018902413
-0.00028259656 -0.00026080903 -0.00024260592 -0.0008145334 -0.00036117923 0.0 0.0 0.0
0.0 0.0 0.0 0.0 0.0 0.0 -0.00023151304 -0.0009938482
2.3592094e-05 -0.00118254 -0.0011335196 -0.0004104065 -0.001457875 -0.00042282738 -0.00060404895 -0.00026002486
-0.00031959155 -0.0008531641 0.00014643169 -0.00026515624 -0.0005945513 0.00011192001 -0.0010197004 -0.00055108557
-5.9088296e-05 -0.002077287 -0.00081466895 -0.00097603793 -0.0031289812 -0.0009740956 -0.0024822794 -0.0030553308
-0.0010692151 -0.0012598196 -0.0011786068 -0.0002538035 -0.0020292357 -0.0010638419 -0.0006345681 -0.0024316665
-0.00019726792 -0.00071062485 -9.657312e-05 -0.00024515082 -0.0009361097 -3.7295304e-05 -0.00031863028 -0.0009571617
-0.0008039112 -0.0016168831 -0.0011929813 0.0002504117 -0.0019895232 -0.00075898756 -0.0009615277 -0.0032574595
-0.0009788102 -0.0025091416 -0.0029481621 -0.0009243598 0.0005599948 0.00011030225 -0.00087177916 -0.00063745567
-0.0018109196 -0.0022493594 -0.0007055674 -0.0010995554 -0.00091777596 -0.001189237 -0.0003878135 -0.00087217207
-0.0006234847 0.00016187894 -0.0005240648 -0.00038420848 -0.0002190399 -0.0007416661 -0.00042755465 -0.0012475882
-7.262413e-05 -0.00027003037 -0.0009626645 -8.311369e-05 -0.0014508998 -0.00134838 -0.00091432454 0.0012157491
-1.87493e-05 -0.0014849718 0.0007405045 -0.001552483 -0.002098363 0.0011190377 -0.0013929856 -0.00065460405
-0.00033887548 -0.00015237324 -0.00026280707 -0.0006727279 -0.0005659748 -0.0009870154 -0.00052851764 -0.0006366887
-0.00079229946 -0.0006796399 -0.0013694393 -0.001397657 -0.0009113567 -0.0011943389 -0.0009990289 -0.00090182293
-0.0005397823 -0.0005758778 -0.0022180374 -0.0021927499 -0.0017504856 -0.0019566433 -0.0016300578 -0.0017102169
-0.0011861841 -0.0012257687 -0.0011662116 0.0 0.0 0.0 0.0 0.0
0.0 0.0 0.0 0.0 -0.000392668 -0.00058939436 -0.00041594618 -0.00085267494
-0.0010711793 -0.0009966039 -0.0007288349 -0.00080679765 -0.0008851322 0.0 0.0 0.0
0.0 0.0 0.0 0.0 0.0 0.0 -0.0011941224 -0.00072053284
-0.0008247892 -0.00043021914 -0.0003851596 -0.0006423671 -7.633188e-05 -0.00021137901 -0.0005051821 -0.00036124053
-0.0003889013 -0.00031656178 -0.0008240488 -0.0010158863 -0.0013073249 -0.0010631711 -0.0012931727 -0.0015251462
-0.0027565164 -0.0027893537 -0.0019141646 -0.0024508082 -0.0017726952 -0.001920595 -0.0014932958 -0.0010730085
-0.0012976048 -0.0012695141 -0.00022760202 -0.00033784003 5.010793e-05 0.0004297655 -0.0001647319 0.00059731083
0.00018703898 -0.0006567753 -0.001121697 -0.001493379 -0.0012557465 -0.0015761222 -0.0012885823 -0.0013276081
-0.0011194845 -0.0010518812 -0.0008534744 -0.0027810365 -0.0025658729 -0.0019343512 -0.0026638445 -0.001464337
-0.0015560399 -0.0011696734 -0.0009232941 -0.0011000959 -0.0017103739 -0.0015783214 -0.0021136708 -0.0006562259

exp_avg_sq f4 [32, 16, 3, 3]
00000000: 6ed8 9736 1432 d236 39ee 9336 d3ce d436
00000010: 1a6e 1437 32e8 2036 c96f 8937 b378 0c37
00000020: e405 ad35 eca3 d137 39e4 9237 46c5 8236
00000030: e6f7 3838 57e4 f937 538a 0437 77d4 1838
00000040: 8557 3c38 12a4 b537 44c5 7938 706f 1038
00000050: c4ea e036 e8ae af38 a600 3a38 ca0d 1137
00000060: 5f92 b938 794f 5d38 ad52 f237 0000 0000
00000070: 0000 0000 0000 0000 0000 0000 0000 0000
00000080: 0000 0000 0000 0000 0000 0000 0000 0000
00000090: 8045 d036 41e4 8c36 1302 7736 20fe 3a37
000000a0: c222 d736 1384 4d36 516e be37 6542 6c37
000000b0: ef32 6536 0000 0000 0000 0000 0000 0000
000000c0: 0000 0000 0000 0000 0000 0000 0000 0000
000000d0: 0000 0000 0000 0000 c734 b837 5b30 2d37
000000e0: ec1a 4d35 babd 1238 661c 5237 088c 4f36
000000f0: 08d5 eb37 8548 9837 8e92 5037 7a4c 2237
00000100: 973e 4b37 5551 5137 108c 7137 a17c 7b37
00000110: dab4 2f37 839e 3338 2a78 f737 e253 1c37
00000120: f65d b438 0ed6 5f38 962a 5137 2d3c f238
00000130: 2c46 8d38 efd3 6d37 64eb fd38 8385 9138
00000140: 9b96 1e38 9c7b 0738 6884 9237 4eee 0137
00000150: ae61 1938 7259 3437 82f2 1437 246c 0838
00000160: a3c6 0537 ba2d 8b37 bbef 9d37 b792 9037
00000170: 13b7 1037 efd5 d137 68c5 af37 808e 0237
00000180: e2c1 1338 998a ce37 1a5c 2c37 45b3 ad38
00000190: 3ba5 7738 a6e0 8437 27b7 ef38 a419 a338
000001a0: b08e 9e37 34db e338 0610 8338 2489 3038
000001b0: 6e39 6538 e2a4 3438 64e7 7a37 ee4f a238
000001c0: 7646 a738 d0f8 1c38 9f31 1838 75ce 8c38
000001d0: 6b9d 7a38 f5b8 c737 e3d7 d437 6807 e637
000001e0: f4d1 b437 d026 cc37 e80e dd37 79c8 0238
000001f0: a291 ea37 e78e d137 b3d8 1738 ced1 6337
00000200: 25ae 4f36 5e4b 6838 4561 9437 2e15 4036
00000210: 3013 9b38 d21e 2638 0d66 5d37 5e1d 0e38
00000220: 43d3 2738 abe9 8637 6d7e 3638 b675 7538
00000230: 4a62 cb37 2b26 0b38 a941 6b38 6e2c 0738
00000240: 212b 3636 42df b735 984f fa36 8bb5 1a36
00000250: 1697 ab36 8efb 4937 d1d3 6d36 d937 e636
00000260: dce1 c436 23af 0337 603d 3837 68a1 4a37
00000270: 0241 ca36 8a4e 2637 ca92 2337 9ca8 c236
00000280: 7a93 6337 d7e5 4037 8261 b537 47c0 f937
00000290: bbda 1938 2f59 cd37 07cc 1138 1778 0038
000002a0: 8840 e637 733b f837 ce5f a837 0000 0000
000002b0: 0000 0000 0000 0000 0000 0000 0000 0000
000002c0: 0000 0000 0000 0000 0000 0000 0000 0000
000002d0: 8620 ab36 d99d 6536 774e a736 c795 b236
000002e0: bf9d 9b36 a46f 1f37 0b17 9436 728f c236
000002f0: 13c1 c436 0000 0000 0000 0000 0000 0000
00000300: 0000 0000 0000 0000 0000 0000 0000 0000
00000310: 0000 0000 0000 0000 fb19 1f37 c3a8 5e37
00000320: 3f08 4937 3e08 3a37 ad8a 3137 5578 b036
00000330: 488e 3a37 1fa2 0e37 185e ae36 ba23 0837
00000340: ff21 8236 2950 0937 15ba 1e37 8cd7 ea36
00000350: 3825 a637 bd2b 0f37 2da3 5037 4c9f 7137
00000360: edff f437 172c 3138 5302 6138 c64e 0a38
00000370: 2fad 5138 dfe6 3138 c2aa 2138 bd0a 3838
00000380: e7e3 dd37 1ba7 7837 a4b4 a037 4297 3d37
00000390: c906 b637 b9ba 8b37 ade5 5c36 f0eb b037
000003a0: 774b 1737 4092 6b36 08d5 0537 95df 1c37
000003b0: 6552 7e37 a470 0137 493a 5337 6bdf 9a37
000003c0: 0207 0437 4a40 4937 33b4 3437 3101 f437
000003d0: 11d2 3838 d81a 7938 5678 0138 b18f 5238
000003e0: aa77 2538 61d1 1138 e92d 2238 5b6d cd37
000003f0: c0b5 6737 f4a4 af37 5c70 ee37 6cba cf36
4.5253464e-06 6.2643176e-06 4.408674e-06 6.34217e-06 8.847122e-06 2.3977013e-06 1.6383727e-05 8.372753e-06
1.2891219e-06 2.4991074e-05 1.751083e-05 3.8972676e-06 4.4099892e-05 2.9789442e-05 7.900019e-06 3.6437497e-05
4.49042e-05 2.1653283e-05 5.9549944e-05 3.443606e-05 6.7030505e-06 8.377229e-05 4.434646e-05 8.645884e-06
8.848751e-05 5.276452e-05 2.8887147e-05 0.0 0.0 0.0 0.0 0.0
0.0 0.0 0.0 0.0 6.206974e-06 4.1988974e-06 3.6807076e-06 1.1145632e-05
6.4115457e-06 3.0624258e-06 2.2701135e-05 1.4082155e-05 3.4153306e-06 0.0 0.0 0.0
0.0 0.0 0.0 0.0 0.0 0.0 2.1959086e-05 1.0322862e-05
7.640763e-07 3.498581e-05 1.2523587e-05 3.0926913e-06 2.8113383e-05 1.8153582e-05 1.24318885e-05 9.6737585e-06
1.2114316e-05 1.2476307e-05 1.439733e-05 1.4989783e-05 1.0472921e-05 4.282455e-05 2.950065e-05 9.317855e-06
8.6005704e-05 5.3366697e-05 1.2467286e-05 0.00011550668 6.7364745e-05 1.4175645e-05 0.00012107825 6.939007e-05
3.7810398e-05 3.230163e-05 1.7466213e-05 7.744484e-06 3.6569014e-05 1.0749662e-05 8.877951e-06 3.252564e-05
7.9736665e-06 1.6591384e-05 1.8827492e-05 1.7234457e-05 8.625694e-06 2.5014362e-05 2.095355e-05 7.781782e-06
3.52281e-05 2.4621653e-05 1.0273443e-05 8.2826744e-05 5.9043272e-05 1.5840236e-05 0.00011430523 7.7772216e-05
1.8901512e-05 0.00010865033 6.2495514e-05 4.2089392e-05 5.465134e-05 4.3068903e-05 1.4955036e-05 7.73965e-05
7.976305e-05 3.7425023e-05 3.6285837e-05 6.714176e-05 5.975125e-05 2.3808776e-05 2.53729e-05 2.7421585e-05
2.155544e-05 2.4336769e-05 2.6352194e-05 3.118112e-05 2.796279e-05 2.4981286e-05 3.6203022e-05 1.3579103e-05
3.094677e-06 5.53833e-05 1.768827e-05 2.8622558e-06 7.39455e-05 3.9606188e-05 1.3196387e-05 3.388279e-05
4.0012656e-05 1.6082855e-05 4.3509925e-05 5.852218e-05 2.4245255e-05 3.317573e-05 5.6089517e-05 3.2227887e-05
2.7145218e-06 1.3699539e-06 7.4598465e-06 2.305346e-06 5.113786e-06 1.2039103e-05 3.5439045e-06 6.8610357e-06
5.8675487e-06 7.848986e-06 1.0981545e-05 1.2077719e-05 6.027637e-06 9.912657e-06 9.749734e-06 5.8012793e-06
1.3564591e-05 1.1497606e-05 2.1622287e-05 2.977265e-05 3.668175e-05 2.4479434e-05 3.476071e-05 3.062942e-05
2.7448186e-05 2.9591587e-05 2.0071773e-05 0.0 0.0 0.0 0.0 0.0
0.0 0.0 0.0 0.0 5.0999834e-06 3.4215539e-06 4.9861223e-06 5.3222498e-06
4.637724e-06 9.503132e-06 4.4134263e-06 5.79835e-06 5.863732e-06 0.0 0.0 0.0
0.0 0.0 0.0 0.0 0.0 0.0 9.483188e-06 1.3271524e-05
1.19824535e-05 1.1088383e-05 1.058231e-05 5.2592172e-06 1.1119591e-05 8.501606e-06 5.196558e-06 8.11455e-06
3.8782596e-06 8.1845e-06 9.4608595e-06 6.9988364e-06 1.9806073e-05 8.533648e-06 1.2435758e-05 1.4401809e-05
2.9206241e-05 4.224115e-05 5.3646345e-05 3.2975127e-05 4.9990773e-05 4.2415104e-05 3.8544422e-05 4.387902e-05
2.6451378e-05 1.4820859e-05 1.9157604e-05 1.1300495e-05 2.169925e-05 1.665704e-05 3.2916244e-06 2.1090702e-05
9.017872e-06 3.5102858e-06 7.977018e-06 9.350381e-06 1.5158764e-05 7.715225e-06 1.2590151e-05 1.8462268e-05
7.869445e-06 1.1995502e-05 1.0770792e-05 2.9087621e-05 4.4064658e-05 5.9391226e-05 3.086807e-05 5.0201725e-05
3.945051e-05 3.4765693e-05 3.8666567e-05 2.4488827e-05 1.381099e-05 2.0938438e-05 2.8424132e-05 6.190783e-06

exp_avg f4 [32]
00000000: e332 03bb 0765 a4ba 092b 7dba 5da6 cdb9
00000010: b1c3 513b 9811 8d3b 31c4 cdba e815 e3ba
00000020: 4898 08bb 4e2f 53ba 91ef 403a 9feb efba
00000030: c6a2 11b9 d6b2 b6b9 0bff 453b c121 3cba
00000040: dd3b a03a 8d5c 41bb 0400 0000 07eb 843b
00000050: 4b27 b1b9 25bf 723a 874f 2dbb d3ee 883a
00000060: fa95 23b9 02c7 f039 0400 0000 aa05 bfba
00000070: 0400 0000 bb94 08ba b233 92b9 811f 5aba
-0.0020019345 -0.0012542316 -0.0009657597 -0.00039224597 0.003200751 0.004305076 -0.0015698728 -0.0017325254
-0.002084272 -0.000805606 0.0007359917 -0.0018304473 -0.00013888915 -0.00034846988 0.0030211832 -0.00071766606
0.0012224872 -0.0029504627 6e-45 0.0040563378 -0.00033789346 0.000926005 -0.0026445107 0.0010447152
-0.00015600762 0.0004592464 6e-45 -0.0014573832 6e-45 -0.0005210151 -0.00027885806 -0.00083207345

exp_avg_sq f4 [32]
00000000: 558c 0139 3cf2 9037 aeae f137 2d07 c337
00000010: 972f a138 3541 7738 5d4f ad38 ccbc d937
00000020: e3e1 9238 900c 9f38 31fe cb37 383b f137
00000030: cdb2 0338 0296 c437 db8a 8f38 1a93 e138
00000040: 2500 f837 5c3c 6338 769a 0529 b47a 4638
00000050: c518 fa37 bea2 0d38 ad24 8638 4c16 a938
00000060: c6c2 c938 a07e 3738 37e3 292b c806 b838
00000070: dc0e 8425 37ce bf38 7ea3 4138 9449 ce38
0.00012354676 1.7278937e-05 2.881078e-05 2.3249153e-05 7.6859425e-05 5.8950118e-05 8.2640654e-05 2.5956331e-05
7.003897e-05 7.584051e-05 2.4317853e-05 2.8757015e-05 3.1399355e-05 2.3434874e-05 6.844635e-05 0.00010756236
2.9563971e-05 5.417723e-05 2.9665906e-14 4.7321155e-05 2.9813857e-05 3.3768585e-05 6.396449e-05 8.062701e-05
9.620706e-05 4.374853e-05 6.0356185e-13 8.775067e-05 2.290842e-16 9.146e-05 4.616705e-05 9.8365505e-05
