05_NeuralNetwork/logs/mlp/version_0/checkpoints/last.ckpt (torch, 6281 bytes, 8 tensors)

model.0.weight f4 [4, 2]
1.1333847 -0.09238409 -0.61338633 0.4404096 0.4537407 -0.115378626 -0.61106277 0.30805624
00000000: c012 913f df33 bdbd e306 1dbf 5e7d e13e
00000010: b350 e83e a14b ecbd 9c6e 1cbf 8cb9 9d3e

model.0.bias f4 [4]
0.7350237 -0.54768366 -0.30493036 0.4870011
00000000: 832a 3c3f ff34 0cbf d51f 9cbe 3558 f93e

model.2.weight f4 [8, 4]
0.93776625 -0.23731978 -0.23377983 -0.43023914 -0.43028784 -0.23863217 0.42034256 0.26138985
0.58529866 0.049546722 0.37170655 0.11160685 0.5016806 0.16171461 -0.07228543 -0.5082734
-0.04854405 -0.2685868 -0.24632323 -0.32304156 -0.3600729 0.3171407 0.13664754 0.63137513
-0.47866458 0.17830998 -0.049994648 0.07243526 0.2637997 0.09305269 0.35154024 -0.33913523
00000000: 7311 703f f503 73be fb63 6fbe 4e48 dcbe
00000010: b04e dcbe fe5b 74be 2437 d73e e4d4 853e
00000020: 22d6 153f 81f1 4a3d 5250 be3e 2292 e43d
00000030: 246e 003f 8498 253e 620a 94bd 351e 02bf
00000040: 20d6 46bd 3684 89be 283c 7cbe b465 a5be
00000050: 7a5b b8be 4460 a23e 55ed 0b3e cda1 213f
00000060: 8613 f5be e496 363e 30c7 4cbd f058 943d
00000070: c110 873e 6992 be3d 15fd b33e 22a3 adbe

model.2.bias f4 [8]
0.35250655 -0.16854867 0.3719704 0.3489545 -0.09398645 0.41239333 -0.49266946 0.25415108
00000000: bd7b b43e 0698 2cbe e772 be3e 2aaa b23e
00000010: f87b c0bd 3825 d33e 2c3f fcbe 1720 823e

model.4.weight f4 [4, 8]
0.24381138 0.24965557 -0.15057057 0.11867725 0.023865223 -0.147379 -0.11083408 -0.10282564
-0.3107142 0.068405986 0.0040876567 0.08387497 0.2228832 0.053506225 0.30140933 -0.050150126
-0.267158 -0.33753458 -0.3564276 -0.24698201 -0.18536504 0.17974262 0.22492477 0.061816067
0.9180586 -0.1405679 0.50943536 0.6847217 0.21588722 -0.6741265 -0.046652526 0.33450907
00000000: b1a9 793e b6a5 7f3e 2c2f 1abe 0f0d f33d
00000010: 0081 c33c 85ea 16be fafc e2bd 4096 d2bd
00000020: ee15 9fbe 7018 8c3d c0f1 853b a4c6 ab3d
00000030: 7e3b 643e 5829 5b3d 5352 9a3e 386a 4dbd
00000040: efc8 88be 55d1 acbe ae7d b6be dae8 7cbe
00000050: 55d0 3dbe 730e 383e ae52 663e d832 7d3d
00000060: e305 6b3f 08f1 0fbe 5b6a 023f ec49 2f3f
00000070: 8a11 5d3e 8e93 2cbf b816 3fbd c644 ab3e

model.4.bias f4 [4]
-0.2627068 -0.25849816 -0.10804895 0.25824994
00000000: 8181 86be df59 84be c548 ddbd 5639 843e

model.6.weight f4 [2, 4]
0.12617493 0.13479334 -0.19161701 -0.86542714 0.05950249 0.49768317 0.45757705 1.2172978
00000000: 0034 013e 4407 0a3e 4037 44be a28c 5dbf
00000010: e2b8 733d 54d0 fe3e 8a47 ea3e 6ad0 9b3f

model.6.bias f4 [2]
1.146277 -1.125884
00000000: 34b9 923f f81c 90bf
