07_RNN/logs/rnn/version_3/checkpoints/last.ckpt (torch, 62024 bytes, 15 tensors)

rnn.weight_ih_l0 f4 [64, 1]
000000 7f 83 e2 be b5 7a da 3f 9d cb c2 bf 12 c7 38 3d
       -0.4424095 1.7068697 -1.5218388 0.045111723
000010 eb c5 30 3e ee e2 4f 3f 83 0f e0 bd fc b6 cd 3f
       0.17263 0.8120564 -0.109404586 1.6071467
000020 59 93 5c c0 28 1e b3 bf fc 7d d9 bf ba d5 b4 3d
       -3.4464934 -1.3993578 -1.6991572 0.088298276
000030 42 58 6a 3c d1 cc 98 3d 78 2a eb 3f f7 b3 20 40
       0.014303269 0.07460941 1.8372335 2.5109842
000040 fe b6 1e 3e cc a5 16 40 68 ed 7d c0 6c 91 2f be
       0.15499493 2.3538694 -3.9676151 -0.17145318
000050 5e cd 16 3f e0 13 d5 3e fb 7a d5 bf 31 85 08 3f
       0.58907115 0.41616726 -1.6678156 0.53328234
000060 b5 4a 01 3f 18 16 e9 be cb af 62 40 e6 e2 0d 40
       0.5050462 -0.4552467 3.5419796 2.2169738
000070 ba 19 96 3f 96 86 3d c0 3e 70 82 be 90 32 0d c0
       1.1726601 -2.9613395 -0.2547626 -2.206211
000080 74 f0 25 c0 15 2a 4c c0 2b ed 20 3e 50 4e 9f be
       -2.592801 -3.1900685 0.15715472 -0.31114435
000090 2d 28 e5 bf 5a 91 65 bf 5d 0e 15 c0 f7 ba 2d 40
       -1.7902886 -0.89674914 -2.3290017 2.7145364
0000a0 6e f3 af bf 40 f4 ab 3d 45 1f 5e 3e 3b 64 1e c0
       -1.3746164 0.08396196 0.21691616 -2.4748676
0000b0 f7 a3 ab 3f 38 ff 8c 3f ec f1 13 3e 51 e6 f0 3c
       1.3409413 1.1015387 0.14447755 0.029406698
0000c0 c1 0d 0f be 13 64 e7 bf 03 38 24 40 7d 6e 30 40
       -0.1397009 -1.8077415 2.5659187 2.7567437
0000d0 e6 33 1f 3d 45 fb 97 bf 99 8b 37 3d 89 f7 cd 3e
       0.038867854 -1.1873556 0.044810865 0.40227917
0000e0 d5 9b 02 c0 bf 09 1c c0 1e f0 2d 40 a4 0b 10 be
       -2.0407612 -2.4380949 2.7177806 -0.1406694
0000f0 4f 93 f0 3f f4 54 8a 3f e3 dd 9c 3d da 5d f1 3f
       1.8794955 1.0807176 0.07659509 1.8856766

rnn.weight_hh_l0 f4 [64, 64]
000000 61 83 2f be 78 42 ee 3d 6d 4f 6a 3e f8 e8 ec be
       -0.17139961 0.11633772 0.22881861 -0.4627149
000010 9b 06 84 3e 7a 7b 8c bd 78 43 e8 be b0 69 0d 3f
       0.2578629 -0.06859489 -0.45363975 0.5523939
000020 70 f5 4d 3e 66 e0 3e be 6e 07 74 be b2 8f c6 3e
       0.20113158 -0.18640289 -0.23830959 0.38781506
000030 6c 91 57 bf 30 62 24 3f 47 b1 87 bc a3 1d 84 bc
       -0.8420627 0.6421232 -0.016564025 -0.016127413
000040 33 c9 73 bc 2b 0d a5 bd 77 5e 4e 3e d2 e9 09 bf
       -0.014879513 -0.08059152 0.20153223 -0.53872406
000050 3b 06 47 3e 85 68 48 3a 95 7c 1b be 87 83 ab 3e
       0.1943597 0.0007644969 -0.15184243 0.33498785
000060 30 ff 1b 3d dc 87 a1 bd 96 00 de be ca 38 86 bd
       0.038085163 -0.07887241 -0.43359822 -0.065538004
000070 d2 a4 a9 3d 32 f0 b7 3e 32 6a 13 be 72 ad 00 be
       0.0828339 0.35925442 -0.14395979 -0.12566164
000080 a9 b1 ec 3c 70 a3 51 3e 39 7f 52 3d 58 c1 85 be
       0.028893309 0.20472503 0.05139086 -0.26124072
000090 da 6e 97 bd 0b 9e 34 bd 03 ad e7 3e 16 f5 10 3e
       -0.0739419 -0.044096034 0.45249185 0.14155993
0000a0 8b 50 3c 3e dc 68 b7 bd a8 d2 5d 3c b3 19 71 bc
       0.183901 -0.08955547 0.013538994 -0.0147156
0000b0 f1 4f 13 be 9f 79 87 3e df 09 a1 3d 51 42 f6 3e
       -0.14385964 0.26459977 0.07863211 0.4809747
0000c0 bc b7 0f 3e 77 04 9b bd 96 97 96 3d 4e d2 28 3e
       0.14034933 -0.07569211 0.073531315 0.16486475
0000d0 5d 36 cb be 92 39 18 be 40 60 f5 be 20 07 62 be
       -0.39689913 -0.14865711 -0.47924995 -0.2207303
0000e0 d8 5e 10 be f0 10 cc 3c 12 bb c3 3d 14 a6 ef 3d
       -0.1409868 0.02491042 0.09557165 0.11701599
0000f0 39 e1 01 bb a4 1d 12 3e f2 57 d1 3e 5d 6d 34 be
       -0.001981808 0.1426912 0.4088741 -0.17619844
000100 c4 83 d7 bd 67 88 22 3e ff db 38 bf 7b ae 09 3f
       -0.10523179 0.15872346 -0.7221069 0.5378186
000110 64 6b 2f bf 27 41 6a 3e 7c b4 d6 3e 50 2e a9 be
       -0.6852324 0.22876416 0.41934574 -0.33043146
000120 b1 f6 c9 bf 9d b7 bb be 0e b6 19 3e 49 5d 10 bf
       -1.5778409 -0.36663523 0.15010855 -0.5639234
000130 8e 76 26 3f b4 4c b9 be 1a 29 19 3e 5a 25 04 3f
       0.6502465 -0.36191332 0.14957085 0.51619494
000140 b5 36 9c 3e 1d 99 77 3e 0d 25 47 bf e2 5a ac 3e
       0.30510488 0.24179502 -0.7779091 0.33663088
000150 fb ba d6 be e7 58 77 3e a6 a7 af 3e 37 d4 eb be
       -0.4193953 0.24155007 0.34307593 -0.46060345
000160 ac 3d 81 bd d0 b5 24 bf 19 4b a6 3e e9 cb a8 3f
       -0.06310591 -0.64339924 0.3247917 1.3187228
000170 0e f3 8b 3e 8b 0d 22 bf e5 5c 45 3e 96 7c 80 be
       0.27333874 -0.63301915 0.19273718 -0.25095052
000180 44 80 a7 bd 7b 8d be be 1c 6e bb 3e fd 64 12 3f
       -0.081787616 -0.37217316 0.36607444 0.57185346
000190 c1 30 b1 be e4 09 77 be 47 9f 6a bf 2d 88 95 bb
       -0.3460751 -0.24124867 -0.9164929 -0.0045633526
0001a0 6e 51 e0 be 23 43 98 3e b7 e7 fd bd 35 14 5c bf
       -0.43812126 0.2973872 -0.12397712 -0.85968333
0001b0 1d 27 44 3e 1b 68 1b be 73 41 6a bd aa d3 b3 be
       0.19155546 -0.15176432 -0.057191323 -0.35122424
0001c0 2b cf f8 be 70 25 0a bf 88 6c 20 3f 9a 1b 60 3f
       -0.48595557 -0.53963375 0.62665606 0.87542117
0001d0 5a cd 12 3f 24 18 8f be 2d 2f 9f 3e d9 56 12 3f
       0.5734459 -0.27948105 0.3109068 0.5716377
0001e0 fd fc f0 3d d5 bb 9c bf 91 58 d9 3f 48 00 17 bf
       0.11767004 -1.2244822 1.6980153 -0.58984804
0001f0 32 25 23 3f 1f dd 54 3e 49 56 0c bf 00 bf be 3e
       0.6372863 0.20787476 -0.5481916 0.37255096
000200 57 20 a6 be cb 7e 29 bf d6 b2 50 3e 00 3d 38 3f
       -0.32446548 -0.66209096 0.2038072 0.7196808
000210 60 aa 9e be 91 61 db 3e 33 be 2f 3f 60 3a 82 bf
       -0.3098936 0.42847875 0.68649596 -1.0174065
000220 b7 46 4d be 03 61 2b 3f 26 00 82 bd 35 f3 f9 be
       -0.20046507 0.66944903 -0.063476846 -0.48818365
000230 af 88 47 3f ab 32 5f bf 00 ab 00 bf 04 51 bb bf
       0.7794294 -0.8718669 -0.50260925 -1.4634099
000240 c9 84 8c be e3 bb f7 be 21 9c ba be 63 67 1c 3f
       -0.27445057 -0.48385534 -0.36447242 0.61095256
000250 17 b5 f9 be fe 0f 36 be 8e 9f bb be 95 05 b9 be
       -0.48770973 -0.17779538 -0.36645168 -0.3613707
000260 a5 aa de bd 6d 66 af 3e 2d 3a 5b bf 0a 6f c9 bd
       -0.108723916 0.34257832 -0.85635644 -0.09835632
000270 5f 22 36 be 5c 30 4d 3d e1 98 1d 3d 47 e2 1e 3f
       -0.17786549 0.050094947 0.038475875 0.6206402
000280 5d 0e d1 3e df e4 e4 3e 5d b4 b6 be ac 3d fe 3e
       0.4083127 0.44705865 -0.3568448 0.49656427
000290 af a2 e0 3d d1 aa df 3d 7e 6f 43 bf 47 f2 0e bf
       0.109685294 0.109212525 -0.76342 -0.55838436
0002a0 6d ca 2b be 28 5a 96 be ed 9e 11 3e 34 d1 8b 3f
       -0.16776438 -0.2936566 0.14220782 1.0923219
0002b0 b4 97 37 3e 56 42 fd 3d ea 52 95 3e 6f ac 55 bf
       0.17928964 0.12366168 0.2916482 -0.8346624
0002c0 b6 5b 80 3e 86 c3 dd 3d 84 dc a3 be f9 6e 18 be
       0.2506997 0.10828309 -0.32004178 -0.14886083
0002d0 ca 02 1b 3f fb 2d 40 3e 6e 7b ec 3e 86 5c b4 be
       0.6055113 0.1876754 0.4618792 -0.3522684
0002e0 a0 ae 4c 3f bc 62 13 3f 35 5a 05 bf 5b 71 f9 3e
       0.79953957 0.5757253 -0.5209077 0.48719296
0002f0 35 42 4a bf 44 b5 2f 3e ad dc d5 be c5 ea ae 3e
       -0.79007274 0.17158991 -0.41769925 0.3416349
000300 18 d1 0b 3e 70 e3 cf 3e e2 7a 54 bf bd 99 c3 bd
       0.13653982 0.4060321 -0.83000004 -0.095508076
000310 f9 f2 0b be fa bf f1 bd 19 ee 5a be ab 9e a6 be
       -0.13666905 -0.11804195 -0.2137989 -0.3254293
000320 9c 4e 4a bf 9f 7d 78 3e fc 3b 1b 3f d0 60 b2 be
       -0.790262 0.2426667 0.60638404 -0.34839487
000330 1b 2e c1 3e 49 18 07 3e 8d 24 e4 3e ca 13 de 3d
       0.37730488 0.13192858 0.44559136 0.10843618
000340 e7 8f 43 3f 84 6c 06 3f 84 22 0c bf 92 8f 73 bd
       0.7639145 0.5250933 -0.54740167 -0.05946309
000350 ac eb 51 3e bd ff 15 3f d1 2c 39 3f 78 78 9b 3e
       0.20500058 0.5859335 0.7233401 0.30365348
000360 77 97 69 be 71 fb fb be f9 b1 c5 3e 05 ae e2 3d
       -0.22811686 -0.49215272 0.38612345 0.11068348
000370 49 5d 5f be 7e da 7a be 13 a3 af 3e 35 dd 66 bf
       -0.21812929 -0.2449741 0.34304103 -0.90181285
000380 2a 43 d5 bd 04 77 62 be 01 0b 70 3f 54 9e 7b 3e
       -0.10413201 -0.22115713 0.9376679 0.24572116
000390 08 53 14 3c b1 f5 80 be 50 72 61 be 1c ae 89 3e
       0.009052999 -0.25187448 -0.22016263 0.26890647
0003a0 aa db 9e be 1f 4b 53 3f cb 87 ba be 34 d2 ed be
       -0.31026965 0.825365 -0.36431727 -0.46449435
0003b0 3e 90 ba be 78 b7 2f bf 20 0c 02 bf 5d 8b 16 3d
       -0.36438173 -0.68639326 -0.5079975 0.036754
0003c0 3a 2b 4e bf 4e e0 3f 3e f7 4d 9f 3c 29 94 b7 3e
       -0.8053471 0.18737909 0.019446356 0.35855225
0003d0 a8 98 9b be 5a 96 06 3f 35 71 03 be 42 54 31 3f
       -0.30389905 0.5257317 -0.12836154 0.6926919
0003e0 00 50 52 3e 2e 3d 87 be 56 17 24 3d 60 61 28 bf
       0.2053833 -0.26413864 0.040061317 -0.6577358
0003f0 5b 28 e1 bd f2 a0 13 be 44 31 ac be 19 ea a2 3e
       -0.10994025 -0.14416865 -0.33631337 0.31819227

rnn.bias_ih_l0 f4 [64]
000000 02 de 64 bd 9b 45 f8 be 8f 72 87 3e 32 e6 da be
       -0.055875786 -0.48490605 0.2645459 -0.4275375
000010 2f 90 87 3e 86 d4 8b bd 59 8d d0 be 49 bc 1d 3f
       0.2647719 -0.06827645 -0.4073284 0.61615425
000020 3b 09 44 3e be 35 30 bf 12 1d c4 be df e5 70 3f
       0.19144146 -0.68832004 -0.3830343 0.94100755
000030 71 82 9f 3d 1e 83 09 3f bb da aa 3e 7e 32 00 3f
       0.077885516 0.53715694 0.33370003 0.50077045
000040 76 ec 42 be d9 d0 70 3e 00 57 82 3e 51 1e f1 be
       -0.19035515 0.23517169 0.25457 -0.47093442
000050 70 1b 0f 3f 91 86 12 bf 32 23 07 be b0 de 65 3e
       0.5590124 -0.5723658 -0.1319702 0.2244823
000060 20 61 c3 3e 11 bf f0 3e 97 a7 f7 3d d1 83 f8 3c
       0.38160038 0.47020772 0.12092512 0.030336292
000070 fe ed 81 be 51 d8 28 be 5b bd 98 be 9b 05 9e be
       -0.25376886 -0.16488768 -0.29831967 -0.30863652
000080 ac 93 a0 3e cb fc d6 be e7 71 16 bd ec 23 44 bf
       0.31362665 -0.4198974 -0.03672972 -0.7661731
000090 ec e7 b6 be f3 97 c5 be 64 11 5a be b4 00 0f be
       -0.35723817 -0.3859249 -0.21295696 -0.13965112
0000a0 0d ac 56 be 75 73 21 3e 99 b4 e8 3e 97 67 a8 be
       -0.2096407 0.157667 0.45450285 -0.32891533
0000b0 04 fd 83 3c 74 68 f0 3e b2 e7 d9 3e 75 44 17 3f
       0.016111858 0.4695469 0.42559582 0.5908883
0000c0 7f d1 4a 3e eb d7 8f bd 7b d7 d9 3e 23 69 f9 bd
       0.19806479 -0.07023605 0.4254721 -0.12178256
0000d0 37 34 8e be e5 2a 8a bf e3 3e 93 be bf 25 83 3e
       -0.27774212 -1.079434 -0.28758916 0.25614735
0000e0 c8 44 c6 be e3 3c 83 be c5 0b c3 be 12 29 94 be
       -0.3872435 -0.2563239 -0.38094917 -0.28937584
0000f0 c6 92 35 3e c7 aa 89 3e c4 38 69 3f e7 e3 38 be
       0.17731771 0.26888105 0.9110224 -0.18055688

rnn.bias_hh_l0 f4 [64]
000000 36 72 6b bd ed bf 18 bf 62 80 bc 3e 9a a0 cb be
       -0.057481967 -0.59667856 0.36816698 -0.39770967
000010 8d c5 6b 3e 76 c1 1b be 78 b2 e4 be 0d ea cb 3e
       0.23024578 -0.15210518 -0.4466741 0.39827004
000020 90 ff 8f 3e 9b cc 3a bf 1b 87 43 be 2d 53 41 3f
       0.28124666 -0.72968453 -0.19094507 0.7551754
000030 ca c0 19 be 01 b6 0c 3f 24 2d c5 3e 15 a8 17 3f
       -0.1501495 0.54965216 0.38511002 0.5924085
000040 ed 4f 4b be 78 01 57 3e 68 97 a8 3e 2a 39 ad be
       -0.19854708 0.20996654 0.32928014 -0.33832675
000050 97 8a bf 3e 51 47 23 bf ab 96 29 be 65 32 b4 3e
       0.37410423 -0.63780695 -0.16561382 0.35194698
000060 d8 49 a7 3e 06 dc c0 3e 70 f0 39 3e 0f cc f9 bd
       0.32673526 0.37667865 0.18158126 -0.12197124
000070 93 bb c2 be 0f a9 fa bc 85 60 c5 be a2 ac 8a be
       -0.38033733 -0.030598192 -0.385502 -0.27084833
000080 3f 7a 01 3e f7 b9 96 be 65 08 6b bd 66 c6 4e bf
       0.1264429 -0.29438755 -0.057381053 -0.8077148
000090 48 66 73 be 64 45 cb be df 86 2f bd 35 20 93 be
       -0.23769486 -0.39701378 -0.042853232 -0.2873551
0000a0 18 d2 ac be d3 5c 97 bc 37 88 b7 3e 8a f3 b4 be
       -0.3375404 -0.01847688 0.3584611 -0.35342056
0000b0 c5 c4 e7 3d 67 40 cc 3e 01 0c 02 3f fa 9e 46 3f
       0.11316828 0.39892885 0.50799567 0.7758633
0000c0 d6 94 fe 3d 22 dc f6 3c 5e e1 c1 3e 18 68 e2 bc
       0.12430732 0.030134264 0.37867254 -0.027637526
0000d0 16 db 88 be a5 6d 9a bf a4 b3 53 be 71 19 09 3e
       -0.2672965 -1.2064711 -0.20673996 0.13388611
0000e0 3c 43 c0 be 91 f2 48 be 2f 96 e7 be d3 55 b8 be
       -0.37551296 -0.19623782 -0.45231768 -0.3600298
0000f0 36 14 97 3c d9 68 2b 3e 34 07 64 3f 84 66 70 be
       0.018442255 0.16739215 0.8907349 -0.23476607

dense.weight f4 [1, 64]
000000 c6 6e 5a bc fc ac 15 3d 95 c7 09 bd b5 df 55 3c
       -0.0133320745 0.036541924 -0.033637602 0.013053824
000010 b2 c0 44 3d 9c 9e 47 3d 01 7e 92 bc 5a fa 6b 3c
       0.04803533 0.048735246 -0.017882349 0.01440295
000020 04 c9 dc bd 4f 07 a5 bc fc 4a f8 bc 1b 84 88 bd
       -0.10780528 -0.020145087 -0.030309193 -0.06665822
000030 5b 17 fe bb 4b a4 69 3d fb 3f 19 3d e7 50 88 3d
       -0.007754249 0.057041448 0.037414532 0.06656056
000040 7b 05 95 3d 0f cb 91 3d c6 21 4e be 06 4a 5e bc
       0.07276436 0.071188085 -0.20130071 -0.013567453
000050 d8 d9 2a 3d 5c c6 21 3d 78 5f 5a bc 78 0a d9 3c
       0.04171166 0.03949581 -0.013328426 0.02649425
000060 43 3c d5 3c 6f f4 d6 3c 95 ce 9f 3d ba 56 7d 3d
       0.026029712 0.026239602 0.07803074 0.061850287
000070 07 4c 0b 3d 03 66 7a bd ba 13 08 bd 3b 74 00 bd
       0.034008052 -0.061132442 -0.033221938 -0.031360846
000080 a6 75 bf bd e7 ac 7e bd 3c 47 b8 bc a6 53 9f bb
       -0.093486115 -0.06217661 -0.022494905 -0.0048622666
000090 19 b5 56 bd 3b e6 c8 bc d1 42 18 bd a3 1f 96 3d
       -0.052418802 -0.024523845 -0.037173096 0.07330253
0000a0 2a de c6 bd 54 4a ce bc d6 66 12 3d f2 73 81 bd
       -0.09710343 -0.025181927 0.035742603 -0.06320943
0000b0 30 dc 34 3d 74 f2 ae 3c fd 12 69 3d da 20 d5 3a
       0.0441553 0.021355845 0.056902874 0.0016260401
0000c0 65 ac 1e 3d 2a 1e 0d bd 5e 1c 43 3d 6c 2d 91 3d
       0.038738627 -0.034452595 0.047634475 0.07088742
0000d0 17 4f d2 3c 8c 3d 3c bc cb 3b 05 3c 3a 2c 0d 3e
       0.025672479 -0.011489283 0.008131932 0.13786402
0000e0 b1 bb 14 bd 17 44 84 bd 60 ff 87 3c 3e 40 92 bd
       -0.03631181 -0.064582996 0.016601264 -0.071411595
0000f0 2d 09 4a 3c 0a 7d 18 3d bc a6 c6 bd d8 41 18 3d
       0.012331289 0.03722862 -0.09699771 0.03717217

exp_avg f4 [64, 1]
000000 84 10 cd b3 e6 de 0c b8 2c bb 5d 39 6b ad 5a b3
       -9.5490606e-08 -3.358619e-05 0.0002114593 -5.0914803e-08
000010 00 98 9a b2 3d 13 c9 b3 e8 3b 56 35 2b 94 8e b7
       -1.7997081e-08 -9.363291e-08 7.980839e-07 -1.6996715e-05
000020 cd 9b 1b 3a 2d ca ad 37 bd 05 07 38 89 f5 fc 33
       0.0005935997 2.0717353e-05 3.2191852e-05 1.1779327e-07
000030 ea c4 33 34 d9 f8 41 b1 d5 12 a4 b9 b9 f1 5c ba
       1.6742311e-07 -2.822665e-09 -0.00031294549 -0.00084283535
000040 de 58 fe 33 b9 bb 4a ba 86 81 9b 3a 5a a8 9a 33
       1.18439615e-07 -0.00077336613 0.0011864163 7.201807e-08
000050 28 81 9a b4 c0 0b 1f 32 91 bc 79 38 43 3b a7 b8
       -2.877871e-07 9.25769e-09 5.9541842e-05 -7.974219e-05
000060 0c c7 bd b5 55 24 61 35 fb 6d 0f 3a 23 11 b2 b9
       -1.4139528e-06 8.38719e-07 0.00054714055 -0.00033963574
000070 2d ef 55 b9 61 d6 4c b9 aa 70 eb 34 4b 35 ba b7
       -0.00020402363 -0.00019534818 4.3854135e-07 -2.2197744e-05
000080 dd 44 95 3a 22 67 45 39 c5 2c e4 33 ec 26 31 34
       0.0011388321 0.00018825804 1.0625221e-07 1.6498569e-07
000090 dd 60 08 3a c5 c3 b2 33 6d d3 1f 38 be ad cb b9
       0.0005202422 8.324381e-08 3.810546e-05 -0.00038848625
0000a0 d6 c6 f8 b3 b7 cb 7d b3 e9 37 4a b4 ec 11 25 3a
       -1.1584568e-07 -5.909143e-08 -1.8833056e-07 0.0006296921
0000b0 1e 84 38 b9 5c ae 9b b8 26 6a 19 b7 3a 5a 0b 32
       -0.00017596825 -7.423453e-05 -9.144225e-06 8.11138e-09
0000c0 53 a9 af 34 69 d8 cc 38 80 29 b8 b9 2f 90 03 38
       3.271949e-07 9.7677876e-05 -0.00035126135 3.1367115e-05
0000d0 6a e4 28 35 3d 53 b7 38 6b 70 b2 33 c5 96 ca b4
       6.2917263e-07 8.741624e-05 8.3092196e-08 -3.773513e-07
0000e0 21 cf 6c 37 03 9c c4 38 bf be c3 b8 18 8d 9a b5
       1.4114922e-05 9.375068e-05 -9.333854e-05 -1.1514958e-06
0000f0 65 75 17 b8 24 8e 14 b5 36 af df b4 02 51 77 b8
       -3.6110538e-05 -5.534114e-07 -4.166447e-07 -5.8964833e-05

exp_avg_sq f4 [64, 1]
000000 f4 96 67 33 2c a5 dd 35 29 4d fa 35 20 2c ff 34
       5.392117e-08 1.6513854e-06 1.8648908e-06 4.7529556e-07
000010 4b 60 6f 33 9c 3f 8b 33 46 c6 88 34 0f 0c 95 35
       5.5734102e-08 6.4842624e-08 2.5476237e-07 1.1104875e-06
000020 76 93 4a 38 f6 42 9e 35 83 a0 ed 35 09 90 65 33
       4.8297887e-05 1.1791406e-06 1.7704591e-06 5.3449217e-08
000030 76 92 3c 34 51 8a 95 34 62 f3 9c 35 76 4c 9f 37
       1.7562147e-07 2.785405e-07 1.169374e-06 1.8989882e-05
000040 2f b6 07 34 37 a3 81 37 5a ac b7 39 db 9d 7d 34
       1.2639133e-07 1.5454001e-05 0.00035032892 2.3619889e-07
000050 77 3a 7b 34 f6 a9 a1 33 50 a4 ca 35 87 2c 33 35
       2.3397466e-07 7.5280624e-08 1.5097994e-06 6.674749e-07
000060 ae 32 2b 35 c3 40 54 34 80 6a 5f 37 fb d5 91 36
       6.377621e-07 1.9767599e-07 1.3316632e-05 4.3462474e-06
000070 7a 76 66 35 03 40 97 36 64 83 c0 34 a1 36 b1 36
       8.5854083e-07 4.5076026e-06 3.5858386e-07 5.2813707e-06
000080 2e c7 18 38 3b 47 18 36 a5 0c 6b 34 d9 7d 08 34
       3.6425125e-05 2.2691227e-06 2.189068e-07 1.271177e-07
000090 a0 49 b4 36 0a e5 03 35 2d e0 9b 36 4d 22 f0 36
       5.372989e-06 4.91346e-07 4.6454575e-06 7.1565505e-06
0000a0 d3 15 1e 35 f2 0d 97 33 6a 02 87 33 40 71 6a 37
       5.8891345e-07 7.034022e-08 6.2868665e-08 1.3973855e-05
0000b0 e8 67 1d 35 4a 6f 8f 35 17 84 87 33 44 93 93 34
       5.863826e-07 1.068672e-06 6.3104544e-08 2.7488034e-07
0000c0 87 10 a5 34 45 0b e3 35 cd 25 97 36 98 19 95 37
       3.074567e-07 1.6916098e-06 4.5045513e-06 1.7774102e-05
0000d0 82 5a 46 34 03 7b 89 35 1f e8 99 34 a3 72 1f 35
       1.8473114e-07 1.0243097e-06 2.866736e-07 5.9398934e-07
0000e0 46 f9 44 36 98 e2 87 37 e8 79 d7 36 a1 67 14 34
       2.9351372e-06 1.619877e-05 6.421691e-06 1.3821274e-07
0000f0 62 34 6f 36 f3 8b 4e 34 dc f2 0f 34 48 7f ed 35
       3.5644266e-06 1.9236158e-07 1.3406265e-07 1.769492e-06

exp_avg f4 [64, 64]
000000 3a c2 2b 35 ab b5 1f b5 66 1e 11 b3 51 21 2c b5
       6.39851e-07 -5.949648e-07 -3.378809e-08 -6.4123475e-07
000010 a5 21 2c 35 dc c1 2b b5 0e 0c 2c b5 65 46 66 34
       6.412395e-07 -6.3984567e-07 -6.4092535e-07 2.1446029e-07
000020 70 3b 2d b5 73 89 ee 34 7f 76 12 35 c0 0c 2c 35
       -6.4534015e-07 4.4430962e-07 5.4561673e-07 6.4093547e-07
000030 02 35 2c b5 31 1c 2c 35 54 69 23 b5 5e 80 1e 35
       -6.415213e-07 6.4116017e-07 -6.0875504e-07 5.9046386e-07
000040 30 c2 2b 35 61 e2 f4 34 f2 06 fb b4 6c 1c 2c b5
       6.3985044e-07 4.5613254e-07 -4.6757447e-07 -6.411635e-07
000050 19 1b 2c 35 a0 07 2c b5 8d 47 33 34 63 52 a8 b4
       6.4114425e-07 -6.408609e-07 1.6696704e-07 -3.1352383e-07
000060 18 ca 2b b5 15 c7 2b b5 3c f9 3c 35 a8 09 af b4
       -6.399655e-07 -6.3992167e-07 7.039814e-07 -3.2603316e-07
000070 1f 1a 1b b5 77 d9 0d 35 34 c9 2b 35 ac af 8d b4
       -5.778001e-07 5.2843046e-07 6.3995253e-07 -2.6391115e-07
000080 b3 4f 13 35 57 1a 4e 33 ad bc 2b 35 d5 1c 2c b5
       5.4877745e-07 4.798707e-08 6.3977024e-07 -6.411695e-07
000090 93 4c ca 34 0b ac 2b b5 37 b4 b6 33 ce 7c d5 33
       3.7681147e-07 -6.395282e-07 8.507816e-08 9.941287e-08
0000a0 fc ad 2b b5 e6 b8 2b 35 2c ca 2b b5 d1 3a 24 b5
       -6.3955645e-07 6.3971527e-07 -6.3996663e-07 -6.118035e-07
0000b0 35 04 e3 33 0d aa 04 b5 6a c4 2b b5 e6 18 2c 35
       1.05712765e-07 -4.942129e-07 -6.3988284e-07 6.4111225e-07
0000c0 2b c1 2b b5 47 85 ab 33 6f 7e 2c 35 b8 0c f4 b3
       -6.398356e-07 7.987051e-08 6.425898e-07 -1.1364449e-07
0000d0 35 35 2c b5 c0 41 32 34 4d 1a 2c b5 59 b2 2b 35
       -6.415242e-07 1.6601462e-07 -6.4113266e-07 6.3961994e-07
0000e0 6d 0a ee 34 37 9e 03 35 85 4c 81 33 dc af 2b b5
       4.433854e-07 4.9031536e-07 6.0209494e-08 -6.3958373e-07
0000f0 df 07 49 32 e7 c5 2b b5 86 19 2c 35 ea 19 18 b5
       1.17015295e-08 -6.399045e-07 6.4112135e-07 -5.666212e-07
000100 35 bc 93 b9 c9 bb 93 39 68 09 01 b8 55 44 b9 38
       -0.0002817825 0.00028177936 -3.0764757e-05 8.834215e-05
000110 96 44 b9 b8 0b b4 93 39 19 48 b9 38 92 5f ba b8
       -8.8342626e-05 0.00028172167 8.834917e-05 -8.8869725e-05
000120 e5 a0 5c 39 59 bd 93 b9 23 bd 93 b9 42 43 b9 b8
       0.00021040773 -0.000281791 -0.00028178943 -8.834015e-05
000130 86 46 b9 38 9c 43 b9 b8 16 bd 93 39 95 43 b9 b8
       8.8346234e-05 -8.834081e-05 0.00028178905 -8.8340756e-05
000140 d5 bc 93 b9 73 53 b9 b8 2a 26 07 37 2c 44 b9 38
       -0.00028178716 -8.837031e-05 8.055513e-06 8.8341854e-05
000150 b9 43 b9 b8 09 43 b9 38 27 06 49 b9 58 8f 38 b9
       -8.834102e-05 8.833974e-05 -0.00019171146 -0.00017601007
000160 9a ff 91 39 fd c6 93 39 91 e3 aa b8 0b 2c 95 39
       0.00027846993 0.00028186283 -8.148619e-05 0.0002845231
000170 ef 1d 82 39 83 97 93 b9 85 b9 93 b9 2a c0 cc 38
       0.00024817834 -0.0002815091 -0.00028176248 9.7632714e-05
000180 b1 bc 93 b9 75 50 c0 38 86 bc 93 b9 77 44 b9 38
       -0.0002817861 9.17026e-05 -0.00028178486 8.83424e-05
000190 ba 52 88 b9 b7 bb 93 39 83 85 0b 39 d2 b9 11 b8
       -0.00026001577 0.00028177883 0.0001330581 -3.4743753e-05
0001a0 1e bb 93 39 3a bb 93 b9 1a bd 93 39 aa 0d c5 38
       0.00028177438 -0.0002817752 0.00028178917 9.396237e-05
0001b0 13 bb ba b8 f9 c6 93 39 67 bb 93 39 62 43 b9 b8
       -8.9040164e-05 0.0002818627 0.0002817765 -8.8340385e-05
0001c0 89 bd 93 39 96 60 55 b9 ea 43 b9 b8 bf 71 6e b8
       0.0002817924 -0.00020349244 -8.8341374e-05 -5.6849556e-05
0001d0 5b 46 b9 38 79 09 78 b8 63 45 b9 38 7e ba 93 b9
       8.834592e-05 -5.913663e-05 8.834412e-05 -0.00028176972
0001e0 86 c5 8d b9 a6 d2 93 b9 32 5d 66 b9 cc bb 93 39
       -0.00027040782 -0.0002819497 -0.00021969227 0.00028177944
0001f0 ff 35 ac b8 32 8d 93 39 f9 42 b9 b8 85 7b b9 38
       -8.211657e-05 0.00028143224 -8.833962e-05 8.844495e-05
000200 5c 3b 59 b8 d7 1a 38 38 25 80 b4 b8 72 80 b4 38
       -5.1792114e-05 4.3894015e-05 -8.6069376e-05 8.606994e-05
000210 a9 80 b4 b8 1f cc 58 38 56 b4 b3 38 57 ca c0 b8
       -8.607034e-05 5.1688516e-05 8.568975e-05 -9.192962e-05
000220 8d d9 4e 37 67 1b bf b8 49 0f 05 b9 a7 76 b4 b8
       1.2329209e-05 -9.112694e-05 -0.00012689563 -8.6051696e-05
000230 5e 62 b4 38 8d 7f b4 b8 7e a7 b4 38 e0 f4 a7 38
       8.601391e-05 -8.606827e-05 8.614267e-05 8.008792e-05
000240 ba d9 58 b8 75 2f 59 38 b9 cd 33 b9 b3 75 b4 38
       -5.1701187e-05 5.178103e-05 -0.00017147408 8.604992e-05
000250 c4 6b b4 b8 27 80 b4 38 74 ef 5c b8 14 d6 58 38
       -8.603142e-05 8.606939e-05 -5.2675096e-05 5.169779e-05
000260 a8 da 58 38 01 d0 58 38 2a 38 fe 38 72 2d b4 38
       5.1702053e-05 5.1692132e-05 0.00012122125 8.591534e-05
000270 38 80 b4 38 cb 7f b4 b8 15 3c 59 b8 7e 80 b4 b8
       8.6069515e-05 -8.606872e-05 -5.1792787e-05 -8.6070024e-05
000280 84 13 65 b8 48 80 b4 b8 fe ce 58 b8 60 7f b4 38
       -5.461603e-05 -8.606963e-05 -5.169119e-05 8.606794e-05
000290 e1 80 b4 b8 55 b7 58 38 63 45 b4 b8 91 74 59 38
       -8.6070744e-05 5.1669154e-05 -8.595993e-05 5.1845393e-05
0002a0 d0 ce 58 38 3e cd 58 b8 4a d0 58 38 a1 f2 60 b8
       5.1691022e-05 -5.168956e-05 5.1692397e-05 -5.3631727e-05
0002b0 fe a0 26 38 c7 cf 58 38 cf d2 58 38 f5 7e b4 b8
       3.972742e-05 5.169192e-05 5.1694744e-05 -8.6067164e-05
0002c0 65 cf 58 38 1b 67 5a b8 4b a8 0f b8 21 80 b4 38
       5.1691564e-05 -5.2071275e-05 -3.4250592e-05 8.606935e-05
0002d0 47 37 b4 38 e0 d0 58 b8 c8 65 b4 38 b3 cd 58 b8
       8.593365e-05 -5.1692943e-05 8.602027e-05 -5.1689985e-05
0002e0 34 81 b4 b8 18 44 8b b8 45 e0 b5 38 0d c4 58 38
       -8.607135e-05 -6.64072e-05 8.672526e-05 5.1681e-05
0002f0 76 80 b4 38 5b cc 58 38 b1 7f b4 b8 27 80 b4 38
       8.6069966e-05 5.1688734e-05 -8.606853e-05 8.606939e-05
000300 66 f5 12 b1 1f 09 4d b2 ae 48 6f 31 58 ff 0f b3
       -2.138529e-09 -1.1934644e-08 3.482039e-09 -3.3527016e-08
000310 f0 3a ff 32 c3 3f ce b0 f1 0a 17 b3 92 d6 ab 32
       2.9712709e-08 -1.5006595e-09 -3.516738e-08 2.0004595e-08
000320 9a 64 0a 32 75 85 ab b2 d5 3c 9a b2 36 e8 30 33
       8.055531e-09 -1.996771e-08 -1.7955623e-08 4.1189388e-08
000330 07 68 91 b2 ec 57 21 33 21 bd a1 32 d8 c6 0e 32
       -1.6927528e-08 3.7565698e-08 1.8828873e-08 8.3107e-09
000340 ee ca b0 b0 02 94 a6 32 2c c1 b1 b2 3d 2e 16 b3
       -1.2863361e-09 1.939225e-08 -2.0693356e-08 -3.496665e-08
000350 30 b2 25 33 a7 73 1b b3 7a 32 8c b2 09 3b 55 32
       3.8579117e-08 -3.6193935e-08 -1.63211e-08 1.2411655e-08
000360 11 5b 69 32 d9 04 0b 32 76 b0 b2 32 3a 97 84 32
       1.3583091e-08 8.091967e-09 2.0802172e-08 1.5435592e-08
000370 22 6b 0c b2 17 14 a8 b2 98 4f 47 b2 ad 95 a7 b2
       -8.173432e-09 -1.956691e-08 -1.1601422e-08 -1.9509423e-08
000380 a6 ad 68 b2 20 35 b1 b2 14 3a e4 31 92 d4 30 b3
       -1.354366e-08 -2.062967e-08 6.642276e-09 -4.1171525e-08
000390 76 18 9f b2 41 47 03 b3 83 f6 9e b2 4e e6 80 32
       -1.852116e-08 -3.056562e-08 -1.8505721e-08 1.5005892e-08
0003a0 f1 f2 03 b3 08 24 4e 32 05 20 62 32 5e 8e 14 b3
       -3.072177e-08 1.1998971e-08 1.3162212e-08 -3.4588417e-08
0003b0 bd 10 56 32 3f 7c 9b 32 50 6d 73 32 8e e6 29 33
       1.2460245e-08 1.8100875e-08 1.4169316e-08 3.9558067e-08
0003c0 20 a0 86 af bb 82 79 b2 a7 47 a0 33 33 87 96 32
       -2.4488234e-10 -1.4523432e-08 7.463614e-08 1.752378e-08
0003d0 25 c8 f4 b2 59 35 b2 b2 d4 cc ea b2 2d ab bb 32
       -2.8496354e-08 -2.0746187e-08 -2.733433e-08 2.1847507e-08
0003e0 0b c2 a8 b2 b8 ef a7 b2 3a 89 23 32 24 0e cf b2
       -1.9646015e-08 -1.955037e-08 9.51905e-09 -2.4104402e-08
0003f0 63 75 8a 32 04 62 73 32 36 28 32 33 b8 ed a6 31
       1.6118696e-08 1.4166748e-08 4.1480426e-08 4.8582613e-09

exp_avg_sq f4 [64, 64]
000000 29 06 a2 33 4b 9c 9e 33 e3 a0 83 33 7a 16 e3 32
       7.5448334e-08 7.385878e-08 6.129428e-08 2.64365e-08
000010 e4 01 78 33 95 8d 6c 33 35 ae 5b 33 72 98 6f 33
       5.774372e-08 5.50768e-08 5.114835e-08 5.5785172e-08
000020 6f 49 85 33 33 a2 96 33 1c 92 a4 33 43 d8 d3 33
       6.2066526e-08 7.014423e-08 7.663422e-08 9.864791e-08
000030 0f d0 c8 32 0a 4d 7a 33 de 29 60 33 68 72 92 33
       2.3377678e-08 5.8277728e-08 5.2192142e-08 6.819465e-08
000040 f5 c6 1a 33 7e b6 86 33 ae 9f 21 33 63 c0 83 33
       3.603687e-08 6.2730564e-08 3.763096e-08 6.135158e-08
000050 05 39 9f 33 10 17 24 33 4d 7e 90 33 64 3d 5f 33
       7.414386e-08 3.82052e-08 6.7284965e-08 5.1977068e-08
000060 73 de 7a 33 3c a5 0f 33 61 ab b9 32 a6 6f cc 33
       5.8409977e-08 3.3445062e-08 2.1614769e-08 9.519799e-08
000070 2a 12 9a 33 a1 78 b0 32 36 dd 81 33 87 a1 90 33
       7.174488e-08 2.0543952e-08 6.0472686e-08 6.734904e-08
000080 a7 c6 a5 33 81 e9 69 33 72 c4 03 33 a6 37 e8 33
       7.719546e-08 5.446191e-08 3.067948e-08 1.0813464e-07
000090 da 85 d4 33 61 9b 3c 33 81 02 8c 33 05 5e 9b 33
       9.896367e-08 4.3913477e-08 6.5197135e-08 7.234852e-08
0000a0 ca 20 ea 32 98 94 ae 33 8b 18 70 33 cf 67 89 33
       2.7256096e-08 8.1295354e-08 5.5901676e-08 6.398442e-08
0000b0 aa 69 ca 32 9b 37 93 33 d3 36 20 33 e3 69 86 33
       2.3563945e-08 6.8553355e-08 3.7302765e-08 6.259122e-08
0000c0 52 d3 98 33 80 0c ad 33 46 49 6f 33 7f ce 2f 33
       7.1164905e-08 8.058214e-08 5.5713166e-08 4.093317e-08
0000d0 21 88 6a 33 b6 4d 70 33 de 3d 6d 33 84 aa 2e 33
       5.460618e-08 5.5950032e-08 5.523713e-08 4.0667615e-08
0000e0 c7 05 ca 33 72 dc a1 33 ef 1e 63 33 41 4f 8e 33
       9.407409e-08 7.5372455e-08 5.288069e-08 6.6268065e-08
0000f0 2e 73 99 33 25 23 7d 33 29 e4 84 33 a9 f3 0c 33
       7.145569e-08 5.8938117e-08 6.188231e-08 3.2817898e-08
000100 5c 2a 05 36 f3 a6 03 36 54 a8 e9 35 fd 77 01 36
       1.98432e-06 1.9617698e-06 1.7408843e-06 1.929234e-06
000110 46 a3 04 36 ce 97 05 36 ec 61 04 36 f5 cb 02 36
       1.976457e-06 1.9906906e-06 1.972653e-06 1.9490228e-06
000120 0a 3f b6 35 c5 fa 01 36 db 69 03 36 34 c9 05 36
       1.3578403e-06 1.9368465e-06 1.9582137e-06 1.993566e-06
000130 a9 c6 04 36 70 7d 05 36 5b 7d bc 35 1a f9 05 36
       1.9785168e-06 1.9891559e-06 1.4043575e-06 1.996354e-06
000140 01 22 05 36 56 30 06 36 89 84 8d 35 fc b1 04 36
       1.9838337e-06 1.9995691e-06 1.0543891e-06 1.9773133e-06
000150 ae c3 05 36 3b a1 02 36 e6 1f 05 36 78 19 02 36
       1.9932445e-06 1.9465358e-06 1.9837112e-06 1.9386334e-06
000160 c7 56 01 36 8d c5 00 36 d8 bc 03 36 f7 31 dd 35
       1.927301e-06 1.9188476e-06 1.9630443e-06 1.6480325e-06
000170 18 26 00 36 dc 5f 01 36 7d cc 02 36 94 93 ee 35
       1.909566e-06 1.9278295e-06 1.9490537e-06 1.7775333e-06
000180 12 10 03 36 fe 2f f5 35 49 4c 05 36 33 0d 06 36
       1.9529875e-06 1.826789e-06 1.9862948e-06 1.997524e-06
000190 e1 63 fa 35 af 02 01 36 80 0c f9 35 55 cf f8 35
       1.865552e-06 1.922406e-06 1.8555584e-06 1.8537781e-06
0001a0 e1 02 05 36 f5 46 05 36 ee 1b 06 36 50 6f f8 35
       1.982022e-06 1.9859847e-06 1.9983813e-06 1.8509836e-06
0001b0 66 9e 00 36 5a b5 04 36 34 90 05 36 86 72 05 36
       1.9165686e-06 1.9775093e-06 1.9902482e-06 1.9885206e-06
0001c0 99 c7 02 36 31 30 04 36 3c ba fc 35 a7 3d d2 35
       1.948769e-06 1.9697584e-06 1.8829664e-06 1.5664162e-06
0001d0 c8 7e 04 36 7b d0 08 36 6c a5 04 36 b1 66 04 36
       1.974333e-06 2.038693e-06 1.976582e-06 1.9729307e-06
0001e0 a6 07 01 36 cd c1 a8 35 c0 64 de 35 2a 75 05 36
       1.922695e-06 1.2573379e-06 1.6569611e-06 1.9886743e-06
0001f0 fe 03 fa 35 c6 47 05 36 a5 45 05 36 6a 31 eb 35
       1.8627613e-06 1.9860322e-06 1.9859083e-06 1.7523246e-06
000200 26 38 06 36 05 15 10 36 b9 2b 18 36 c2 be 25 36
       2.0000239e-06 2.1469907e-06 2.2675215e-06 2.4697952e-06
000210 c1 a3 25 36 b7 cc 03 36 ba 3c 1f 36 bc 2d 1a 36
       2.4682233e-06 1.963968e-06 2.3728194e-06 2.297441e-06
000220 0e da e5 35 5e 99 1c 36 15 1b 26 36 c3 cd 2d 36
       1.7125292e-06 2.3335083e-06 2.4751691e-06 2.5898778e-06
000230 84 5e 21 36 54 56 29 36 61 f9 1d 36 2a 30 b0 35
       2.4045885e-06 2.5233212e-06 2.353998e-06 1.312704e-06
000240 5b bf 03 36 19 cb f1 35 dc c1 9b 35 97 1d 27 36
       1.9631905e-06 1.8015008e-06 1.160482e-06 2.4902163e-06
000250 ff d6 21 36 61 8a 24 36 f4 ce 23 36 07 2f 1a 36
       2.4116014e-06 2.4518451e-06 2.4409355e-06 2.2975162e-06
000260 1d ab ff 35 c3 59 01 36 ee 9c ff 35 2f 45 1d 36
       1.9048781e-06 1.9274746e-06 1.9044653e-06 2.3435093e-06
000270 c5 51 29 36 1a 4c 1a 36 6e a7 00 36 21 10 05 36
       2.5230559e-06 2.2992085e-06 1.9170943e-06 1.9827933e-06
000280 6c 40 17 36 8f ae 1c 36 ae 0a 04 36 14 7a 28 36
       2.2538252e-06 2.3347418e-06 1.967575e-06 2.510501e-06
000290 db cf 22 36 41 06 f7 35 bb 44 28 36 33 24 ec 35
       2.426087e-06 1.8404754e-06 2.5073957e-06 1.7593906e-06
0002a0 2d 68 00 36 9b 2a 0a 36 45 8c 06 36 6a be ea 35
       1.9134125e-06 2.0588402e-06 2.0049204e-06 1.7489776e-06
0002b0 ba 6b 20 36 d8 b7 0b 36 79 29 05 36 8f 5f 2b 36
       2.3904563e-06 2.0819625e-06 1.9842685e-06 2.5536608e-06
0002c0 cc 41 08 36 0c 19 06 36 f5 ff f7 35 a5 7e 1f 36
       2.0303878e-06 1.9982135e-06 1.8477427e-06 2.3766563e-06
0002d0 f9 72 25 36 6e 05 0b 36 1c d2 25 36 23 11 06 36
       2.465384e-06 2.0715775e-06 2.4709216e-06 1.997753e-06
0002e0 59 32 1a 36 a6 9b 11 36 f8 78 f0 35 54 7d 06 36
       2.2977094e-06 2.1697283e-06 1.79166e-06 2.0040507e-06
0002f0 02 db 19 36 62 8b 03 36 53 1a 2e 36 54 53 1c 36
       2.2926256e-06 1.9601653e-06 2.5943343e-06 2.3294315e-06
000300 fe e4 e6 34 a4 68 d6 34 a2 54 46 34 9f b2 13 35
       4.3007452e-07 3.9936742e-07 1.8470976e-07 5.5021695e-07
000310 88 4d 0b 35 3a 23 0b 35 3f 1d 09 35 98 8b f5 34
       5.189436e-07 5.1832797e-07 5.1079036e-07 4.5736374e-07
000320 09 a7 37 34 f1 af e7 34 86 ae ac 34 de bd 03 35
       1.710397e-07 4.3155117e-07 3.216448e-07 4.9077596e-07
000330 19 03 0b 35 a0 72 02 35 06 e2 1e 34 7c a1 d5 34
       5.178604e-07 4.8595575e-07 1.4797124e-07 3.9791837e-07
000340 75 68 0f 35 28 e7 e1 34 d5 fa 24 34 6e db 07 35
       5.3423656e-07 4.2077704e-07 1.5364942e-07 5.061073e-07
000350 fd fa 63 34 2f ff d0 34 8c ca c8 34 c1 d1 0f 35
       2.1232331e-07 3.892869e-07 3.7400275e-07 5.3576883e-07
000360 e9 39 e4 34 28 4e ce 34 5f 22 a4 34 fe 99 ae 34
       4.2510445e-07 3.8427356e-07 3.057239e-07 3.252207e-07
000370 48 40 e6 34 27 c4 d3 34 09 c0 e1 34 ab ae 55 34
       4.288761e-07 3.9444532e-07 4.204924e-07 1.9900715e-07
000380 bc 69 e1 34 31 74 e2 34 25 a8 72 34 12 ba e4 34
       4.1986448e-07 4.218032e-07 2.2599177e-07 4.2603693e-07
000390 6a 79 cd 34 9c 67 b2 34 5e f2 06 35 42 87 60 34
       3.8272566e-07 3.323047e-07 5.027158e-07 2.0910832e-07
0003a0 2d 89 88 34 be cd dc 34 02 e3 e2 34 31 55 48 34
       2.5431783e-07 4.112789e-07 4.226095e-07 1.8657444e-07
0003b0 e3 7f e8 34 3f bd e7 34 2c f0 0a 35 e2 2e 01 35
       4.3306417e-07 4.3164798e-07 5.17585e-07 4.812447e-07
0003c0 bf 03 a7 34 ba 3f e3 34 60 a9 3f 34 1d 6e 40 34
       3.11089e-07 4.2328412e-07 1.784988e-07 1.7921452e-07
0003d0 f5 3c 0a 35 b0 52 bb 34 af 95 f6 34 6f 9b cf 34
       5.149771e-07 3.4891627e-07 4.592998e-07 3.8669847e-07
0003e0 42 f2 e3 34 33 3a 87 34 48 32 63 34 93 58 ef 34
       4.245831e-07 2.5188055e-07 2.1159315e-07 4.4581665e-07
0003f0 aa f6 97 34 3a bd e4 34 3d 09 05 35 fc 67 2b 34
       2.8305413e-07 4.260599e-07 4.9559804e-07 1.5963445e-07

exp_avg f4 [64]
000000 20 13 01 b5 fe 75 96 b9 7b 1d 56 39 21 a0 bb 33
       -4.8084075e-07 -0.0002869814 0.00020419613 8.736993e-08
000010 e8 85 fd b1 63 56 d8 34 b6 c2 58 35 f1 78 fe b9
       -7.3784925e-09 4.029599e-07 8.074961e-07 -0.00048536764
000020 4e 2e 0a ba c5 fe 14 39 08 db b4 39 f4 bc d9 32
       -0.0005271182 0.00014209289 0.00034495466 2.534805e-08
000030 51 94 07 35 32 e5 89 32 46 59 cf b9 f8 b0 03 b9
       5.050725e-07 1.6053125e-08 -0.0003954863 -0.0001255906
000040 61 b9 60 32 95 57 1b 3a f9 18 8e 3b 33 29 89 33
       1.3080666e-08 0.00059258315 0.004336473 6.387054e-08
000050 d3 f0 84 b4 86 04 76 b2 3f c4 9f 38 49 8f ed b8
       -2.476214e-07 -1.4320113e-08 7.6182645e-05 -0.000113277296
000060 73 35 03 35 5b d2 f7 b4 b3 1a 9d ba 0a df f1 b9
       4.887908e-07 -4.616039e-07 -0.0011986106 -0.0004613328
000070 32 14 16 b9 fe 23 68 39 e2 8f 97 32 f2 cb 01 38
       -0.00014312638 0.00022138652 1.7644144e-08 3.0945936e-05
000080 13 8d 74 3a 6d 84 14 ba be 96 31 30 e5 13 12 b3
       0.0009328883 -0.0005665485 6.460644e-10 -3.4011368e-08
000090 72 80 45 3a df cb a8 32 47 18 a5 39 d2 73 86 ba
       0.00075340935 1.9650484e-08 0.0003148934 -0.0010257906
0000a0 26 89 af 33 b8 17 49 b4 aa b9 dd b3 90 9b c9 b9
       8.17402e-08 -1.8728213e-07 -1.03248865e-07 -0.0003845361
0000b0 ca 96 8f 39 3e 40 4f b8 dc be 2c b7 08 f9 c5 31
       0.00027387432 -4.9412476e-05 -1.0296437e-05 5.761766e-09
0000c0 b3 61 4e b0 75 6c 24 39 22 36 04 b8 5e 7b 63 ba
       -7.50812e-10 0.00015680662 -3.1521668e-05 -0.0008677746
0000d0 d8 71 26 35 ef 0c 96 39 73 24 0b 34 14 99 40 b4
       6.2005483e-07 0.00028619866 1.2958644e-07 -1.7937083e-07
0000e0 a3 ce 72 3a 00 a8 83 3a 1d f7 c3 b8 0f a6 96 35
       0.00092623587 0.0010044575 -9.344353e-05 1.12242e-06
0000f0 86 a1 96 b9 c7 a2 84 b5 2c 70 c4 b4 45 08 7b b8
       -0.00028730574 -9.882141e-07 -3.658946e-07 -5.9850765e-05

exp_avg_sq f4 [64]
000000 90 27 0c 34 82 d4 1a 36 95 61 38 36 12 cb e2 34
       1.3052909e-07 2.3071484e-06 2.7474937e-06 4.2243533e-07
000010 38 dd 04 34 ce 6d ce 33 be ef bf 34 32 bd 19 36
       1.2373937e-07 9.612596e-08 3.5750958e-07 2.2908903e-06
000020 33 2c d7 38 19 8b 26 36 6f a3 52 36 bf a2 7f 33
       0.00010260232 2.4816893e-06 3.138757e-06 5.951983e-08
000030 cf 5a 93 34 95 6b fc 34 07 e7 5b 36 85 96 cc 37
       2.7446956e-07 4.7016934e-07 3.2768019e-06 2.4388786e-05
000040 90 6a 01 34 e3 05 02 38 f1 49 29 3a f9 6f 50 34
       1.2052828e-07 3.0999898e-05 0.00064578565 1.9412245e-07
000050 1e b5 dd 34 11 24 a6 33 80 14 86 36 a4 c5 01 36
       4.1296238e-07 7.736538e-08 3.9958977e-06 1.933754e-06
000060 17 98 7e 35 93 47 a4 34 ec ec ba 37 30 88 3c 37
       9.4843693e-07 3.0599458e-07 2.2283253e-05 1.1237382e-05
000070 10 34 1d 36 c2 54 f1 36 86 c9 e9 34 3d 85 04 37
       2.3425127e-06 7.192227e-06 4.354626e-07 7.898835e-06
000080 0f 06 42 38 48 aa 15 37 48 53 d5 34 e5 12 25 34
       4.6258847e-05 8.920739e-06 3.9734937e-07 1.5373696e-07
000090 29 b5 a3 37 ac 6f 33 35 69 41 c9 36 ea 0c 90 37
       1.9515473e-05 6.68452e-07 5.9978815e-06 1.7172151e-05
0000a0 42 fa 2f 35 03 a0 c4 33 79 d0 82 33 3e 9b 93 37
       6.5556753e-07 9.156067e-08 6.091518e-08 1.7596056e-05
0000b0 89 ec b0 36 29 b9 81 35 dc e0 42 33 6b 51 b2 34
       5.272745e-06 9.665138e-07 4.5373653e-08 3.3214323e-07
0000c0 fa fb b8 34 b2 57 b1 36 79 90 0e 37 de 32 0c 38
       3.4456008e-07 5.28522e-06 8.497497e-06 3.3425975e-05
0000d0 be 45 8c 34 8b c3 f9 35 14 c3 dd 34 df 64 6f 35
       2.6127776e-07 1.8608856e-06 4.1306396e-07 8.9181225e-07
0000e0 94 6c 15 37 99 58 19 38 bd 7d 5b 37 1e 09 56 34
       8.906372e-06 3.6560556e-05 1.3082693e-05 1.993362e-07
0000f0 b6 aa 10 37 b0 b0 8f 34 96 9c c7 33 78 20 0e 36
       8.622816e-06 2.6764383e-07 9.2951424e-08 2.1178548e-06

exp_avg f4 [64]
000000 21 13 01 b5 ff 75 96 b9 79 1d 56 39 22 a0 bb 33
       -4.808408e-07 -0.00028698143 0.0002041961 8.736994e-08
000010 ca 85 fd b1 78 56 d8 34 b3 c2 58 35 ec 78 fe b9
       -7.378479e-09 4.029605e-07 8.0749595e-07 -0.0004853675
000020 4f 2e 0a ba c4 fe 14 39 09 db b4 39 e3 bc d9 32
       -0.0005271183 0.00014209287 0.0003449547 2.534802e-08
000030 50 94 07 35 30 e5 89 32 45 59 cf b9 fc b0 03 b9
       5.050724e-07 1.6053121e-08 -0.00039548628 -0.00012559065
000040 65 b9 60 32 94 57 1b 3a f7 18 8e 3b 32 29 89 33
       1.308067e-08 0.0005925831 0.004336472 6.387053e-08
000050 d3 f0 84 b4 96 04 76 b2 37 c4 9f 38 47 8f ed b8
       -2.476214e-07 -1.4320127e-08 7.618259e-05 -0.00011327728
000060 6b 35 03 35 59 d2 f7 b4 b6 1a 9d ba 10 df f1 b9
       4.8879036e-07 -4.6160383e-07 -0.001198611 -0.00046133297
000070 32 14 16 b9 fd 23 68 39 e2 8f 97 32 e4 cb 01 38
       -0.00014312638 0.00022138651 1.7644144e-08 3.0945885e-05
000080 14 8d 74 3a 6e 84 14 ba fe 96 31 30 f3 13 12 b3
       0.00093288836 -0.00056654855 6.46068e-10 -3.4011418e-08
000090 74 80 45 3a dc cb a8 32 47 18 a5 39 d4 73 86 ba
       0.00075340946 1.9650479e-08 0.0003148934 -0.0010257908
0000a0 1f 89 af 33 b6 17 49 b4 ab b9 dd b3 8d 9b c9 b9
       8.174015e-08 -1.872821e-07 -1.0324887e-07 -0.00038453602
0000b0 c8 96 8f 39 38 40 4f b8 da be 2c b7 20 f9 c5 31
       0.00027387426 -4.9412454e-05 -1.0296435e-05 5.761777e-09
0000c0 cd 61 4e b0 6e 6c 24 39 2e 36 04 b8 62 7b 63 ba
       -7.5081347e-10 0.00015680652 -3.152171e-05 -0.0008677748
0000d0 d6 71 26 35 f0 0c 96 39 74 24 0b 34 14 99 40 b4
       6.200547e-07 0.0002861987 1.2958645e-07 -1.7937083e-07
0000e0 9d ce 72 3a ff a7 83 3a 1d f7 c3 b8 0f a6 96 35
       0.0009262355 0.0010044574 -9.344353e-05 1.12242e-06
0000f0 86 a1 96 b9 c5 a2 84 b5 2c 70 c4 b4 41 08 7b b8
       -0.00028730574 -9.882139e-07 -3.658946e-07 -5.985075e-05

exp_avg_sq f4 [64]
000000 90 27 0c 34 82 d4 1a 36 96 61 38 36 0e cb e2 34
       1.3052909e-07 2.3071484e-06 2.747494e-06 4.2243522e-07
000010 38 dd 04 34 d8 6d ce 33 be ef bf 34 32 bd 19 36
       1.2373937e-07 9.612603e-08 3.5750958e-07 2.2908903e-06
000020 33 2c d7 38 1c 8b 26 36 6d a3 52 36 bf a2 7f 33
       0.00010260232 2.48169e-06 3.1387565e-06 5.951983e-08
000030 cf 5a 93 34 95 6b fc 34 07 e7 5b 36 85 96 cc 37
       2.7446956e-07 4.7016934e-07 3.2768019e-06 2.4388786e-05
000040 90 6a 01 34 e2 05 02 38 f3 49 29 3a f9 6f 50 34
       1.2052828e-07 3.0999894e-05 0.00064578577 1.9412245e-07
000050 1e b5 dd 34 10 24 a6 33 82 14 86 36 a4 c5 01 36
       4.1296238e-07 7.736537e-08 3.9958986e-06 1.933754e-06
000060 19 98 7e 35 93 47 a4 34 eb ec ba 37 30 88 3c 37
       9.4843705e-07 3.0599458e-07 2.2283251e-05 1.1237382e-05
000070 0f 34 1d 36 c0 54 f1 36 86 c9 e9 34 3c 85 04 37
       2.3425125e-06 7.192226e-06 4.354626e-07 7.898834e-06
000080 0f 06 42 38 4b aa 15 37 48 53 d5 34 e5 12 25 34
       4.6258847e-05 8.9207415e-06 3.9734937e-07 1.5373696e-07
000090 2a b5 a3 37 b0 6f 33 35 68 41 c9 36 ea 0c 90 37
       1.9515475e-05 6.6845223e-07 5.997881e-06 1.7172151e-05
0000a0 42 fa 2f 35 03 a0 c4 33 79 d0 82 33 3e 9b 93 37
       6.5556753e-07 9.156067e-08 6.091518e-08 1.7596056e-05
0000b0 89 ec b0 36 29 b9 81 35 d1 e0 42 33 69 51 b2 34
       5.272745e-06 9.665138e-07 4.5373614e-08 3.3214317e-07
0000c0 fa fb b8 34 b3 57 b1 36 77 90 0e 37 de 32 0c 38
       3.4456008e-07 5.2852206e-06 8.497495e-06 3.3425975e-05
0000d0 be 45 8c 34 8b c3 f9 35 14 c3 dd 34 df 64 6f 35
       2.6127776e-07 1.8608856e-06 4.1306396e-07 8.9181225e-07
0000e0 94 6c 15 37 9d 58 19 38 bc 7d 5b 37 1e 09 56 34
       8.906372e-06 3.656057e-05 1.3082692e-05 1.993362e-07
0000f0 b6 aa 10 37 b0 b0 8f 34 96 9c c7 33 79 20 0e 36
       8.622816e-06 2.6764383e-07 9.2951424e-08 2.117855e-06

exp_avg f4 [1, 64]
000000 87 60 d3 ba 6d cb 2c 3b 3f c7 0f 3d d9 60 d3 3a
       -0.001612679 0.0026366368 0.035102125 0.0016126885
000010 1c 5b d3 ba 87 59 d3 3a 59 77 d3 3a 03 45 63 bc
       -0.0016125175 0.0016124704 0.0016133591 -0.013871434
000020 46 99 8e 3c fe 3f 3d bc 1f e8 5b bc 89 61 d3 ba
       0.01740707 -0.011550901 -0.013422041 -0.001612709
000030 3e 58 d3 3a 9a 61 d3 ba 74 7b 24 bb b1 2e 33 bc
       0.0016124321 -0.001612711 -0.0025097998 -0.010936425
000040 a2 61 d3 ba 8f 37 68 bc d9 24 64 3c 57 63 d3 3a
       -0.0016127119 -0.014173402 0.013924801 0.0016127628
000050 eb 62 d3 ba 5f 5c d3 3a 63 cc 00 3d 87 ac 14 bd
       -0.0016127502 0.0016125551 0.03144492 -0.036297347
000060 f1 62 d3 3a 38 8a d3 3a 8b 77 e7 ba 79 72 11 bd
       0.0016127509 0.0016139215 -0.0017659528 -0.03550956
000070 05 80 0a ba 90 74 4a bc b0 61 d3 ba eb 27 83 3c
       -0.00052833586 -0.012356892 -0.0016127136 0.016010245
000080 78 50 82 bb 97 f7 95 3c e8 60 d3 ba ed 5f d3 3a
       -0.003976878 0.018306537 -0.0016126903 0.001612661
000090 ad 6f 05 3d 93 69 d3 3a 06 b1 1c 3d 44 6f 17 bd
       0.032577205 0.0016129486 0.03825476 -0.036971346
0000a0 61 65 d3 3a 95 61 d3 ba 59 5f d3 3a 8e c8 14 3c
       0.0016128236 -0.0016127104 0.0016126438 0.009081019
0000b0 77 fe c6 bc 07 0f 29 bd 39 2e c8 3a 77 61 d3 ba
       -0.02429126 -0.041274097 0.0015272564 -0.0016127069
0000c0 9f 61 d3 3a c1 82 02 3d e3 b4 fd ba cd f5 22 bd
       0.0016127116 0.031862978 -0.0019356277 -0.039785195
0000d0 bf 69 d3 3a 21 81 1e 3d 7c 64 d3 3a 95 61 d3 ba
       0.0016129537 0.038697366 0.0016127969 -0.0016127104
0000e0 db ae 02 3d da 28 95 3c 71 34 fe bc 78 53 d3 3a
       0.031905036 0.018207956 -0.031030865 0.0016122898
0000f0 77 5f 1b bd 88 1a d4 3a a2 61 d3 ba 22 f8 83 3c
       -0.03793284 0.0016182223 -0.0016127119 0.01610953

exp_avg_sq f4 [1, 64]
000000 31 d3 59 3d 9b 2d 43 3d 8f e7 07 3d 49 9b 59 3d
       0.053179923 0.047650915 0.033179816 0.053126607
000010 bb 93 59 3d 64 aa 59 3d be 97 59 3d c8 2e 2a 3d
       0.053119402 0.053141013 0.05312323 0.04154852
000020 1d 80 f1 3c e0 b5 22 3d 81 1f 1f 3d ad 97 59 3d
       0.029480034 0.03972423 0.038848404 0.053123165
000030 56 22 59 3d 48 97 59 3d 16 8b 0d 3d 55 93 2f 3d
       0.05301126 0.05312279 0.03455647 0.042865116
000040 41 ea 59 3d 29 15 07 3d e3 95 88 3c 0e 98 59 3d
       0.053201918 0.032979164 0.016673034 0.053123526
000050 03 7f 59 3d 67 cf 55 3d 40 ff f8 3c 43 61 0e 3d
       0.053099643 0.052199747 0.03039515 0.034760725
000060 5d 2c 59 3d 49 ca 52 3d 47 83 13 3d db e3 00 3d
       0.053020824 0.051462445 0.036013868 0.0314673
000070 c7 51 28 3d 45 ce 24 3d 89 8b 59 3d c8 1a 19 3d
       0.041093614 0.040235776 0.053111587 0.037379056
000080 b0 77 20 3d e6 56 01 3d 12 cf 59 3d 78 83 59 3d
       0.039176643 0.031577013 0.053175993 0.053103894
000090 41 f6 fa 3c 60 ac 53 3d d1 1f 18 3d a1 52 ed 3c
       0.030635001 0.05167806 0.037139717 0.028970065
0000a0 87 c3 58 3d 6a db 59 3d 94 e4 59 3d db 17 25 3d
       0.052920844 0.053187765 0.053196505 0.040305953
0000b0 07 9d ff 3c 46 af 30 3d 1a af 59 3d d7 96 59 3d
       0.031202806 0.043135904 0.053145505 0.053122368
0000c0 c8 de 59 3d 6b 71 f0 3c c0 df 1e 3d 55 fc 00 3d
       0.053190976 0.029350957 0.038787603 0.031490643
0000d0 87 96 59 3d 00 b1 06 3d be 92 59 3d 17 e5 59 3d
       0.05312207 0.032883644 0.05311846 0.053196993
0000e0 20 0c ff 3c bd 49 07 3d ec 7e 0b 3d 64 eb 59 3d
       0.031133711 0.033029307 0.03405659 0.053203
0000f0 57 64 01 3d 97 35 59 3d 55 96 59 3d 07 4b 2a 3d
       0.031589832 0.053029623 0.053121883 0.041575458
