07_RNN/logs/rnn/version_18/checkpoints/epoch=32-step=7788.ckpt (torch, 164936 bytes, 15 tensors)

rnn.weight_ih_l0 f4 [192, 1]
-1.0236828 -0.7684079 0.082112305 0.23824383 -0.43686527 -0.566823 -0.016964164 0.09834268
0.025743581 0.051578544 0.1027066 -0.32861254 -0.038257882 -0.8408993 1.65214 -0.21916272
1.3086827 -0.89868104 -0.27181348 -0.08617683 -1.5321906 -0.8356267 0.18758583 -1.754297
-0.8488007 0.335247 0.75565493 0.6106028 1.3723248 -0.5377823 0.29887798 0.9781904
0.14500298 0.27932835 -0.6113282 0.22289382 0.41983086 -0.030975332 0.689371 -0.09116583
-0.5178067 1.2254182 1.201381 -0.09127349 -0.56955254 0.44331196 0.2511034 -0.16458108
-0.47294894 -0.8417823 -0.053052526 0.26455748 -1.006993 -0.40965426 0.016697252 0.29251972
0.8937157 0.033819586 0.38543043 1.8971347 -0.40774828 -0.6904301 -0.6325922 0.10925107
-1.6005017 -1.8485254 -2.9277399 -0.7160225 -3.0149045 -0.9024245 -0.7878082 -0.6652238
-2.3246949 -2.8933086 -0.7172673 -1.525448 -0.80445975 0.22842139 -0.8433966 -0.76341814
0.37753874 -0.8635439 0.40937963 0.08652045 -1.4745591 -1.1434728 -0.45207503 -1.8354967
-1.4891232 -1.4674796 -0.41493595 2.23684 -1.6832964 -2.6503253 0.047464296 1.749414
1.1776146 -1.3905838 -0.32237676 -3.3892927 -1.4070252 -0.80148447 -1.1947379 -1.2894362
-1.0217183 1.3202809 -0.33807167 -2.174997 -3.9109826 -0.6147617 0.21544096 -0.75518084
0.37953815 0.17556067 0.75496274 -1.803425 -0.2615889 -0.27052897 -2.1631835 -1.3437244
0.56802547 1.6758653 2.1627412 0.69017243 -0.6027203 -0.068666406 -1.384351 -0.70330346
0.2725102 -0.10456323 0.69779295 1.0692683 -0.17796534 0.014392543 0.033700056 -0.26561707
0.27136958 -0.42598814 -0.5732477 -0.8445666 1.0114399 -0.88018 1.0850939 1.3480781
-1.0060046 0.33882934 0.027812202 0.69217116 0.94576144 -0.6571802 -0.17419286 0.18210582
-0.66183376 -0.62902683 -1.1405087 0.03526646 -0.72433627 -0.8839143 0.2901802 -1.2874649
0.9006819 0.81636125 0.21322912 0.31706274 0.046300113 1.3805304 0.2518997 -1.0528349
1.0792811 0.89481723 -0.10113592 0.4065406 -0.70885223 -0.64136314 0.054536466 0.9078706
-0.052826785 0.19823846 -0.119637094 -0.06692865 -1.1470861 0.48044854 -1.0679703 1.3380973
-1.0251415 0.038825564 0.72498137 0.5514592 -0.42772967 -0.06515242 -0.111286655 0.3723302
00000000: 0a08 83bf 61b6 44bf 7f2a a83d 31f6 733e
00000010: ceac dfbe 501b 11bf 6ef8 8abc e367 c93d
00000020: 34e4 d23c 0644 533d d757 d23d e73f a8be
00000030: 4cb4 1cbd 2d45 57bf 5379 d33f 316c 60be
00000040: ea82 a73f f60f 66bf 232b 8bbe 7a7d b0bd
00000050: d21e c4bf a2eb 55bf 8016 403e ce8c e0bf
00000060: 014b 59bf 7fa5 ab3e 9a72 413f 7750 1c3f
00000070: 57a8 af3f 1aac 09bf 8906 993e b06a 7a3f
00000080: a97b 143e 2004 8f3e 0180 1cbf 473e 643e
00000090: 12f4 d63e fbbf fdbc 9e7a 303f 27b5 babd
000000a0: fb8e 04bf 81da 9c3f dac6 993f 98ed babd
000000b0: 32ce 11bf c9f9 e23e a090 803e f187 28be
000000c0: 5d26 f2be 0b7f 57bf 9b4d 59bd 1474 873e
000000d0: 26e5 80bf 34be d1be adc8 883c 25c5 953e
000000e0: 8dca 643f 6886 0a3d 2357 c53e 4fd5 f23f
000000f0: 62c4 d0be 07c0 30bf 90f1 21bf 06bf df3d
00000100: 3ddd ccbf 7b9c ecbf 1760 3bc0 404d 37bf
00000110: 32f4 40c0 4b05 67bf ccad 49bf 1b4c 2abf
00000120: cdc7 14c0 f82b 39c0 d49e 37bf e141 c3bf
00000130: 13f1 4dbf 4ce7 693e d7e8 57bf 5f6f 43bf
00000140: c24c c13e 3711 5dbf 359a d13e a231 b13d
00000150: 5abe bcbf 515d 92bf 6176 e7be 8ef1 eabf
00000160: 979b bebf 5fd6 bbbf 7c72 d4be 6328 0f40
00000170: 4276 d7bf ee9e 29c0 ec69 423d ccec df3f
00000180: 13bc 963f a6fe b1bf 910e a5be 2cea 58c0
00000190: 6719 b4bf 162e 4dbf 2ced 98bf 3f0c a5bf
000001a0: aac7 82bf f7fe a83f bb17 adbe 2733 0bc0
000001b0: 8a4d 7ac0 0661 1dbf 8e9c 5c3e 8853 41bf
000001c0: d352 c23e 2dc6 333e 3d45 413f a1d6 e6bf
000001d0: fbee 85be c682 8abe 9971 0ac0 29ff abbf
000001e0: 1e6a 113f c182 d63f 5a6a 0a40 24af 303f
000001f0: e14b 1abf f9a0 8cbd 6a32 b1bf b20b 34bf
00000200: 7586 8b3e 3f25 d6bd 8fa2 323f c9dd 883f
00000210: 8c3c 36be b3ce 6b3c 1209 0a3d f6fe 87be
00000220: f4f0 8a3e 1e1b dabe 5cc0 12bf 8435 58bf
00000230: dd76 813f 7a53 61bf 5be4 8a3f d38d ac3f
00000240: c2c4 80bf 0a7b ad3e 6ad6 e33c 2132 313f
00000250: 6c1d 723f f63c 28bf 9d5f 32be f379 3a3e
00000260: f06d 29bf e707 21bf 30fc 91bf 9073 103d
00000270: 1a6e 39bf 3548 62bf 8092 943e a6cb a4bf
00000280: 1793 663f 0dfd 503f bc58 5a3e 0c56 a23e
00000290: 30a5 3d3d 38b5 b03f fff8 803e 4bc3 86bf
000002a0: e225 8a3f be12 653f 5920 cfbd 1726 d03e
000002b0: 5777 35bf 6030 24bf a161 5f3d 356a 683f
000002c0: e660 58bd 06ff 4a3e 4b04 f5bd e311 89bd
000002d0: b8d3 92bf 5afd f53e 40b3 88bf c646 ab3f
000002e0: d637 83bf 8e07 1f3d 6198 393f 6e2c 0d3f
000002f0: 62ff dabe a26e 85bd 42ea e3bd 10a2 be3e

rnn.weight_hh_l0 f4 [192, 64]
-0.19129969 0.44638702 -0.0015403694 -0.14210035 0.0068886727 0.5298574 -0.067342535 0.21013413
-0.52072406 -0.24523816 0.13156459 0.43575102 -0.51749533 0.5079752 -0.54678506 -0.3720848
-0.24010338 -0.56191146 0.57439536 -0.15923911 -0.6126064 -0.71717876 -0.28489575 -0.50633514
0.35984808 -0.50585806 0.060722407 -0.27196744 -1.2978398 0.50526714 0.48709115 0.65796876
-0.052764386 0.012879423 0.07383599 -0.4383092 0.37219474 -0.5947601 -0.6415617 0.6044837
-0.08973216 -0.058860816 -0.7583304 0.43152702 -0.5639502 0.054157294 -0.04634598 -0.11608438
0.21405298 -1.094386 -0.57586604 -0.12485167 0.46715167 -0.40295845 0.15640841 -0.47165048
-0.33483788 1.0613221 -0.21066481 0.15364265 -0.118065774 0.2058554 -0.41638073 0.140052
-0.27930605 -0.3067368 -0.2341502 0.19969045 -0.7486258 -0.36071578 0.118111745 0.92605835
0.15009172 -0.3221612 -0.30241832 0.8998961 -0.41388834 -0.891901 0.039029896 -0.41806093
0.7816231 -0.37532637 0.46133688 0.2679338 -0.9737611 -0.18866271 -0.39665827 -0.32141948
0.015727155 -0.2573419 0.35889986 -0.75557697 0.08309111 -0.409209 -0.69652337 0.057807993
0.5004728 -0.7753651 -0.07358989 0.3222056 -0.5534211 -0.5674204 -0.14907745 0.34943604
0.21765102 0.17172097 -0.22034396 0.10277619 0.20218565 -1.0938544 0.018613715 0.7000558
-0.46421224 0.1810093 0.8833638 -0.46463048 0.34340718 -0.2888838 -0.35882333 -0.37007084
0.08487378 0.3673198 -0.6071258 -0.5771832 -0.041416448 -0.2443198 -0.26868102 -0.1436361
-0.043875612 0.76660806 -0.82409745 0.51425123 -1.0850847 -0.9121045 0.24639343 -0.08960126
0.26277468 -0.39114234 0.5097867 -0.095970675 -0.49360526 0.81788284 0.9554232 0.25787583
1.3914537 0.34180236 0.30367896 -0.36440286 -0.46062812 -0.61562985 0.12063237 -0.23625955
-0.95017594 -0.039607342 -0.32512912 0.3884559 0.75825197 -1.0722234 -0.81840014 0.07999502
-0.5537351 -0.3245742 -0.74259937 -0.25719038 -0.76126146 0.07218526 -0.16487876 -0.9414809
0.54543793 -0.45714518 0.2844473 -0.4833012 -0.802543 -0.2976782 0.002473858 -0.13868076
-0.100568496 -0.61026144 -0.45440605 -0.32549852 -0.55592936 -0.04363158 -0.6558816 -0.026072232
0.62741005 0.067369886 -0.009649574 0.69595575 0.6969076 -0.68995863 -0.7007958 0.05804611
-0.20817235 0.5633275 0.4860119 0.39591774 0.009358804 -0.4978714 -0.21004327 0.12000909
-0.4477788 -0.77687216 0.57808995 -0.83495504 0.15554953 0.011526051 0.3256118 0.3165811
0.03264734 -0.3134839 -0.6468204 0.49695715 0.41345274 -0.92900527 0.099634334 0.13668662
-0.33049706 -0.5577857 -0.29738253 -0.05144106 0.32668537 -0.7199023 0.34403476 -1.0635815
0.46600053 0.76309764 -0.14747578 -0.5443632 0.30041543 0.2554928 0.07008285 -0.38606575
0.5137053 0.47926867 -1.1408293 0.037588947 -1.2467525 0.3775198 1.1200135 0.08165444
0.66737646 -0.27112126 -0.30366075 -0.079858094 -0.5802477 -0.6818267 -0.59549755 0.39142883
-0.3839344 -0.32795206 1.1316233 0.40399823 -0.7496594 0.57419693 -0.23513858 0.44303164
00000000: 11e4 43be d78c e43e 38e6 c9ba c182 11be
00000010: 60ba e13b bca4 073f e2ea 89bd 672d 573e
00000020: 2c4e 05bf b61f 7bbe deb8 063e c21a df3e
00000030: 937a 04bf aa0a 023f 1bfa 0bbf e681 bebe
00000040: a9dd 75be 6ed9 0fbf 930b 133f 940f 23be
00000050: c6d3 1cbf 0799 37bf dbdd 91be 2e9f 01bf
00000060: 023e b83e ea7f 01bf 0fb8 783d 513f 8bbe
00000070: 9d1f a6bf 3059 013f 0364 f93e a470 283f
00000080: 781f 58bd 3704 533c 5337 973d 106a e0be
00000090: 4f90 be3e 3342 18bf 633d 24bf 72bf 1a3f
000000a0: 7fc5 b7bd 0a18 71bd f121 42bf 1cf1 dc3e
000000b0: 0a5f 10bf 0ad4 5d3d 48d5 3dbd a6bd edbd
000000c0: b430 5b3e d714 8cbf f56b 13bf 3bb2 ffbd
000000d0: 812e ef3e 9250 cebe 8729 203e 2c7c f1be
000000e0: df6f abbe 67d9 873f 84b8 57be 8054 1d3e
000000f0: 78cc f1bd c2cb 523e db2f d5be cb69 0f3e
00000100: 3401 8fbe 9b0c 9dbe 12c5 6fbe a77b 4c3e
00000110: f1a5 3fbf bdaf b8be 92e4 f13d 2912 6d3f
00000120: a5b1 193e 50f2 a4be 93d6 9abe 975f 663f
00000130: 2ce9 d3be a053 64bf d0dd 1f3d 150c d6be
00000140: 7418 483f c72a c0be 5934 ec3e 9e2e 893e
00000150: 6848 79bf cc30 41be cb16 cbbe 1891 a4be
00000160: 3cd6 803c 51c2 83be b9c1 b73e 7e6d 41bf
00000170: ac2b aa3d d883 d1be 5b4f 32bf 13c8 6c3d
00000180: fc1e 003f 547e 46bf 4cb6 96bd 22f8 a43e
00000190: 01ad 0dbf 7742 11bf c2a7 18be 48e9 b23e
000001a0: e9df 5e3e 9fd7 2f3e d9a1 61be 537c d23d
000001b0: c109 4f3e 6c03 8cbf ca7b 983c db36 333f
000001c0: 3aad edbe 805a 393e 2124 623f 0ce4 edbe
000001d0: 11d3 af3e 94e8 93be b1b7 b7be ed79 bdbe
000001e0: 4ed2 ad3d 5711 bc3e 996c 1bbf 47c2 13bf
000001f0: 4ba4 29bd f82e 7abe 8f90 89be 5815 13be
00000200: eab6 33bd 6d40 443f 0df8 52bf f8a5 033f
00000210: 0ee4 8abf ae7f 69bf 8f4e 7c3e de80 b7bd
00000220: 678a 863e cf43 c8be 6281 023f 468c c4bd
00000230: d4b9 fcbe c560 513f 9d96 743f 4d08 843e
00000240: 281b b23f b800 af3e cf7b 9b3e 0393 babe
00000250: 73d7 ebbe eb99 1dbf 1b0e f73d 06ee 71be
00000260: bb3e 73bf 4f3b 22bd 5377 a6be b1e3 c63e
00000270: cd1c 423f 9e3e 89bf ac82 51bf 6ed4 a33d
00000280: 95c1 0dbf 972e a6be fe1a 3ebf 75ae 83be
00000290: 08e2 42bf ded5 933d fad5 28be e404 71bf
000002a0: d2a1 0b3f ef0e eabe 14a3 913e 4173 f7be
000002b0: 7573 4dbf 4769 98be 7320 223b 5402 0ebe
000002c0: dbf6 cdbd 183a 1cbf e9a7 e8be bea7 a6be
000002d0: 6351 0ebf 07b7 32bd dbe7 27bf 6f95 d5bc
000002e0: f29d 203f 39f9 893d 3f19 1ebc 282a 323f
000002f0: 8968 323f 21a1 30bf 5b67 33bf c2c1 6d3d
00000300: 222b 55be 3b36 103f 8dd6 f83e bbb5 ca3e
00000310: ab55 193c 00e9 febe 9515 57be 53c7 f53d
00000320: 4343 e5be 18e1 46bf b4fd 133f 9dbf 55bf
00000330: 6048 1f3e c3d7 3c3c 97b6 a63e eb16 a23e
00000340: 38b9 053d f680 a0be 0696 25bf 2b71 fe3e
00000350: 14b0 d33e 4ad3 6dbf 160d cc3d 94f7 0b3e
00000360: e936 a9be 0bcb 0ebf 8642 98be dcb3 52bd
00000370: 4e43 a73e 844b 38bf 5325 b03e 7023 88bf
00000380: 9f97 ee3e 5e5a 433f e403 17be 635b 0bbf
00000390: 0dd0 993e f4cf 823e 9987 8f3d 69aa c5be
000003a0: 3182 033f b462 f53e b206 92bf def6 193d
000003b0: 9695 9fbf 464a c13e 9a5c 8f3f 713a a73d
000003c0: 2fd9 2a3f 68d0 8abe 6c79 9bbe a48c a3bd
000003d0: 1d8b 14bf 328c 2ebf 8772 18bf 5c69 c83e
000003e0: 0d93 c4be 55e9 a7be 08d9 903f dbd8 ce3e
000003f0: aee9 3fbf 92fe 123f 2bc8 70be 0bd5 e23e

rnn.bias_ih_l0 f4 [192]
-0.11112047 -0.5266111 -0.6888627 -1.0933658 -0.4358654 0.6123059 -1.716855 -0.61578965
-0.7656251 -0.6576276 0.04039352 0.16956133 0.7490226 0.23651457 -0.8526714 -1.7811204
-0.83431566 -0.76473415 -0.19334683 -1.0028673 0.70718676 -0.6516268 -1.5097076 -0.5981696
-1.2285541 -0.60790414 -0.850412 -0.89168733 0.13856457 -0.53736794 -0.14527012 -1.4637898
0.8725423 -1.5889833 -0.6048877 -0.082727395 -0.7911529 -2.156874 -0.96257174 -2.7843652
-0.8507298 -0.9618626 -0.6379705 0.15701964 -0.081597745 -0.14028645 -0.96813226 0.40289855
0.15116291 -0.15196829 0.50386065 0.6356545 -1.1258394 -0.20387888 -0.7677459 0.0061931615
-0.26606885 0.5431354 -1.0712302 -1.7453476 0.19565414 -0.8529234 0.4735029 -0.754739
2.1382632 0.41288048 0.6836593 2.1108427 1.6210238 1.6035955 4.2031817 2.108486
1.8457221 1.9921883 1.5109915 0.31037897 0.9057522 -0.6953992 0.92587304 -0.076944254
1.6587859 1.9146997 1.3368989 2.1413941 -0.28625774 2.45973 3.9815853 1.2560871
-1.4475648 0.8099344 0.48230368 1.5204713 0.51727855 1.5906599 -0.08761442 0.26257357
0.23246951 2.533815 -0.59880525 1.4153621 2.5142872 -0.42243826 1.706884 -1.725787
2.1172519 -0.20072734 -0.07472011 2.4542012 2.6424682 0.40341142 0.27137285 -0.34462512
-0.19977349 2.6614902 0.36017638 1.1712118 -0.523282 1.9567925 1.3041482 1.7625046
-0.075896844 2.0079443 0.992984 2.389283 3.6792824 0.9821537 2.29952 -0.206863
-0.48869768 0.22888441 0.43213108 -0.076683864 0.49168468 -0.013333161 -0.086480305 0.605026
0.17772105 0.5746144 -0.2210853 0.2760454 -0.24107851 0.21418081 0.8553915 -0.101402
-0.84493333 0.058070865 0.731236 -0.5720934 -0.6634033 0.19843675 0.21225204 -0.063720755
0.7499131 0.0680785 0.002862811 -0.15268476 -0.42234683 1.0990182 -0.2665705 0.27839324
0.103406735 -0.15459472 -0.8167137 -0.5616932 0.021485107 -0.107535705 0.31396934 0.25905496
-0.19256267 -0.6920355 0.27475637 0.009804953 0.5450458 0.21072689 0.23471788 0.33649296
0.27154222 -0.40845934 -0.5885145 0.26240143 0.16026084 0.2647554 0.2472171 -0.8293085
-0.30117965 -0.056607436 -0.23621264 0.006465091 0.40720794 0.87226176 0.07009485 0.24349974
00000000: 2193 e3bd fccf 06bf 4e59 30bf 69f3 8bbf
00000010: c029 dfbe 14c0 1c3f e8c1 dbbf 64a4 1dbf
00000020: 0200 44bf 485a 28bf ad73 253d 7ca1 2d3e
00000030: f2bf 3f3f e030 723e ac48 5abf c1fb e3bf
00000040: b695 55bf 9ec5 43bf b6fc 45be f55d 80bf
00000050: 310a 353f 04d1 26bf 193e c1bf a521 19bf
00000060: 4341 9dbf 9b9f 1bbf 9ab4 59bf 9f45 64bf
00000070: dfe3 0d3e f290 09bf b1c1 14be 775d bbbf
00000080: ef5e 5f3f ce63 cbbf ecd9 1abf fb6c a9bd
00000090: ff88 4abf 390a 0ac0 1a6b 76bf 0a33 32c0
000000a0: 6ec9 59bf a13c 76bf 0952 23bf c2c9 203e
000000b0: b81c a7bd 40a7 0fbe 84d7 77bf b848 ce3e
000000c0: 73ca 1a3e 939d 1bbe 03fd 003f 41ba 223f
000000d0: 811b 90bf a0c5 50be ff8a 44bf 01f0 ca3b
000000e0: 2d3a 88be ec0a 0b3f 121e 89bf 8d67 dfbf
000000f0: 8f59 483e 3059 5abf f96e f23e 9336 41bf
00000100: 4ed9 0840 1265 d33e 4c04 2f3f 0c18 0740
00000110: b57d cf3f 9e42 cd3f 7780 8640 6ff1 0640
00000120: 9f40 ec3f 0700 ff3f 2b68 c13f fee9 9e3e
00000130: 60df 673f af05 32bf 0406 6d3f f394 9dbd
00000140: 1953 d43f e114 f53f 811f ab3f 9a0c 0940
00000150: 6090 92be 376c 1d40 4bd2 7e40 76c7 a03f
00000160: ce49 b9bf dc57 4f3f 82f0 f63e ce9e c23f
00000170: 5e6c 043f be9a cb3f 306f b3bd 0b70 863e
00000180: 7d0c 6e3e 062a 2240 4d4b 19bf 962a b53f
00000190: 15ea 2040 d449 d8be 2d7b da3f 97e6 dcbf
000001a0: 0e81 0740 788b 4dbe db06 99bd a211 1d40
000001b0: 331e 2940 f18b ce3e 62f1 8a3e b472 b0be
000001c0: 6c91 4cbe db55 2a40 0a69 b83e 45ea 953f
000001d0: cff5 05bf 2d78 fa3f 54ee a63f c099 e13f
000001e0: ce6f 9bbd 2982 0040 3334 7e3f 03ea 1840
000001f0: 5d79 6b40 6d6e 7b3f 562b 1340 e5d3 53be
00000200: 9536 fabe ad60 6a3e 4940 dd3e 6e0c 9dbd
00000210: 18be fb3e 5573 5abc 961c b1bd fce2 1a3f
00000220: 82fc 353e ee19 133f 2f64 62be d355 8d3e
00000230: 49dd 76be 3752 5b3e f0fa 5a3f daab cfbd
00000240: 8d4d 58bf b7db 6d3d 4832 3b3f b774 12bf
00000250: ccd4 29bf 0133 4b3e 9958 593e 0780 82bd
00000260: 4efa 3f3f be6c 8b3d 009e 3b3b 6559 1cbe
00000270: d83d d8be a1ac 8c3f ee7b 88be 8f89 8e3e
00000280: e9c6 d33d 144e 1ebe 2614 51bf 20cb 0fbf
00000290: 8901 b03c ae3b dcbd 97c0 a03e daa2 843e
000002a0: 262f 45be 3d29 31bf deac 8c3e f4a4 203c
000002b0: 1f88 0b3f cac8 573e e259 703e ce48 ac3e
000002c0: 9507 8b3e 9521 d1be e3a8 16bf 7b59 863e
000002d0: 6b1b 243e 058e 873e 7b26 7d3e 904d 54bf
000002e0: 3834 9abe 33dd 67bd bae1 71be 1dd9 d33b
000002f0: 8f7d d03e 8c4c 5f3f e48d 8f3d ff57 793e

rnn.bias_hh_l0 f4 [192]
-0.2024399 -0.5442018 -0.6531178 -1.151798 -0.4373831 0.53233063 -1.709937 -0.6987941
-0.716335 -0.5869595 -0.05445976 0.14572255 0.6714791 0.13400854 -0.8244768 -1.8581806
-0.82200885 -0.7667962 -0.10110256 -0.9241718 0.8194182 -0.6339664 -1.4508382 -0.5287703
-1.2909566 -0.444056 -0.91747373 -1.0757319 0.2513962 -0.5618976 -0.18111783 -1.4252894
0.8902114 -1.6351633 -0.61445075 -0.102586426 -0.62974906 -2.1852202 -0.84815085 -2.6911979
-0.7797294 -1.0422176 -0.64377975 0.21038462 -0.11861398 -0.28663078 -0.78835213 0.587083
0.26942274 -0.123980395 0.49078977 0.493598 -1.0459594 -0.2794181 -0.7203961 -0.1245406
-0.21672626 0.5200424 -0.98977935 -1.5699188 0.19334173 -0.87179524 0.5702906 -0.6949581
1.9558821 0.4005151 0.8827118 2.1387594 1.4954789 1.3842521 4.1374693 2.0939493
1.7838953 1.8722287 1.605893 0.20130609 1.0491719 -0.5827549 0.8006228 -0.11407108
1.5896965 1.7204274 1.4464475 2.0538468 -0.27944955 2.4186094 3.8910527 1.4466375
-1.4652702 0.6427821 0.34372717 1.589862 0.39890933 1.6291482 -0.06331214 0.10877341
0.035866916 2.682049 -0.567138 1.3713183 2.5393972 -0.31807527 1.7183286 -1.6961516
2.192473 -0.17092916 0.024899328 2.4504128 2.5213559 0.5525493 0.15727095 -0.34742364
-0.13380322 2.7096703 0.37345338 1.1479485 -0.2888212 2.0074604 1.2777152 1.629252
0.056949623 2.1131642 1.0685937 2.3190074 3.603082 1.1100379 2.152434 -0.20988777
-0.3171555 0.09995551 0.50799316 -0.06599097 0.8923642 -1.139518 -0.19932361 0.61203444
-0.7024632 0.3055742 -0.10666001 -0.045781992 -0.037087124 -0.08739083 -0.1416747 -0.086996555
-0.1700701 0.30983794 -0.26080596 -0.7861489 -0.899483 0.3048111 0.09120856 -0.13860713
0.30963093 -0.09482391 -0.48832956 -0.0729504 -0.1951082 0.75393575 0.6694486 -0.3773309
0.011042783 -0.09827688 -0.6190616 0.5400196 0.3975119 -0.4179583 0.59511656 0.4119304
0.009242839 0.22468518 -0.17626207 -0.008780263 -0.07086247 -0.06373514 -0.30296808 0.33073437
0.39903775 -0.24116665 0.036481187 1.3153541 0.14333409 0.43523848 0.36789465 -0.34104207
-0.7094301 1.2169522 0.26685658 -0.3803434 0.37534168 0.77769315 0.030983277 0.14747275
00000000: 684c 4fbe cf50 0bbf ba32 27bf 1e6e 93bf
00000010: adf0 dfbe d246 083f 37df dabf 2ce4 32bf
00000020: bb61 37bf fa42 16bf 3311 5fbd 4b38 153e
00000030: 0ee6 2b3f 8939 093e e910 53bf ddd8 edbf
00000040: 2c6f 52bf c14c 44bf dc0e cfbd 8696 6cbf
00000050: 64c5 513f 9f4b 22bf 11b5 b9bf 7e5d 07bf
00000060: 113e a5bf 4f5b e3be 8fdf 6abf 95b1 89bf
00000070: 01b7 803e 85d8 0fbf f476 39be e26f b6bf
00000080: e5e4 633f 084d d1bf a54c 1dbf d518 d2bd
00000090: 3c37 21bf a6da 0bc0 6a20 59bf 963c 2cc0
000000a0: 599c 47bf 6367 85bf c0ce 24bf 116f 573e
000000b0: e3eb f2bd 45c1 92be 72d1 49bf 124b 163f
000000c0: c7f1 893e 6fe9 fdbd cc48 fb3e e1b8 fc3e
000000d0: ffe1 85bf e40f 8fbe e16b 38bf 240f ffbd
000000e0: 7ded 5dbe 8021 053f 2e62 7dbf 19f3 c8bf
000000f0: 60fb 453e f92d 5fbf 91fe 113f c6e8 31bf
00000100: 585a fa3f 5110 cd3e 67f9 613f 6fe1 0840
00000110: da6b bf3f 2c2f b13f 2666 8440 4403 0640
00000120: ae56 e43f 31a5 ef3f e78d cd3f 2f23 4e3e
00000130: 444b 863f 6d2f 15bf 9ef5 4c3f 199e e9bd
00000140: 2d7b cb3f f736 dc3f 3125 b93f 3a72 0340
00000150: 0314 8fbe 7fca 1a40 0207 7940 6b2b b93f
00000160: f98d bbbf 5e8d 243f 02fd af3e 9980 cb3f
00000170: d83d cc3e ee87 d03f cca9 81bd 98c4 de3d
00000180: 30e9 123d b1a6 2b40 f52f 11bf 5c87 af3f
00000190: 7c85 2240 c3da a2be 31f2 db3f 7f1b d9bf
000001a0: 7a51 0c40 0e08 2fbe adf9 cb3c 90d3 1c40
000001b0: e55d 2140 df73 0d3f a30b 213e 83e1 b1be
000001c0: b603 09be 3d6b 2d40 4835 bf3e faef 923f
000001d0: 5fe0 93be 3b7a 0040 2c8c a33f 548b d03f
000001e0: 0244 693d 153e 0740 aec7 883f 9e6a 1440
000001f0: e598 6640 b915 8e3f 7bc1 0940 d2ec 56be
00000200: 3562 a2be 79b5 cc3d d70b 023f 4626 87bd
00000210: fb71 643f badb 91bf 7d1b 4cbe 4aae 1c3f
00000220: a1d4 33bf 3974 9c3e 9070 dabd e685 3bbd
00000230: abe8 17bd f7f9 b2bd 2c13 11be 402b b2bd
00000240: db26 2ebe 14a3 9e3e 5c88 85be 0e41 49bf
00000250: 8544 66bf 3310 9c3e 8ecb ba3d 07ef 0dbe
00000260: f287 9e3e 0a33 c2bd 5506 fabe 0567 95bd
00000270: 72ca 47be ef01 413f fc60 2b3f 8431 c1be
00000280: caec 343c 6445 c9bd d27a 1ebf b93e 0a3f
00000290: ae86 cb3e a1fe d5be 8f59 183f 8be8 d23e
000002a0: 476f 173c df13 663e 0b7e 34be 18db 0fbc
000002b0: 5820 91bd 9287 82bd a21e 9bbe 0456 a93e
000002c0: ad4e cc3e 64f4 76be 4c6d 153d 865d a83f
000002d0: 2cc6 123e 94d7 de3e b05c bc3e 119d aebe
000002e0: 369d 35bf 17c5 9b3f 6da1 883e 5fbc c2be
000002f0: c92c c03e e616 473f a4d0 fd3c 1903 173e

dense.weight f4 [1, 64]
0.035617355 0.20185463 0.016579716 -0.030843949 0.100315146 0.13501099 0.018513393 -0.012764404
0.12668636 -0.37059724 -0.31054452 0.0013934886 0.018189153 0.018017322 -0.0810257 0.1082382
-0.08866506 -0.030356564 -0.037534967 -0.032817334 0.043892607 -0.07572879 0.03915518 0.085384004
-0.23214945 0.029982999 -0.040685058 -0.06954394 0.004474229 0.04983088 0.04384807 0.08750138
0.06924192 0.13759728 0.13223661 0.00034817294 0.01588062 0.0145217255 0.16730012 -0.3081428
-0.108375624 -0.0019562445 -0.04097739 0.33199275 -0.40692154 -0.018341329 -0.06727126 -0.02247836
-0.07649562 0.022748098 -0.027886327 0.06811639 -0.22209331 0.047764875 0.10816374 -0.21391127
0.06474102 -0.021464791 0.08427109 0.56336135 -0.15173115 0.123507544 -0.07339135 0.21769263
00000000: 81e3 113d fbb2 4e3e 2fd2 873c 73ac fcbc
00000010: 0772 cd3d 5240 0a3e 66a9 973c ca21 51bc
00000020: 12ba 013e ecbe bdbe b1ff 9ebe b8a5 b63a
00000030: 6b01 953c 1099 933c cdf0 a5bd fdab dd3d
00000040: 0796 b5bd 54ae f8bc 44be 19bd 786b 06bd
00000050: bcc8 333d b217 9bbd 2f61 203d cfdd ae3d
00000060: 96b8 6dbe e89e f53c 60a5 26bd 0e6d 8ebd
00000070: 8e9c 923b 771b 4c3d 099a 333d ec33 b33d
00000080: b5ce 8d3d 4de6 0c3e 0969 073e fb8a b639
00000090: 1318 823c 88ec 6d3c b950 2b3e e5c4 9dbe
000000a0: 0af4 ddbd 5634 00bb e8d7 27bd f4fa a93e
000000b0: 0558 d0be 8e40 96bc 84c5 89bd 8a24 b8bc
000000c0: bca9 9cbd 385a ba3c de71 e4bc 9b80 8b3d
000000d0: 6e6c 63be 1aa5 433d f384 dd3d 8e0b 5bbe
000000e0: f196 843d eed6 afbc 5296 ac3d 7338 103f
000000f0: 695f 1bbe 86f1 fc3d 344e 96bd d1ea 5e3e

exp_avg f4 [192, 1]
2.163201e-06 -0.00074458565 1.30421195e-05 -1.600093e-05 5.9727226e-05 -6.799258e-05 8.674925e-08 -1.3426229e-05
-0.000120325036 -3.1948305e-06 1.3598831e-05 0.00016195101 1.1922315e-07 0.00016296006 -9.768713e-08 -3.5604785e-06
-0.0010602544 -4.8158985e-05 -0.00014327683 -3.1522231e-06 1.5709658e-05 2.547597e-06 2.7514045e-07 -0.00035321046
8.175252e-05 -2.1733531e-05 -0.0001342296 3.9932937e-07 -9.159784e-05 -0.00010227786 -6.358671e-05 1.670269e-05
-9.51784e-08 2.1221651e-06 6.302832e-05 -7.904982e-06 -2.510758e-06 5.699954e-07 -1.0666306e-06 4.180165e-05
-3.6960137e-06 -1.2514151e-05 6.489142e-05 -3.0658703e-05 -4.447032e-05 7.441508e-05 2.4413418e-06 0.0003645732
0.0005352602 8.175443e-06 -7.1906857e-07 0.00010365275 -9.026881e-05 -1.9837318e-05 -4.565119e-06 -7.453971e-05
-6.5507986e-05 -2.6418125e-05 6.964102e-05 0.00010420807 -5.830658e-08 -5.365872e-05 0.00011058599 0.00014791221
9.644186e-05 0.00050746254 0.0003785095 0.0004173715 -0.00050422584 0.0006662228 1.3040432e-06 5.4003704e-05
2.6753181e-05 7.1162234e-05 -0.0009845498 0.0010449801 0.00031053412 2.0087151e-05 0.0006997734 0.00061759655
0.00048024187 0.00052051625 1.745799e-05 0.00028497557 -6.372591e-05 1.6387386e-05 -9.642054e-07 2.39222e-05
0.00011777227 -2.898307e-05 -0.00036748973 -1.8367058e-05 0.0002487305 0.00012353701 0.00026026 0.0003580463
-0.00037060608 8.717298e-05 -0.00040287897 -8.126259e-05 1.4260233e-05 0.00029802328 2.925893e-05 4.055524e-05
0.0002042204 5.9406444e-05 -0.0001838648 -0.00026362666 1.8766257e-05 -0.00043358823 -6.456653e-05 -0.00049838104
-0.00048262722 0.0003417053 0.00033141384 -0.00023387466 -0.00018954715 -0.00010848497 0.00022743615 -7.3917995e-06
-5.2006937e-05 0.00015070403 0.00016145415 -0.0011395605 1.8694309e-05 -6.471878e-05 0.00030763322 5.0219456e-05
-0.00025632657 0.0052820784 0.0012520656 -8.719755e-05 -0.000521653 0.0002648429 6.0249018e-05 -4.0054234e-05
0.002019438 -0.0017097525 -0.0096982885 5.387716e-05 0.00039606076 -0.0014744989 0.003734652 0.00090860965
-0.0039832653 -0.00045185068 -0.0018294158 0.00013436172 0.00093229936 -0.00023119549 2.4882247e-06 -0.0008401226
-0.005158883 -0.00042039918 -0.0009711032 0.0029819594 1.204043e-05 0.00067541713 0.003959453 6.1793355e-05
-0.0002024985 0.0035599303 -0.0010750694 -0.00019438604 -0.0001118575 0.0006980873 0.00014950571 -0.007846847
-0.000107321466 0.00066359725 0.00093070266 0.0019153616 -0.0008069831 -0.0001673432 -0.0021149404 -0.0019652224
0.0014316867 4.1406543e-05 3.8799873e-05 0.0013191222 -0.0033298398 0.00026437725 0.0016612522 -0.00059478707
0.00091860525 -2.920885e-05 0.0027194018 0.017547825 -3.0010626e-06 0.0015566516 -0.00013753981 0.0038392493
00000000: 832b 1136 4c30 43ba 7acf 5a37 bc39 86b7
00000010: 9f83 7a38 3d97 8eb8 e84a ba33 3741 61b7
00000020: 0357 fcb8 c566 56b6 8926 6437 65d1 2939
00000030: cf03 0034 42e0 2a39 11c8 d1b3 8ef0 6eb6
00000040: 3cf8 8aba 51fe 49b8 953c 16b9 c88a 53b6
00000050: 3cc8 8337 62f7 2a36 04b7 9334 1b2f b9b9
00000060: 8d72 ab38 6750 b6b7 fcbf 0cb9 6963 d634
00000070: 3718 c0b8 027e d6b8 db59 85b8 c11c 8c37
00000080: e164 ccb3 856a 0e36 122e 8438 a49f 04b7
00000090: 7e7e 28b6 c901 1935 2629 8fb5 2e54 2f38
000000a0: 0809 78b6 dff3 51b7 5116 8838 8897 00b8
000000b0: a485 3ab8 4b0f 9c38 efd5 2336 3024 bf39
000000c0: b450 0c3a 4329 0937 0406 41b5 2560 d938
000000d0: b34e bdb8 5168 a6b7 132e 99b6 3452 9cb8
000000e0: 5561 89b8 7e9c ddb7 3d0c 9238 488a da38
000000f0: c36c 7ab3 9d0f 61b8 67ea e738 e218 1b39
00000100: d440 ca38 3c07 053a af72 c639 a8d2 da39
00000110: 062e 04ba 75a5 2e3a 9506 af35 0982 6238
00000120: 056c e037 ef3c 9538 020c 81ba b7f7 883a
00000130: 2fcf a239 d480 a837 ff70 373a 34e6 213a
00000140: f9c8 fb39 4173 083a c072 9237 c668 9539
00000150: 96a4 85b8 a577 8937 d869 81b5 89ac c837
00000160: 82fc f638 ab20 f3b7 a3ab c0b9 f512 9ab7
00000170: 0b68 8239 b789 0139 8273 8839 29b8 bb39
00000180: e84d c2b9 a3d0 b638 8039 d3b9 856b aab8
00000190: 3c3f 6f37 0240 9c39 1371 f537 db19 2a38
000001a0: ff23 5639 2f2b 7938 d5cb 40b9 5f37 8ab9
000001b0: 3b6c 9d37 3a53 e3b9 e467 87b8 c9a5 02ba
000001c0: 2109 fdb9 e926 b339 9dc1 ad39 403c 75b9
000001d0: 2dc1 46b9 6d82 e3b8 ed7b 6e39 1307 f8b6
000001e0: 0622 5ab8 4e06 1e39 054c 2939 4e5d 95ba
000001f0: b9d1 9c37 a1b9 87b8 d549 a139 bba2 5238
00000200: 9263 86b9 4915 ad3b 5a1c a43a d4dd b6b8
00000210: 8abf 08ba 9dda 8a39 e4b3 7c38 e8ff 27b8
00000220: 8c58 043b c619 e0ba 92e5 1ebc 29fa 6138
00000230: 60a6 cf39 f943 c1ba 10c1 743b c32f 6e3a
00000240: 0d86 82bb 5fe6 ecb9 02c9 efba 73e3 0c39
00000250: 8d65 743a 116d 72b9 60fb 2636 ac3b 5cba
00000260: d90b a9bb 0669 dcb9 a291 7eba fa6c 433b
00000270: 4101 4a37 7a0e 313a 4dbe 813b 0e97 8138
00000280: c755 54b9 b84d 693b 58e9 8cba 1bd4 4bb9
00000290: 0a95 eab8 d8ff 363a a2c4 1c39 1090 00bc
000002a0: c611 e1b8 42f5 2d3a 66fa 733a df0c fb3a
000002b0: b88b 53ba d978 2fb9 d09a 0abb f6ca 00bb
000002c0: 6fa7 bb3a f0ab 2d38 0cbd 2238 65e6 ac3a
000002d0: 7139 5abb 1d9c 8a39 60be d93a 7ceb 1bba
000002e0: 8ece 703a 8705 f5b7 fe37 323b 75c0 8f3c
000002f0: dd65 49b6 8f08 cc3a 9038 10b9 ea9b 7b3b

exp_avg_sq f4 [192, 1]
8.237702e-06 0.047544774 0.0004548409 5.968028e-05 2.2346232e-05 0.0010292416 1.728633e-09 0.0011694424
0.00035074362 8.8096186e-07 0.008795305 0.0043707048 0.004837436 0.001741584 0.056434218 3.7917955e-05
0.0017665396 0.00016310699 0.014674535 0.00021451659 0.0031454493 1.2331175e-06 6.211154e-09 7.687686e-05
0.01290176 0.020832762 0.017827954 0.003977351 0.0016758536 5.356784e-06 0.0028146084 0.20328489
0.004228224 3.4294857e-08 0.011579019 0.00026457582 6.014594e-05 8.702277e-05 0.00015712179 0.00011691558
2.1101725e-06 0.16905905 0.00018984189 1.4752908e-06 4.8740927e-05 0.006269522 0.001887743 0.0036128357
0.022135355 2.5032082e-06 0.011490655 8.6914246e-05 0.0032557806 6.871602e-05 2.0651865e-05 0.0026147347
0.008334548 7.4827236e-05 1.8722423e-05 1.0357874e-06 7.2266346e-08 0.004941822 6.428974e-05 0.03662499
0.003752254 0.0016570312 0.05340759 0.004068683 0.00013381854 0.038471624 7.120874e-07 0.0013787224
0.0033504183 6.651126e-05 0.0209056 0.15938883 0.03533954 0.0049996697 0.017824708 0.06331573
0.009313571 0.0002579058 0.0072096316 0.003728433 0.13892849 0.00020333566 6.7337595e-07 0.003121765
0.0020154319 0.0026809094 0.01989006 0.0061002877 0.023528602 0.00068412407 0.02308727 0.005973045
0.0057549374 0.0007899852 0.0047101057 0.0005302157 0.0021885592 0.07556821 0.0036194618 0.00093395443
0.00011042314 0.052687082 0.0044617336 2.4247604e-05 3.0157082e-05 0.102424905 0.0103938915 0.23669592
0.0055294107 0.009774468 0.34517136 0.0012363938 0.01815833 0.001259489 0.0013561011 0.01715133
0.022728864 0.002656354 0.0034355193 0.0010914438 2.7457836e-06 0.09008139 8.9277804e-05 0.010938233
0.002544126 0.6951481 0.007573084 0.010128343 0.00041211915 0.12670326 6.935014e-05 0.017063156
0.017874142 0.00071285455 1.1901293 0.24533072 0.14387192 0.7906249 0.98784196 0.49241003
0.21809824 0.0017093734 0.12897503 0.023791686 0.03933077 0.00012424235 2.5075085e-05 0.0011921789
0.9555429 0.3899955 0.6337117 1.3659002 0.14013743 0.003246764 0.38061392 0.57437915
0.34467354 0.05374204 0.43219212 0.0107272435 0.01783062 0.59134173 0.06936521 0.70735234
8.7322944e-05 0.26578933 0.05875612 0.00036184586 0.00066573115 1.5194367 0.5375122 0.11938422
0.20764454 3.545988e-05 0.71873456 0.0011271797 0.46704334 0.0018192572 0.010711104 0.013992469
1.1898551 0.0027629947 2.8412983 1.6795826 1.2422366e-06 0.3579566 0.0013416039 1.6482934
00000000: a934 0a37 4fbe 423d b677 ee39 3651 7a38
00000010: 2b74 bb37 9ee7 863a de94 ed30 fa47 993a
00000020: 03e4 b739 3d7b 6c35 2f1a 103c 2138 8f3b
00000030: 5b83 9e3b dd45 e43a 9127 673d 180a 1f38
00000040: 3c8b e73a b307 2b39 766d 703c dcef 6039
00000050: e223 4e3b 9881 a535 e369 d531 f338 a138
00000060: e761 533c 78a9 aa3c ee0b 923c 7054 823b
00000070: 51a8 db3a 6dbe b336 4b75 383b ea29 503e
00000080: ea8c 8a3b 984b 1333 edb5 3d3c c4b6 8a39
00000090: 3645 7c38 fe7f b638 0fc1 2439 9330 f538
000000a0: 7d9c 0d36 d11d 2d3e 4b10 4739 9b02 c635
000000b0: 2c6f 4c38 9070 cd3b 256e f73a 53c5 6c3b
000000c0: 3455 b53c cafc 2736 4d43 3c3c bb45 b638
000000d0: ef5e 553b a21b 9038 8b3d ad37 f85b 2b3b
000000e0: a18d 083c 91ec 9c38 190e 9d37 6205 8b35
000000f0: d830 9b33 02ef a13b 4bd3 8638 1604 163d
00000100: 60e8 753b be30 d93a ebc1 5a3d 9652 853b
00000110: a451 0c39 6c94 1d3d 4626 3f35 3fb6 b43a
00000120: b192 5b3b f67b 8b38 3942 ab3c d336 233e
00000130: 32c0 103d 45d4 a33b 1f05 923c adab 813d
00000140: f397 183c 8837 8739 c63e ec3b ba58 743b
00000150: 4543 0e3e 8036 5539 0bc2 3435 8796 4c3b
00000160: 5615 043b 32b2 2f3b 7bf0 a23c ece4 c73b
00000170: 0ebf c03c ca56 333a 8421 bd3c 88b9 c33b
00000180: ea93 bc3b 0217 4f3a 3b57 9a3b 2cfe 0a3a
00000190: ee6d 0f3b 81c3 9a3d 7e34 6d3b 9fd4 743a
000001a0: f992 e738 69ce 573d bc33 923b 5567 cb37
000001b0: d7f9 fc37 26c4 d13d 244b 2a3c 6a60 723e
000001c0: 0f30 b53b 1725 203c 4dba b03e 7e0e a23a
000001d0: c7c0 943c 7015 a53a 34bf b13a f280 8c3c
000001e0: e231 ba3c 3a16 2e3b 7326 613b c70e 8f3a
000001f0: 3444 3836 987c b83d a83a bb38 4636 333c
00000200: 5abb 263b 3af5 313f a227 f83b 59f1 253c
00000210: b211 d839 80be 013e 1370 9138 08c8 8b3c
00000220: cb6c 923c dcde 3a3a 2856 983f fa37 7b3e
00000230: 2953 133e 6566 4a3f 36e3 7c3f 2b1d fc3e
00000240: 2555 5f3e 0e0d e03a 0812 043e c8e6 c23c
00000250: 4d19 213d 0d47 0239 5658 d237 e342 9c3a
00000260: 769e 743f 7dad c73e ee3a 223f d1d5 ae3f
00000270: 3080 0f3e a9c7 543b d4df c23e 830a 133f
00000280: 0d79 b03e 9d20 5c3d 4948 dd3e 52c1 2f3c
00000290: 8511 923c 2c62 173f 590f 8e3d 0b15 353f
000002a0: 2621 b738 8a15 883e 42aa 703d 21b6 bd39
000002b0: 7684 2e3a e77c c23f 669a 093f b77f f43d
000002c0: c5a0 543e c2ba 1438 fdfe 373f e0bd 933a
000002d0: 4e20 ef3e 2474 ee3a a07d 2f3c ab40 653c
000002e0: 2c4d 983f 5c13 353b d5d7 3540 90fc d63f
000002f0: edba a635 1646 b73e c2d8 af3a 47fb d23f

exp_avg f4 [192, 64]
-2.9197724e-07 -7.612136e-07 -1.8111476e-06 -2.7584042e-06 -4.1841884e-07 1.2062715e-05 1.5332966e-09 -5.448952e-07
-2.7635596e-07 -1.3774703e-06 7.453484e-08 9.799088e-06 5.397852e-06 -4.508776e-06 -3.8610383e-06 -3.6017643e-06
1.302089e-06 -9.665252e-07 2.6066484e-06 1.3221301e-06 1.0764601e-06 7.8229033e-07 -1.8603838e-09 -3.2968442e-06
-3.5867401e-06 2.9161922e-06 -3.2034982e-06 1.223316e-06 -6.5410077e-06 -2.597073e-06 -7.695416e-07 -3.686842e-08
-2.7697884e-06 4.849142e-07 8.3371315e-06 6.80981e-08 -1.1310481e-06 -2.88131e-06 -3.7974755e-06 1.3700493e-06
-4.987811e-07 1.4273148e-06 -1.6037641e-06 -1.4308872e-06 4.991261e-07 2.8921243e-06 -3.869859e-06 8.5081965e-06
-6.0372154e-06 6.4781915e-07 3.6936158e-06 7.980298e-08 5.161858e-07 -4.7315507e-06 1.7362445e-06 3.2781948e-06
3.7750385e-06 -6.296592e-06 3.345678e-08 6.146787e-07 2.7964454e-08 -5.362042e-06 9.648583e-07 6.779989e-07
-0.0009889264 -0.001371638 -0.00010917856 5.1071573e-05 0.0012222006 -0.0018490371 -1.1869847e-07 -1.9286483e-05
-0.00019454269 5.074624e-05 0.0004855181 -0.0016058639 -0.0019078129 0.002430586 -0.0012562393 -0.0014078188
0.0001586857 0.0018271499 0.0009922116 -0.0014281274 0.0019415823 0.0020050441 -4.8132588e-08 0.0013787934
0.0014232105 0.0007561446 0.0018679049 -0.00033799393 0.0002737688 0.0019082121 -0.0006614124 0.0013106253
-0.0015740395 -0.0010937569 -0.0011900965 3.655598e-05 2.8464658e-05 -0.0012919767 6.0424914e-05 0.001272626
-8.730074e-06 -0.0016568127 0.000663037 -2.9427913e-05 6.3568223e-06 0.0013560981 0.00031433918 -0.0014273525
-0.0016624065 -0.001092999 0.0030487783 0.0019752649 0.0011516896 0.0017569625 0.0013436304 -0.0016945235
0.0020927351 0.0016337854 -0.0011863172 -0.0010409375 -1.5952775e-06 0.0012592282 -0.00010974643 -0.00016142362
-6.999602e-05 -9.3904026e-05 -0.00013310755 -5.103587e-05 9.356413e-05 -5.2546762e-05 9.2194355e-08 -1.5517639e-05
-7.3176807e-06 -5.0320818e-05 3.0401567e-05 -7.1102644e-05 -0.00012113823 0.0003027664 -0.0002080681 -0.00014174539
7.579941e-05 0.00019757435 4.6102494e-05 -7.292136e-05 0.00020322106 0.00014320576 1.2937346e-08 0.00013613752
-1.9265586e-05 7.06864e-05 0.00014389455 -1.7094466e-05 -0.00017644138 0.00016623057 -6.352897e-05 4.6312343e-05
-3.7509555e-05 -7.677262e-05 4.4237164e-05 -5.267636e-05 -1.9436651e-05 -0.00010693177 -9.918593e-05 2.2544937e-05
-1.3189849e-05 -0.00013761708 1.6194675e-05 -3.5029243e-06 -7.191952e-06 2.5771124e-05 -1.297283e-05 -2.9277875e-05
-0.0001664462 -7.147013e-05 0.00013739262 0.00019300639 4.6977326e-05 7.0728594e-05 0.00012168968 -0.00011253037
0.00024161238 4.02826e-05 -0.00011444112 -4.6661928e-05 1.2807171e-06 2.5577388e-05 5.7171193e-05 -7.3983996e-05
1.4100164e-06 -9.0108515e-06 -4.094803e-05 -6.5523845e-06 -3.826026e-05 3.0607982e-05 2.297544e-09 -2.7895805e-06
-8.522957e-06 -5.493219e-06 1.270796e-05 3.004074e-05 -2.2378777e-05 4.870836e-05 -3.2732187e-05 -1.9406885e-05
5.2700645e-05 -3.2324e-05 -1.6008269e-05 6.1760616e-06 -1.5226526e-05 3.5523087e-07 -3.4281825e-08 -3.128994e-06
-2.4511462e-05 1.1978319e-05 1.1986617e-05 2.1460412e-06 -2.39814e-05 -8.260361e-06 -1.3782462e-05 5.510044e-06
4.208928e-05 -2.059666e-06 4.2418636e-05 6.880954e-06 -3.660392e-07 -2.0523306e-05 -1.0569695e-05 8.5051115e-06
-1.5394287e-06 -1.0240938e-06 -1.50510405e-05 -3.2018427e-06 -6.348962e-07 1.0093399e-05 -9.950323e-06 -4.885479e-06
1.4047711e-05 4.9975147e-06 1.4855033e-08 -2.0862612e-05 1.629068e-05 -2.5250052e-05 5.1348234e-06 7.455e-06
3.0692936e-05 -1.7960128e-05 -1.2845343e-05 -4.2426022e-06 3.5260193e-08 -2.4504332e-05 -1.7050903e-05 -3.6357662e-05
00000000: 0cc1 9cb4 3356 4cb5 8f16 f3b5 061d 39b6
00000010: 0ca3 e0b4 f760 4a37 14bc d230 ea44 12b5
00000020: 135e 94b4 85e1 b8b5 f60f a033 c366 2437
00000030: 321f b536 174a 97b6 118e 81b6 d7b5 71b6
00000040: 70c3 ae35 8eb9 81b5 e1ed 2e36 0b74 b135
00000050: e37a 9035 95fe 5135 70b0 ffb0 5a3f 5db6
00000060: bab3 70b6 cdb3 4336 aefb 56b6 d130 a435
00000070: d47a dbb6 6049 2eb6 7f92 4eb5 4259 1eb3
00000080: 9ae0 39b6 0d2b 0235 b5df 0b37 543d 9233
00000090: 84ce 97b5 875c 41b6 22d8 7eb6 89e2 b735
000000a0: fae3 05b5 2a92 bf35 ea40 d7b5 e90c c0b5
000000b0: affb 0535 5116 4236 d6d9 81b6 6dbe 0e37
000000c0: 4993 cab6 cbe5 2d35 d6df 7736 2760 ab33
000000d0: 0590 0a35 b6c3 9eb6 e808 e935 f5fe 5b36
000000e0: ab56 7d36 5047 d3b6 1eb2 0f33 6600 2535
000000f0: 7c36 f032 97eb b3b6 4780 8135 bbff 3535
00000100: dd9e 81ba 89c8 b3ba cbf6 e4b8 af35 5638
00000110: 3f32 a03a 645b f2ba 2de7 feb3 68c9 a1b7
00000120: 28fe 4bb9 5cd8 5438 238d fe39 da7b d2ba
00000130: 940f faba 774a 1f3b 65a8 a4ba 8f86 b8ba
00000140: de64 2639 fa7c ef3a 190d 823a 0130 bbba
00000150: b17c fe3a 0f67 033b 57ba 4eb3 a1b8 b43a
00000160: 058b ba3a 0138 463a 7dd4 f43a c734 b1b9
00000170: a088 8f39 f91c fa3a a362 2dba 4ac9 ab3a
00000180: 0050 ceba 645c 8fba 03fd 9bba af53 1938
00000190: 63c7 ee37 8b57 a9ba c270 7d38 3ece a63a
000001a0: 6277 12b7 6929 d9ba a9cf 2d3a f6db f6b7
000001b0: b04c d536 1abf b13a e4cd a439 0116 bbba
000001c0: 1be5 d9ba f642 8fba 03ce 473b 7273 013b
000001d0: 4af4 963a e149 e63a c11c b03a c61a deba
000001e0: 4526 093b be24 d63a 337e 9bba 1170 88ba
000001f0: 511d d6b5 b00c a53a aa27 e6b8 d343 29b9
00000200: d4ca 92b8 57ee c4b8 c992 0bb9 590f 56b8
00000210: dc37 c438 a865 5cb8 62fc c533 e02b 82b7
00000220: 668a f5b6 910f 53b8 de06 ff37 f11c 95b8
00000230: 980b feb8 9ebc 9e39 db2c 5ab9 7da1 14b9
00000240: 80f6 9e38 f62b 4f39 2d5e 4138 5bed 98b8
00000250: bd17 5539 8129 1639 0d43 5e32 23c0 0e39
00000260: 889c a1b7 793d 9438 66e2 1639 1666 8fb7
00000270: 1f03 39b9 2e4e 2e39 db3a 85b8 803f 4238
00000280: 9453 1db8 fd00 a1b8 4b8b 3938 d0f0 5cb8
00000290: e40b a3b7 8f40 e0b8 0a02 d0b8 e21e bd37
000002a0: f849 5db7 4e4d 10b9 cdd9 8737 c813 6bb6
000002b0: 6652 f1b6 112f d837 e1a5 59b7 c299 f5b7
000002c0: 1088 2eb9 3ce2 95b8 0d11 1039 c261 4a39
000002d0: 8509 4538 2054 9438 a633 ff38 48fe ebb8
000002e0: 5459 7d39 1df5 2838 1c00 f0b8 ddb6 43b8
000002f0: 1be5 ab35 068f d637 1acb 6f38 db27 9bb8
00000300: cb3f bd35 502d 17b7 9dbf 2bb8 8edc dbb6
00000310: a479 20b8 1261 0038 d2e2 1d31 a134 3bb6
00000320: d2fd 0eb7 6452 b8b6 4634 5537 ffff fb37
00000330: 0fba bbb7 344c 4c38 eb49 09b8 f8cb a2b7
00000340: e30a 5d38 a193 07b8 7f49 86b7 f73b cf36
00000350: 6e75 7fb7 8fb6 be34 443d 13b3 b5fb 51b6
00000360: f79d cdb7 7df6 4837 211a 4937 b504 1036
00000370: aa2b c9b7 fb95 0ab7 393b 67b7 ebe2 b836
00000380: 0589 3038 cb38 0ab6 aaea 3138 f2e2 e636
00000390: 0b84 c4b4 7729 acb7 7f54 31b7 2db1 0e37
000003a0: 5e9e ceb5 9873 89b5 ba83 7cb7 3ddf 56b6
000003b0: bc6d 2ab5 d256 2937 50f0 26b7 f2ed a3b6
000003c0: 76ae 6b37 53b0 a736 2035 7f32 1e02 afb7
000003d0: f8a7 8837 13d0 d3b7 cc4b ac36 f625 fa36
000003e0: 4abc 0038 15a9 96b7 5482 57b7 ad5b 8eb6
000003f0: fe70 1733 a78e cdb7 8908 8fb7 be7e 18b8

exp_avg_sq f4 [192, 64]
1.5032624e-06 2.6307941e-06 9.69628e-07 3.7714318e-07 5.537345e-07 4.5054487e-05 6.374272e-11 1.0094228e-05
1.7589509e-06 1.3732755e-08 3.4230798e-05 3.6854235e-06 2.2094186e-05 2.0425228e-05 6.0110197e-06 4.7142753e-06
2.805342e-05 7.777851e-06 7.654663e-06 5.372361e-05 9.295766e-06 1.5298082e-06 5.9579015e-11 3.166186e-05
2.3821156e-05 8.014261e-06 3.5286273e-05 8.8259885e-06 2.7265141e-06 1.5438032e-05 1.3915724e-05 3.7889477e-06
6.356996e-05 2.2515012e-07 4.6024948e-06 9.757503e-06 1.08780576e-07 3.963042e-06 1.0471665e-06 8.110124e-06
2.8309242e-07 6.548979e-06 1.5029293e-05 1.5502468e-07 2.2497032e-08 1.2786814e-05 1.6375182e-06 8.035992e-06
4.2823685e-05 6.6179414e-06 1.23180225e-05 3.1783868e-05 3.362583e-06 5.966791e-07 3.5259975e-06 5.6871427e-06
1.11844865e-05 1.5149082e-05 4.2045244e-06 2.5230277e-06 9.071545e-10 1.5264148e-05 3.545714e-07 5.768662e-06
0.000668822 0.004318148 0.0096966475 0.00013484329 1.5481417e-05 0.008891335 2.8819965e-08 0.0005994056
0.00047205764 3.9252473e-06 0.0029642752 0.010909851 0.0031388053 0.017392559 0.0042832857 0.01564792
0.0024942209 0.00014084633 0.0071450043 0.009358163 0.03965189 6.7107365e-05 1.2210876e-09 0.00010052148
0.016165627 0.002493495 0.006688745 0.022841083 0.00022296347 0.0009685332 0.04056458 0.011775357
0.01162597 0.00012379429 0.025803134 1.9742538e-05 0.00012500175 0.013257993 0.008400324 0.020298528
5.6130488e-05 0.031382192 0.0038622743 1.6774877e-06 2.768062e-06 0.009994447 0.0005001083 0.027788661
0.008097676 0.0013042602 0.012011596 0.0007282968 0.021881545 0.00030049562 0.001010413 0.0042713927
0.002629805 0.0052846177 0.006190386 0.0025403192 1.7138888e-06 0.005614364 1.870617e-05 0.001861377
5.4938296e-06 5.328475e-05 0.00012090225 3.7094767e-06 1.0523564e-05 0.00020486272 1.9554939e-08 9.43988e-06
2.3120157e-05 1.1740483e-06 4.220499e-05 3.1941785e-05 2.1015523e-05 0.00011764971 0.000102250866 3.9992854e-05
9.804881e-05 7.249787e-05 3.6319023e-05 9.265533e-05 0.00023308361 9.1654665e-06 5.580145e-10 2.7642249e-05
0.00014294816 7.645075e-06 0.00018396629 8.7634384e-05 0.00051684683 6.260454e-05 0.00049115985 4.0936735e-05
0.00016613136 4.868182e-06 0.00022073995 5.057529e-05 1.1812734e-06 3.5310688e-05 9.21881e-05 0.00015008273
1.4951288e-06 0.00019508539 4.3901982e-05 9.421557e-07 6.7732417e-06 0.00010313443 0.00040566782 0.00021911049
0.00027682117 3.0805495e-05 0.00045764292 4.3348988e-05 6.71841e-05 8.975818e-05 2.2383414e-05 7.096553e-05
5.4318934e-05 9.796534e-05 2.1641814e-05 4.0304338e-05 6.4362315e-09 9.7975615e-05 2.0704788e-06 0.00026592426
3.4673412e-06 1.420025e-06 6.137983e-06 9.0501254e-07 3.2253652e-07 1.0219741e-05 1.7136072e-11 9.624923e-06
1.1307416e-05 2.7500729e-08 2.7267513e-06 5.665478e-06 5.931312e-06 2.3934323e-05 9.307863e-06 2.5074512e-05
1.3400578e-05 5.3580555e-07 8.164984e-06 2.0305228e-05 2.1390797e-05 8.1525576e-07 4.4548552e-11 7.4297526e-07
3.020797e-05 6.0686034e-06 1.3152474e-05 1.535524e-05 1.2148698e-06 1.7413702e-05 2.372607e-05 1.504795e-05
5.131666e-06 1.1557697e-06 1.341483e-05 7.283231e-07 1.6075273e-07 2.3216984e-05 1.1457543e-05 2.7946839e-05
3.8677788e-07 3.4154233e-05 1.0394955e-05 2.0528288e-08 2.4905734e-08 1.2220648e-05 1.3711236e-06 2.6005217e-05
5.7656407e-06 1.0165151e-05 1.03909915e-05 1.5148145e-05 2.97081e-05 8.798758e-07 1.419359e-05 1.7876513e-05
1.1688385e-06 2.1363398e-05 1.1009073e-05 2.3402583e-06 1.3686294e-09 4.358203e-06 1.6305789e-07 9.057057e-07
00000000: b4c3 c935 b38c 3036 2a24 8235 2a7a ca34
00000010: 58a4 1435 e3f8 3c38 f62b 8c2e 615a 2937
00000020: 1815 ec35 4ced 6b32 0a93 0f38 1853 7736
00000030: e756 b937 d856 ab37 44b2 c936 512f 9e36
00000040: 4354 eb37 9e7d 0237 876c 0037 4955 6138
00000050: 03f5 1b37 cf53 cd35 0104 832e aacc 0438
00000060: 8bd3 c737 fd74 0637 5900 1438 5513 1437
00000070: 28f9 3636 ec80 8137 9477 6937 a045 7e36
00000080: dd50 8538 cbc0 7134 216f 9a36 28b4 2337
00000090: c19a e933 46fa 8436 5e8c 8c35 b810 0837
000000a0: edfb 9734 4dbf db36 5226 7c37 dc74 2634
000000b0: 7f3f c132 f386 5637 b2c8 db35 53d2 0637
000000c0: 959d 3338 af0f de36 81a9 4e37 ab4f 0538
000000d0: bca8 6136 7a2b 2035 2da0 6c36 2fd4 be36
000000e0: 01a5 3b37 d028 7e37 9714 8d36 4951 2936
000000f0: 535b 7930 820b 8037 ec5b be34 6e90 c136
00000100: e253 2f3a 407f 8d3b b0de 1e3c b864 0d39
00000110: 17de 8137 f6ac 113c c68f f732 6e21 1d3a
00000120: 817e f739 9eb5 8336 4944 423b 3bbf 323c
00000130: 6ab4 4d3b d77a 8e3c ce5a 8c3b 1130 803c
00000140: 1576 233b 26b0 1339 a420 ea3b fb52 193c
00000150: 056a 223d febb 8c38 33d3 a730 0fcf d238
00000160: c76d 843c e769 233b 432d db3b 391d bb3c
00000170: 4dcb 6939 2ae5 7d3a 0c27 263d 6ded 403c
00000180: da7a 3e3c c7ce 0139 1861 d33c c79c a537
00000190: e712 0339 0e38 593c 83a1 093c 1949 a63c
000001a0: a76d 6b38 9d8a 003d 361e 7d3b 0a26 e135
000001b0: f1c2 3936 c0bf 233c b319 033a 0ca5 e33c
000001c0: 1dac 043c b6f3 aa3a 49cc 443c 2ceb 3e3a
000001d0: ed40 b33c d78b 9d39 d66f 843a 0af7 8b3b
000001e0: ce58 2c3b 962a ad3b b9d8 ca3b 7c7b 263b
000001f0: c508 e635 b3f8 b73b 32eb 9c37 73f9 f33a
00000200: a357 b836 117e 5f38 e78c fd38 53f0 7836
00000210: 5d8e 3037 6bd0 5639 c4f9 a732 fa5f 1e37
00000220: 29f2 c137 fe93 9d35 4305 3138 3bf9 0538
00000230: 7e4a b037 b5ba f638 846f d638 00be 2738
00000240: 8e9f cd38 ff09 9838 4155 1838 f44f c238
00000250: e867 7439 61c5 1937 c862 1930 47e1 e737
00000260: 5be4 1539 5943 0037 13e7 4039 5ac8 b738
00000270: 017d 073a 8e4a 8338 2ec1 003a 7cb3 2b38
00000280: 8c33 2e39 5d59 a336 6e76 6739 ce20 5438
00000290: 3f8c 9e35 901a 1438 1c55 c138 875f 1d39
000002a0: 3cac c835 d68f 4c39 6523 3838 72e8 7c35
000002b0: b445 e336 e049 d838 d0af d439 06c1 6539
000002c0: 4f22 9139 2635 0138 cbef ef39 9fd1 3538
000002d0: 30e5 8c38 8e3c bc38 04c4 bb37 54d3 9438
000002e0: 83d4 6338 be72 cd38 718b b537 740c 2938
000002f0: b125 dd31 4278 cd38 8ef2 0a36 c06b 8b39
00000300: 78b0 6836 b097 be35 dff4 cd36 fdef 7235
00000310: 1529 ad34 7475 2b37 01bb 962d bb7a 2137
00000320: fbb4 3d37 be3a ec32 3bfd 3636 161a be36
00000330: 9505 c736 91c6 c837 f828 1c37 1b57 d237
00000340: 0bd3 6037 47d4 0f35 57fc 0837 2555 aa37
00000350: 6370 b337 f3d7 5a35 36ed 432e df70 4735
00000360: 1f67 fd37 e8a0 cb36 72a9 5c37 20cf 8037
00000370: 9c0e a335 a413 9237 5907 c737 7476 7c37
00000380: ad30 ac36 f21f 9b35 4210 6137 fb81 4335
00000390: 609b 2c34 18c2 c237 c639 4037 616f ea37
000003a0: 59a6 cf34 d440 0f38 fe65 2e37 2f56 b032
000003b0: 4af0 d532 4907 4d37 7307 b835 c725 da37
000003c0: 7a76 c136 fe8a 2a37 f854 2e37 ca24 7e37
000003d0: a935 f937 9b30 6c35 0121 6e37 85f5 9537
000003e0: fce0 9c35 8c35 b337 9cb3 3837 550d 1d36
000003f0: 5e1a bc30 ae3c 9236 0315 2f34 9f1f 7335

exp_avg f4 [192]
-1.4626712e-06 0.0017090839 -8.544778e-05 -5.8736914e-05 0.00017963967 -6.9483685e-05 3.758792e-08 -1.560949e-05
0.00016965983 -3.3708282e-06 -0.0003252159 -0.00060916494 8.181099e-05 0.0001542492 -0.00016534892 1.9185403e-05
0.0010769244 -9.61075e-05 0.0009090066 7.881019e-05 -3.2145806e-05 0.00016243331 4.065483e-07 0.001201402
0.00016484696 0.0001745045 0.00042119552 -1.9732322e-05 -3.915133e-05 -9.2564835e-05 0.00014341588 -2.3467866e-05
3.571492e-06 3.5235491e-06 0.00023536659 -7.5814736e-05 -3.1206207e-06 9.527098e-06 -9.473098e-05 2.413585e-05
-2.6021318e-05 -0.00015104555 7.094408e-05 -5.769268e-05 -2.8759247e-05 -0.00045231852 -3.499396e-05 -0.0002875787
0.0011964062 1.50718915e-05 -3.4926874e-05 5.8768906e-05 0.00030218335 6.134634e-05 -1.1416067e-05 -2.7643815e-05
-0.00013795341 2.7957958e-05 -0.0001596809 0.00010983258 -3.5088508e-08 -9.4227944e-05 9.992229e-05 0.0003714098
-8.253555e-05 4.534811e-08 -0.00018830772 0.00067394815 0.0009900477 -0.0006824126 8.321079e-07 -6.410234e-05
-4.51193e-06 3.6400882e-06 -0.0013262939 -0.0012257289 0.00046228693 0.0002701906 -0.00019997788 -0.0008815342
0.00069203577 0.00043322815 -0.00039830263 -0.0005649623 -0.0005733009 -0.00014028435 -3.7252353e-06 6.786148e-07
-0.00022992346 -0.00010839709 -0.0007961041 -3.494964e-05 -0.00046634203 -0.00032820986 -0.00035206892 0.00033095395
0.00042020957 -0.0001838167 -0.0006643984 -0.00037452427 5.437583e-05 -0.00078333827 0.00011365087 -8.3337836e-05
0.00022938983 -0.00072749174 -3.797108e-05 -0.00033818433 -8.026074e-05 -0.0001843948 -0.00018474396 0.0002820405
-0.0009726141 -0.00094835414 -0.0003742714 0.00010108581 -0.00063218834 0.0005032486 5.159458e-05 -0.00023181172
-0.00046701013 -0.00011280961 7.923369e-06 0.00010135993 1.9248675e-05 0.000257231 -6.0748316e-05 0.00031269345
-0.00016861709 0.005131963 -0.0027974132 -0.00033752917 -6.64104e-05 0.00028701505 3.644634e-05 0.000111300025
-0.0017914436 -0.00046090476 0.0053079263 0.0016100797 -0.0029547298 0.0029641788 -0.0075570852 -0.0070607043
0.006123479 -0.0005689618 -8.492215e-05 5.1776286e-05 0.00222305 0.00019612792 1.721854e-05 0.0028635068
0.0015150955 0.0034126595 0.0022820332 -0.006352235 -0.0018979702 0.00010505179 -0.007201615 0.0028654537
0.0023199562 -0.004191019 -0.0029815203 -0.00077448256 -7.734362e-05 -0.009331129 -0.00018919846 0.0077921785
-0.00027207282 -0.003606325 0.0027045994 0.0031066656 -6.4716754e-05 -0.00019687107 0.003917619 0.00014003117
0.0027671384 -3.4979614e-06 0.0004551749 0.0009919452 0.004104957 0.00053357246 -0.00021316964 -0.00034565633
-0.00092887634 0.00019289246 -0.0057721124 -0.009821303 -3.311518e-06 -0.0027564066 2.3042578e-05 -0.00145125
00000000: 0051 c4b5 5703 e03a 6d32 b3b8 485c 76b8
00000010: a85d 3c39 c5b7 91b8 5b70 2133 20f1 82b7
00000020: b7e6 3139 6336 62b6 bd81 aab9 5eb0 1fba
00000030: f191 ab38 f4bd 2139 8361 2db9 57f0 a037
00000040: 9627 8d3a 528d c9b8 664a 6e3a e646 a538
00000050: 4cd4 06b8 dc52 2a39 9343 da34 5d78 9d3a
00000060: c5da 2c39 32fb 3639 e8d3 dc39 d786 a5b7
00000070: 6c36 24b8 5e1f c2b8 e861 1639 dcdc c4b7
00000080: c4ad 6f36 1d76 6c36 bdcc 7639 bafe 9eb8
00000090: db6b 51b6 93d6 1f37 4faa c6b8 5877 ca37
000000a0: 5b48 dab7 fb61 1eb9 d0c7 9438 0bfb 71b8
000000b0: 0340 f1b7 2a25 edb9 7ac6 12b8 29c6 96b9
000000c0: bbd0 9c3a 48dd 7c37 727e 12b8 a27e 7638
000000d0: 5d6e 9e39 11a7 8038 a287 3fb7 a4e4 e7b7
000000e0: 96a7 10b9 4287 ea37 0470 27b9 eb55 e638
000000f0: 39b4 16b3 3e9c c5b8 5f8d d138 c8b9 c239
00000100: f016 adb8 c6c4 4233 7874 45b9 e5ab 303a
00000110: 7dc4 813a efe3 32ba 055e 5f35 af6e 86b8
00000120: 2f65 97b6 3d48 7436 0ad7 adba a3a8 a0ba
00000130: 1a5f f239 5ea8 8d39 27b1 51b9 c216 67ba
00000140: bc69 353a e622 e339 46d3 d0b9 fa19 14ba
00000150: 9249 16ba 4b19 13b9 0eff 79b6 0e2a 3635
00000160: 9c17 71b9 3f53 e3b8 a4b1 50ba e496 12b8
00000170: 5e7f f4b9 9513 acb9 e495 b8b9 e383 ad39
00000180: 934f dc39 ebbe 40b9 062b 2eba cc5b c4b9
00000190: 9a11 6438 f158 4dba d957 ee38 a9c5 aeb8
000001a0: 5d88 7039 25b5 3eba 2343 1fb8 554e b1b9
000001b0: a851 a8b8 1a5a 41b9 d4b7 41b9 d6de 9339
000001c0: 07f7 7eba f89a 78ba db39 c4b9 08fe d338
000001d0: 71b9 25ba 71ec 033a 4267 5838 7c12 73b9
000001e0: 0ad9 f4b9 3394 ecb8 9cee 0437 3391 d438
000001f0: 3778 a137 f6dc 8639 02cc 7eb8 01f1 a339
00000200: cece 30b9 072a a83b ce54 37bb 66f6 b0b9
00000210: d045 8bb8 827a 9639 f6dd 1838 bf69 e938
00000220: dfce eaba 97a5 f1b9 1dee ad3b 4f09 d33a
00000230: 24a4 41bb ab42 423b 6da1 f7bb 7b5d e7bb
00000240: 77a7 c83b 6126 15ba 3b18 b2b8 5d2a 5938
00000250: 97b0 113b b0a7 4d39 8870 9037 aca9 3b3b
00000260: 2b96 c63a eda6 5f3b 2a8e 153b 6926 d0bb
00000270: 50c5 f8ba 404f dc38 86fb ebbb 56ca 3b3b
00000280: 680a 183b d154 89bb 9c65 43bb a506 4bba
00000290: 8a33 a2b8 97e1 18bc 9363 46b9 8855 ff3b
000002a0: ffa4 8eb9 1858 6cbb a63f 313b 3399 4b3b
000002b0: 8bb8 87b8 2d6f 4eb9 5f5f 803b 55d5 1239
000002c0: e158 353b 85be 6ab6 8aa4 ee39 2804 823a
000002d0: e082 863b 71df 0b3a 4a86 5fb9 3539 b5b9
000002e0: d67f 73ba 2d43 4a39 fd23 bdbb 88e9 20bc
000002f0: 723b 5eb6 d4a4 34bb 8f4b c137 df37 beba
