05_NeuralNetwork/logs/mlp/version_3/checkpoints/epoch=49-step=6250.ckpt (torch, 244136 bytes, 30 tensors)

model.0.weight f4 [64, 2]
0	0x3e509293	0.20368414
1	0x3f0216d7	0.508161
2	0xbe93e699	-0.2888687
3	0x3f1774d6	0.5916265
4	0x3f20f628	0.62875605
5	0x3f51457c	0.8174665
6	0x3f25fd3b	0.64839524
7	0x3f3f04fc	0.7461698
8	0xbd30bee0	-0.043150783
9	0xbe3f07e0	-0.18655348
10	0x3f0027da	0.5006081
11	0x3ed17da0	0.40916157
12	0x3eb9fcaa	0.3632558
13	0xbe419143	-0.18903069
14	0xbf3686ef	-0.7129964
15	0x3ee58af5	0.44832578
16	0x3e4b594c	0.19858283
17	0xbf1b5702	-0.6067964
18	0x3f27b984	0.6551745
19	0x3e455eab	0.19274394
20	0x3edba3e1	0.42898467
21	0xbf3b3610	-0.7312937
22	0x3f368c83	0.71308154
23	0x3f2fa984	0.68618035
24	0x3f03f765	0.5154937
25	0xbd2614fc	-0.040547356
26	0x3f115c51	0.5678149
27	0x3ebf9773	0.37420234
28	0xbf06538b	-0.52471226
29	0xbf23d8a7	-0.6400246
30	0xbf468461	-0.77545744
31	0xbbe7501d	-0.007059111
32	0x3c177df7	0.009246341
33	0x3e1b7c16	0.15184054
34	0xbefffcf4	-0.49997675
35	0x3ef4f257	0.4784114
36	0x3ed2c5b0	0.4116645
37	0x3ed43fa8	0.41454816
38	0xbed7148f	-0.42007872
39	0x3e36f1f0	0.1786573
40	0xbf2da0af	-0.6782331
41	0x3ef276a1	0.47356132
42	0xbec8ecb4	-0.3924309
43	0xbeab88e1	-0.33502868
44	0x3f37ace7	0.71748203
45	0xbe608e35	-0.21929248
46	0xbf472c60	-0.77802086
47	0xbd98c53c	-0.074594945
48	0xbef3004e	-0.4746117
49	0xbe2b6143	-0.16736321
50	0x3eaed641	0.34147838
51	0x3e9236e6	0.2855751
52	0xbf19cede	-0.6008128
53	0x3e4cf838	0.20016563
54	0x3f55738a	0.83379424
55	0xbe791df7	-0.24327837
56	0x3f0fce4d	0.56174165
57	0x3eeba0ff	0.46021268
58	0xbed303de	-0.41213888
59	0x3f4df23f	0.80447763
60	0xbf3dda66	-0.74161375
61	0xbe418316	-0.18897662
62	0xbf3aa05e	-0.7290095
63	0xbe8dd996	-0.27705067
64	0xbe53e6bc	-0.20693487
65	0xbef6b729	-0.48186615
66	0x3cde7380	0.027154684
67	0xbbcbcf80	-0.0062198043
68	0x3f1514ce	0.5823487
69	0xbec97ed0	-0.39354563
70	0xbe224a5e	-0.15848681
71	0xbef25e2b	-0.4733747
72	0xbe97bcbc	-0.2963618
73	0x3dced597	0.10099333
74	0xbf5601d9	-0.8359657
75	0x3f30e9a6	0.6910652
76	0xbf29319a	-0.6609131
77	0xbf473816	-0.77819955
78	0xbef38447	-0.47561857
79	0x3f0bb44b	0.5457198
80	0x3efacd4a	0.48984748
81	0xbf0a02ab	-0.5391032
82	0x3f171861	0.59021574
83	0x3f2c6ee8	0.6735673
84	0xbf4d3bd2	-0.80169404
85	0xbec940ba	-0.39307195
86	0xbf218418	-0.63092184
87	0x3edae59b	0.427533
88	0x3f24ec64	0.64423203
89	0x3ee8a308	0.45436883
90	0x3f2e24fb	0.6802518
91	0x3ee18495	0.44046465
92	0xbd16f2cf	-0.036852654
93	0x3ea02493	0.31277904
94	0xbebdf324	-0.37099564
95	0x3f4010ce	0.7502564
96	0x3ed9bbc2	0.4252606
97	0xbea8bc8e	-0.32956356
98	0x3ea7e552	0.32792145
99	0x3e98af02	0.2982102
100	0xbb283a00	-0.0025669336
101	0x3e7576a8	0.23971045
102	0xbe99fa49	-0.30073765
103	0xbf272ac2	-0.6529962
104	0xbf32ad98	-0.69796133
105	0xbe228360	-0.15870428
106	0x3b1bf507	0.002379717
107	0x3f39f9b0	0.7264662
108	0xbee076b0	-0.4384055
109	0xbda1d030	-0.07901037
110	0xbec5b266	-0.3861267
111	0x3ed3d578	0.413738
112	0xbed3abae	-0.4134192
113	0xbf0d8e11	-0.552949
114	0xbe679104	-0.22613913
115	0x3f51d9be	0.81972873
116	0x3f3f8c61	0.74823576
117	0xbf236f91	-0.6384211
118	0x3f021dbc	0.5082662
119	0x3d5cd6ed	0.053915907
120	0x3ee535b2	0.4476753
121	0x3e2c42a8	0.16822302
122	0x3d8348da	0.0641038
123	0xbec1cf3e	-0.37853426
124	0xbf096e76	-0.53684175
125	0x3ebe4d62	0.37168413
126	0x3f120856	0.5704397
127	0x3f4b92e5	0.7952102

model.0.bias f4 [64]
0	0x3e522ffa	0.20526114
1	0xbe57fe68	-0.21093142
2	0x3edb5a9d	0.4284257
3	0x3e06f609	0.13179792
4	0xbf0bb914	-0.5457928
5	0x3da0a095	0.078431286
6	0x3d5bea4e	0.053690247
7	0x3edc4f5f	0.43029305
8	0x3f230863	0.6368467
9	0xbeac0695	-0.33598772
10	0xbd2ad5c1	-0.041707758
11	0xbe88be9c	-0.26707923
12	0x3f51eedd	0.820051
13	0xbe3b5c3e	-0.18296906
14	0xbe4a5e3d	-0.19762512
15	0xbd05009a	-0.032471277
16	0x3e5c168e	0.21492979
17	0xbead3c38	-0.33835006
18	0xbe6ebc61	-0.23314048
19	0x3d1aacb0	0.037762344
20	0x3ef93355	0.48671976
21	0xbedc43ec	-0.4302057
22	0xbeb4d8c3	-0.35321626
23	0xbf0fbae5	-0.56144553
24	0x3f5b5b36	0.8568605
25	0x3f55430e	0.8330544
26	0x3f239839	0.6390415
27	0x3f1e41dc	0.61819243
28	0xbe83e6ff	-0.25762174
29	0xbf14bfbf	-0.5810508
30	0x3f03fe10	0.51559544
31	0x3e231802	0.15927127
32	0xbf0971f2	-0.5368949
33	0xbed5dae1	-0.41768554
34	0x3f112456	0.5669607
35	0x3d25de5b	0.040495258
36	0x3eac67b7	0.33672878
37	0xbf22f6cf	-0.6365785
38	0xbf407734	-0.7518189
39	0xbeb49eb7	-0.3527734
40	0x3f24fd17	0.64448684
41	0xbe1d7e57	-0.15380226
42	0xbe9299e0	-0.28633022
43	0x3efa7d9c	0.48923957
44	0x3f0674c7	0.5252194
45	0xbecbf28c	-0.39833486
46	0x3f20af25	0.6276725
47	0xbf0b6225	-0.5444663
48	0x3e9362c4	0.2878629
49	0x3e67c6bd	0.22634406
50	0xbee74d96	-0.4517638
51	0x3e7b2a2b	0.24527805
52	0xbefe5439	-0.49673632
53	0xbe61af26	-0.2203947
54	0x3f2cf709	0.67564446
55	0xbee6dd54	-0.45090735
56	0x3e875aaf	0.26436374
57	0xbf01615c	-0.50539184
58	0x3f11b5af	0.5691785
59	0x3f39ef73	0.72630996
60	0xbf0e861b	-0.5567338
61	0x3e42ccbe	0.19023415
62	0x3ecb7193	0.39735088
63	0xbc26f0e0	-0.010189265

model.2.weight f4 [128, 64]
0	0x3e1579d7	0.1459726
1	0x3da21881	0.0791483
2	0x3caddacf	0.0212225
3	0x3d3ebd65	0.04656734
4	0x3d884f58	0.066557586
5	0x3c9e8dd1	0.019354733
6	0xbd323da9	-0.043515835
7	0x3daf6631	0.08564413
8	0x3e11adbb	0.14226429
9	0xbe9ae966	-0.30256194
10	0xbe4077a8	-0.18795645
11	0xbdd1a0aa	-0.10235722
12	0x3e40a00e	0.18811056
13	0xbe1126a1	-0.14174892
14	0xbd7dae5a	-0.061933853
15	0xbe1bcc0b	-0.15214555
16	0x3e129bdf	0.14317273
17	0xbd7ffd91	-0.06249768
18	0xbdf08045	-0.117432155
19	0xbd904d91	-0.070460446
20	0x3e0bb6b8	0.1364392
21	0xbda19549	-0.07889802
22	0xbeca79f9	-0.39546183
23	0xbe1c7dd2	-0.15282372
24	0x3dd06e0c	0.1017724
25	0x3d9ace34	0.075588614
26	0x3e553799	0.2082199
27	0xbc509cdb	-0.01273271
28	0xbde9688c	-0.11396894
29	0xbd8d08b6	-0.06886427
30	0xbdc72704	-0.097242385
31	0xbd3af03a	-0.045639254
32	0xbe95db75	-0.29268995
33	0x3ce49968	0.027905181
34	0xbde3f923	-0.111315034
35	0x3d2d5423	0.042316567
36	0x3dea19b0	0.11430681
37	0xbdf3f949	-0.11912782
38	0xba15597a	-0.0005697232
39	0xbd9c8cc7	-0.07644039
40	0x3d856636	0.06513636
41	0x3b1f32a8	0.0024291668
42	0xbe05147d	-0.12996097
43	0x3deb3444	0.11484578
44	0x3dc76b17	0.09737223
45	0xbddac12e	-0.10681377
46	0x3e3ddd10	0.1854136
47	0xbe30d9fb	-0.17270653
48	0xbe038f3e	-0.12847611
49	0xbc5eabcd	-0.013590765
50	0xbded8a1e	-0.115986094
51	0xbd9cede1	-0.07662559
52	0xbe535d14	-0.20640975
53	0xbc9dfeb5	-0.019286493
54	0x3d2575a0	0.04039538
55	0xbe8fe74f	-0.28106162
56	0xbc21ad68	-0.009868003
57	0xbc8e8eb4	-0.01740203
58	0xbc713ded	-0.014724237
59	0x3c008807	0.007844931
60	0xbeb4c441	-0.3530598
61	0xbe029fad	-0.12756224
62	0x3bde377d	0.006781517
63	0x3dccfdd5	0.10009352
64	0x3d8bce5a	0.06826468
65	0x3d9b7be4	0.0759199
66	0x3d2b1b9c	0.041774377
67	0xbd9e1c3e	-0.077202305
68	0x3c3b0ac0	0.011416137
69	0xbd695920	-0.05696976
70	0xbc289870	-0.01029025
71	0xbdc46fb6	-0.0959162
72	0xbdf04578	-0.11732
73	0x3d90e78a	0.070754126
74	0xbd9693ea	-0.07352431
75	0x3d656754	0.056006745
76	0xbc825680	-0.015910387
77	0xbd589930	-0.052880466
78	0xbc93dbd8	-0.018049166
79	0x3db9d164	0.09073141
80	0x3c19ed20	0.009394914
81	0xbd1e0200	-0.038576126
82	0xbd0330f8	-0.032029122
83	0x3c0d41f0	0.008621678
84	0xbde3cb52	-0.11122765
85	0xbdef505c	-0.11685249
86	0xbd629050	-0.05531341
87	0x3cc62e40	0.024191976
88	0x3d666488	0.056248218
89	0xbdf8ef5e	-0.12155031
90	0x3de459e0	0.11149955
91	0xbd1be028	-0.03805557
92	0xbdb0fe20	-0.086422205
93	0x3ccfac50	0.02535072
94	0x3d80201e	0.06256126
95	0x3dbbf39e	0.09177326
96	0xbdf4df70	-0.1195668
97	0x3dbae1c2	0.09125091
98	0x3c94e4f8	0.018175587
99	0x3ddc4990	0.107562184
100	0xbdf9d9be	-0.12199734
101	0xbd4558a4	-0.048180237
102	0xbc715210	-0.014729038
103	0x3deef9d8	0.11668748
104	0x3d875978	0.06608862
105	0x3dfb1186	0.12259202
106	0xbd127cac	-0.035763428
107	0xbd1c8e80	-0.038221836
108	0xbd5676f0	-0.05235952
109	0xbc548c30	-0.012972876
110	0xbdb2e6f0	-0.08735454
111	0xbdca1672	-0.09867562
112	0xbdbdbda0	-0.09264684
113	0xbdda0dd0	-0.10647166
114	0x3db455fc	0.08805463
115	0xbca726d0	-0.02040425
116	0x3c743e70	0.014907464
117	0x3df671f0	0.120334506
118	0xbc40dc60	-0.0117712915
119	0xbdb4726e	-0.08810888
120	0xbcce14d0	-0.025156409
121	0x3d935204	0.071933776
122	0xbdb166f4	-0.08662215
123	0x3d9cbd00	0.076532364
124	0x3d7eda00	0.06221962
125	0xbd9b9ba4	-0.075980455
126	0xbd0ca0ec	-0.034333155
127	0x3c8827b0	0.016620487
128	0xbd051603	-0.032491695
129	0x3d1baa77	0.038004365
130	0x3cb5592c	0.022137247
131	0xbd4b625b	-0.049654346
132	0x3d644ec4	0.05573918
133	0x3d4c09ae	0.04981392
134	0xbb535d60	-0.00322517
135	0x3c9ea960	0.019367874
136	0x3ccca970	0.024983138
137	0xbbb16aad	-0.005414328
138	0xbe932864	-0.28741753
139	0x3d880474	0.06641474
140	0x3c617e01	0.013762952
141	0xbe11034c	-0.14161414
142	0xbc1aec39	-0.009455734
143	0x3d39533c	0.045245394
144	0x3d9effe0	0.07763648
145	0xbe0e33b3	-0.13886909
146	0xbc8611d9	-0.016365932
147	0x3cc07a29	0.02349575
148	0x3e65f69c	0.22457355
149	0xbe9aeb9d	-0.30257884
150	0xbe23d110	-0.1599772
151	0x3ccfbf33	0.025359726
152	0x3d81ad48	0.06331879
153	0x3e280ca0	0.16411066
154	0xbba3a431	-0.0049939384
155	0xbdd4c2f9	-0.103887506
156	0xbe16437d	-0.14674182
157	0x3e109b6f	0.14121793
158	0x3dc71b12	0.0972196
159	0x3db8ee34	0.09029809
160	0xbe9a7b6e	-0.30172294
161	0x3d269a88	0.040674716
162	0xbd7bd8bc	-0.06148599
163	0x3d81bdef	0.06335055
164	0x3d512f49	0.051070485
165	0x3c1c70e1	0.009548397
166	0xbde69609	-0.11259086
167	0x3d629d45	0.055325765
168	0xbdad187f	-0.08451938
169	0xbda3ee34	-0.08004418
170	0xbdca7fc4	-0.098876506
171	0x3e50c0d8	0.20386064
172	0xbda27960	-0.07933307
173	0x3d92a2e2	0.07159974
174	0x3e26805e	0.16259906
175	0x3e1aa048	0.15100205
176	0x3d58859b	0.05286179
177	0x3d9acfc2	0.07559158
178	0x3dffab7e	0.124838814
179	0xbdb76534	-0.0895485
180	0xbdd23d2c	-0.10265574
181	0x3e2006cc	0.15627593
182	0x3c3895bc	0.011266168
183	0xbdc5a031	-0.09649695
184	0xbde28afa	-0.11061664
185	0xbd578c17	-0.052623834
186	0xbe153e51	-0.14574553
187	0x3dad6fe3	0.08468606
188	0xbe5ba9d3	-0.21451502
189	0x3d601f2a	0.05471722
190	0x3e4ec633	0.20192795
191	0xbdb44519	-0.08802242
192	0xbd89828c	-0.06714353
193	0xbd243220	-0.040086865
194	0xbdfd44a2	-0.12366606
195	0xbd5edf7c	-0.05441235
196	0x3d2462dc	0.040133342
197	0xbd713a2c	-0.058893368
198	0x3d2c8058	0.042114586
199	0xbd4a63eb	-0.049411695
200	0xbd714ae9	-0.05890933
201	0x3df6a89a	0.12043877
202	0x3d98ed06	0.07467084
203	0xbdc1221a	-0.094303325
204	0xbdb37572	-0.08762635
205	0x3de1b9e2	0.110217825
206	0xbd9bef6c	-0.076140255
207	0x3dddbe30	0.10827291
208	0x3d4670f4	0.048447564
209	0xbdb0bbe6	-0.08629589
210	0xbd8744b6	-0.066049024
211	0xbdcb8eba	-0.09939332
212	0xbdb77b3a	-0.089590505
213	0x3c8ba5ab	0.01704677
214	0xbd395fb4	-0.045257285
215	0x3d2b1856	0.041771255
216	0xbdab69a9	-0.083697625
217	0xbd46f59a	-0.048574068
218	0xbb0ffc58	-0.0021970477
219	0xbc78ef1a	-0.015193725
220	0x3ca1ce28	0.019751623
221	0x3c048cc0	0.008090198
222	0xbd0c42c8	-0.034243375
223	0x3abf68a6	0.0014603331
224	0x3d8a6028	0.067566216
225	0x3defee18	0.11715335
226	0xbdc741e7	-0.09729367
227	0x394624d6	0.00018896474
228	0xba0c0ddb	-0.0005342641
229	0x3dc81930	0.09770429
230	0xbe05a7ef	-0.13052343
231	0xbde55042	-0.111969486
232	0x3d0e5e12	0.03475768
233	0x3bfe5460	0.007761523
234	0x3d81046d	0.06299672
235	0x3c22fca0	0.009947926
236	0x3db334cc	0.087503046
237	0xbc7abad0	-0.015303329
238	0xbdcfa776	-0.101393625
239	0x3c7e16e0	0.0155083835
240	0x3c7f81c2	0.0155949015
241	0xbda83026	-0.082123086
242	0xbc28dda0	-0.010306746
243	0x3ce5a17f	0.028031109
244	0x3cb9a470	0.022661418
245	0x3d38ce60	0.04511869
246	0xbd0d22f8	-0.034457177
247	0xbd675f68	-0.05648747
248	0x3d8bb170	0.06820953
249	0x3d9dd712	0.07707037
250	0x3d32c311	0.04364306
251	0xbd24832c	-0.040164158
252	0xbd59b1c4	-0.053148046
253	0x3d0fac43	0.03507639
254	0xbd3001b1	-0.042970363
255	0xbd9f82d8	-0.07788628

model.2.bias f4 [128]
0	0x3cb846cb	0.022494694
1	0xbda39f2c	-0.07989344
2	0x3e1923cb	0.1495506
3	0xbb978fb8	-0.004625287
4	0x3e635d4f	0.22203563
5	0xbc186965	-0.009302472
6	0xbd8a2a5a	-0.06746359
7	0x3dd9bd31	0.106317885
8	0xbde56571	-0.11200989
9	0xbdbca67e	-0.09211443
10	0xbdedccc7	-0.11611324
11	0x3dcc2d26	0.09969549
12	0xbd6bc786	-0.057563327
13	0x3de67397	0.11252516
14	0xbd2d5088	-0.04231313
15	0x3d9c8d90	0.076441884
16	0xbda325e6	-0.07966213
17	0xbdf333e7	-0.11875134
18	0xbdbb9a20	-0.091602564
19	0xbdc2a84c	-0.09504756
20	0x3e0808ed	0.13284655
21	0x3e2301d1	0.15918662
22	0x3d156328	0.036471516
23	0x3d2fa4a3	0.04288162
24	0xbc244ccd	-0.010028076
25	0x3e01b874	0.1266802
26	0x3e3d6ff5	0.1849974
27	0xbc7df910	-0.015501276
28	0x3c40ea35	0.011774589
29	0x3d2a4ad8	0.041575283
30	0xbd038d07	-0.032116916
31	0x3e21670d	0.15761967
32	0x3d1aba47	0.037775304
33	0x3d8d71f9	0.06906504
34	0x3e714514	0.23561507
35	0xbda2c168	-0.079470456
36	0x3d0317de	0.032005183
37	0x3dc4663d	0.09589813
38	0x3e5e4322	0.21705297
39	0xbd6025d7	-0.054723587
40	0x3e0b73c5	0.13618381
41	0x3d9e584a	0.077316836
42	0x3d3ea8ab	0.046547573
43	0x3c94714c	0.01812043
44	0x3e39f799	0.18160857
45	0x3e3b0421	0.18263294
46	0x3e4d4054	0.2004407
47	0x3d26cc0a	0.04072193
48	0xbddac047	-0.10681205
49	0xbb23725a	-0.0024939985
50	0x3d94c7ea	0.07264693
51	0x3cd4800a	0.02593996
52	0x3d5089d9	0.05091271
53	0x3d677ad4	0.056513622
54	0xbd722da3	-0.059125554
55	0x3e279e58	0.16368997
56	0x3e66255c	0.22475189
57	0x3d6aac88	0.057293445
58	0x3d7768e7	0.060402777
59	0x3e53194e	0.20615122
60	0x3e787441	0.24263097
61	0xbd03b4d6	-0.03215488
62	0x3e410d85	0.18852814
63	0xbccfb44b	-0.025354525
64	0x3e2105d1	0.15724875
65	0x3de8cb55	0.113669075
66	0xbdd23ff6	-0.10266106
67	0x3e1d3dae	0.1535556
68	0x3d9ab227	0.07553511
69	0x3b406de1	0.0029362368
70	0x3e328d09	0.17436613
71	0xbbdbe2b1	-0.0067103733
72	0x3e51c7d7	0.20486389
73	0xbd13a2fd	-0.03604411
74	0xbd28f874	-0.04125257
75	0x3e48c664	0.1960693
76	0x3dfe1486	0.12406258
77	0x3cf67d5a	0.03008907
78	0x3d78f56c	0.060780928
79	0x3e47b32a	0.1950194
80	0x3e2f045c	0.17091507
81	0x3e75eb15	0.24015458
82	0x3e04c836	0.12967
83	0x3b036fc0	0.0020055622
84	0xbbd261fa	-0.006420371
85	0x3dce9f87	0.10089021
86	0x3cf212e8	0.02955003
87	0xbc273370	-0.010205135
88	0xbd4ca8c5	-0.04996564
89	0x3dc9fd15	0.09862725
90	0xbdc1cdb2	-0.094630614
91	0x3e2db987	0.16965304
92	0xbdfe5530	-0.12418592
93	0x3db9010d	0.090334035
94	0x3e2805e5	0.16408499
95	0xbc41dad8	-0.011831962
96	0xbd26b3e1	-0.04069889
97	0x3c821640	0.01587975
98	0x3da9b06e	0.082856044
99	0xbe307f00	-0.17235947
100	0x3e04525d	0.12922044
101	0x3e7255ef	0.23665594
102	0xba1a4cad	-0.00058860594
103	0x3db6cae2	0.089254156
104	0x3e056060	0.13025045
105	0xbd41d920	-0.047326207
106	0x3e20bdff	0.15697478
107	0x3ccb4808	0.02481462
108	0x3dbdcda4	0.092677385
109	0x3c8a8790	0.016910344
110	0x3e2aee30	0.16692424
111	0x3d9f184d	0.07768307
112	0x3de6a564	0.112620145
113	0x3e018f24	0.1265226
114	0x3e2b496f	0.16727231
115	0x3e0a6249	0.13514055
116	0x3dcc51a7	0.099765114
117	0xbcd4de90	-0.025985032
118	0x3d68a398	0.05679664
119	0x3e180922	0.14847234
120	0x3e0b649f	0.13612603
121	0x3dd92229	0.10602219
122	0xbbaf2dee	-0.0053460514
123	0x3d8df86f	0.069321506
124	0xbd8daa04	-0.069171935
125	0xbdc07ec2	-0.09399177
126	0x3ca77c24	0.020444937
127	0x3e47dd6f	0.19518064

model.4.weight f4 [64, 128]
0	0x3ce51981	0.027966263
1	0x3d4022e6	0.04690828
2	0xbd940d54	-0.07229105
3	0xbd560aac	-0.05225627
4	0x3d9f034b	0.077643
5	0xbcdc4cfd	-0.02689218
6	0xbc69d078	-0.014270894
7	0xbc686338	-0.014183812
8	0xbd23f401	-0.040027622
9	0xbdb65e84	-0.08904746
10	0xbccf5d8c	-0.025313161
11	0xbdff4ead	-0.12466178
12	0xbdbb2791	-0.09138406
13	0x3da096ea	0.078412846
14	0xbda299bc	-0.07939479
15	0xbd1f76c0	-0.03893161
16	0x3ce236b4	0.027613975
17	0x3bc0ad14	0.0058800075
18	0xbd9506f5	-0.072767176
19	0xbe632e1d	-0.2218556
20	0x3a690452	0.00088888884
21	0xbcc5509d	-0.024086291
22	0x3d912039	0.07086224
23	0x3de34ddb	0.11098834
24	0x3d97757b	0.073954545
25	0xbb019772	-0.0019774106
26	0x3e4e5bd6	0.2015222
27	0x3cef65bc	0.029223315
28	0xbda3651a	-0.07978268
29	0x3cff4ddb	0.031165054
30	0xbe3398cf	-0.1753876
31	0x3dc635d8	0.09678239
32	0x3d56b669	0.052420054
33	0xbe3b8162	-0.18311074
34	0x3e13dcd5	0.1443971
35	0x3d380d4e	0.044934563
36	0xbd77d669	-0.06050721
37	0x3d901672	0.07035531
38	0x3e354d6e	0.17705318
39	0x3d935b7c	0.07195184
40	0xbbc1ed5c	-0.005918188
41	0xbd776c60	-0.06040609
42	0xbc659482	-0.014012458
43	0xbe25ef07	-0.16204463
44	0xbd3d19c7	-0.04616716
45	0x3dba464f	0.090954416
46	0xbc55defb	-0.013053651
47	0xbd705d4c	-0.058682725
48	0xbd569b09	-0.052393947
49	0x3db012af	0.085973136
50	0x3d4fa588	0.050694972
51	0x3b8e7342	0.004347236
52	0x3e11fd44	0.1425677
53	0x3c15ca8c	0.009142529
54	0x3ccb8923	0.024845665
55	0xbc8a1b86	-0.016858827
56	0x3ced382c	0.028957449
57	0x3e0f4272	0.1399019
58	0xbe3087af	-0.17239259
59	0x3e2f04f4	0.17091733
60	0x3d877f64	0.06616095
61	0xbd89f89e	-0.06736873
62	0x3cf2627b	0.029587975
63	0xbe425852	-0.18979004
64	0x3daaf1dd	0.08346913
65	0x3d31d609	0.04341701
66	0xbdb01682	-0.08598043
67	0xbcdd5907	-0.02701999
68	0xbe13fb13	-0.14451246
69	0x3c9d0a79	0.019170033
70	0x3e9fee14	0.31236327
71	0xbe2c76b3	-0.16842155
72	0x3e01d4c6	0.12678823
73	0xbd9c55a7	-0.076335244
74	0xbbdf04f0	-0.0068060085
75	0xbce3b5ea	-0.027796704
76	0xbddbda37	-0.107349806
77	0x3cd5687c	0.026050799
78	0xbcd2ab78	-0.025716528
79	0x3dc25ec4	0.09490731
80	0x3e44a0ff	0.1920204
81	0x3e0f3727	0.13985883
82	0xbdb2e4c4	-0.0873504
83	0xbdb4d2df	-0.08829283
84	0xbd9c78cd	-0.076402284
85	0x3dfd4e9c	0.12368509
86	0x3c88c1a8	0.016693905
87	0xbc8c2ba4	-0.017110653
88	0x3d5e1095	0.054215033
89	0x3d428bd6	0.04749664
90	0x3d8ba895	0.06819264
91	0x3c9ef72d	0.019404972
92	0xbc15dd68	-0.009147026
93	0x3dbaf64a	0.09129007
94	0x3ca2cb62	0.019872371
95	0xbe17b608	-0.14815533
96	0xbd11317e	-0.03544759
97	0xbd80016c	-0.06250271
98	0xbd183115	-0.037156183
99	0xbe09160e	-0.1338732
100	0xbe45a4de	-0.19301173
101	0xbcbca406	-0.023027431
102	0xbdae468f	-0.08509552
103	0xbde1fd26	-0.11034612
104	0x3d89026f	0.06689917
105	0x3dcefa9c	0.10106394
106	0x3dbeeab3	0.09322109
107	0xbd7da921	-0.061928872
108	0x3df0d8a6	0.117600724
109	0x3d4c56ea	0.049887575
110	0x3d07b188	0.03312829
111	0x3d7c6410	0.061618865
112	0xbe1a79b5	-0.1508549
113	0x3d000b49	0.031260762
114	0x3e11f67f	0.14254187
115	0x3cebf84a	0.028804917
116	0x3e2facc1	0.17155744
117	0x3d926bb3	0.07149448
118	0x3e682308	0.22669613
119	0x3e455202	0.19269565
120	0x3d6c9e83	0.057768356
121	0xbe5d9424	-0.21638542
122	0xbde45dbf	-0.11150693
123	0xbd8998cd	-0.067185976
124	0x3d92878b	0.07154759
125	0xbd643621	-0.055715684
126	0x3d128ef6	0.03578087
127	0x3dd8aaf4	0.10579482
128	0x3d5557de	0.05208575
129	0xbd8cd818	-0.06877154
130	0xbd8dccc6	-0.06923823
131	0x3d8f199b	0.06987306
132	0x3da6365d	0.08115838
133	0xba20d51a	-0.000613527
134	0xbb1fbcf2	-0.0024374095
135	0x3d16e2bd	0.03683733
136	0x3c5145a0	0.012772948
137	0xbd6d6cdc	-0.057965145
138	0x3bbc89ac	0.0057537165
139	0xbe15fcf2	-0.14647272
140	0xbdc79d4b	-0.09746798
141	0x3da6cf0a	0.08144958
142	0x3a2c4f80	0.0006573126
143	0xbd8b150a	-0.06791122
144	0x3d956c17	0.07296007
145	0x3d97fef7	0.074216776
146	0xbe90649f	-0.28201768
147	0xbb22e074	-0.0024853023
148	0x3d40805b	0.04699741
149	0x3e30b046	0.17254743
150	0xbe802864	-0.25030816
151	0x3d886e07	0.06661611
152	0xbe8a499d	-0.27009287
153	0x3cbcf91c	0.023068003
154	0x3e02c466	0.12770233
155	0x3d9ab2d9	0.07553644
156	0x3dc3fef0	0.0957011
157	0xbd8bc050	-0.0682379
158	0x3d4b2cd4	0.0496033
159	0xbb9f7512	-0.004866251
160	0xbd140620	-0.036138654
161	0xbd29a95a	-0.04142127
162	0x3dcec642	0.100964084
163	0x3daffdb7	0.08593314
164	0xbd9bebe0	-0.07613349
165	0x3c11ab48	0.008890934
166	0x3d9dccd8	0.077050865
167	0xbddd53fc	-0.108070344
168	0xbcd0acb4	-0.025472976
169	0x3dd3d9db	0.10344287
170	0x3cd036c6	0.025416743
171	0x3d7b33ea	0.061328806
172	0x3db6dc67	0.08928757
173	0xbd82c4e8	-0.06385213
174	0x3dbc2546	0.09186797
175	0xbd07e34c	-0.03317575
176	0xbe35e8aa	-0.17764536
177	0x3dbd9c25	0.09258298
178	0x3de0ce5b	0.10976859
179	0x3dc28d9a	0.094996646
180	0xbc83217e	-0.016007181
181	0xbccee075	-0.025253514
182	0xbe437749	-0.19088472
183	0x3ccc25c3	0.02492035
184	0x3d972feb	0.073821865
185	0x3cca17af	0.024669496
186	0xbd877e2d	-0.06615863
187	0xbde1c01b	-0.11022969
188	0x3de10569	0.1098736
189	0x3de99511	0.11405385
190	0x3cddc638	0.027072057
191	0x3d8b8451	0.06812347
192	0x3d2f9262	0.04286421
193	0x3c8a45e4	0.01687903
194	0x3d992a9b	0.074788295
195	0x3e0c3b52	0.13694504
196	0xbca95337	-0.020669563
197	0x3c893427	0.016748501
198	0x3e5c4da1	0.21513988
199	0xbd3af28d	-0.04564147
200	0x3cecda83	0.028912788
201	0xbd506fd7	-0.05088791
202	0xbdb1b89f	-0.08677792
203	0x3d83a3e4	0.06427744
204	0x3d77f878	0.060539693
205	0xbdf5d513	-0.12003531
206	0x3d254c8a	0.040356196
207	0xbda9b0fc	-0.0828571
208	0xbd807d11	-0.062738545
209	0x3e234965	0.15945967
210	0xbc32b0c8	-0.010906406
211	0xbde2637f	-0.110541336
212	0xbe155138	-0.14581764
213	0x3dd76bd9	0.10518617
214	0x3dc22e94	0.0948154
215	0x3da471b3	0.08029499
216	0xbd82a95d	-0.0637996
217	0x3d94697a	0.072466806
218	0xbda7e3e5	-0.08197764
219	0xbd83404c	-0.06408748
220	0x3d9c715d	0.0763881
221	0xbd94bc7c	-0.07262513
222	0xbccc70cf	-0.024956135
223	0x3b21bdd8	0.0024679806
224	0x3d2fba46	0.042902254
225	0xbd5d6247	-0.054048803
226	0x3dec07fb	0.1152496
227	0x3beed1d8	0.007288199
228	0x3daba34b	0.08380755
229	0x3d9a62fb	0.0753841
230	0xbd1f4f5d	-0.038894046
231	0x3ba41162	0.005006955
232	0x3dfcd0bd	0.12344501
233	0xbdbc75f1	-0.09202183
234	0x3d972da4	0.07381752
235	0xbd415133	-0.04719658
236	0x3e35fd33	0.17772369
237	0x3db502e7	0.08838444
238	0x3deed4a8	0.11661655
239	0x3da2103c	0.07913253
240	0xbdfc0d9f	-0.123072855
241	0xbda293f8	-0.07938379
242	0xba17982d	-0.0005782869
243	0x3dd87cd5	0.10570685
244	0x3bfdba52	0.0077431584
245	0x3c46d1b0	0.012134954
246	0x3de070ea	0.10959037
247	0x3e041ddb	0.12902014
248	0x3df4aca9	0.11946995
249	0x3a9f434a	0.0012150791
250	0x3d714967	0.058907893
251	0xbd84c006	-0.06481938
252	0xbdc19139	-0.09451527
253	0x3dce96b2	0.100873366
254	0x3d9504d1	0.07276309
255	0x3d0bf5c3	0.034169924

model.4.bias f4 [64]
0	0x3e0f98a5	0.14023073
1	0x3dc2c3a4	0.09509972
2	0xbc1a537c	-0.009419318
3	0x3d0d7136	0.034531794
4	0x3d3d6502	0.046238907
5	0xbd157db5	-0.036496837
6	0xbdf047d3	-0.117324494
7	0x3de9df26	0.11419515
8	0x3e2c5813	0.16830473
9	0x3e011bbf	0.1260824
10	0x3d4b8dcc	0.049695775
11	0xbbaa9fc7	-0.005207035
12	0x3d59b18d	0.05314784
13	0x3e5da66d	0.21645518
14	0xbda60768	-0.081068814
15	0x3d2e6f71	0.042586748
16	0xbc70f673	-0.014707196
17	0xbccecfc6	-0.025245558
18	0xbd17ba9b	-0.037043195
19	0x3db1780c	0.08665475
20	0xbddff2f1	-0.10935009
21	0x3dc6d1eb	0.097080074
22	0x3c302851	0.0107518
23	0x3e5b4ed2	0.21416786
24	0x3cfcadc1	0.030844571
25	0x3d075d5e	0.033048026
26	0x3d9aa063	0.075501226
27	0x3d67582c	0.05648057
28	0x3e041281	0.12897684
29	0x3c1decad	0.009638947
30	0x3c1cd57b	0.009572382
31	0x3cf34ef1	0.029700728
32	0x3d91d241	0.07120181
33	0x3cd0147c	0.025400393
34	0xbd8dd721	-0.06925798
35	0x3dabec9a	0.083947375
36	0x3e438c91	0.1909659
37	0xbe0e3b0e	-0.13889715
38	0x3dc56d5b	0.096399985
39	0x3e81b4ef	0.25333354
40	0x3c49d4f2	0.0123188365
41	0xbdb0e663	-0.08637693
42	0xbd8fff32	-0.070310965
43	0xbd52ea4e	-0.05149298
44	0x3d440022	0.04785169
45	0xbd569f5d	-0.052398074
46	0x3c7d3d36	0.015456488
47	0xbd13acbf	-0.036053415
48	0xbe23404a	-0.15942493
49	0x3d004daa	0.031324066
50	0x3e21d193	0.15802602
51	0xbd91ac15	-0.071129
52	0x3cbd66da	0.023120333
53	0x3e20ad2b	0.15691058
54	0x3dcc4bf0	0.099754214
55	0x3d124c2a	0.035717167
56	0x3e027de9	0.12743343
57	0x3d25a079	0.04043624
58	0x3d162b99	0.03666267
59	0x3d9ec4da	0.0775239
60	0xbdc3c7f7	-0.09559625
61	0x3dad4ae5	0.084615506
62	0xbc4c7440	-0.012478888
63	0x3d88c013	0.0667726

model.6.weight f4 [32, 64]
0	0x3deccda3	0.115626596
1	0x3c05ad8c	0.008159053
2	0x3bf771e3	0.007551418
3	0x3dfd089d	0.123551585
4	0xbe57bd56	-0.2106832
5	0x3da09533	0.078409575
6	0xbe5c89f6	-0.21537003
7	0x3e57cbc0	0.21073818
8	0x3e309241	0.17243291
9	0x3d46b62c	0.048513576
10	0xbd711348	-0.05885628
11	0xbe414721	-0.1887479
12	0xbd27c998	-0.04096374
13	0x3e21360b	0.15743272
14	0x3dc8a3cd	0.097968675
15	0x3e29c9f0	0.1658094
16	0xbdb7a8e3	-0.089677595
17	0xbd56f3d7	-0.052478638
18	0x3dc11c29	0.09429199
19	0x3dc58722	0.09644915
20	0x3d07d409	0.033161197
21	0xbbec46c8	-0.007210586
22	0xbe457151	-0.19281508
23	0x3e8d4e73	0.27598915
24	0x3c421f52	0.011848288
25	0xbd9edfc9	-0.077575274
26	0x3da88505	0.082284965
27	0xbdd0b081	-0.101899154
28	0xbd156ad0	-0.036478817
29	0xbd9a58b0	-0.07536447
30	0xbd7b527b	-0.061357956
31	0x3d9105a2	0.070811525
32	0x3e100b3e	0.14066789
33	0x3dc65992	0.09685053
34	0xbc94c6df	-0.018161235
35	0xbdba39ae	-0.09093033
36	0x3c13a72b	0.009012024
37	0x3c8aeb16	0.0169578
38	0x3e18527f	0.1487522
39	0x3e13ed16	0.1444591
40	0xbc2cfb8f	-0.010558023
41	0x3dec0faf	0.11526429
42	0xbe2ec69f	-0.17067955
43	0x3db9c949	0.09071595
44	0x3d973be1	0.07384468
45	0xbdd83f91	-0.10558999
46	0x3e08e3f4	0.13368207
47	0x3cd2c47c	0.025728457
48	0xbe0ec19d	-0.13941045
49	0xbdb6aa69	-0.08919222
50	0x3ccb9b37	0.024854286
51	0xbdc2e58d	-0.095164396
52	0xbb3555f2	-0.0027669636
53	0x3dbaf678	0.091290414
54	0x3e276c6b	0.16349952
55	0xbd1b0137	-0.037842955
56	0x3de3f804	0.111312896
57	0x3e2d15c6	0.16902837
58	0xbc08235f	-0.008309214
59	0xbd9311ee	-0.07181154
60	0xbd00c270	-0.03143543
61	0x3dc3699c	0.09541628
62	0x3e1e1d47	0.15440856
63	0xbcf1fead	-0.029540384
64	0xbde037b2	-0.10948123
65	0x3d53415b	0.051576
66	0xbca4294a	-0.02003922
67	0x3e1c2f4d	0.15252419
68	0xbddb7244	-0.10715154
69	0x3db7046b	0.089363895
70	0x3e5e33b2	0.21699408
71	0x3c07469e	0.008256583
72	0xbe1d1364	-0.15339428
73	0x3d6f304d	0.058395673
74	0x3dbb633a	0.09149785
75	0x3e5a7ce7	0.21336709
76	0x3e35985d	0.17733903
77	0x3dda22f9	0.10651202
78	0xbe276c38	-0.16349876
79	0xbe01d996	-0.12680659
80	0xbe4cb779	-0.19991864
81	0xbe8158f0	-0.25263166
82	0xbdd5bf82	-0.10436918
83	0x3d9e6f04	0.07736018
84	0xbdbd69a3	-0.09248664
85	0xbd24c946	-0.04023101
86	0x3ddd761e	0.10813545
87	0xbda09fdb	-0.0784299
88	0xbd2341ef	-0.0398578
89	0x3e1bbe2b	0.15209262
90	0x3d7e4132	0.062073894
91	0xbe170c57	-0.14750801
92	0x3e05f94c	0.1308338
93	0xbdd879a0	-0.10570073
94	0x3e3a88c0	0.18216228
95	0xbe0ccec1	-0.13750745
96	0x3e40bc57	0.18821846
97	0xb9904ea8	-0.00027524424
98	0x3dfd315c	0.1236293
99	0x3c68eb5c	0.01421627
100	0x3bf88ca8	0.007585127
101	0x3d0918a0	0.03347075
102	0x3e02ae84	0.12761885
103	0xbde8ab38	-0.113607824
104	0x3ca94670	0.02066347
105	0x3c72de0c	0.014823448
106	0x3e2e4390	0.1701796
107	0x3da6deb6	0.081479475
108	0x3dd06a54	0.101765305
109	0xbb8cb5e2	-0.004294143
110	0xbd76f6ad	-0.060293842
111	0x3ce35129	0.027748661
112	0xbd7b57c4	-0.061362997
113	0x3dac701d	0.084198214
114	0x3be84e6e	0.0070894277
115	0x3e65f568	0.22456896
116	0x3dbc9cf0	0.09209621
117	0x3d3c5e4d	0.04598837
118	0xbe1e40e4	-0.15454441
119	0x3e1493c9	0.145095
120	0x3ded83dd	0.115974165
121	0x3cf32610	0.029681236
122	0x3df1fa41	0.1181531
123	0x3d251610	0.040304244
124	0x3bfe4fcd	0.007760978
125	0x3cd86ffc	0.026420586
126	0xbd1b1b0c	-0.03786759
127	0xbdd4b0e1	-0.103852995
128	0xbca7bd88	-0.020476118
129	0xbdaa0fd6	-0.08303802
130	0x3dcd7eae	0.10033928
131	0x3d2684cc	0.04065399
132	0x3ddfc4f6	0.10926239
133	0x3d6ae3f0	0.057346284
134	0x3d105014	0.03523262
135	0x3d9e7db4	0.0773882
136	0x3d336c80	0.043804646
137	0x3da070f8	0.07834047
138	0x3d93bb30	0.072134376
139	0xbccd5418	-0.025064513
140	0xbd5a1220	-0.05323994
141	0xbce4c0a8	-0.027923897
142	0xbcee2208	-0.029068962
143	0xbcf699a0	-0.030102551
144	0xbc3c0980	-0.011476874
145	0xbdbadcba	-0.091241315
146	0xbd8ec426	-0.06971006
147	0x3d394da0	0.045240045
148	0xbd7d8b24	-0.061900273
149	0xbd887272	-0.06662454
150	0xbdf44c34	-0.11928597
151	0x3d27e704	0.040991798
152	0x3d71bec4	0.05901982
153	0xbdfc3066	-0.12313919
154	0x3d5d6300	0.054049492
155	0xbcc98498	-0.024599358
156	0xbbdd42a0	-0.006752327
157	0xbcf7b1c8	-0.03023614
158	0x3d8931ca	0.0669895
159	0x3cd19a00	0.025586128
160	0xbd6f4824	-0.058418408
161	0x3ce856c0	0.028361678
162	0xbc256040	-0.010093749
163	0xbcdc3658	-0.026881382
164	0xbdc13ac0	-0.09435034
165	0x3d04d7f4	0.03243251
166	0xbde96d6a	-0.11397822
167	0x3dd8dce8	0.105890095
168	0xbdd019ea	-0.10161193
169	0xbdf5dc0c	-0.12004861
170	0x3d7e6b44	0.062114015
171	0x3db57588	0.08860308
172	0xbdb7d66a	-0.08976443
173	0x3c5b3d70	0.013381347
174	0xbd3d5914	-0.04622753
175	0x3d6e810c	0.058228537
176	0xbdc95b5a	-0.09831877
177	0xbc6f52e0	-0.014607161
178	0xbdd6a788	-0.10481173
179	0xbdf1a908	-0.11799818
180	0xbd54a364	-0.051913634
181	0x3b0b9a40	0.0021301657
182	0xbc8dee60	-0.01732558
183	0x3d46de84	0.04855205
184	0x3cb62a68	0.022237018
185	0x3dd9119c	0.10599062
186	0x3d8550de	0.06509565
187	0xbdecceca	-0.115628794
188	0x3cbdedb8	0.023184642
189	0x3c160130	0.009155557
190	0xbdc49bf4	-0.09600058
191	0xbda6ac22	-0.081383005
192	0x3ccf63dc	0.025316171
193	0x3d99c837	0.07508891
194	0x3b843f40	0.0040358603
195	0xbd9fb248	-0.07797676
196	0xbea312c4	-0.31850255
197	0xbc695347	-0.014241046
198	0x3c718a6d	0.014742476
199	0xbd062d3d	-0.032757986
200	0x3e3f76f2	0.18697718
201	0x3d9112c7	0.070836596
202	0xbd161134	-0.0366375
203	0xbe3333d4	-0.1750024
204	0xbcad45ad	-0.021151388
205	0x3d248cec	0.040173456
206	0xbcfb6e76	-0.03069232
207	0x3dc04097	0.093873195
208	0x3d8c93a9	0.068641014
209	0xbdb15049	-0.08657891
210	0xbbe1e3b8	-0.0068936013
211	0x3de6c568	0.11268121
212	0xbd605bcd	-0.054775048
213	0x3ddac4bf	0.106820576
214	0xbd20a7d2	-0.039222546
215	0x3e738239	0.23780145
216	0x3e294320	0.16529512
217	0xbd30043a	-0.04297278
218	0x3dae2e9d	0.085049845
219	0xbe036176	-0.12830147
220	0x3d870348	0.06592423
221	0xbd880926	-0.0664237
222	0xbd258162	-0.040406592
223	0xbda4e724	-0.08051899
224	0x3e08e92b	0.13370197
225	0x3e037fc9	0.12841715
226	0x3d8beb18	0.0683195
227	0xbe32461b	-0.17409556
228	0x3d15e33a	0.036593653
229	0x3d372fb7	0.04472324
230	0x3e2e50dc	0.17023033
231	0x3e4307da	0.19045964
232	0xbe57109e	-0.21002433
233	0xbc8ea360	-0.017411888
234	0xbcb4bd97	-0.02206306
235	0xbdb8c381	-0.090216644
236	0xbdc60855	-0.09669558
237	0xbde66904	-0.11250499
238	0x3ba8c2d5	0.005150179
239	0xbd1a3a37	-0.037653174
240	0xbe96c9d7	-0.29450867
241	0x3ca67ec4	0.020324118
242	0xbcf7d387	-0.030252231
243	0x3cb3b192	0.021935258
244	0xbd182215	-0.03714188
245	0x3dace943	0.08442929
246	0xbcb1c171	-0.021698685
247	0xbd970e65	-0.073757924
248	0x3ddcd43d	0.10782669
249	0x3e004e98	0.12529981
250	0x3cdb3040	0.026756406
251	0xbdd2c6c2	-0.10291816
252	0x3d9141a0	0.07092595
253	0xbd77a045	-0.06045558
254	0x3e09a0b9	0.13440217
255	0x3d1df76a	0.03856603

model.6.bias f4 [32]
0	0x3e41f47f	0.18940924
1	0x3d65b503	0.05608083
2	0xbddb4fe4	-0.10708597
3	0xbcbb9833	-0.022899723
4	0x3e0fcd4c	0.14043158
5	0x3e143a79	0.1447543
6	0xbdfc66ee	-0.1232432
7	0x3d6d5dc5	0.057950754
8	0xbe0961e0	-0.13416243
9	0x3e43643e	0.19081208
10	0xbddff43e	-0.109352574
11	0x3d0c60d5	0.034272034
12	0x3dd986ae	0.10621391
13	0xbdc989f9	-0.09840769
14	0x3b269f40	0.002542451
15	0xbe0abe51	-0.13549162
16	0xbd481784	-0.04885055
17	0xbdb0e5ad	-0.08637557
18	0xbcb7f6ba	-0.022456516
19	0xbc9d4ce0	-0.019201696
20	0x3e602d0f	0.21892188
21	0x3d2adab3	0.041712474
22	0x3d8ed74e	0.0697466
23	0x3df1c790	0.11805642
24	0xbe149b5a	-0.14512387
25	0x3de724cc	0.11286315
26	0x3da5cd9c	0.080958575
27	0x3db8d201	0.0902443
28	0x3e11103f	0.14166354
29	0x3e011a0d	0.12607594
30	0xbdf7cfd3	-0.12100186
31	0x3d44bdfd	0.04803275

model.8.weight f4 [10, 32]
0	0x3e0d1f02	0.1378136
1	0xbebd3e88	-0.3696177
2	0xbe2078c2	-0.15671065
3	0x3e3b835d	0.1831183
4	0xbc221de9	-0.009894826
5	0xbe544e18	-0.20732915
6	0x3dba312a	0.090914086
7	0xbec6860c	-0.38774145
8	0xbc578efd	-0.01315665
9	0xbdd762c8	-0.10516888
10	0x3d97e050	0.07415831
11	0xbd4c4a00	-0.04987526
12	0x3e664f23	0.22491126
13	0x3c497bd0	0.012297586
14	0x3dff8c5e	0.12477945
15	0xbe8716eb	-0.26384673
16	0xbce7a230	-0.02827558
17	0x3e1266f8	0.14297092
18	0xbce249eb	-0.027623137
19	0xbe306118	-0.17224538
20	0x3d9ad78e	0.07560645
21	0xbac391a8	-0.0014920728
22	0x3e4422a6	0.19153842
23	0xbea78e69	-0.32725838
24	0x3dc853fd	0.097816445
25	0xbe491de4	-0.19640309
26	0x3cdc5788	0.026897207
27	0x3e477cfb	0.1948127
28	0xbe12b46d	-0.1432664
29	0xbca13b29	-0.01968153
30	0x3bc99444	0.006151708
31	0xbe48ced9	-0.19610156
32	0xbe299ec9	-0.16564478
33	0x3e38691b	0.18008845
34	0x3d947f98	0.07250899
35	0xbec925cd	-0.39286652
36	0xbcce0923	-0.025150841
37	0xbe1fc50c	-0.15602511
38	0x3dedeedb	0.11617824
39	0x3dde481c	0.108535975
40	0xbdad9d06	-0.084772155
41	0xbbc48982	-0.0059978375
42	0xbe3b6a1f	-0.183022
43	0xbc8de5ce	-0.017321493
44	0x3da911ba	0.08255334
45	0x3e0d3f61	0.13793708
46	0xbd688ef2	-0.05677695
47	0xbec3df3b	-0.3825625
48	0xbd59a2d2	-0.053133793
49	0xbc60f5ce	-0.013730479
50	0x3e13c738	0.14431465
51	0xbdada62e	-0.08478962
52	0x3df9adab	0.12191328
53	0xbe8e1122	-0.27747446
54	0xbe7da54f	-0.24770091
55	0x3e66a3ad	0.22523375
56	0x3e274b7f	0.16337393
57	0x3e2fec05	0.17179878
58	0xbe191409	-0.14949049
59	0x3e493b26	0.1965147
60	0x3d96c8b1	0.073624976
61	0xbef4fe12	-0.4785009
62	0xbf44b49d	-0.76838094
63	0x3d9e9cdd	0.07744763
64	0x3d9de3b6	0.07709448
65	0xbd94fa2c	-0.07274279
66	0x3d89f862	0.067368284
67	0x3d9b6bb1	0.075889
68	0xbe324b19	-0.1741146
69	0x3dd4d319	0.10391826
70	0x3c532993	0.01288833
71	0x3c85b022	0.016319338
72	0x3e18da75	0.14927085
73	0x3e2e2fdb	0.17010443
74	0xbe872eef	-0.26402995
75	0xbd118ff6	-0.035537682
76	0x3e3ead10	0.18620706
77	0xbe2520d5	-0.16125806
78	0x3d8884a2	0.06665923
79	0xbd0acd84	-0.0338874
80	0xbeb8a3d8	-0.36062503
81	0xbcb50993	-0.022099292
82	0xbea365c0	-0.31913567
83	0xbe1bd79d	-0.15218969
84	0x3d9bb2f6	0.076024935
85	0xbe87cc31	-0.26522973
86	0xbed77b5b	-0.420863
87	0x3e5b80b1	0.2143581
88	0xbe03dd06	-0.12877283
89	0xbdc20c4c	-0.09475002
90	0xbea5df91	-0.3239713
91	0x3e110f3a	0.14165965
92	0xbdeb546d	-0.11490712
93	0xbe94efa3	-0.29089078
94	0x3bc378cf	0.0059653292
95	0xbe901342	-0.28139693
96	0xbe5fd181	-0.21857263
97	0x3e353e68	0.17699587
98	0xbd89aabb	-0.067220174
99	0xbdecc0a7	-0.11560183
100	0xbec46f20	-0.38366032
101	0xbe6b2cb7	-0.22966276
102	0xbc0bb451	-0.0085268775
103	0xbe88676d	-0.26641408
104	0x3e0b6e3f	0.13616274
105	0x3e6bfcb2	0.23045614
106	0xbd8f621b	-0.07001134
107	0xbdb95c4c	-0.09050807
108	0x3d120900	0.035653114
109	0xbd1368c9	-0.035988603
110	0xbe056a8a	-0.13028923
111	0x3e2cff2e	0.16894218
112	0xbe0b3131	-0.13592984
113	0xbd81082d	-0.063003875
114	0xbd60e0a6	-0.05490174
115	0xbecd06eb	-0.4004434
116	0xbdda032b	-0.106451355
117	0xbe357fac	-0.17724484
118	0xbe32f68c	-0.17476863
119	0x3e0b4bb4	0.13603097
120	0x3e3040a7	0.17212163
121	0xbc206063	-0.009788605
122	0x39aba692	0.00032739766
123	0x3e38f4d4	0.18062145
124	0xbead38fa	-0.33832532
125	0xbd102a74	-0.035196736
126	0x3d4bf66d	0.049795557
127	0xbe997d75	-0.2997853
128	0x3e1ecf75	0.15508826
129	0xbece7226	-0.40321463
130	0x3cf6e778	0.03013967
131	0xbe3b51cb	-0.1829292
132	0x3de32c70	0.1109246
133	0xbc822150	-0.015885025
134	0xbd992c88	-0.07479197
135	0x3d735d8d	0.05941539
136	0x3e158dcf	0.14604877
137	0x3dc94f96	0.09829633
138	0xbe316304	-0.17322928
139	0xbe8ead67	-0.2786667
140	0xbdd4aa76	-0.10384075
141	0xbdcbd322	-0.0995238
142	0x3d586b04	0.052836433
143	0xbc6bd6f7	-0.014394513
144	0x3e51989d	0.20468374
145	0x3d15fd6a	0.036618628
146	0xbe98171e	-0.29705137
147	0x3d0bb151	0.03410465
148	0xbe316234	-0.17322618
149	0xbcc26ce9	-0.023733573
150	0xbcddd55a	-0.027079273
151	0xbead56cf	-0.33855292
152	0xbb6276fe	-0.0034555788
153	0xbf10a5c4	-0.5650294
154	0x3e0e232f	0.13880609
155	0xbf487376	-0.7830118
156	0x3d1072f2	0.03526587
157	0x3e5e6c7c	0.21721071
158	0x3cc5f3d1	0.024164112
159	0x3e38dca7	0.18052922
160	0xbdfe5d12	-0.124200955
161	0xbdf33971	-0.118761905
162	0xbd12fc18	-0.035884947
163	0xbca3696c	-0.01994773
164	0x3e1d7335	0.15375979
165	0xbd918657	-0.071057014
166	0xbe183198	-0.14862669
167	0x3e453db1	0.19261815
168	0x3d69448b	0.056950133
169	0xbe681294	-0.22663337
170	0xbe2ff453	-0.17183046
171	0xbed8bf66	-0.42333525
172	0xbe6abfea	-0.22924772
173	0xbc86cf38	-0.016456231
174	0xbe2ec18c	-0.1706602
175	0x3e2b1297	0.1670631
176	0xbd53ef63	-0.05174197
177	0xbdba9a1d	-0.09111426
178	0x3ddce49c	0.10785791
179	0x3e177503	0.1479073
180	0xbe6b6677	-0.22988306
181	0x3d77c3db	0.060489517
182	0x3db2c0bc	0.087281674
183	0xbeb3e516	-0.35135716
184	0xbb396bf7	-0.0028293112
185	0xbda76e7c	-0.0817537
186	0x3d136c01	0.035991672
187	0xbe8f2ec1	-0.27965358
188	0xbe636f14	-0.22210342
189	0xbdb06347	-0.08612686
190	0x3e5d7576	0.21626839
191	0x3e5ff916	0.21872362
192	0xbe731621	-0.2373891
193	0x3d97c9dd	0.07411549
194	0x3e24857d	0.16066547
195	0xbea54baa	-0.3228429
196	0xbec5afcc	-0.38610685
197	0x3e2f4897	0.17117535
198	0x3e1fd64d	0.15609093
199	0x3e244d3e	0.1604509
200	0xbe195c5f	-0.14976643
201	0xbe5dc571	-0.21657349
202	0x3db82179	0.089907594
203	0x3b788bb2	0.0037925062
204	0xbd9b485e	-0.07582162
205	0x3de72c7e	0.11287783
206	0x3e098ce3	0.1343265
207	0xbdcc8743	-0.099867366
208	0xbe0270d5	-0.12738355
209	0xbe092246	-0.1339198
210	0x3e1dbabd	0.15403266
211	0xbc0b3ff0	-0.008499131
212	0x3c32ceb1	0.010913537
213	0xbe0bee3e	-0.13665101
214	0xbd2efea3	-0.04272331
215	0x3c71ed6d	0.014766079
216	0x3e21de34	0.1580742
217	0xbabe3f39	-0.0014514691
218	0x3d6b68f5	0.05747314
219	0x3dd6f3d9	0.10495729
220	0x3e596af6	0.21232209
221	0xbe3208bc	-0.17386144
222	0xbf9ec475	-1.2403704
223	0x3de49dcc	0.1116291
224	0xbb0fcd42	-0.0021942412
225	0xbdb02c33	-0.0860218
226	0x3e261c07	0.16221629
227	0xbdb7255e	-0.08942674
228	0xbe58de79	-0.21178617
229	0xbec7d469	-0.39029244
230	0xbe3eb60c	-0.18624133
231	0xbe82672f	-0.25469348
232	0x3db81c54	0.08989778
233	0xbe87f3af	-0.26553103
234	0xbe7df555	-0.24800618
235	0x3e4ee30d	0.202038
236	0x3e2fbbe7	0.17161523
237	0xbd9e3930	-0.077257514
238	0x3d05a484	0.032627597
239	0xbd22f511	-0.039784495
240	0xbbe8b6ab	-0.007101854
241	0xbd0b1cfe	-0.033963196
242	0x3d5e4272	0.054262586
243	0xbbad84ae	-0.0052953577
244	0xbe9021af	-0.281507
245	0x3d8f2168	0.069887936
246	0x3ddc9f07	0.107725196
247	0x39a08b45	0.00030621342
248	0x3de30f07	0.110868506
249	0x3da77f7f	0.08178615
250	0x3e107706	0.14107904
251	0x3cdff388	0.027337804
252	0x3d468336	0.048464976
253	0x3e27b3f2	0.16377237
254	0xbe77a553	-0.2418416
255	0xbdae65c9	-0.08515508

model.8.bias f4 [10]
0	0x3bb1e14a	0.005428468
1	0x3e023a17	0.12717472
2	0xbc7bdb62	-0.015372129
3	0xbe3acb1b	-0.18241541
4	0x3e5bc373	0.21461277
5	0x3d85c24f	0.06531202
6	0x3d29d14d	0.04145937
7	0xbcdb2129	-0.02674921
8	0xbdaaf949	-0.083483286
9	0xbdf8a310	-0.12140477

exp_avg f4 [64, 2]
0	0xbb580667	-0.00329628
1	0x3b084b9f	0.0020797027
2	0x3a3d7312	0.00072269246
3	0xb7e00104	-2.6703354e-05
4	0xbb64c6e4	-0.0034908587
5	0x3b3311be	0.0027323808
6	0xbb2717fd	-0.0025496476
7	0x3b8d9338	0.0043205284
8	0x00000000	0.0
9	0x00000000	0.0
10	0x3ab32487	0.0013667502
11	0x3b04a684	0.0020240853
12	0x3ac4c2ea	0.0015011702
13	0xb99ba05c	-0.0002968338
14	0xbb61cb6b	-0.0034453522
15	0xbb2e0033	-0.0026550412
16	0xba82190e	-0.000992568
17	0xbb2d465a	-0.0026439638
18	0x3b95ba88	0.0045693554
19	0x3b790a38	0.0038000476
20	0x3a843e22	0.0010089318
21	0xbb4b5120	-0.0031023696
22	0x3b087a72	0.0020824936
23	0x3b742570	0.003725376
24	0xbb7de995	-0.0038743962
25	0xba53abd1	-0.0008074614
26	0x3b285b4e	0.0025689187
27	0x3b504b34	0.0031783106
28	0xb95a9e85	-0.00020849153
29	0xb98720db	-0.00025773686
30	0x3ae7566b	0.0017649656
31	0xb94772ab	-0.00019020836
32	0xbb60cf82	-0.0034303372
33	0x3ab52682	0.001382068
34	0x3a56aa69	0.0008188845
35	0xb9f56421	-0.00046804643
36	0x3b52e3f4	0.0032179328
37	0x3b83bc07	0.0040202173
38	0x3a4761f2	0.00076058425
39	0x3a11579e	0.0005544367
40	0xbb7f0082	-0.0038910215
41	0xbb0cd78c	-0.002149078
42	0xb9e3a8af	-0.00043422493
43	0xb9d06faf	-0.00039756062
44	0x3b6ae7c8	0.0035843719
45	0x3aa430b5	0.0012526723
46	0x3bd95723	0.006632702
47	0xb82e53fd	-4.1563053e-05
48	0xbb9350a4	-0.004495697
49	0xbb33f165	-0.0027457115
50	0xbb99eab8	-0.00469717
51	0x3a8fd50f	0.0010973531
52	0xbb8b2309	-0.00424612
53	0xbb441dbf	-0.0029924957
54	0xba00cc5b	-0.0004913264
55	0xbad38fa4	-0.0016140831
56	0x3b299e95	0.0025881876
57	0x3b5fe075	0.0034160886
58	0x3aea560c	0.0017878427
59	0xba3e9de4	-0.00072714523
60	0xb9b6f244	-0.00034894247
61	0xb8eb2bb4	-0.000112138136
62	0x3a9e4e39	0.0012077756
63	0xb8402701	-4.5812692e-05
64	0xbb6f3cf4	-0.0036504837
65	0xbb6e8490	-0.0036394931
66	0x00000000	0.0
67	0x00000000	0.0
68	0xb8a7485d	-7.976659e-05
69	0xbae13871	-0.0017182959
70	0x3a7d5645	0.0009664039
71	0xba8e397f	-0.0010850875
72	0xbb8a7baf	-0.00422617
73	0xbacba9b2	-0.0015538244
74	0x3affa74a	0.0019504812
75	0xbaaf5cd8	-0.001337911
76	0xba005b1c	-0.0004896389
77	0xba05e999	-0.0005108356
78	0x3a5f9ce5	0.0008530154
79	0xba3a8a45	-0.00071159407
80	0x39a2d22a	0.00031055632
81	0xbab8be2b	-0.001409476
82	0x3a9676b6	0.001147947
83	0x3b0d3a9c	0.0021549826
84	0x3b45eba0	0.0030200258
85	0xbb11d5a1	-0.0022252577
86	0xbb9f4ec7	-0.004861686
87	0xbb208cf9	-0.0024498089
88	0xbafbd915	-0.0019214476
89	0x3b2b21b4	0.0026112618
90	0x3b873f94	0.004127452
91	0x3ba2b784	0.0049657244
92	0xbb998c82	-0.0046859393
93	0x39ae7871	0.00033277602
94	0x3b061570	0.0020459555
95	0xba81c15c	-0.0009899545
96	0x399774ef	0.00028888087
97	0xba94ed3b	-0.0011362204
98	0xbb0b1d06	-0.0021227016
99	0x3b1fdd18	0.0024393257
100	0x00000000	0.0
101	0x00000000	0.0
102	0x3aa29c3c	0.0012406181
103	0xbac7582e	-0.0015208775
104	0x3b98373e	0.0046452573
105	0xbb530848	-0.003220098
106	0x39e407e9	0.00043493442
107	0x3ac64693	0.0015127234
108	0xbb76568f	-0.0037588214
109	0xbb1df268	-0.0024100784
110	0x3b4085e0	0.002937667
111	0xbb1d1fc9	-0.0023975244
112	0x3a5387fc	0.00080692745
113	0xba02c7e1	-0.0004988891
114	0x3b57a119	0.0032902418
115	0x3a7f56a4	0.00097403885
116	0x3a4b7d6f	0.00077625265
117	0xbac68229	-0.0015144992
118	0xbb72bc9e	-0.0037038694
119	0xb8aec41b	-8.333494e-05
120	0x3b8206f7	0.0039681154
121	0x3bc61964	0.0060455073
122	0x39f331e1	0.00046385734
123	0xbaed6ba0	-0.001811374
124	0xbb6dd5db	-0.0036290798
125	0xbb1c2ddc	-0.0023831045
126	0xbb0cfc0b	-0.0021512534
127	0x3b8bc894	0.004265854

exp_avg_sq f4 [64, 2]
0	0x3a19778a	0.00058542995
1	0x39814a4f	0.00024660162
2	0x38beb007	9.092694e-05
3	0x38ec1f99	0.000112592425
4	0x3a496596	0.0007682679
5	0x39c03d7d	0.00036666906
6	0x3a17e145	0.00057937606
7	0x39ab3bd6	0.00032660243
8	0x00000000	0.0
9	0x00000000	0.0
10	0x39896d42	0.0002621208
11	0x3940a3a3	0.00018371506
12	0x39c07dfd	0.00036714962
13	0x3a4e4f27	0.0007870071
14	0x3a4692ab	0.0007574956
15	0x3aa06d52	0.0012239611
16	0x39d40b2a	0.0004044411
17	0x39865c95	0.0002562745
18	0x3a91c3e5	0.0011121003
19	0x3a8e00f2	0.0010834022
20	0x3ab8ca99	0.0014098465
21	0x3a80af5e	0.0009817888
22	0x3a42cdb7	0.00074311666
23	0x39e08462	0.00042823242
24	0x3a05c35c	0.0005102658
25	0x3a172c30	0.00057667773
26	0x39f9d56e	0.00047651998
27	0x39eba5ce	0.00044946227
28	0x3913195d	0.00014028461
29	0x392bae82	0.0001637284
30	0x393c366b	0.0001794935
31	0x399a42b4	0.00029422867
32	0x3a225243	0.00061920675
33	0x39cb96cb	0.00038831527
34	0x38b60772	8.679823e-05
35	0x38ba1f73	8.875029e-05
36	0x3a76dec5	0.00094173505
37	0x3a1f17b1	0.0006068899
38	0x3837a3eb	4.378326e-05
39	0x393b229d	0.00017846604
40	0x3a58117f	0.0008242353
41	0x3a91a7a7	0.0011112586
42	0x39aff3f2	0.00033560354
43	0x39cf2046	0.00039506162
44	0x3acf741d	0.0015827451
45	0x3aa847b0	0.0012838747
46	0x3b2cf4e9	0.0026391095
47	0x3b6d845d	0.0036242225
48	0x3a77ffa2	0.00094603945
49	0x3a8221ad	0.0009928249
50	0x3a838705	0.0010034746
51	0x3a4d7964	0.0007838218
52	0x3a98f331	0.0011669156
53	0x3ab2bf0e	0.0013637261
54	0x393bddd1	0.00017916343
55	0x39b74795	0.00034957813
56	0x3a36b2de	0.00069694023
57	0x3a03443b	0.00050074206
58	0x399d1ea0	0.0002996819
59	0x39b0d764	0.00033729814
60	0x37e07c65	2.6760807e-05
61	0x38d865ff	0.00010318681
62	0x38db64a6	0.00010461481
63	0x3952aab8	0.00020090758
64	0x3a76d2d5	0.00094155717
65	0x3a83f0d7	0.0010066283
66	0x00000000	0.0
67	0x00000000	0.0
68	0x398fd5a1	0.0002743425
69	0x39ab78f9	0.00032705793
70	0x39f38e43	0.00046454565
71	0x3923fab5	0.00015638287
72	0x3a64402c	0.0008707072
73	0x3a837233	0.0010028541
74	0x39ba2261	0.000355023
75	0x39ba4a30	0.0003553196
76	0x39a2a4e5	0.00031021904
77	0x39b33ddc	0.0003418763
78	0x38fb7334	0.00011990071
79	0x39165e4b	0.00014340242
80	0x398874e7	0.0002602704
81	0x39851d43	0.00025389538
82	0x39a76bcd	0.0003193304
83	0x391d0c89	0.00014977356
84	0x3a603890	0.00085533503
85	0x3a4f4d5a	0.00079079496
86	0x3a9d7039	0.0012011594
87	0x3aca02ec	0.0015412248
88	0x39f5d12d	0.0004688589
89	0x399428c1	0.00028259124
90	0x3a8b720d	0.0010638848
91	0x3a5bb96b	0.00083818164
92	0x3a9260cd	0.0011167765
93	0x3a64ab7a	0.0008723062
94	0x39b81865	0.0003511339
95	0x39c63dc8	0.00037811534
96	0x397a37af	0.00023862602
97	0x3960b699	0.00021430328
98	0x39d82da4	0.00041232735
99	0x3983afc1	0.00025117214
100	0x00000000	0.0
101	0x00000000	0.0
102	0x399d76c8	0.00030033872
103	0x38fdb957	0.00012098502
104	0x3b106b0f	0.0022036468
105	0x3b11649b	0.002218521
106	0x3973edae	0.00023262828
107	0x38f2a526	0.000115702205
108	0x3a3ec757	0.0007277629
109	0x3a4c3d30	0.00077911
110	0x3a415e59	0.00073764246
111	0x3a227c5e	0.0006198342
112	0x384da11a	4.9025846e-05
113	0x381ee29b	3.788118e-05
114	0x3a656bce	0.0008751721
115	0x3a85647f	0.0010177045
116	0x3a115af2	0.0005544863
117	0x39c972cc	0.00038423238
118	0x3a16ba6c	0.0005749825
119	0x3a34df4f	0.00068997307
120	0x3b670bcb	0.0035254832
121	0x3b59335d	0.0033142187
122	0x3a110f2a	0.00055335707
123	0x39759a1a	0.00023422428
124	0x3a50f155	0.00079705316
125	0x3a94b318	0.0011344878
126	0x3a17b519	0.00057871785
127	0x3984efd1	0.0002535568

exp_avg f4 [64]
0	0x39880301	0.0002594218
1	0xb90dc5b3	-0.00013520457
2	0x3a96ecd8	0.0011514677
3	0x3b8588e1	0.004075155
4	0x00000000	0.0
5	0x3b103c40	0.0022008568
6	0x3b9b82c7	0.0047458145
7	0xbc0d4f7b	-0.008624907
8	0xba0941e6	-0.0005235955
9	0x3bc58550	0.006027855
10	0x3b92941b	0.004473222
11	0x3b8407f0	0.0040292665
12	0xba177ed5	-0.00057790923
13	0x3b87734d	0.004133618
14	0x398153cb	0.00024667228
15	0xbac20bed	-0.001480458
16	0xbaab05f5	-0.001304804
17	0xb9bf2c45	-0.00036463342
18	0x3bb697cf	0.005572296
19	0xbac7adcc	-0.0015234291
20	0xbbfad6a3	-0.007654981
21	0x39f68370	0.00047018705
22	0x3b7d3329	0.003863523
23	0xbbcc116b	-0.0062276623
24	0xbbd23804	-0.006415369
25	0xba4b084b	-0.0007745071
26	0xbc030d6c	-0.0079988055
27	0x3af458d1	0.0018642192
28	0x3b8c3f4f	0.004280008
29	0xba4c0ce7	-0.0007783905
30	0xbb2323aa	-0.0024893084
31	0xba8bd4fa	-0.001066833
32	0x3b912bac	0.004430255
33	0x00000000	0.0
34	0x3ae7dbb0	0.0017689373
35	0x3b26d34e	0.0025455537
36	0xbbd334d2	-0.0064455057
37	0xbaaa1ece	-0.0012979151
38	0x3a0d871e	0.0005398857
39	0xba1fd236	-0.00060966925
40	0x3b0403a5	0.0020143774
41	0x3b0af071	0.0021200443
42	0xbb1ddda7	-0.0024088414
43	0xbc0c8ab4	-0.008577991
44	0x3af9bd71	0.001905365
45	0x3bf0c122	0.007347242
46	0xbb9498ca	-0.0045348154
47	0xba8e6f8d	-0.0010866985
48	0x3afe5fa2	0.0019407163
49	0x3ad69c9c	0.0016373578
50	0x00000000	0.0
51	0x3ab44b37	0.0013755326
52	0xbb70dffb	-0.0036754597
53	0x3afab311	0.0019126852
54	0xbbc5cbf1	-0.0060362746
55	0xbb1db2fa	-0.0024062977
56	0x3789c60e	1.6423899e-05
57	0x3a9dbb4c	0.0012033968
58	0x3b54517c	0.0032397201
59	0x3a3c6302	0.0007186384
60	0x3b997a2e	0.0046837544
61	0x3b21e1c7	0.0024701224
62	0xbc033bdb	-0.008009876
63	0x3b4967ec	0.0030732108

exp_avg_sq f4 [64]
0	0x39f96356	0.00047566992
1	0x390ed8ed	0.00013622986
2	0x3a2b1fa2	0.0006527846
3	0x3a16410f	0.00057317404
4	0x00000000	0.0
5	0x39a60616	0.00031666522
6	0x3a15d633	0.0005715817
7	0x3a981213	0.0011602066
8	0x39e76b80	0.00044139847
9	0x3aaacbe7	0.0013030738
10	0x3ab708bc	0.0013964395
11	0x3a541698	0.0008090525
12	0x3a186769	0.0005813749
13	0x3a285a43	0.00064221415
14	0x3938f1c1	0.00017637668
15	0x397ac045	0.00023913484
16	0x3a19edaa	0.00058719015
17	0x38dd535c	0.00010553628
18	0x3a883db0	0.0010394361
19	0x38fceb0a	0.00012060076
20	0x3a99d33b	0.0011735925
21	0x39d88a6c	0.00041301863
22	0x3acffe3e	0.0015868617
23	0x3b3a3565	0.0028413173
24	0x3a9c2382	0.0011912438
25	0x3a8265c2	0.0009948539
26	0x3acbae07	0.0015539535
27	0x3995a790	0.00028544338
28	0x3a55cdd5	0.00081559765
29	0x39d8a34b	0.00041320393
30	0x38bf774c	9.1298105e-05
31	0x39188db3	0.00014548637
32	0x3a90324f	0.0011001321
33	0x00000000	0.0
34	0x39b75c08	0.0003497305
35	0x39d0e0d6	0.00039840367
36	0x3a8fddcd	0.0010976136
37	0x39dae5f0	0.00041751517
38	0x39c3a082	0.00037312886
39	0x3941f5c0	0.00018497463
40	0x399f2b31	0.00030359023
41	0x39a7c704	0.00032001
42	0x3a54fd64	0.00081249163
43	0x3ad4aee4	0.0016226438
44	0x39ec6ae1	0.0004509306
45	0x3aa7a74a	0.0012790945
46	0x3a972a0f	0.001153292
47	0x39f06b0d	0.00045856126
48	0x397e8481	0.00024272689
49	0x39c71e8e	0.00037979003
50	0x00000000	0.0
51	0x398ebfe8	0.00027227332
52	0x3b0d8cba	0.0021598772
53	0x398fd82e	0.00027436152
54	0x3a755992	0.00093593553
55	0x3a26fa03	0.0006369652
56	0x38545ad3	5.0629325e-05
57	0x3a839657	0.0010039312
58	0x3a0b270f	0.00053082494
59	0x3a2aa0f4	0.0006508969
60	0x3b629dbb	0.0034578878
61	0x39fdcb65	0.0004840746
62	0x3a97ff6e	0.001159651
63	0x3a11877d	0.00055515004
