07_RNN/logs/rnn/version_10/checkpoints/last.ckpt (torch, 165976 bytes, 27 tensors)

rnn.weight_ih_l0 f4 [64, 1]
0.2339516 -0.25425595 -0.33807543 -0.40879154 0.15294601 0.44324455 -0.26395065 -0.27765688
-0.3756277 -0.396685 -0.08777793 -0.30633548 -0.30502808 0.41718933 -0.48876804 -0.29774496
0.1323754 -0.11789691 -0.27598974 0.16424084 -0.36780223 0.014101627 -0.11752492 -0.36700225
-0.0756403 -0.33115822 -0.2998793 -0.22183625 0.6140088 -0.1826941 -0.3673334 -0.18168809
0.24381426 -0.4360757 -0.20242868 0.24205583 -0.0004688428 -0.26772135 0.29538998 0.10182514
0.13535833 -0.4715042 0.18999153 0.24787332 0.7692744 0.42773902 0.2872898 0.32879853
-0.4613006 0.08649175 0.28615844 0.260231 0.2048904 0.36113366 0.41052386 0.5216691
0.2728037 0.25449696 0.21282144 0.15122688 0.15100598 0.18268178 -0.16152015 -0.05286472
00000000: 0291 6f3e d62d 82be 3918 adbe 204d d1be
00000010: e19d 1c3e f3f0 e23e 8a24 87be 0b29 8ebe
00000020: 4652 c0be 4c1a cbbe eac4 b3bd 01d8 9cbe
00000030: a42c 9cbe d799 d53e ce3f fabe 0772 98be
00000040: 6b8d 073e ef73 f1bd 874e 8dbe c02e 283e
00000050: 9350 bcbe 830a 673c e8b0 f0bd b8e7 bbbe
00000060: 4de9 9abd 928d a9be c889 99be 0b29 63be
00000070: ae2f 1d3f 2a14 3bbe 2013 bcbe 710c 3abe
00000080: 72aa 793e 5045 dfbe 7749 4fbe 7cdd 773e
00000090: 04cf f5b9 c612 89be 5b3d 973e b389 d03d
000000a0: 609b 0a3e 0069 f1be 248d 423e 81d2 7d3e
000000b0: 2bef 443f 9c00 db3e a617 933e 4858 a83e
000000c0: 982f ecbe 9622 b13d 5c83 923e ff3c 853e
000000d0: cace 513e 83e6 b83e 2f30 d23e 1b8c 053f
000000e0: edac 8b3e 6d4d 823e dded 593e 38db 1a3e
000000f0: 50a1 1a3e ef10 3b3e 8a65 25be ad88 58bd

rnn.weight_hh_l0 f4 [64, 64]
-0.18065807 0.29867274 0.2401392 0.27129555 0.10090208 -0.2885481 0.12560129 0.31004915
0.29574442 0.23459093 0.055458665 0.17850144 0.048853576 -0.44335103 0.3545155 0.18088071
0.0373299 0.15273571 0.08239897 -0.057377394 0.3487909 0.07916709 0.013385298 0.3162218
0.04327908 0.24686754 0.11294564 0.20776023 -0.2693798 0.20734994 0.10744243 0.06496528
-0.34019414 0.31132525 0.0334179 0.017195743 -0.24463092 0.049609244 -0.18578091 -0.07685835
0.14486463 0.3012709 -0.10263127 -0.26372725 -0.09605585 -0.1605808 -0.4333784 -0.20132509
0.1745234 -0.058996513 -0.32145482 0.009699512 -0.24969548 -0.24819027 -0.3159348 -0.2946478
-0.067715935 -0.06448206 0.08177502 -0.30588204 -0.16548374 -0.25072983 0.26001328 -0.26025742
-0.3805903 -0.25764164 0.19038714 0.4417481 -0.17821465 -0.23597139 -0.24867596 0.40221548
0.35901755 0.11575737 0.34483698 -0.15978041 0.4846623 -0.028107084 0.24524154 0.07213395
-0.14421728 0.35481897 -0.023437317 -0.2563735 0.28761283 0.24682596 -0.09986632 0.028468136
-0.01812101 0.25330755 0.34195092 0.25405395 -0.45898908 0.3669114 0.39441127 0.0573389
0.25148576 0.09611766 0.28927478 -0.29680833 0.06955733 -0.10949475 -0.3278853 -0.38166595
-0.15478915 0.12568605 -0.25960922 -0.017188169 -0.32934183 -0.31028262 0.07918276 -0.5954377
-0.03809529 -0.34958872 0.0028054712 -0.40663606 -0.25449622 -0.31781644 0.09783918 -0.51943195
0.07771822 0.079980984 -0.30199847 -0.25570256 0.1388 -0.12947759 0.41152528 -0.28340414
-0.41020268 -0.0038749864 -0.18964079 0.050429966 -0.34474826 0.022701852 -0.20874162 0.21071686
0.14596225 0.09952867 0.10324255 -0.1487009 0.29275194 0.1258809 0.09683842 0.025398124
-0.20805548 0.37850448 0.06693882 -0.1283083 0.15659776 0.35836598 -0.07424806 -0.15775369
-0.36068326 0.19960143 0.20166029 0.20880567 -0.18755956 0.18732128 0.33490008 0.053655893
0.29119772 0.11828533 0.1371893 -0.18627962 0.14600444 -0.45531142 -0.020107677 -0.3658676
-0.388187 0.09744143 -0.22935632 0.17667122 -0.18171567 -0.43605927 0.03341318 -0.19296715
-0.09671668 -0.1872602 -0.2585124 -0.56868035 -0.072816715 -0.3933403 0.24735163 -0.15192801
0.19454183 0.13735545 0.014288236 -0.32168183 0.4734019 0.0816274 0.121438205 -0.01424025
0.19467297 -0.33157668 -0.15053254 -0.308957 0.158304 0.5055878 -0.17079523 -0.16155492
-0.27299398 -0.21875703 -0.13131057 -0.32553557 -0.16199748 0.32573077 -0.23629558 -0.19904491
-0.11613522 -0.28319243 -0.065660015 -0.22356105 -0.2641609 0.20597325 -0.13030636 -0.5260574
0.09506396 -0.2608746 -0.3291011 -0.10548014 0.16692351 -0.11596272 -0.1312328 -0.24264494
0.42218387 -0.09465596 -0.16148488 0.12676787 0.24860317 -0.05299838 0.033170756 0.15490825
-0.2617755 -0.37642795 0.16628847 0.2753101 0.08534961 0.27159506 0.45522666 0.0037030918
-0.23000069 0.06843383 0.2479936 0.01823201 0.28374755 0.33863482 0.42370018 0.2800042
0.19468896 0.066906005 0.104668185 0.20864826 0.009294174 0.22863841 -0.14363164 0.017656261
00000000: 6efe 38be a2eb 983e 0de7 753e 40e7 8a3e
00000010: c0a5 ce3d 94bc 93be a09d 003e c3be 9e3e
00000020: d06b 973e 9b38 703e a028 633d 15c9 363e
00000030: b01a 483d e8fe e2be 0e83 b53e cb38 393e
00000040: 3de7 183d c066 1c3e cbc0 a83d 8f04 6bbd
00000050: b994 b23e 5b22 a23d 024e 5b3c d3e7 a13e
00000060: 6845 313d d8ca 7c3e 0b50 e73d 19bf 543e
00000070: 26ec 89be 8b53 543e c70a dc3d 840c 853d
00000080: ed2d aebe 0666 9f3e 35e1 083d 16de 8c3c
00000090: 8780 7abe 1033 4b3d 5a3d 3ebe e967 9dbd
000000a0: 6557 143e 2e40 9a3e 5830 d2bd 4207 87be
000000b0: eeb8 c4bd 4b6f 24be c6e3 ddbe 2a28 4ebe
000000c0: 43b6 323e 54a6 71bd ba95 a4be b4ea 1e3c
000000d0: 2cb0 7fbe 9725 7ebe 35c2 a1be 14dc 96be
000000e0: a7ae 8abd 2c0f 84bd a979 a73d 929c 9cbe
000000f0: 9274 29be a95f 80be 7620 853e 7640 85be
00000100: bbdc c2be 9be9 83be d9f4 423e cf2c e23e
00000110: e77d 36be 7ca2 71be e9a4 7ebe 30ef cd3e
00000120: 26d1 b73e 3312 ed3d 798e b03e 7a9d 23be
00000130: a825 f83e d440 e6bc 9920 7b3e f7ba 933d
00000140: b2ad 13be d5aa b53e 9eff bfbc 6343 83be
00000150: fd41 933e f2bf 7c3e b786 ccbd 0236 e93c
00000160: 8372 94bc 87b1 813e 3114 af3e 5c13 823e
00000170: 9e00 ebbe d0db bb3e 46f0 c93e 32dc 6a3d
00000180: bec2 803e 56d9 c43d d31b 943e 43f7 97be
00000190: 1374 8e3d c93e e0bd 95e0 a7be b869 c3be
000001a0: 0c81 1ebe d8b3 003e 80eb 84be 34ce 8cbc
000001b0: 7e9f a8be 5ddd 9ebe 922a a23d 9b6e 18bf
000001c0: cf09 1cbd 4bfd b2be ffdb 373b 9a32 d0be
000001d0: 544d 82be d6b8 a2be e85f c83d 7ef9 04bf
000001e0: bb2a 9f3d 12cd a33d 8b9f 9abe 72eb 82be
000001f0: 9621 0e3e c695 04be 71b3 d23e 591a 91be
00000200: 1606 d2be 7cf3 7dbb 3231 42be a78f 4e3d
00000210: d882 b0be 3cf9 b93c 5dc0 55be 29c6 573e
00000220: 2177 153e b0d5 cb3d d470 d33d 0c45 18be
00000230: 95e3 953e ece6 003e 3953 c63d ba0f d03c
00000240: 7f0c 55be 57cb c13e 3817 893d 4063 03be
00000250: 2a5b 203e bf7b b73e 5e0f 98bd 2f8a 21be
00000260: 7aab b8be 5164 4c3e 0980 4e3e 27d1 553e
00000270: 9d0f 40be 26d1 3f3e 0678 ab3e 48c6 5b3d
00000280: de17 953e 943f f23d 5a7b 0c3e 16c0 3ebe
00000290: 3082 153e 941e e9be dbb8 a4bc 0053 bbbe
000002a0: 72c0 c6be 5f8f c73d 62dc 6abe 4de9 343e
000002b0: ac13 3abe 2943 dfbe 42dc 083d 2e99 45be
000002c0: 6513 c6bd 23c1 3fbe bd5b 84be 0995 11bf
000002d0: ee20 95bd e663 c9be bf49 7d3e 0493 1bbe
000002e0: f935 473e e8a6 0c3e 3519 6a3c 7bb3 a4be
000002f0: bc61 f23e 442c a73d 98b4 f83d f04f 69bc
00000300: 5a58 473e 6bc4 a9be 3425 1abe 9d2f 9ebe
00000310: 721a 223e 346e 013f f2e4 2ebe a76e 25be
00000320: dec5 8bbe d801 60be 4776 06be 99ac a6be
00000330: abe2 25be 2fc6 a63e 78f7 71be 6ed2 4bbe
00000340: 4dd8 edbd 99fe 90be c278 86bd 30ed 64be
00000350: 1940 87be a7ea 523e 086f 05be b3ab 06bf
00000360: e5b0 c23d 5b91 85be f07f a8be f905 d8bd
00000370: ffed 2a3e dd7d edbd e461 06be ea77 78be
00000380: 7c28 d83e fcda c1bd 4b5c 25be 70cf 013e
00000390: d491 7e3e d414 59bd 0fde 073d 45a0 1e3e
000003a0: 7007 86be 2abb c0be 8647 2a3e 72f5 8c3e
000003b0: c7cb ae3d 820e 8b3e 7813 e93e 92af 723b
000003c0: 4d85 6bbe 0927 8c3d 09f2 7d3e 4c5b 953c
000003d0: 5c47 913e 8b61 ad3e 3bef d83e b65c 8f3e
000003e0: 8b5c 473e 0406 893d 465c d63d e4a7 553e
000003f0: 9746 183c 3020 6a3e 2c14 13be dda3 903c

rnn.bias_ih_l0 f4 [64]
0.13879955 0.32137775 0.07756644 0.056602728 -0.20671728 -0.33516365 0.06767974 -0.11685669
-0.092940494 0.027353393 0.18017027 0.1068425 0.074976094 -0.046454523 0.044183046 0.05112814
0.20719902 -0.20294061 0.08745609 0.105221175 0.16694053 -0.21612525 0.04768984 0.16916193
0.12555566 0.18634063 0.14644468 -0.099913254 -0.3267983 0.3373219 0.11067197 0.1783064
-0.16254506 0.2667444 -0.18106323 -0.16458142 0.075970985 0.22558811 -0.24697292 0.2119173
0.021829393 0.28735724 0.20486528 -0.18281004 0.01794756 -0.042087384 -0.08683346 -0.14205226
0.16832037 -0.1354943 -0.104697876 -0.041316323 -0.2986846 -0.31743628 -0.45774007 -0.15590812
-0.04045871 0.061490033 0.10616425 0.07427414 -0.20019716 -0.227283 -0.15090416 0.16227983
00000000: 7821 0e3e a08b a43e 27db 9e3d 43d8 673d
00000010: b2ad 53be 929a abbe ad9b 8a3d 8f52 efbd
00000020: 9657 bebd 3914 e03c 8e7e 383e 3ed0 da3d
00000030: 118d 993d 1947 3ebd 48f9 343d be6b 513d
00000040: fb2b 543e aacf 4fbe 2e1c b33d 337e d73d
00000050: 75f2 2a3e f04f 5dbe 6c56 433d c938 2d3e
00000060: aa91 003e 14d0 3e3e 98f5 153e 529f ccbd
00000070: 1b52 a7be 75b5 ac3e fca7 e23d f495 363e
00000080: 3672 26be b992 883e a468 39be 0888 28be
00000090: ad96 9b3d 9200 673e 78e6 7cbe d900 593e
000000a0: 8ed3 b23c 7d20 933e 34c8 513e 8e32 3bbe
000000b0: c306 933c d263 2cbd bed5 b1bd 2676 11be
000000c0: 2d5c 2c3e 05bf 0abe d76b d6bd 4e3b 29bd
000000d0: 30ed 98be 0287 a2be e85c eabe 61a6 1fbe
000000e0: 08b8 25bd f9dc 7b3d a46c d93d 0a1d 983d
000000f0: 7c00 4dbe e0bc 68be 9f86 1abe af2c 263e

rnn.bias_hh_l0 f4 [64]
0.18230513 0.11974671 0.108227044 0.052490182 -0.15079333 -0.32725906 0.063108355 -0.06354213
0.033994026 0.16048895 0.077433094 0.113366105 0.13627523 -0.240338 0.093063734 0.089136146
0.08944547 -0.035727266 0.010611709 0.12166601 0.32922384 -0.13805619 0.17458056 0.3718511
0.2477514 0.32867962 0.053778283 -0.15281351 -0.16202115 0.2638352 -0.06411743 0.07058772
-0.29255468 0.17138019 -0.08817227 0.025086183 0.053197633 0.19629383 -0.10573186 0.08123699
0.09071886 0.1403793 0.1541934 -0.28498533 -0.06692892 -0.054087207 -0.30990136 -0.1950182
0.14606644 -0.14272635 -0.27346265 -0.22442043 -0.21219458 -0.37859502 -0.29578772 0.018127056
-0.025033263 -0.04451103 -0.08492596 0.07939622 -0.21545504 -0.33473045 -0.07244121 0.07536414
00000000: 32ae 3a3e c33d f53d 24a6 dd3d f2ff 563d
00000010: 9169 1abe 808e a7be f43e 813d 6022 82bd
00000020: 523d 0b3d 3757 243e 3e95 9e3d 7d2c e83d
00000030: bc8b 0b3e 2a1b 76be 3398 be3d 038d b63d
00000040: 302f b73d c156 12bd bcdc 2d3c 072c f93d
00000050: 0790 a83e 9a5e 0dbe 3fc5 323e 4463 be3e
00000060: 8bb2 7d3e b248 a83e 9e46 5c3d 257b 1cbe
00000070: dfe8 25be 6815 873e 0050 83bd 4b90 903d
00000080: bac9 95be 4a7e 2f3e aa93 b4bd 8a81 cd3c
00000090: c3e5 593d 4001 493e f289 d8bd 945f a63d
000000a0: cfca b93d 97bf 0f3e e0e4 1d3e 99e9 91be
000000b0: 0812 89bd 8c8a 5dbd 64ab 9ebe dab2 47be
000000c0: 7192 153e db26 12be 4c03 8cbe 78ce 65be
000000d0: 8949 59be 35d7 c1be 7d71 97be 317f 943c
000000e0: 8f12 cdbc 3351 36bd a9ed adbd 7c9a a23d
000000f0: 3fa0 5cbe ca61 abbe 0f5c 94bd 8458 9a3d

rnn.weight_ih_l1 f4 [64, 64]
0.06044448 -0.27654928 0.06578645 0.43304065 -0.19265555 0.07518355 -0.4985697 -0.00962743
0.038631763 -0.025042402 0.23544599 -0.079733364 -0.025902865 0.065970644 -0.060557827 -0.091722935
-0.22991477 0.24248753 0.054918546 -0.35328767 -0.021412427 0.35183138 -0.21211271 -0.04279594
-0.28740224 -0.08568356 0.2993689 0.3564714 -0.33524328 0.19581644 0.18345234 0.011165042
0.2665637 -0.11857301 0.2846354 -0.035544388 0.25483656 -0.10244828 -0.37581345 -0.17124031
-0.26605913 -0.0931787 -0.3365658 0.23064002 0.01596707 -0.31590605 0.25848165 -0.10503943
-0.07044163 -0.18381855 0.26521736 -0.22048296 -0.24236685 -0.1493044 0.25153884 -0.116406634
0.2543684 0.20593342 -0.19668765 0.06289425 0.13016596 0.1466702 -0.056399733 -0.13580783
0.26775452 0.0003864772 -0.3018559 -0.20415857 0.4589224 0.08710791 0.3237604 -0.147815
-0.18488048 -0.024236325 -0.28537756 -0.31242535 -0.3702062 0.38937443 0.016212758 -0.09411305
0.08521383 -0.2802568 -0.29849195 0.39282364 -0.18541011 -0.30270964 0.12698846 0.29699728
0.19468547 -0.19698599 -0.27691394 -0.19055384 0.18238793 -0.48212728 -0.3472842 -0.28304178
-0.21687803 -0.33044413 -0.20269974 0.3276987 -0.33253834 0.021809991 0.671624 0.30309275
0.5991432 -0.21413265 0.22457783 -0.1514338 0.38952315 0.3808918 -0.060346775 0.2910179
-0.08735212 0.33550727 0.032920472 0.28755897 0.3237659 0.40846738 0.0151383765 0.056302864
-0.14832555 -0.26711503 0.12762475 0.23181497 -0.4067795 0.06192052 -0.13006239 0.24226886
0.048524965 -0.4018048 -0.12370527 0.34320527 -0.27344033 0.29253724 -0.2252659 0.02174601
-0.22073987 -0.28109318 0.25539067 -0.21668081 0.04529345 0.020768812 -0.17767936 -0.091633536
-0.22889875 0.3712891 -0.09246127 -0.3008361 -0.27733824 0.41168633 -0.14585927 -0.2420192
-0.21527196 -0.24235836 0.3466797 0.44704232 -0.38717628 0.2515926 0.28204918 -0.18765436
0.42281485 -0.093256064 0.42949727 -0.23308519 0.20614459 -0.34854993 -0.4135434 -0.48936507
-0.26495457 -0.29468036 -0.46971858 0.37097514 -0.042281047 -0.30794826 0.38159755 -0.42223316
-0.20832081 -0.118052684 0.21650533 -0.29256973 -0.20844665 -0.25273445 0.29586378 -0.015442832
0.15128574 0.209591 -0.24885243 0.014510466 0.43617183 0.18923666 -0.017312681 -0.21301539
-0.061374497 -0.015496515 0.057030275 -0.22808172 0.18495625 -0.23507245 -0.18381843 0.07883682
0.30055285 0.03681511 -0.36519602 -0.043419894 -0.31257373 -0.20820518 0.2858427 0.0022386226
-0.18285929 -0.15502259 -0.10346885 -0.16314664 0.11193659 0.02474919 -0.4234992 0.51895267
0.45899755 -0.01939238 -0.29865545 -0.1357025 0.11108608 -0.4427893 -0.22084264 -0.055253986
-0.4031789 0.1353188 0.1063081 0.35757345 -0.3051955 0.6453323 0.27352887 0.17333148
0.37967703 0.3301372 0.11090509 0.06200683 -0.09798766 0.023931978 0.067318164 0.30300298
0.45831516 0.6214308 0.24418584 0.39984456 0.33764082 0.20591486 -0.36649615 -0.1436425
-0.108358234 0.18624344 0.4076216 0.11189798 -0.34498182 -0.10347695 0.19981743 0.2078764
00000000: a294 773d de97 8dbe 0cbb 863d 81b7 dd3e
00000010: 7f47 45be d5f9 993d 8744 ffbe 5ebc 1dbc
00000020: 573c 1e3d b925 cdbc c118 713e 3f4b a3bd
00000030: 3f32 d4bc 9e1b 873d 7c0b 78bd 3cd9 bbbd
00000040: c76e 6bbe a74e 783e 45f2 603d 1fe2 b4be
00000050: 1d69 afbc 3e23 b43e 1334 59be cc4a 2fbd
00000060: 6326 93be dd7a afbd e146 993e 6b83 b63e
00000070: 02a5 abbe 1b84 483e eeda 3b3e 95ed 363c
00000080: 0a7b 883e 68d6 f2bd bbbb 913e fe96 11bd
00000090: f079 823e 67d0 d1bd 9f6a c0be 9f59 2fbe
000000a0: e738 88be 79d4 bebd 5a52 acbe e62c 6c3e
000000b0: 5fcd 823c 70be a1be b557 843e ea1e d7bd
000000c0: b443 90bd ee3a 3cbe 92ca 873e 49c6 61be
000000d0: 042f 78be 41e3 18be b3c9 803e 9a66 eebd
000000e0: 933c 823e 36e0 523e 7d68 49be b3ce 803d
000000f0: 3a4a 053e b730 163e 6803 67bd 3511 0bbe
00000100: 1f17 893e 17a0 ca39 db8c 9abe f20e 51be
00000110: e0f7 ea3e a265 b23d ecc3 a53e d15c 17be
00000120: 4f51 3dbe 428b c6bc 021d 92be 37f6 9fbe
00000130: ab8b bdbe 165c c73e 9ed0 843c 58be c0bd
00000140: 9784 ae3d d27d 8fbe f0d3 98be 2e20 c93e
00000150: 26dc 3dbe c2fc 9abe 4309 023e 0710 983e
00000160: a15b 473e b2b6 49be aac7 8dbe 8c20 43be
00000170: e7c3 3a3e 63d9 f6be 3ccf b1be daea 90be
00000180: 4615 5ebe f92f a9be 8590 4fbe 20c8 a73e
00000190: 7742 aabe deaa b23c 8def 2b3f f92e 9b3e
000001a0: 7361 193f 9745 5bbe bbf7 653e 7611 1bbe
000001b0: 946f c73e 4004 c33e 2e2e 77bd 4c00 953e
000001c0: abe5 b2bd 9cc7 ab3e 9ed7 063d ee3a 933e
000001d0: a5c4 a53e a322 d13e f406 783c d59d 663d
000001e0: a7e2 17be 4dc3 88be 10b0 023e e760 6d3e
000001f0: 6745 d0be 5fa0 7d3d 132f 05be 5415 783e
00000200: 1dc2 463d 5cb9 cdbe 3059 fdbd 9ab8 af3e
00000210: 5f00 8cbe 71c7 953e 1bac 66be b024 b23c
00000220: a209 62be 72eb 8fbe 91c2 823e 93e1 5dbe
00000230: a085 393d 5b23 aa3c 94f1 35be 5daa bbbd
00000240: 6f64 6abe 9b19 be3e 565c bdbd 3007 9abe
00000250: 47ff 8dbe 8dc8 d23e 225c 15be e2d3 77be
00000260: 4170 5cbe ca2c 78be 0080 b13e bbe2 e43e
00000270: f83b c6be bfd0 803e c068 903e 7728 40be
00000280: 307b d83e 09fd bebd 11e7 db3e e2ad 6ebe
00000290: 9117 533e 2375 b2be f6bb d3be 0f8e fabe
000002a0: 20a8 87be 58e0 96be f47e f0be 74f0 bd3e
000002b0: e42e 2dbd 65ab 9dbe c160 c33e f22e d8be
000002c0: 0d52 55be 9bc5 f1bd 93b3 5d3e b3cb 95be
000002d0: 0a73 55be 6966 81be 757b 973e ef03 7dbc
000002e0: a6ea 1a3e 069f 563e 2cd3 7ebe 4ebd 6d3c
000002f0: ea51 df3e 41c7 413e 53d3 8dbc b520 5abe
00000300: d363 7bbd 18e5 7dbc 9498 693d 418e 69be
00000310: 2c65 3d3e d5b6 70be e63a 3cbe 3375 a13d
00000320: 10e2 993e 71cb 163d f9fa babe 0fd9 31bd
00000330: aa09 a0be bd33 55be f959 923e dbb5 123b
00000340: 773f 3bbe 3ebe 1ebe 7ae7 d3bd ea0f 27be
00000350: 033f e53d d0be ca3c e3d4 d8be 15da 043f
00000360: ba01 eb3e c5dc 9ebc 5ee9 98be 99f5 0abe
00000370: 1981 e33d 47b5 e2be 9324 62be 0152 62bd
00000380: 776d cebe 0391 0a3e 10b8 d93d de13 b73e
00000390: 9642 9cbe 7f34 253f fa0b 8c3e cf7d 313e
000003a0: 0765 c23e be07 a93e 3522 e33d e0fa 7d3d
000003b0: c1ad c8bd ff0c c43c 1bde 893d 3523 9b3e
000003c0: 49a8 ea3e 1716 1f3f da0b 7a3e 6db8 cc3e
000003d0: 42df ac3e 58db 523e 62a5 bbbe 0517 13be
000003e0: ecea ddbd 9ab6 3e3e c7b3 d03e c52a e53d
000003f0: 75a1 b0be b9eb d3bd f19c 4c3e 8ddd 543e

rnn.weight_hh_l1 f4 [64, 64]
0.11500906 -0.2790579 -0.14908223 0.41367415 -0.009250689 -0.013173129 0.4143809 0.51430374
0.32676756 0.21928798 -0.09497494 0.08005688 -0.0647654 0.08576913 -0.12716219 0.28539082
-0.036640804 -0.08092176 -0.22168118 -0.15882756 -0.044807933 0.3837551 -0.036271404 -0.4316483
0.2415996 -0.01338133 -0.1390611 0.1794186 -0.03165757 -0.07129246 0.40686002 0.5455733
0.010588821 -0.1802665 -0.05738014 -0.41362858 0.22096297 -0.19183703 0.10176243 0.06374167
0.094443366 0.22417592 0.13664903 -0.018148487 -0.12788904 -0.36198753 -0.1451932 -0.077345714
-0.088468626 0.0022335795 -0.27604553 -0.13782735 -0.07048695 -0.52461123 0.14978819 -0.5317795
-0.16754358 0.26470393 0.025874302 0.012704231 0.14816572 0.08417947 0.20470397 -0.28918782
0.03217015 0.07410751 -0.34516644 -0.26375687 -0.6098605 -0.43221545 -0.31651953 -0.24313423
-0.17857121 0.19384639 -0.3273716 0.14316525 0.12746923 0.070817225 -0.10202749 -0.13913457
0.022863923 -0.07451611 -0.06890478 0.3355921 0.21134739 -0.5438241 -0.18054807 -0.07886939
-0.25661463 0.20708881 0.5718814 0.13895676 0.07608411 0.033342578 -0.19064382 -0.40111428
-0.04102405 0.21260025 0.0029755633 -0.011479942 -0.32311526 0.6040669 -0.27464345 0.14175351
0.42052618 -0.31604475 0.08513881 0.18184182 0.5241838 -0.06665024 0.018926695 0.09229349
-0.061930623 0.3014648 0.24502844 0.038052168 0.12944649 0.18667823 -0.30698738 0.713748
0.08524624 -0.5848984 -0.036715258 0.32009768 -0.2745929 0.084771074 -0.106937006 0.37318343
0.12164984 -0.0388267 -0.07982804 -0.43136084 0.13782637 -0.41585907 -0.010248125 0.25572416
-0.0748799 -0.19407356 0.34985086 -0.0991909 -0.011330792 -0.12973015 0.11507377 0.3323974
0.14685893 -0.39070934 0.12376903 -0.03361918 0.22788867 0.00893293 -0.056724373 0.372693
-0.0069319042 -0.15344106 0.19388486 -0.15728931 -0.10990018 -0.035136744 -0.19711514 0.1173112
0.05829896 0.12168098 0.5130883 -0.08786528 -0.08303071 -0.05405549 -0.1396729 -0.029148294
-0.30623356 0.30445424 -0.25272793 0.46781173 -0.35899466 0.19340515 -0.07262748 0.048650168
0.009274196 -0.031039845 -0.19272785 -0.035504825 0.34656638 -0.17505051 0.08102105 -0.41156703
0.40025303 0.0069243703 0.31576768 0.044007346 -0.45256367 -0.046696924 0.35521832 0.09706775
-0.01147333 0.14086056 -0.002298983 0.2627692 -0.15981686 0.26545516 0.05016803 -0.044748053
0.16515866 0.19903725 -0.3403989 0.14501743 0.07750213 0.41622204 -0.0097769 -0.26316357
-0.12987019 0.14790805 -0.27370074 -0.2321488 -0.42190763 -0.33459735 -0.17798309 -0.33364642
-0.0005878553 -0.07178583 -0.10829184 0.33003607 0.35156822 0.073764436 0.122244276 -0.1666671
-0.080545835 -0.33327025 -0.48453292 0.40272957 0.041169297 -0.029387856 0.23637149 0.31593448
0.45005655 -0.21653244 0.14618908 -0.280904 0.21984339 -0.440841 0.21671136 -0.1540337
-0.17887887 0.29543442 0.37180752 0.15434688 -0.25514054 0.19827098 -0.08075701 0.23718327
-0.28370345 0.073450215 -0.14464444 -0.0021816094 0.2967832 0.31428844 0.06628174 -0.032910082
00000000: df89 eb3d ade0 8ebe 03a9 18be 19cd d33e
00000010: 3490 17bc 1cd4 57bc bc29 d43e 69a9 033f
00000020: 144e a73e 078d 603e 3982 c2bd ddf4 a33d
00000030: b9a3 84bd baa7 af3d ce36 02be bf1e 923e
00000040: ab14 16bd 4fba a5bd 6400 63be b1a3 22be
00000050: 8688 37bd 8c7b c43e 5391 14bd 0201 ddbe
00000060: e365 773e 5e3d 5bbc 0866 0ebe 82b9 373e
00000070: 5eab 01bd c801 92bd f54f d03e b1aa 0b3f
00000080: bc7c 2d3c c897 38be 7007 6bbd 20c7 d3be
00000090: 1e44 623e ed70 44be d268 d03d fe8a 823d
000000a0: 866b c13d 5f8e 653e b9ed 0b3e 23ac 94bc
000000b0: 58f5 02be 6e56 b9be 87ad 14be 6e67 9ebd
000000c0: 0a2f b5bd 3f61 123b d755 8dbe 9d22 0dbe
000000d0: 765b 90bd ec4c 06bf 1362 193e b422 08bf
000000e0: 8b90 2bbe 4687 873e 58f6 d33c 6825 503c
000000f0: c1b8 173e 4966 ac3d eb9d 513e 6d10 94be
00000100: d9c4 033d aec5 973d a8b9 b0be 240b 87be
00000110: d11f 1cbf 584b ddbe d90e a2be 2ef8 78be
00000120: 5fdb 36be ab7f 463e 409d a7be e999 123e
00000130: 4b87 023e 9f08 913d caf3 d0bd 4b79 0ebe
00000140: 1f4d bb3c e79b 98bd f31d 8dbd bad2 ab3e
00000150: 736b 583e 0e38 0bbf 98e1 38be 4686 a1bd
00000160: fe62 83be 170f 543e d266 123f ae4a 0e3e
00000170: fcd1 9b3d 3a92 083d 2238 43be da5e cdbe
00000180: d608 28bd e1b3 593e ab01 433b 5e16 3cbc
00000190: 5d6f a5be 21a4 1a3f 119e 8cbe d527 113e
000001a0: 354f d73e 9ed0 a1be 425d ae3d be34 3a3e
000001b0: e930 063f ec7f 88bd 280c 9b3c 5f04 bd3d
000001c0: f7aa 7dbd 9859 9a3e bce8 7a3e 97dc 1b3d
000001d0: 9f8d 043e 9428 3f3e 732d 9dbe 30b8 363f
000001e0: 9595 ae3d e7bb 15bf bd62 16bd d8e3 a33e
000001f0: 7197 8cbe 759c ad3d ca01 dbbd e611 bf3e
00000200: 8d23 f93d bf08 1fbd e27c a3bd 54db dcbe
00000210: 5b22 0d3e 7beb d4be c0e7 27bc 47ee 823e
00000220: a25a 99bd 38bb 46be a71f b33e 9924 cbbd
00000230: c9a4 39bc fbd7 04be ccab eb3d fe2f aa3e
00000240: 3062 163e 0e0b c8be 9e7a fd3d 44b4 09bd
00000250: a65b 693e 6d5b 123c d157 68bd 9ed1 be3e
00000260: 0725 e3bb a71f 1dbe c189 463e 7310 21be
00000270: 5813 e1bd 8ceb 0fbd 8dd8 49be db40 f03d
00000280: e4ca 6e3d e133 f93d c159 033f b6f2 b3bd
00000290: 010c aabd 4a69 5dbd 6a06 0fbe 67c8 eebc
000002a0: a5ca 9cbe 6de1 9b3e 8e65 81be 0585 ef3e
000002b0: 26ce b7be 000c 463e b7bd 94bd 6645 473d
000002c0: ccf2 173c 4647 febc 735a 45be 826d 11bd
000002d0: 2671 b13e 7140 33be 5dee a53d eab8 d2be
000002e0: f7ed cc3e d4e5 e23b 4dac a13e 0c41 343d
000002f0: 6db6 e7be 4645 3fbd 2ddf b53e 75cb c63d
00000300: a2fa 3bbc c03d 103e 89aa 16bb af89 863e
00000310: 08a7 23be bde9 873e fe7c 4d3d bc49 37bd
00000320: 5a1f 293e 6cd0 4b3e c448 aebe 737f 143e
00000330: 70b9 9e3d 0e1b d53e 4a2f 20bc 60bd 86be
00000340: b1fc 04be 3575 173e 8122 8cbe 6ab8 6dbe
00000350: 4704 d8be 5850 abbe 3341 36be b4d3 aabe
00000360: 4d1a 1aba 7304 93bd 1dc8 ddbd 7dfa a83e
00000370: c000 b43e cf11 973d 355b fa3d c8aa 2abe
00000380: 37f5 a4bd 66a2 aabe b314 f8be 9232 ce3e
00000390: 23a1 283d cdbe f0bc 5e0b 723e 2ac2 a13e
000003a0: d06d e63e aeba 5dbe 97b2 153e a6d2 8fbe
000003b0: a01e 613e e9b5 e1be 95e9 5d3e 03bb 1dbe
000003c0: 062c 37be 2e43 973e 8e5d be3e 1c0d 1e3e
000003d0: c8a1 82be 8c07 4b3e ee63 a5bd 2ce0 723e
000003e0: 9441 91be 116d 963d ac1d 14be 55f9 0ebb
000003f0: f8f3 973e 6aea a03e b9be 873d b9cc 06bd

rnn.bias_ih_l1 f4 [64]
-0.2165772 0.01348081 -0.159365 0.19099994 -0.5001157 0.040741216 -0.07108959 -0.32040983
-0.05279231 0.041483518 -0.20260608 -0.098017626 0.117591724 -0.031516116 -0.080218226 -0.27055526
-0.07262646 -0.13931006 0.13883859 -0.041644298 0.15767059 -0.22525617 0.03193139 0.19742179
-0.1551647 -0.17562498 0.21874683 -0.035738643 -0.14498869 -0.18206103 0.083466575 -0.27944618
-0.1310562 -0.026610347 0.04923795 0.3425141 -0.2383568 0.005582387 0.10713364 -0.06721796
0.1705346 -0.17587388 0.1328889 0.2485478 0.031739805 0.21707131 0.110258445 0.13558292
-0.15297285 0.05702518 0.4180155 0.29451028 -0.2641514 0.2866429 -0.14359795 0.3274254
0.041703004 -0.16691737 -0.16161905 0.22967386 -0.07309938 0.002325498 -0.10099172 0.33285102
00000000: 6ac6 5dbe 9ede 5c3c 9430 23be 7d95 433e
00000010: 9507 00bf 43e0 263d 6b97 91bd c20c a4be
00000020: c03c 58bd 9fea 293d f877 4fbe 77bd c8bd
00000030: eed3 f03d 0b17 01bd 7449 a4bd 3886 8abe
00000040: 2ebd 94bd 4ca7 0ebe b42b 0e3e 3693 2abd
00000050: 6674 213e 8ea9 66be 7dca 023d f028 4a3e
00000060: 7fe3 1ebe 09d7 33be 2bff 5f3e af62 12bd
00000070: ea77 14be 356e 3abe 86f0 aa3d 9213 8fbe
00000080: 9933 06be f1fd d9bc bcad 493d 025e af3e
00000090: ce13 74be 75ec b63b e268 db3d 92a9 89bd
000000a0: 9fa0 2e3e 4818 34be 0714 083e 5183 7e3e
000000b0: 9901 023d f147 5e3e 2ecf e13d 40d6 0a3e
000000c0: eaa4 1cbe 3c93 693d 2106 d63e 0dca 963e
000000d0: da3e 87be dcc2 923e 570b 13be 4da4 a73e
000000e0: c5d0 2a3d 63ec 2abe 777f 25be a02f 6b3e
000000f0: 21b5 95bd 6267 183b bfd4 cebd 736b aa3e

rnn.bias_hh_l1 f4 [64]
-0.13587226 0.1616573 -0.24632706 0.16624363 -0.45737964 0.033475902 -0.20495631 -0.3135942
-0.16042101 -0.035309687 -0.078100316 -0.023571918 0.23657991 0.0108576035 -0.0051037306 -0.184329
-0.24810302 -0.042887367 0.14058284 -0.04980344 0.11401684 -0.18550691 0.2353878 0.13367839
-0.10013528 -0.09199225 0.17768408 0.05504721 -0.024389224 -0.20318021 -0.11572918 -0.19457708
-0.20305419 0.042191334 0.16688348 0.2693777 -0.24209817 -0.0084861 0.18314035 -0.12598167
0.032105487 -0.11398216 0.12835538 0.272084 -0.0740397 0.195514 0.15052585 0.29528317
0.055232346 -0.0023573574 0.29744494 0.25348905 -0.25501722 0.22520748 -0.09666275 0.17135017
-0.14030871 -0.23981155 -0.19129841 0.13859053 -0.04270228 -0.14520843 -0.19233683 0.1920569
00000000: 1922 0bbe 7e89 253e 293d 7cbe c53b 2a3e
00000010: aa2d eabe 071e 093d 11e0 51be 6b8f a0be
00000020: 6845 24be e4a0 10bd 0ff3 9fbd e519 c1bc
00000030: 0142 723e 17e4 313c 323d a7bb bec0 3cbe
00000040: b80e 7ebe aaaa 2fbd f3f4 0f3e b1fe 4bbd
00000050: a981 e93d 86f5 3dbe 8009 713e fde2 083e
00000060: ba13 cdbd 6f66 bcbd d1f2 353e 2f79 613d
00000070: e9cb c7bc 790e 50be 6c03 edbd 373f 47be
00000080: 70ed 4fbe d2d0 2c3d 81e3 2a3e e0eb 893e
00000090: 95e8 77be 4809 0bbc 2589 3b3e 5701 01be
000000a0: 0b81 033d 7b6f e9bd 986f 033e 984e 8b3e
000000b0: 20a2 97bd d234 483e 7323 1a3e 5b2f 973e
000000c0: 503b 623d e57d 1abb b44a 983e 51c9 813e
000000d0: 9e91 82be ca9c 663e 1ff7 c5bd 6b76 2f3e
000000e0: 16ad 0fbe 2991 75be bbe3 43be adea 0d3e
000000f0: 96e8 2ebd 85b1 14be f2f3 44be 90aa 443e

dense.weight f4 [1, 64]
0.0351747 -0.09714422 -0.038842786 0.018878145 -0.022703396 0.088720314 0.06297252 0.057928883
0.08476564 -0.12682378 0.035153724 0.07218343 0.006036279 -0.021400575 0.12516277 0.075758085
-0.06505286 0.20344768 0.104263954 -0.06975386 -0.051524784 0.03765844 0.029935174 0.010384138
0.15212262 0.04095395 -0.028295556 -0.064807795 -0.054728217 0.024942141 0.068572424 0.1567452
0.047344327 -0.062213108 0.027348058 -0.15270157 0.060015395 -0.105523586 -0.05520458 0.048806313
0.035756394 0.055099227 -0.08114335 -0.023653256 0.05858115 0.011708227 0.18949921 -0.022241559
-0.048938867 -0.08827959 -0.16135904 -0.037772387 0.11722357 -0.07246544 0.07839542 -0.052043203
-0.14261667 0.044138715 -0.030187102 0.053671066 0.05038826 -0.065841384 -0.14263643 -0.13741304
00000000: 5913 103d 8cf3 c6bd 9d19 1fbd 57a6 9a3c
00000010: 79fc b9bc ffb2 b53d bdf7 803d d646 6d3d
00000020: 9c99 ad3d 18de 01be 5afd 0f3d e8d4 933d
00000030: facb c53b 4250 afbc ab2a 003e 0e27 9b3d
00000040: 6f3a 85bd 9754 503e 5788 d53d 1ddb 8ebd
00000050: a70b 53bd bd3f 1a3d 9c3a f53c 3b22 2a3c
00000060: 08c6 1b3e 54bf 273d 15cc e7bc f3b9 84bd
00000070: b22a 60bd 7653 cc3c b36f 8c3d d081 203e
00000080: 20ec 413d 2cd3 7ebd 0909 e03c cd5d 1cbe
00000090: b4d2 753d c01c d8bd 331e 62bd 21e9 473d
000000a0: 4c75 123d baaf 613d 7c2e a6bd 79c4 c1bc
000000b0: caf2 6f3d ddd3 3f3c 150c 423e ee33 b6bc
000000c0: 1f74 48bd eecb b4bd 4e3b 25be 38b7 1abd
000000d0: e912 f03d c368 94bd c78d a03d 412b 55bd
000000e0: 1b0a 12be ccca 343d f14a f7bc 31d6 5b3d
000000f0: ec63 4e3d d9d7 86bd 490f 12be 01b6 0cbe

exp_avg f4 [64, 1]
-1.405978e-08 1.1176171e-09 6.0546594e-12 -3.2116987e-09 6e-45 4.3594722e-14 5.1683493e-09 -1.0579476e-07
1.8378873e-10 4.415496e-12 -4.1117994e-11 6.127668e-12 1.5114295e-12 -2.3203845e-11 4.8722733e-09 3.5107507e-12
-1.0372203e-08 -1.7630501e-11 -5.070602e-13 6e-45 -6e-45 -6e-45 6e-45 6e-45
-6e-45 -6e-45 -4.1434158e-11 6e-45 -1.4908345e-10 1.9808467e-11 -6e-45 1.2552012e-12
4.5107278e-21 -5.7066224e-17 1.1137395e-08 -4.2379977e-10 -6e-45 -8.9955994e-11 6e-45 6e-45
6e-45 1.6933254e-09 -6e-45 6e-45 -2.1572306e-10 -2.1404363e-12 -5.365356e-08 -7.927845e-09
6.6225125e-10 -4.637473e-08 -5.862298e-13 2.0447079e-10 6.53538e-11 -2.1144901e-09 6e-45 -3.375968e-07
1.4420372e-12 -3.5889455e-12 -1.614846e-07 -8.8812663e-10 -4.359969e-12 -1.7637992e-10 2.323136e-08 2.121166e-10
00000000: 918b 71b2 a89a 9930 8607 d52c cdb4 5cb1
00000010: 0400 0000 4b55 4429 4895 b131 4931 e3b3
00000020: ee13 4a2f 415b 9b2c bfd6 34ae 2099 d72c
00000030: fdb6 d42b 6a1a ccad f868 a731 100c 772c
00000040: 6e31 32b2 5c14 9bad 8ab9 0eab 0400 0000
00000050: 0400 0080 0400 0080 0400 0000 0400 0000
00000060: 0400 0080 0400 0080 b73a 36ae 0400 0000
00000070: 43eb 23af b43c ae2d 0400 0080 64a7 b02b
00000080: 1569 aa1d f495 83a4 c856 3f32 84fc e8af
00000090: 0400 0080 b9d0 c5ae 0400 0000 0400 0000
000000a0: 0400 0000 97ba e830 0400 0080 0400 0000
000000b0: a530 6daf ac9e 16ac b770 66b3 0833 08b2
000000c0: ca09 3630 8e2d 47b3 4f02 25ab 69d1 602f
000000d0: ebb6 8f2e 814e 11b1 0400 0000 f33e b5b4
000000e0: def2 ca2b b28c 7cac 8d64 2db4 5b20 74b0
000000f0: 1c67 99ac 89ee 41af 4d8e c732 8439 692f

exp_avg_sq f4 [64, 1]
9.2106886e-05 0.0003808268 0.0005071395 9.238532e-06 4.6800804e-05 7.779819e-05 0.00010630099 2.745422e-05
1.2149318e-05 9.551189e-06 2.1517417e-05 0.00055016205 0.00023359126 0.00044156468 2.5755611e-05 2.6528252e-05
0.00020265028 3.718219e-05 0.00022130547 1.7411197e-05 0.00032630275 5.5854158e-05 0.00023072805 9.3700684e-05
2.1698088e-06 0.0004124995 7.471568e-05 5.8949445e-05 0.00018317073 7.705804e-05 1.1955031e-05 0.00047588663
8.472588e-05 0.00067791156 0.00026428417 2.5896146e-05 4.8217576e-06 2.3196984e-05 9.3427305e-05 2.9961991e-05
7.61281e-06 0.00025328694 5.220938e-05 0.00038254526 3.1154115e-05 5.763167e-05 0.0002732051 0.00027679015
1.6288539e-05 0.00011371611 0.00041454268 3.2457225e-05 0.00017380457 0.00012382484 9.62143e-05 4.143221e-05
0.00013406185 0.00017453647 2.2388645e-05 8.236066e-06 1.2659004e-05 0.00031333804 7.104747e-05 1.6927668e-05
00000000: 8229 c138 b5a9 c739 8ef1 043a 31ff 1a37
00000010: fb4b 4438 9627 a338 e9ed de38 7d4d e637
00000020: ecd4 4b37 0b3e 2037 4d80 b437 c038 103a
00000030: 2df0 7439 cf81 e739 c10d d837 fd88 de37
00000040: 857e 5439 13f4 1b38 3c0e 6839 430e 9237
00000050: 9d13 ab39 f244 6a38 97ef 7139 2c81 c438
00000060: 089d 1136 bf44 d839 adb0 9c38 7c40 7738
00000070: 8511 4039 389a a138 7892 4837 6c80 f939
00000080: dcae b138 e0b5 313a 9f8f 8a39 8d3b d937
00000090: 95ca a136 2597 c237 67ee c338 e356 fb37
000000a0: 8a71 ff36 99cb 8439 65fb 5a38 5b90 c839
000000b0: 7aab 0238 89b9 7138 f83c 8f39 251e 9139
000000c0: 5fa3 8837 df7a ee38 fa56 d939 ae22 0838
000000d0: 4f3f 3639 fad6 0139 a9c6 c938 7fc7 2d38
000000e0: f492 0c39 c703 3739 40cf bb37 a22d 0a37
000000f0: 0262 5437 8547 a439 52ff 9438 e4ff 8d37

exp_avg f4 [64, 64]
5.5063287e-09 5.4995053e-09 5.499505e-09 -5.506328e-09 5.506332e-09 -5.499505e-09 5.506329e-09 -5.4705387e-09
5.499506e-09 5.499508e-09 -5.506332e-09 5.499505e-09 5.499505e-09 -5.499505e-09 5.499505e-09 5.499505e-09
5.4995057e-09 -5.506332e-09 5.499506e-09 5.506332e-09 5.499505e-09 -5.506332e-09 5.499505e-09 5.506332e-09
5.506332e-09 5.499505e-09 -5.506332e-09 -5.506332e-09 -5.4995817e-09 -5.5063305e-09 -5.506332e-09 5.499505e-09
-5.506332e-09 5.499505e-09 -5.506329e-09 5.506285e-09 -5.506332e-09 5.5063363e-09 5.506332e-09 5.506332e-09
5.506332e-09 5.4995053e-09 5.506332e-09 -5.499505e-09 -5.499527e-09 5.506332e-09 -5.499505e-09 5.505488e-09
5.4995053e-09 5.5023444e-09 -5.4995053e-09 5.506332e-09 5.5063283e-09 5.5060156e-09 -5.506332e-09 -5.9729564e-09
-5.499505e-09 -5.499505e-09 -5.4992606e-09 5.506143e-09 -5.506332e-09 -5.499505e-09 -5.495893e-09 5.4995057e-09
-5.6230753e-10 -5.623078e-10 -5.623078e-10 5.623074e-10 -5.623078e-10 5.623078e-10 -5.623078e-10 5.590427e-10
-5.6230776e-10 -5.6230787e-10 5.623078e-10 -5.623078e-10 -5.623078e-10 5.623078e-10 -5.623078e-10 -5.623078e-10
-5.623078e-10 5.623078e-10 -5.6230776e-10 -5.623078e-10 -5.623078e-10 5.623078e-10 -5.623078e-10 -5.623078e-10
-5.623078e-10 -5.623078e-10 5.623077e-10 5.623078e-10 5.623122e-10 5.6230764e-10 5.623078e-10 -5.623078e-10
5.623078e-10 -5.623078e-10 5.623078e-10 -5.6230354e-10 5.623078e-10 -5.623077e-10 -5.623078e-10 -5.623078e-10
-5.623078e-10 -5.623078e-10 -5.623078e-10 5.623078e-10 5.623092e-10 -5.623078e-10 5.623078e-10 -5.622325e-10
-5.623078e-10 -5.6192867e-10 5.623078e-10 -5.623078e-10 -5.623075e-10 -5.622797e-10 5.623078e-10 5.8843963e-10
5.623078e-10 5.623078e-10 5.614611e-10 -5.6229016e-10 5.623078e-10 5.623078e-10 5.613236e-10 -5.623078e-10
-4.165576e-12 -4.1655746e-12 -4.1655746e-12 4.165575e-12 -4.165578e-12 4.1655746e-12 -4.165578e-12 4.1442435e-12
-4.165574e-12 -4.165575e-12 4.165578e-12 -4.1655746e-12 -4.1655746e-12 4.1655746e-12 -4.1655746e-12 -4.1655746e-12
-4.1655746e-12 4.165578e-12 -4.1655746e-12 -4.165578e-12 -4.1655746e-12 4.165578e-12 -4.1655746e-12 -4.165578e-12
-4.165578e-12 -4.1655746e-12 4.165577e-12 4.165578e-12 4.165589e-12 4.1655763e-12 4.165578e-12 -4.1655746e-12
4.165578e-12 -4.1655746e-12 4.165578e-12 -4.16555e-12 4.165578e-12 -4.165574e-12 -4.165578e-12 -4.165578e-12
-4.165578e-12 -4.1655746e-12 -4.165578e-12 4.1655746e-12 4.1655793e-12 -4.165578e-12 4.1655746e-12 -4.165091e-12
-4.1655746e-12 -4.162936e-12 4.1655746e-12 -4.165578e-12 -4.165576e-12 -4.1653976e-12 4.165578e-12 4.2305157e-12
4.1655746e-12 4.1655746e-12 4.154173e-12 -4.165458e-12 4.165578e-12 4.1655746e-12 4.158934e-12 -4.1655746e-12
2.0473174e-09 2.0258268e-09 2.0258268e-09 -2.0473216e-09 2.047323e-09 -2.0258268e-09 2.0473185e-09 -2.036557e-09
2.0258268e-09 2.0258266e-09 -2.047323e-09 2.0258268e-09 2.0258268e-09 -2.0258268e-09 2.0258266e-09 2.0258268e-09
2.0258277e-09 -2.0473228e-09 2.0258264e-09 2.047323e-09 2.0258268e-09 -2.047323e-09 2.0258268e-09 2.047323e-09
2.047323e-09 2.0258268e-09 -2.047323e-09 -2.047323e-09 -2.025835e-09 -2.0473225e-09 -2.047323e-09 2.0258268e-09
-2.047323e-09 2.0258268e-09 -2.0473105e-09 2.0473088e-09 -2.047323e-09 2.0473212e-09 2.047323e-09 2.047323e-09
2.047323e-09 2.0258268e-09 2.047323e-09 -2.0258268e-09 -2.0258295e-09 2.047323e-09 -2.0258266e-09 2.0470765e-09
2.0258268e-09 2.0460125e-09 -2.0258268e-09 2.047323e-09 2.0473219e-09 2.0472313e-09 -2.047323e-09 -2.0682627e-09
-2.0258268e-09 -2.0258268e-09 -2.0207478e-09 2.0472632e-09 -2.047323e-09 -2.0258268e-09 -2.0440005e-09 2.0258273e-09
00000000: 2e32 bd31 29f6 bc31 28f6 bc31 2c32 bdb1
00000010: 3532 bd31 28f6 bcb1 2f32 bd31 5ef7 bbb1
00000020: 2bf6 bc31 2ff6 bc31 3532 bdb1 28f6 bc31
00000030: 28f6 bc31 28f6 bcb1 28f6 bc31 28f6 bc31
00000040: 2af6 bc31 3532 bdb1 2bf6 bc31 3532 bd31
00000050: 28f6 bc31 3532 bdb1 28f6 bc31 3532 bd31
00000060: 3532 bd31 28f6 bc31 3532 bdb1 3532 bdb1
00000070: d5f6 bcb1 3232 bdb1 3532 bdb1 28f6 bc31
00000080: 3532 bdb1 28f6 bc31 2f32 bdb1 cc31 bd31
00000090: 3532 bdb1 3f32 bd31 3532 bd31 3532 bd31
000000a0: 3532 bd31 29f6 bc31 3532 bd31 28f6 bcb1
000000b0: 5af6 bcb1 3532 bd31 28f6 bcb1 c92a bd31
000000c0: 29f6 bc31 220f bd31 29f6 bcb1 3532 bd31
000000d0: 2d32 bd31 6d2f bd31 3532 bdb1 ae3a cdb1
000000e0: 28f6 bcb1 28f6 bcb1 02f4 bcb1 8c30 bd31
000000f0: 3532 bdb1 28f6 bcb1 63d6 bcb1 2af6 bc31
00000100: e090 1ab0 e590 1ab0 e590 1ab0 de90 1a30
00000110: e590 1ab0 e590 1a30 e590 1ab0 22ab 1930
00000120: e490 1ab0 e690 1ab0 e590 1a30 e590 1ab0
00000130: e590 1ab0 e590 1a30 e590 1ab0 e590 1ab0
00000140: e590 1ab0 e590 1a30 e490 1ab0 e590 1ab0
00000150: e590 1ab0 e590 1a30 e590 1ab0 e590 1ab0
00000160: e590 1ab0 e590 1ab0 e390 1a30 e590 1a30
00000170: 3491 1a30 e290 1a30 e590 1a30 e590 1ab0
00000180: e590 1a30 e590 1ab0 e590 1a30 9890 1ab0
00000190: e590 1a30 e390 1ab0 e590 1ab0 e590 1ab0
000001a0: e590 1ab0 e590 1ab0 e590 1ab0 e590 1a30
000001b0: fe90 1a30 e590 1ab0 e590 1a30 988b 1ab0
000001c0: e590 1ab0 3776 1ab0 e590 1a30 e590 1ab0
000001d0: df90 1ab0 eb8e 1ab0 e590 1a30 c2bf 2130
000001e0: e590 1a30 e590 1a30 5055 1a30 a78f 1ab0
000001f0: e590 1a30 e590 1a30 a34b 1a30 e590 1ab0
00000200: 2c90 92ac 2990 92ac 2990 92ac 2a90 922c
00000210: 3190 92ac 2990 922c 3190 92ac 07d0 912c
00000220: 2890 92ac 2a90 92ac 3190 922c 2990 92ac
00000230: 2990 92ac 2990 922c 2990 92ac 2990 92ac
00000240: 2990 92ac 3190 922c 2990 92ac 3190 92ac
00000250: 2990 92ac 3190 922c 2990 92ac 3190 92ac
00000260: 3190 92ac 2990 92ac 2f90 922c 3190 922c
00000270: 4a90 922c 2d90 922c 3190 922c 2990 92ac
00000280: 3190 922c 2990 92ac 3190 922c f08f 92ac
00000290: 3190 922c 2890 92ac 3190 92ac 3190 92ac
000002a0: 3190 92ac 2990 92ac 3190 92ac 2990 922c
000002b0: 3490 922c 3190 92ac 2990 922c ce8b 92ac
000002c0: 2990 92ac 6578 92ac 2990 922c 3190 92ac
000002d0: 2c90 92ac 918e 92ac 3190 922c 19d9 942c
000002e0: 2990 922c 2990 922c 7729 922c 1c8f 92ac
000002f0: 3190 922c 2990 922c 5954 922c 2990 92ac
00000300: cab0 0c31 b936 0b31 b936 0b31 ddb0 0cb1
00000310: e3b0 0c31 b936 0bb1 cfb0 0c31 7df3 0bb1
00000320: b936 0b31 b836 0b31 e3b0 0cb1 b936 0b31
00000330: b936 0b31 b936 0bb1 b836 0b31 b936 0b31
00000340: bd36 0b31 e2b0 0cb1 b736 0b31 e3b0 0c31
00000350: b936 0b31 e3b0 0cb1 b936 0b31 e3b0 0c31
00000360: e3b0 0c31 b936 0b31 e3b0 0cb1 e3b0 0cb1
00000370: de36 0bb1 e1b0 0cb1 e3b0 0cb1 b936 0b31
00000380: e3b0 0cb1 b936 0b31 abb0 0cb1 a3b0 0c31
00000390: e3b0 0cb1 dbb0 0c31 e3b0 0c31 e3b0 0c31
000003a0: e3b0 0c31 b936 0b31 e3b0 0c31 b936 0bb1
000003b0: c536 0bb1 e3b0 0c31 b836 0bb1 8dac 0c31
000003c0: b936 0b31 d599 0c31 b936 0bb1 e3b0 0c31
000003d0: deb0 0c31 46af 0c31 e3b0 0cb1 4321 0eb1
000003e0: b936 0bb1 b936 0bb1 5fdd 0ab1 d6af 0c31
000003f0: e3b0 0cb1 b936 0bb1 7076 0cb1 bb36 0b31

exp_avg_sq f4 [64, 64]
8.6690525e-06 9.512288e-07 1.774912e-06 2.7839358e-06 8.704585e-07 8.489367e-06 2.8778165e-06 7.980334e-06
5.666221e-06 3.7969494e-06 1.8097363e-06 8.642352e-07 2.0431598e-06 2.2398135e-06 5.491037e-06 1.4262093e-06
5.439935e-06 6.7058186e-06 2.1382293e-06 3.1864977e-06 4.2979404e-06 1.6270894e-06 2.1104406e-06 3.3643212e-06
9.623187e-07 3.8605017e-06 8.2358713e-07 7.769291e-06 5.592633e-06 2.8964082e-06 2.2343356e-06 2.0998586e-06
6.0155554e-07 4.890867e-06 7.6071315e-06 9.063608e-07 3.09457e-07 2.1997162e-06 1.0984501e-06 4.2066217e-06
1.4684953e-06 5.1831216e-06 5.313776e-06 2.1363096e-06 6.0459824e-06 2.5910756e-06 1.098374e-06 2.7202873e-06
4.6116365e-06 3.1178208e-06 2.2019826e-06 1.5099396e-06 1.7091074e-06 6.927148e-06 8.294068e-06 5.734362e-06
1.3651687e-06 2.7882063e-06 3.1795466e-06 7.707461e-06 1.1622301e-06 1.3046322e-06 8.281023e-06 2.5153527e-06
1.4130311e-06 6.5622527e-07 3.5979465e-07 4.847654e-07 1.0553218e-06 1.0458758e-06 1.5933975e-06 1.3008677e-06
6.382025e-07 6.3180903e-07 4.963206e-07 9.055808e-07 2.2139527e-07 7.896072e-07 6.0885134e-07 2.6504333e-07
1.8664585e-06 1.4914361e-06 3.3686283e-07 1.778867e-06 5.9043566e-07 1.5092058e-06 4.4286114e-07 1.3019041e-06
5.6339263e-07 4.763873e-07 3.693934e-07 2.0192333e-06 8.936276e-07 9.236183e-07 1.2293052e-06 2.629368e-07
9.329081e-07 6.5920824e-07 1.8501212e-06 4.758624e-07 1.0730666e-06 9.3217136e-07 7.565177e-07 1.6577999e-06
8.616924e-07 1.0450518e-06 1.5384097e-06 3.1581845e-07 1.2128642e-06 1.0446457e-06 1.0522506e-06 3.150226e-07
8.3442586e-07 6.438976e-07 3.5183163e-07 8.122145e-07 4.4185472e-07 1.4321887e-06 1.7195256e-06 8.2041885e-07
1.5132714e-06 8.662487e-07 3.0294282e-07 1.5372268e-06 1.1391422e-06 4.0974487e-07 1.3472811e-06 1.2214031e-06
1.3318824e-07 2.4872156e-07 5.8330204e-07 8.855701e-08 1.2223326e-07 9.81915e-08 4.909312e-07 1.6228249e-07
2.6016005e-07 2.7229157e-07 5.4647607e-08 5.1343386e-07 4.7345154e-07 4.7747517e-07 3.3983756e-07 3.427304e-07
2.4766013e-07 8.338672e-08 5.4056346e-07 2.5258413e-07 2.572682e-07 2.3333055e-07 3.5440547e-07 1.4136475e-07
3.2533983e-08 2.5751172e-07 1.02858735e-07 1.3216278e-07 2.9333327e-07 4.790079e-08 1.2124713e-07 3.79412e-07
1.4769132e-07 4.2633548e-07 1.3738271e-07 7.305611e-08 3.457484e-07 7.013124e-08 6.283949e-08 1.6503907e-07
8.100742e-08 3.6791593e-07 1.0196297e-07 3.1781332e-07 2.2864552e-07 1.4833816e-07 4.2252398e-07 3.8131063e-07
1.13236375e-07 1.9881143e-07 5.2047864e-07 3.8572548e-08 5.0984976e-08 5.4164065e-08 1.967898e-07 2.522426e-07
4.6793951e-07 6.092285e-07 4.0052402e-07 1.15909124e-07 1.2228996e-07 1.2200317e-07 1.2796973e-07 1.4063808e-07
1.4212052e-06 5.777101e-07 2.4150668e-06 9.821622e-07 4.7420582e-07 8.0666916e-07 8.5173014e-07 1.4222637e-06
1.6195632e-06 1.6416856e-06 1.2214044e-06 1.3920771e-06 2.411917e-06 1.5184927e-06 2.0899697e-06 1.9236577e-06
3.775398e-07 1.1058246e-06 2.4151097e-06 4.3063062e-07 1.5054975e-06 3.304602e-07 1.4361694e-06 2.426273e-07
1.2604238e-07 1.4354545e-06 6.6901623e-07 1.0259627e-06 1.9881636e-06 1.3799333e-06 4.3825938e-07 2.1096944e-06
9.6274334e-08 1.955015e-06 6.288838e-07 7.5078185e-07 3.146618e-07 1.4855409e-06 3.0763348e-07 4.4966464e-07
1.4429435e-07 1.3926062e-06 6.5841664e-07 1.439483e-06 1.8335436e-06 1.0634883e-06 9.229422e-07 2.2755771e-06
2.6443476e-07 2.0156967e-06 2.09855e-06 9.677424e-07 8.532917e-07 5.073754e-07 4.142324e-07 1.8578809e-06
6.688276e-07 1.972565e-06 2.271293e-06 1.7188995e-06 7.3863447e-07 7.190615e-07 1.530403e-06 2.3538728e-07
00000000: 4c71 1137 f257 7f35 8339 ee35 a7d3 3a36
00000010: 74a9 6935 8e6d 0e37 8320 4136 46e3 0537
00000020: 7820 be36 18cf 7e36 11e6 f235 cafd 6735
00000030: 381d 0936 b44f 1636 a63f b836 2e6c bf35
00000040: b088 b636 8b02 e136 807e 0f36 9dd7 5536
00000050: 0737 9036 5e62 da35 18a1 0d36 99c6 6136
00000060: 0529 8135 7589 8136 7a14 5d35 da58 0237
00000070: 5aa8 bb36 ea5f 4236 98f1 1536 4ceb 0c36
00000080: 957a 2135 3a1c a436 c340 ff36 a44c 7335
00000090: 7223 a634 d69e 1336 756e 9335 9b26 8d36
000000a0: 1d19 c535 adea ad36 fd4c b236 855d 0f36
000000b0: 98de ca36 57e2 2d36 d86b 9335 2e8e 3636
000000c0: a8bd 9a36 c13b 5136 c6c5 1336 21a9 ca35
000000d0: 7c64 e535 c06f e836 c026 0b37 cb69 c036
000000e0: d73a b735 051d 3b36 3260 5536 4b4f 0137
000000f0: ecfd 9b35 d21a af35 b9ee 0a37 6ecd 2836
00000100: 61a7 bd35 7527 3035 cd29 c134 d320 0235
00000110: 95a4 8d35 0560 8c35 b9dc d535 7999 ae35
00000120: f150 2b35 9699 2935 e43a 0535 0a17 7335
00000130: abb8 6d34 65f5 5335 f26f 2335 474b 8e34
00000140: 0783 fa35 5b2d c835 13da b434 68c1 ee35
00000150: 6e7e 1e35 eb8f ca35 5fc2 ed34 16bd ae35
00000160: 0c3c 1735 2cc2 ff34 0b51 c634 2a82 0736
00000170: 9fe1 6f35 91ee 7735 9bfe a435 c229 8d34
00000180: f56c 7a35 72f4 3035 ae51 f835 087a ff34
00000190: 4a06 9035 543a 7a35 8013 4b35 9281 de35
000001a0: 0d4f 6735 b543 8c35 5b7b ce35 c28d a934
000001b0: b2c9 a235 c135 8c35 0e3b 8d35 6020 a934
000001c0: 4ffd 5f35 4ed8 2c35 5fe3 bc34 f506 5a35
000001d0: 0d38 ed34 a139 c035 73ca e635 c13a 5c35
000001e0: 9c1b cb35 2888 6835 25a4 a234 b652 ce35
000001f0: a1e4 9835 e8fa db34 3ad4 b435 17ef a335
00000200: 8102 0f34 0888 8534 3694 1c35 bb2c be33
00000210: 393f 0334 59dd d233 89c8 0335 df3f 2e34
00000220: 20ac 8b34 782f 9234 aeb5 6a33 e8d2 0935
00000230: af2e fe34 d82b 0035 eb72 b634 8200 b834
00000240: 26f6 8434 5612 b333 3d1b 1135 e69a 8734
00000250: ac1e 8a34 6a89 7a34 1e45 be34 0cca 1734
00000260: 7ebb 0b33 2440 8a34 30e3 dc33 a1e8 0d34
00000270: 6b7b 9d34 7abb 4d33 2830 0234 fdb1 cb34
00000280: 1595 1e34 1ae3 e434 7983 1334 05e3 9c33
00000290: 4c9f b934 0f9b 9633 60f2 8633 9835 3134
000002a0: 4df6 ad33 fb85 c534 bcf6 da33 ee9f aa34
000002b0: 9a81 7534 e246 1f34 41d7 e234 efb6 cc34
000002c0: 5b2c f333 df78 5534 05b7 0b35 f7aa 2533
000002d0: 93fa 5a33 05a2 6833 2b4d 5334 f56b 8734
000002e0: 1e39 fb34 dd89 2335 9a07 d734 b7e9 f833
000002f0: cf4e 0334 faff 0234 0d68 0934 4d02 1734
00000300: 3dc0 be35 f013 1b35 8812 2236 d6d2 8335
00000310: 5a96 fe34 e289 5835 73a2 6435 9ce4 be35
00000320: c55f d935 e357 dc35 23ef a335 68d7 ba35
00000330: 6bdc 2136 03cf cb35 6841 0c36 3018 0136
00000340: adb0 ca34 d86b 9435 4513 2236 6c31 e734
00000350: 8010 ca35 1b6a b134 68c2 c035 7142 8234
00000360: 4456 0734 d7a9 c035 7296 3335 cfb3 8935
00000370: 646c 0536 2636 b935 e949 eb34 4694 0d36
00000380: 60bf ce33 e732 0336 91d0 2835 5689 4935
00000390: caee a834 cc62 c735 d328 a534 7069 f134
000003a0: 54ef 1a34 96e9 ba35 0cbe 3035 4234 c135
000003b0: 1418 f635 2ebd 8e35 1bc0 7735 1eb6 1836
000003c0: a3f7 8d34 6845 0736 d1d4 0c36 60e3 8135
000003d0: c20d 6535 9232 0835 ab63 de34 4d5c f935
000003e0: 7c89 3335 6960 0436 846c 1836 f0b4 e635
000003f0: 9346 4635 8805 4135 3f68 cd35 c3be 7c34

exp_avg f4 [64]
5.6863905e-09 -5.6309923e-10 -4.1644435e-12 2.0268136e-09 -6e-45 2.4464442e-13 2.7877147e-09 2.2737307e-08
-1.2995524e-10 3.4690553e-12 8.0378705e-13 -3.8382062e-12 -1.6189314e-12 1.8375423e-11 -4.1592063e-09 -1.4872627e-12
-2.1918336e-09 -2.3905109e-11 1.1206528e-12 -6e-45 6e-45 6e-45 -6e-45 -6e-45
6e-45 6e-45 2.1664047e-11 6e-45 -1.1878318e-10 -5.3890317e-12 6e-45 -3.6656079e-13
-1.9617033e-21 -5.0004387e-14 -6.2356236e-09 1.3192844e-10 6e-45 -2.3152171e-11 -6e-45 -6e-45
-6e-45 -1.4283449e-09 -6e-45 -6e-45 2.545574e-10 6.4786453e-12 3.047633e-08 3.2192715e-09
-5.2481147e-10 6.173819e-09 -2.3586444e-13 -3.4757724e-11 -1.7100715e-11 9.2816005e-10 -6e-45 -4.946999e-07
-8.2353986e-13 1.5849733e-12 -8.549089e-08 1.617935e-10 -3.4146487e-13 6.421105e-11 -3.719089e-09 3.597208e-10
00000000: 0562 c331 96c8 1ab0 f985 92ac 1548 0b31
00000010: 0400 0080 fab8 892a ff91 3f31 de4f c332
00000020: 26e3 0eaf f21c 742c f63e 622b 7d0b 87ac
00000030: 27d8 e3ab c6a1 a12d c4e8 8eb1 4950 d1ab
00000040: 259f 16b1 8545 d2ad c6b7 9d2b 0400 0080
00000050: 0400 0000 0400 0000 0400 0080 0400 0080
00000060: 0400 0000 0400 0000 198f be2d 0400 0000
00000070: 7e9a 02af 159c bdac 0400 0000 fa5a ceaa
00000080: dc38 149d 2233 61a9 2041 d6b1 8e0e 112f
00000090: 0400 0000 0ea6 cbad 0400 0080 0400 0080
000000a0: 0400 0080 6b4f c4b0 0400 0080 0400 0080
000000b0: c5f1 8b2f 73f2 e32c 14e5 0233 063a 5d31
000000c0: 5342 10b0 7c21 d431 a6c7 84aa b8dd 18ae
000000d0: 636b 96ad 7521 7f30 0400 0080 85cb 04b5
000000e0: 4dce 67ab ae10 df2b 1d97 b7b3 d2e4 312f
000000f0: 463a c0aa 9c33 8d2e e892 7fb1 34c2 c52f

exp_avg_sq f4 [64]
5.56688e-05 0.0001988634 0.00026999216 8.731384e-06 2.7719565e-05 4.3631313e-05 5.8668287e-05 3.1368567e-05
1.7434382e-05 7.534965e-06 1.3686471e-05 0.0002908625 0.00013978095 0.00023449669 2.500644e-05 1.6886275e-05
0.00013995427 2.586665e-05 0.0001196494 2.8536957e-05 0.0001778182 4.304871e-05 0.00012421243 5.1934665e-05
7.588433e-06 0.00022282192 4.5362613e-05 5.662206e-05 0.00011015971 4.5144978e-05 1.5072114e-05 0.00025956993
5.1400984e-05 0.0003615799 0.00019450027 2.0432317e-05 4.924291e-06 1.5154042e-05 5.757775e-05 2.726088e-05
1.012828e-05 0.00013664215 4.32607e-05 0.00020610311 4.441308e-05 4.377187e-05 0.00014497155 0.00015890894
1.3055164e-05 6.5354594e-05 0.00022757764 2.4266506e-05 9.9833276e-05 7.1784234e-05 5.2191157e-05 3.8828206e-05
7.075856e-05 9.4620416e-05 1.586916e-05 8.896288e-06 1.0424719e-05 0.00016473765 4.575843e-05 1.6235683e-05
00000000: eb7d 6938 fd85 5039 bc8d 8d39 027d 1237
00000010: 5087 e837 c400 3738 9812 7638 be91 0338
00000020: 0d40 9237 dbd4 fc36 f29e 6537 e77e 9839
00000030: 2a92 1239 3ae3 7539 ecc4 d137 00a7 8d37
00000040: b0c0 1239 35fc d837 48ec fa38 a662 ef37
00000050: b674 3a39 338f 3438 053f 0239 6cd4 5938
00000060: 25a0 fe36 4ea5 6939 bc43 3e38 797d 6d38
00000070: 8b05 e738 0d5a 3d38 3dde 7c37 e316 8839
00000080: 6397 5738 6f92 bd39 c5f2 4b39 1166 ab37
00000090: 563b a536 1d3e 7e37 a37f 7138 4bae e437
000000a0: a2ec 2937 9947 0f39 d372 3538 621d 5839
000000b0: 2e48 3a38 b097 3738 8103 1839 cba0 2639
000000c0: 8107 5b37 fb0e 8938 e8a1 6e39 ed8f cb37
000000d0: 955d d138 de8a 9638 d4e7 5a38 78db 2238
000000e0: 3664 9438 f36e c638 c31e 8537 4441 1537
000000f0: d4e5 2e37 6dbd 2c39 bdec 3f38 dd31 8837

exp_avg f4 [64]
5.6863905e-09 -5.6309923e-10 -4.1644435e-12 2.0268136e-09 -6e-45 2.4464442e-13 2.7877147e-09 2.2737309e-08
-1.2995524e-10 3.4690553e-12 8.0378775e-13 -3.8382062e-12 -1.6189314e-12 1.8375423e-11 -4.1592063e-09 -1.4872627e-12
-2.1918338e-09 -2.3905105e-11 1.1206527e-12 -6e-45 6e-45 6e-45 -6e-45 -6e-45
6e-45 6e-45 2.1664047e-11 6e-45 -1.1878319e-10 -5.389031e-12 6e-45 -3.6656079e-13
-1.9617033e-21 -5.0004387e-14 -6.2356245e-09 1.3192845e-10 6e-45 -2.3152173e-11 -6e-45 -6e-45
-6e-45 -1.4283449e-09 -6e-45 -6e-45 2.545574e-10 6.4786453e-12 3.0476333e-08 3.2192715e-09
-5.248115e-10 6.1738175e-09 -2.3586444e-13 -3.4757724e-11 -1.7100713e-11 9.2816005e-10 -6e-45 -4.946999e-07
-8.2353975e-13 1.5849733e-12 -8.5490896e-08 1.617935e-10 -3.4146484e-13 6.421105e-11 -3.7190886e-09 3.597208e-10
00000000: 0562 c331 96c8 1ab0 f985 92ac 1548 0b31
00000010: 0400 0080 fab8 892a ff91 3f31 df4f c332
00000020: 26e3 0eaf f21c 742c 033f 622b 7d0b 87ac
00000030: 27d8 e3ab c6a1 a12d c4e8 8eb1 4950 d1ab
00000040: 269f 16b1 8345 d2ad c5b7 9d2b 0400 0080
00000050: 0400 0000 0400 0000 0400 0080 0400 0080
00000060: 0400 0000 0400 0000 198f be2d 0400 0000
00000070: 7f9a 02af 139c bdac 0400 0000 fa5a ceaa
00000080: dc38 149d 2233 61a9 2241 d6b1 8f0e 112f
00000090: 0400 0000 0fa6 cbad 0400 0080 0400 0080
000000a0: 0400 0080 6b4f c4b0 0400 0080 0400 0080
000000b0: c5f1 8b2f 73f2 e32c 15e5 0233 063a 5d31
000000c0: 5442 10b0 7921 d431 a6c7 84aa b8dd 18ae
000000d0: 626b 96ad 7521 7f30 0400 0080 85cb 04b5
000000e0: 4bce 67ab ae10 df2b 1e97 b7b3 d2e4 312f
000000f0: 453a c0aa 9c33 8d2e e692 7fb1 34c2 c52f
